…
        min_aspect_ratio: 0.5
        max_aspect_ratio: 2
      }
      sample_constraint {
        min_jaccard_overlap: 0.9
      }
      max_sample: 1
      max_trials: 50
    }
    batch_sampler {
      sampler {
        min_scale: 0.3
        max_scale: 1
        min_aspect_ratio: 0.5
        max_aspect_ratio: 2
      }
      sample_constraint {
        max_jaccard_overlap: 1
      }
      max_sample: 1
      max_trials: 50
    }
    label_map_file: "/root/mount_out/work2018/cataract_recognition_train_test/detection/diffuse_train_test/labelmap_pupil.prototxt"
  }
}
layer {
  name: "conv1_1"
  type: "Convolution"
  bottom: "data"
  top: "conv1_1"
  param {
    lr_mult: 1
    decay_mult: 1
  }
  param {
    lr_mult: 2
    decay_mult: 0
  }
  convolution_param {
    num_output: 64
    pad: 1
    kernel_size: 3
    weight_filler {
      type: "xavier"
    }
    bias_filler {
      type: "constant"
      value: 0
    }
  }
}
layer {
  name: "relu1_1"
  type: "ReLU"
  bottom: "conv1_1"
  top: "conv1_1"
}
layer {
  name: "conv1_2"
  type: "Convolution"
  bottom: "conv1_1"
  top: "conv1_2"
  param {
    lr_mult: 1
    decay_mult: 1
  }
  param {
    lr_mult: 2
    decay_mult: 0
  }
  convolution_param {
    num_output: 64
    pad: 1
    kernel_size: 3
    weight_filler {
      type: "xavier"
    }
    bias_filler {
      type: "constant"
      value: 0
    }
  }
}
layer {
  name: "relu1_2"
  type: "ReLU"
  bottom: "conv1_2"
  top: "conv1_2"
}
layer {
  name: "pool1"
  type: "Pooling"
  bottom: "conv1_2"
  top: "pool1"
  pooling_param {
    pool: MAX
    kernel_size: 2
    stride: 2
  }
}
layer {
  name: "conv2_1"
  type: "Convolution"
  bottom: "pool1"
  top: "conv2_1"
  param {
    lr_mult: 1
    decay_mult: 1
  }
  param {
    lr_mult: 2
    decay_mult: 0
  }
  convolution_param {
    num_output: 128
    pad: 1
    kernel_size: 3
    weight_filler {
      type: "xavier"
    }
    bias_filler {
      type: "constant"
      value: 0
    }
  }
}
layer {
  name: "relu2_1"
  type: "ReLU"
  bottom: "conv2_1"
  top: "conv2_1"
}
layer {
  name: "conv2_2"
  type: "Convolution"
  bottom: "conv2_1"
  top: "conv2_2"
  param {
    lr_mult: 1
    decay_mult: 1
  }
  param {
    lr_mult: 2
    decay_mult: 0
  }
  convolution_param {
    num_output: 128
    pad: 1
    kernel_size: 3
    weight_filler {
      type: "xavier"
    }
    bias_filler {
      type: "constant"
      value: 0
    }
  }
}
layer {
  name: "relu2_2"
  type: "ReLU"
  bottom: "conv2_2"
  top: "conv2_2"
}
layer {
  name: "pool2"
  type: "Pooling"
  bottom: "conv2_2"
  top: "pool2"
  pooling_param {
    pool: MAX
    kernel_size: 2
    stride: 2
  }
}
layer {
  name: "conv3_1"
  type: "Convolution"
  bottom: "pool2"
  top: "conv3_1"
  param {
    lr_mult: 1
    decay_mult: 1
  }
  param {
    lr_mult: 2
    decay_mult: 0
  }
  convolution_param {
    num_output: 256
    pad: 1
    kernel_size: 3
    weight_filler {
      type: "xavier"
    }
    bias_filler {
      type: "constant"
      value: 0
    }
  }
}
layer {
  name: "relu3_1"
  type: "ReLU"
  bottom: "conv3_1"
  top: "conv3_1"
}
layer {
  name: "conv3_2"
  type: "Convolution"
  bottom: "conv3_1"
  top: "conv3_2"
  param {
    lr_mult: 1
    decay_mult: 1
  }
  param {
    lr_mult: 2
    decay_mult: 0
  }
  convolution_param {
    num_output: 256
    pad: 1
    kernel_size: 3
    weight_filler {
      type: "xavier"
    }
    bias_filler {
      type: "constant"
      value: 0
    }
  }
}
layer {
  name: "relu3_2"
  type: "ReLU"
  bottom: "conv3_2"
  top: "conv3_2"
}
layer {
  name: "conv3_3"
  type: "Convolution"
  bottom: "conv3_2"
  top: "conv3_3"
  param {
    lr_mult: 1
    decay_mult: 1
  }
  param {
    lr_mult: 2
    decay_mult: 0
  }
  convolution_param {
    num_output: 256
    pad: 1
    kernel_size: 3
    weight_filler {
      type: "xavier"
    }
    bias_filler {
      type: "constant"
      value: 0
    }
  }
}
layer {
  name: "relu3_3"
  type: "ReLU"
  bottom: "conv3_3"
  top: "conv3_3"
}
layer {
  name: "pool3"
  type: "Pooling"
  bottom: "conv3_3"
  top: "pool3"
  pooling_param {
    pool: MAX
    kernel_size: 2
    stride: 2
  }
}
layer {
  name: "conv4_1"
  type: "Convolution"
  bottom: "pool3"
  top: "conv4_1"
  param {
    lr_mult: 1
    decay_mult: 1
  }
  param {
    lr_mult: 2
    decay_mult: 0
  }
  convolution_param {
    num_output: 512
    pad: 1
    kernel_size: 3
    weight_filler {
      type: "xavier"
    }
    bias_filler {
      type: "constant"
      value: 0
    }
  }
}
layer {
  name: "relu4_1"
  type: "ReLU"
  bottom: "conv4_1"
  top: "conv4_1"
}
layer {
  name: "conv4_2"
  type: "Convolution"
  bottom: "conv4_1"
  top: "conv4_2"
  param {
    lr_mult: 1
    decay_mult: 1
  }
  param {
    lr_mult: 2
    decay_mult: 0
  }
  convolution_param {
    num_output: 512
    pad: 1
    kernel_size: 3
    weight_filler {
      type: "xavier"
    }
    bias_filler {
      type: "constant"
      value: 0
    }
  }
}
layer {
  name: "relu4_2"
  type: "ReLU"
  bottom: "conv4_2"
  top: "conv4_2"
}
layer {
  name: "conv4_3"
  type: "Convolution"
  bottom: "conv4_2"
  top: "conv4_3"
  param {
    lr_mult: 1
    decay_mult: 1
  }
  param {
    lr_mult: 2
    decay_mult: 0
  }
  convolution_param {
    num_output: 512
    pad: 1
    kernel_size: 3
    weight_filler {
      type: "xavier"
    }
    bias_filler {
      type: "constant"
      value: 0
    }
  }
}
layer {
  name: "relu4_3"
  type: "ReLU"
  bottom: "conv4_3"
  top: "conv4_3"
}
layer {
  name: "pool4"
  type: "Pooling"
  bottom: "conv4_3"
  top: "pool4"
  pooling_param {
    pool: MAX
    kernel_size: 2
    stride: 2
  }
}
layer {
  name: "conv5_1"
  type: "Convolution"
  bottom: "pool4"
  top: "conv5_1"
  param {
    lr_mult: 1
    decay_mult: 1
  }
  param {
    lr_mult: 2
    decay_mult: 0
  }
  convolution_param {
    num_output: 512
    pad: 1
    kernel_size: 3
    weight_filler {
      type: "xavier"
    }
    bias_filler {
      type: "constant"
      value: 0
    }
    dilation: 1
  }
}
layer {
  name: "relu5_1"
  type: "ReLU"
  bottom: "conv5_1"
  top: "conv5_1"
}
layer {
  name: "conv5_2"
  type: "Convolution"
  bottom: "conv5_1"
  top: "conv5_2"
  param {
    lr_mult: 1
    decay_mult: 1
  }
  param {
    lr_mult: 2
    decay_mult: 0
  }
  convolution_param {
    num_output: 512
    pad: 1
    kernel_size: 3
    weight_filler {
      type: "xavier"
    }
    bias_filler {
      type: "constant"
      value: 0
    }
    dilation: 1
  }
}
layer {
  name: "relu5_2"
  type: "ReLU"
  bottom: "conv5_2"
  top: "conv5_2"
}
layer {
  name: "conv5_3"
  type: "Convolution"
  bottom: "conv5_2"
  top: "conv5_3"
  param {
    lr_mult: 1
    decay_mult: 1
  }
  param {
    lr_mult: 2
    decay_mult: 0
  }
  convolution_param {
    num_output: 512
    pad: 1
    kernel_size: 3
    weight_filler {
      type: "xavier"
    }
    bias_filler {
      type: "constant"
      value: 0
    }
    dilation: 1
  }
}
layer {
  name: "relu5_3"
  type: "ReLU"
  bottom: "conv5_3"
  top: "conv5_3"
}
layer {
  name: "pool5"
  type: "Pooling"
  bottom: "conv5_3"
  top: "pool5"
  pooling_param {
    pool: MAX
    kernel_size: 3
    stride: 1
    pad: 1
  }
}
layer {
  name: "fc6"
  type: "Convolution"
  bottom: "pool5"
  top: "fc6"
  param {
    lr_mult: 1
    decay_mult: 1
  }
  param {
    lr_mult: 2
    decay_mult: 0
  }
  convolution_param {
    num_output: 1024
    pad: 6
    kernel_size: 3
    weight_filler {
      type: "xavier"
    }
    bias_filler {
      type: "constant"
      value: 0
    }
    dilation: 6
  }
}
layer {
  name: "relu6"
  type: "ReLU"
  bottom: "fc6"
  top: "fc6"
}
layer {
  name: "fc7"
  type: "Convolution"
  bottom: "fc6"
  top: "fc7"
  param {
    lr_mult: 1
    decay_mult: 1
  }
  param {
    lr_mult: 2
    decay_mult: 0
  }
  convolution_param {
    num_output: 1024
    kernel_size: 1
    weight_filler {
      type: "xavier"
    }
    bias_filler {
      type: "constant"
      value: 0
    }
  }
}
layer {
  name: "relu7"
  type: "ReLU"
  bottom: "fc7"
  top: "fc7"
}
layer {
  name: "conv6_1"
  type: "Convolution"
  bottom: "fc7"
  top: "conv6_1"
  param {
    lr_mult: 1
    decay_mult: 1
  }
  param {
    lr_mult: 2
    decay_mult: 0
  }
  convolution_param {
    num_output: 256
    pad: 0
    kernel_size: 1
    stride: 1
    weight_filler {
      type: "xavier"
    }
    bias_filler {
      type: "constant"
      value: 0
    }
  }
}
layer {
  name: "conv6_1_relu"
  type: "ReLU"
  bottom: "conv6_1"
  top: "conv6_1"
}
layer {
  name: "conv6_2"
  type: "Convolution"
  bottom: "conv6_1"
  top: "conv6_2"
  param {
    lr_mult: 1
    decay_mult: 1
  }
  param {
    lr_mult: 2
    decay_mult: 0
  }
  convolution_param {
    num_output: 512
    pad: 1
    kernel_size: 3
    stride: 2
    weight_filler {
      type: "xavier"
    }
    bias_filler {
      type: "constant"
      value: 0
    }
  }
}
layer {
  name: "conv6_2_relu"
  type: "ReLU"
  bottom: "conv6_2"
  top: "conv6_2"
}
layer {
  name: "conv7_1"
  type: "Convolution"
  bottom: "conv6_2"
  top: "conv7_1"
  param {
    lr_mult: 1
    decay_mult: 1
  }
  param {
    lr_mult: 2
    decay_mult: 0
  }
  convolution_param {
    num_output: 128
    pad: 0
    kernel_size: 1
    stride: 1
    weight_filler {
      type: "xavier"
    }
    bias_filler {
      type: "constant"
      value: 0
    }
  }
}
layer {
  name: "conv7_1_relu"
  type: "ReLU"
  bottom: "conv7_1"
  top: "conv7_1"
}
layer {
  name: "conv7_2"
  type: "Convolution"
  bottom: "conv7_1"
  top: "conv7_2"
  param {
    lr_mult: 1
    decay_mult: 1
  }
  param {
    lr_mult: 2
    decay_mult: 0
  }
  convolution_param {
    num_output: 256
    pad: 1
    kernel_size: 3
    stride: 2
    weight_filler {
      type: "xavier"
    }
    bias_filler {
      type: "constant"
      value: 0
    }
  }
}
layer {
  name: "conv7_2_relu"
  type: "ReLU"
  bottom: "conv7_2"
  top: "conv7_2"
}
layer {
  name: "conv8_1"
  type: "Convolution"
  bottom: "conv7_2"
  top: "conv8_1"
  param {
    lr_mult: 1
    decay_mult: 1
  }
  param {
    lr_mult: 2
    decay_mult: 0
  }
  convolution_param {
    num_output: 128
    pad: 0
    kernel_size: 1
    stride: 1
    weight_filler {
      type: "xavier"
    }
    bias_filler {
      type: "constant"
      value: 0
    }
  }
}
layer {
  name: "conv8_1_relu"
  type: "ReLU"
  bottom: "conv8_1"
  top: "conv8_1"
}
layer {
  name: "conv8_2"
  type: "Convolution"
  bottom: "conv8_1"
  top: "conv8_2"
  param {
    lr_mult: 1
    decay_mult: 1
  }
  param {
    lr_mult: 2
    decay_mult: 0
  }
  convolution_param {
    num_output: 256
    pad: 0
    kernel_size: 3
    stride: 1
    weight_filler {
      type: "xavier"
    }
    bias_filler {
      type: "constant"
      value: 0
    }
  }
}
layer {
  name: "conv8_2_relu"
  type: "ReLU"
  bottom: "conv8_2"
  top: "conv8_2"
}
layer {
  name: "conv9_1"
  type: "Convolution"
  bottom: "conv8_2"
  top: "conv9_1"
  param {
    lr_mult: 1
    decay_mult: 1
  }
  param {
    lr_mult: 2
    decay_mult: 0
  }
  convolution_param {
    num_output: 128
    pad: 0
    kernel_size: 1
    stride: 1
    weight_filler {
      type: "xavier"
    }
    bias_filler {
      type: "constant"
      value: 0
    }
  }
}
layer {
  name: "conv9_1_relu"
  type: "ReLU"
  bottom: "conv9_1"
  top: "conv9_1"
}
layer {
  name: "conv9_2"
  type: "Convolution"
  bottom: "conv9_1"
  top: "conv9_2"
  param {
    lr_mult: 1
    decay_mult: 1
  }
  param {
    lr_mult: 2
    decay_mult: 0
  }
  convolution_param {
    num_output: 256
    pad: 0
    kernel_size: 3
    stride: 1
    weight_filler {
      type: "xavier"
    }
    bias_filler {
      type: "constant"
      value: 0
    }
  }
}
layer {
  name: "conv9_2_relu"
  type: "ReLU"
  bottom: "conv9_2"
  top: "conv9_2"
}
layer {
  name: "conv4_3_norm"
  type: "Normalize"
  bottom: "conv4_3"
  top: "conv4_3_norm"
  norm_param {
    across_spatial: false
    scale_filler {
      type: "constant"
      value: 20
    }
    channel_shared: false
  }
}
layer {
  name: "conv4_3_norm_mbox_loc"
  type: "Convolution"
  bottom: "conv4_3_norm"
  top: "conv4_3_norm_mbox_loc"
  param {
    lr_mult: 1
    decay_mult: 1
  }
  param {
    lr_mult: 2
    decay_mult: 0
  }
  convolution_param {
    num_output: 16
    pad: 1
    kernel_size: 3
    stride: 1
    weight_filler {
      type: "xavier"
    }
    bias_filler {
      type: "constant"
      value: 0
    }
  }
}
layer {
  name: "conv4_3_norm_mbox_loc_perm"
  type: "Permute"
  bottom: "conv4_3_norm_mbox_loc"
  top: "conv4_3_norm_mbox_loc_perm"
  permute_param {
    order: 0
    order: 2
    order: 3
    order: 1
  }
}
layer {
  name: "conv4_3_norm_mbox_loc_flat"
  type: "Flatten"
  bottom: "conv4_3_norm_mbox_loc_perm"
  top: "conv4_3_norm_mbox_loc_flat"
  flatten_param {
    axis: 1
  }
}
layer {
  name: "conv4_3_norm_mbox_conf"
  type: "Convolution"
  bottom: "conv4_3_norm"
  top: "conv4_3_norm_mbox_conf"
  param {
    lr_mult: 1
    decay_mult: 1
  }
  param {
    lr_mult: 2
    decay_mult: 0
  }
  convolution_param {
    num_output: 8
    pad: 1
    kernel_size: 3
    stride: 1
    weight_filler {
      type: "xavier"
    }
    bias_filler {
      type: "constant"
      value: 0
    }
  }
}
layer {
  name: "conv4_3_norm_mbox_conf_perm"
  type: "Permute"
  bottom: "conv4_3_norm_mbox_conf"
  top: "conv4_3_norm_mbox_conf_perm"
  permute_param {
    order: 0
    order: 2
    order: 3
    order: 1
  }
}
layer {
  name: "conv4_3_norm_mbox_conf_flat"
  type: "Flatten"
  bottom: "conv4_3_norm_mbox_conf_perm"
  top: "conv4_3_norm_mbox_conf_flat"
  flatten_param {
    axis: 1
  }
}
layer {
  name: "conv4_3_norm_mbox_priorbox"
  type: "PriorBox"
  bottom: "conv4_3_norm"
  bottom: "data"
  top: "conv4_3_norm_mbox_priorbox"
  prior_box_param {
    min_size: 50
    max_size: 100
    aspect_ratio: 2
    flip: true
    clip: false
    variance: 0.1
    variance: 0.1
    variance: 0.2
    variance: 0.2
    step: 8
    offset: 0.5
  }
}
layer {
  name: "fc7_mbox_loc"
  type: "Convolution"
  bottom: "fc7"
  top: "fc7_mbox_loc"
  param {
    lr_mult: 1
    decay_mult: 1
  }
  param {
    lr_mult: 2
    decay_mult: 0
  }
  convolution_param {
    num_output: 24
    pad: 1
    kernel_size: 3
    stride: 1
    weight_filler {
      type: "xavier"
    }
    bias_filler {
      type: "constant"
      value: 0
    }
  }
}
layer {
  name: "fc7_mbox_loc_perm"
  type: "Permute"
  bottom: "fc7_mbox_loc"
  top: "fc7_mbox_loc_perm"
  permute_param {
    order: 0
    order: 2
    order: 3
    order: 1
  }
}
layer {
  name: "fc7_mbox_loc_flat"
  type: "Flatten"
  bottom: "fc7_mbox_loc_perm"
  top: "fc7_mbox_loc_flat"
  flatten_param {
    axis: 1
  }
}
layer {
  name: "fc7_mbox_conf"
  type: "Convolution"
  bottom: "fc7"
  top: "fc7_mbox_conf"
  param {
    lr_mult: 1
    decay_mult: 1
  }
  param {
    lr_mult: 2
    decay_mult: 0
  }
  convolution_param {
    num_output: 12
    pad: 1
    kernel_size: 3
    stride: 1
    weight_filler {
      type: "xavier"
    }
    bias_filler {
      type: "constant"
      value: 0
    }
  }
}
layer {
  name: "fc7_mbox_conf_perm"
  type: "Permute"
  bottom: "fc7_mbox_conf"
  top: "fc7_mbox_conf_perm"
  permute_param {
    order: 0
    order: 2
    order: 3
    order: 1
  }
}
layer {
  name: "fc7_mbox_conf_flat"
  type: "Flatten"
  bottom: "fc7_mbox_conf_perm"
  top: "fc7_mbox_conf_flat"
  flatten_param {
    axis: 1
  }
}
layer {
  name: "fc7_mbox_priorbox"
  type: "PriorBox"
  bottom: "fc7"
  bottom: "data"
  top: "fc7_mbox_priorbox"
  prior_box_param {
    min_size: 100
    max_size: 185
    aspect_ratio: 2
    aspect_ratio: 3
    flip: true
    clip: false
    variance: 0.1
    variance: 0.1
    variance: 0.2
    variance: 0.2
    step: 16
    offset: 0.5
  }
}
layer {
  name: "conv6_2_mbox_loc"
  type: "Convolution"
  bottom: "conv6_2"
  top: "conv6_2_mbox_loc"
  param {
    lr_mult: 1
    decay_mult: 1
  }
  param {
    lr_mult: 2
    decay_mult: 0
  }
  convolution_param {
    num_output: 24
    pad: 1
    kernel_size: 3
    stride: 1
    weight_filler {
      type: "xavier"
    }
    bias_filler {
      type: "constant"
      value: 0
    }
  }
}
layer {
  name: "conv6_2_mbox_loc_perm"
  type: "Permute"
  bottom: "conv6_2_mbox_loc"
  top: "conv6_2_mbox_loc_perm"
  permute_param {
    order: 0
    order: 2
    order: 3
    order: 1
  }
}
layer {
  name: "conv6_2_mbox_loc_flat"
  type: "Flatten"
  bottom: "conv6_2_mbox_loc_perm"
  top: "conv6_2_mbox_loc_flat"
  flatten_param {
    axis: 1
  }
}
layer {
  name: "conv6_2_mbox_conf"
  type: "Convolution"
  bottom: "conv6_2"
  top: "conv6_2_mbox_conf"
  param {
    lr_mult: 1
    decay_mult: 1
  }
  param {
    lr_mult: 2
    decay_mult: 0
  }
  convolution_param {
    num_output: 12
    pad: 1
    kernel_size: 3
    stride: 1
    weight_filler {
      type: "xavier"
    }
    bias_filler {
      type: "constant"
      value: 0
    }
  }
}
layer {
  name: "conv6_2_mbox_conf_perm"
  type: "Permute"
  bottom: "conv6_2_mbox_conf"
  top: "conv6_2_mbox_conf_perm"
  permute_param {
    order: 0
    order: 2
    order: 3
    order: 1
  }
}
layer {
  name: "conv6_2_mbox_conf_flat"
  type: "Flatten"
  bottom: "conv6_2_mbox_conf_perm"
  top: "conv6_2_mbox_conf_flat"
  flatten_param {
    axis: 1
  }
}
layer {
  name: "conv6_2_mbox_priorbox"
  type: "PriorBox"
  bottom: "conv6_2"
  bottom: "data"
  top: "conv6_2_mbox_priorbox"
  prior_box_param {
    min_size: 185
    max_size: 270
    aspect_ratio: 2
    aspect_ratio: 3
    flip: true
    clip: false
    variance: 0.1
    variance: 0.1
    variance: 0.2
    variance: 0.2
    step: 32
    offset: 0.5
  }
}
layer {
  name: "conv7_2_mbox_loc"
  type: "Convolution"
  bottom: "conv7_2"
  top: "conv7_2_mbox_loc"
  param {
    lr_mult: 1
    decay_mult: 1
  }
  param {
    lr_mult: 2
    decay_mult: 0
  }
  convolution_param {
    num_output: 24
    pad: 1
    kernel_size: 3
    stride: 1
    weight_filler {
      type: "xavier"
    }
    bias_filler {
      type: "constant"
      value: 0
    }
  }
}
layer {
  name: "conv7_2_mbox_loc_perm"
  type: "Permute"
  bottom: "conv7_2_mbox_loc"
  top: "conv7_2_mbox_loc_perm"
  permute_param {
    order: 0
    order: 2
    order: 3
    order: 1
  }
}
layer {
  name: "conv7_2_mbox_loc_flat"
  type: "Flatten"
  bottom: "conv7_2_mbox_loc_perm"
  top: "conv7_2_mbox_loc_flat"
  flatten_param {
    axis: 1
  }
}
layer {
  name: "conv7_2_mbox_conf"
  type: "Convolution"
  bottom: "conv7_2"
  top: "conv7_2_mbox_conf"
  param {
    lr_mult: 1
    decay_mult: 1
  }
  param {
    lr_mult: 2
    decay_mult: 0
  }
  convolution_param {
    num_output: 12
    pad: 1
    kernel_size: 3
    stride: 1
    weight_filler {
      type: "xavier"
    }
    bias_filler {
      type: "constant"
      value: 0
    }
  }
}
layer {
  name: "conv7_2_mbox_conf_perm"
  type: "Permute"
  bottom: "conv7_2_mbox_conf"
  top: "conv7_2_mbox_conf_perm"
  permute_param {
    order: 0
    order: 2
    order: 3
    order: 1
  }
}
layer {
  name: "conv7_2_mbox_conf_flat"
  type: "Flatten"
  bottom: "conv7_2_mbox_conf_perm"
  top: "conv7_2_mbox_conf_flat"
  flatten_param {
    axis: 1
  }
}
layer {
  name: "conv7_2_mbox_priorbox"
  type: "PriorBox"
  bottom: "conv7_2"
  bottom: "data"
  top: "conv7_2_mbox_priorbox"
  prior_box_param {
    min_size: 270
    max_size: 355
    aspect_ratio: 2
    aspect_ratio: 3
    flip: true
    clip: false
    variance: 0.1
    variance: 0.1
    variance: 0.2
    variance: 0.2
    step: 64
    offset: 0.5
  }
}
layer {
  name: "conv8_2_mbox_loc"
  type: "Convolution"
  bottom: "conv8_2"
  top: "conv8_2_mbox_loc"
  param {
    lr_mult: 1
    decay_mult: 1
  }
  param {
    lr_mult: 2
    decay_mult: 0
  }
  convolution_param {
    num_output: 16
    pad: 1
    kernel_size: 3
    stride: 1
    weight_filler {
      type: "xavier"
    }
    bias_filler {
      type: "constant"
      value: 0
    }
  }
}
layer {
  name: "conv8_2_mbox_loc_perm"
  type: "Permute"
  bottom: "conv8_2_mbox_loc"
  top: "conv8_2_mbox_loc_perm"
  permute_param {
    order: 0
    order: 2
    order: 3
    order: 1
  }
}
layer {
  name: "conv8_2_mbox_loc_flat"
  type: "Flatten"
  bottom: "conv8_2_mbox_loc_perm"
  top: "conv8_2_mbox_loc_flat"
  flatten_param {
    axis: 1
  }
}
layer {
  name: "conv8_2_mbox_conf"
  type: "Convolution"
  bottom: "conv8_2"
  top: "conv8_2_mbox_conf"
  param {
    lr_mult: 1
    decay_mult: 1
  }
  param {
    lr_mult: 2
    decay_mult: 0
  }
  convolution_param {
    num_output: 8
    pad: 1
    kernel_size: 3
    stride: 1
    weight_filler {
      type: "xavier"
    }
    bias_filler {
      type: "constant"
      value: 0
    }
  }
}
layer {
  name: "conv8_2_mbox_conf_perm"
  type: "Permute"
  bottom: "conv8_2_mbox_conf"
  top: "conv8_2_mbox_conf_perm"
  permute_param {
    order: 0
    order: 2
    order: 3
    order: 1
  }
}
layer {
  name: "conv8_2_mbox_conf_flat"
  type: "Flatten"
  bottom: "conv8_2_mbox_conf_perm"
  top: "conv8_2_mbox_conf_flat"
  flatten_param {
    axis: 1
  }
}
layer {
  name: "conv8_2_mbox_priorbox"
  type: "PriorBox"
  bottom: "conv8_2"
  bottom: "data"
  top: "conv8_2_mbox_priorbox"
  prior_box_param {
    min_size: 355
    max_size: 440
    aspect_ratio: 2
    flip: true
    clip: false
    variance: 0.1
    variance: 0.1
    variance: 0.2
    variance: 0.2
    step: 100
    offset: 0.5
  }
}
layer {
  name: "conv9_2_mbox_loc"
  type: "Convolution"
  bottom: "conv9_2"
  top: "conv9_2_mbox_loc"
  param {
    lr_mult: 1
    decay_mult: 1
  }
  param {
    lr_mult: 2
    decay_mult: 0
  }
  convolution_param {
    num_output: 16
    pad: 1
    kernel_size: 3
    stride: 1
    weight_filler {
      type: "xavier"
    }
    bias_filler {
      type: "constant"
      value: 0
    }
  }
}
layer {
  name: "conv9_2_mbox_loc_perm"
  type: "Permute"
  bottom: "conv9_2_mbox_loc"
  top: "conv9_2_mbox_loc_perm"
  permute_param {
    order: 0
    order: 2
    order: 3
    order: 1
  }
}
layer {
  name: "conv9_2_mbox_loc_flat"
  type: "Flatten"
  bottom: "conv9_2_mbox_loc_perm"
  top: "conv9_2_mbox_loc_flat"
  flatten_param {
    axis: 1
  }
}
layer {
  name: "conv9_2_mbox_conf"
  type: "Convolution"
  bottom: "conv9_2"
  top: "conv9_2_mbox_conf"
  param {
    lr_mult: 1
    decay_mult: 1
  }
  param {
    lr_mult: 2
    decay_mult: 0
  }
  convolution_param {
    num_output: 8
    pad: 1
    kernel_size: 3
    stride: 1
    weight_filler {
      type: "xavier"
    }
    bias_filler {
      type: "constant"
      value: 0
    }
  }
}
layer {
  name: "conv9_2_mbox_conf_perm"
  type: "Permute"
  bottom: "conv9_2_mbox_conf"
  top: "conv9_2_mbox_conf_perm"
  permute_param {
    order: 0
    order: 2
    order: 3
    order: 1
  }
}
layer {
  name: "conv9_2_mbox_conf_flat"
  type: "Flatten"
  bottom: "conv9_2_mbox_conf_perm"
  top: "conv9_2_mbox_conf_flat"
  flatten_param {
    axis: 1
  }
}
layer {
  name: "conv9_2_mbox_priorbox"
  type: "PriorBox"
  bottom: "conv9_2"
  bottom: "data"
  top: "conv9_2_mbox_priorbox"
  prior_box_param {
    min_size: 440
    max_size: 525
    aspect_ratio: 2
    flip: true
    clip: false
    variance: 0.1
    variance: 0.1
    variance: 0.2
    variance: 0.2
    step: 300
    offset: 0.5
  }
}
layer {
  name: "mbox_loc"
  type: "Concat"
  bottom: "conv4_3_norm_mbox_loc_flat"
  bottom: "fc7_mbox_loc_flat"
  bottom: "conv6_2_mbox_loc_flat"
  bottom: "conv7_2_mbox_loc_flat"
  bottom: "conv8_2_mbox_loc_flat"
  bottom: "conv9_2_mbox_loc_flat"
  top: "mbox_loc"
  concat_param {
    axis: 1
  }
}
layer {
  name: "mbox_conf"
  type: "Concat"
  bottom: "conv4_3_norm_mbox_conf_flat"
  bottom: "fc7_mbox_conf_flat"
  bottom: "conv6_2_mbox_conf_flat"
  bottom: "conv7_2_mbox_conf_flat"
  bottom: "conv8_2_mbox_conf_flat"
  bottom: "conv9_2_mbox_conf_flat"
  top: "mbox_conf"
  concat_param {
    axis: 1
  }
}
layer {
  name: "mbox_priorbox"
  type: "Concat"
  bottom: "conv4_3_norm_mbox_priorbox"
  bottom: "fc7_mbox_priorbox"
  bottom: "conv6_2_mbox_priorbox"
  bottom: "conv7_2_mbox_priorbox"
  bottom: "conv8_2_mbox_priorbox"
  bottom: "conv9_2_mbox_priorbox"
  top: "mbox_priorbox"
  concat_param {
    axis: 2
  }
}
layer {
  name: "mbox_loss"
  type: "MultiBoxLoss"
  bottom: "mbox_loc"
  bottom: "mbox_conf"
  bottom: "mbox_priorbox"
  bottom: "label"
  top: "mbox_loss"
  include {
    phase: TRAIN
  }
  propagate_down: true
  propagate_down: true
  propagate_down: false
  propagate_down: false
  loss_param {
    normalization: VALID
  }
  multibox_loss_param {
    loc_loss_type: SMOOTH_L1
    conf_loss_type: SOFTMAX
    loc_weight: 1
    num_classes: 2
    share_location: true
    match_type: PER_PREDICTION
    overlap_threshold: 0.5
    use_prior_for_matching: true
    background_label_id: 0
    use_difficult_gt: true
    neg_pos_ratio: 3
    neg_overlap: 0.5
    code_type: CENTER_SIZE
    ignore_cross_boundary_bbox: false
    mining_type: MAX_NEGATIVE
  }
}
I1217 07:24:17.229357   479 layer_factory.hpp:77] Creating layer data
I1217 07:24:17.229715   479 net.cpp:100] Creating Layer data
I1217 07:24:17.229727   479 net.cpp:408] data -> data
I1217 07:24:17.229760   479 net.cpp:408] data -> label
I1217 07:24:17.242985   485 db_lmdb.cpp:35] Opened lmdb /root/mount_out/work2018/cataract_recognition_train_test/detection/diffuse_train_test/diffuse_train_lmdb
I1217 07:24:17.259752   479 annotated_data_layer.cpp:62] output data size: 8,3,500,500
I1217 07:24:17.289834   479 net.cpp:150] Setting up data
I1217 07:24:17.289867   479 net.cpp:157] Top shape: 8 3 500 500 (6000000)
I1217 07:24:17.289873   479 net.cpp:157] Top shape: 1 1 1 8 (8)
I1217 07:24:17.289877   479 net.cpp:165] Memory required for data: 24000032
I1217 07:24:17.289888   479 layer_factory.hpp:77] Creating layer data_data_0_split
I1217 07:24:17.289913   479 net.cpp:100] Creating Layer data_data_0_split
I1217 07:24:17.289921   479 net.cpp:434] data_data_0_split <- data
I1217 07:24:17.289932   479 net.cpp:408] data_data_0_split -> data_data_0_split_0
I1217 07:24:17.289943   479 net.cpp:408] data_data_0_split -> data_data_0_split_1
I1217 07:24:17.289950   479 net.cpp:408] data_data_0_split -> data_data_0_split_2
I1217 07:24:17.289959   479 net.cpp:408] data_data_0_split -> data_data_0_split_3
I1217 07:24:17.289965   479 net.cpp:408] data_data_0_split -> data_data_0_split_4
I1217 07:24:17.289971   479 net.cpp:408] data_data_0_split -> data_data_0_split_5
I1217 07:24:17.289981   479 net.cpp:408] data_data_0_split -> data_data_0_split_6
I1217 07:24:17.290053   479 net.cpp:150] Setting up data_data_0_split
I1217 07:24:17.290060   479 net.cpp:157] Top shape: 8 3 500 500 (6000000)
I1217 07:24:17.290064   479 net.cpp:157] Top shape: 8 3 500 500 (6000000)
I1217 07:24:17.290068   479 net.cpp:157] Top shape: 8 3 500 500 (6000000)
I1217 07:24:17.290074   479 net.cpp:157] Top shape: 8 3 500 500 (6000000)
I1217 07:24:17.290078   479 net.cpp:157] Top shape: 8 3 500 500 (6000000)
I1217 07:24:17.290084   479 net.cpp:157] Top shape: 8 3 500 500 (6000000)
I1217 07:24:17.290088   479 net.cpp:157] Top shape: 8 3 500 500 (6000000)
I1217 07:24:17.290093   479 net.cpp:165] Memory required for data: 192000032
I1217 07:24:17.290098   479 layer_factory.hpp:77] Creating layer conv1_1
I1217 07:24:17.290114   479 net.cpp:100] Creating Layer conv1_1
I1217 07:24:17.290119   479 net.cpp:434] conv1_1 <- data_data_0_split_0
I1217 07:24:17.290127   479 net.cpp:408] conv1_1 -> conv1_1
I1217 07:24:17.642091   479 net.cpp:150] Setting up conv1_1
I1217 07:24:17.642136   479 net.cpp:157] Top shape: 8 64 500 500 (128000000)
I1217 07:24:17.642156   479 net.cpp:165] Memory required for data: 704000032
I1217 07:24:17.642186   479 layer_factory.hpp:77] Creating layer relu1_1
I1217 07:24:17.642210   479 net.cpp:100] Creating Layer relu1_1
I1217 07:24:17.642225   479 net.cpp:434] relu1_1 <- conv1_1
I1217 07:24:17.642243   479 net.cpp:395] relu1_1 -> conv1_1 (in-place)
I1217 07:24:17.642478   479 net.cpp:150] Setting up relu1_1
I1217 07:24:17.642501   479 net.cpp:157] Top shape: 8 64 500 500 (128000000)
I1217 07:24:17.642516   479 net.cpp:165] Memory required for data: 1216000032
I1217 07:24:17.642532   479 layer_factory.hpp:77] Creating layer conv1_2
I1217 07:24:17.642557   479 net.cpp:100] Creating Layer conv1_2
I1217 07:24:17.642573   479 net.cpp:434] conv1_2 <- conv1_1
I1217 07:24:17.642592   479 net.cpp:408] conv1_2 -> conv1_2
I1217 07:24:17.645999   479 net.cpp:150] Setting up conv1_2
I1217 07:24:17.646013   479 net.cpp:157] Top shape: 8 64 500 500 (128000000)
I1217 07:24:17.646018   479 net.cpp:165] Memory required for data: 1728000032
I1217 07:24:17.646029   479 layer_factory.hpp:77] Creating layer relu1_2
I1217 07:24:17.646039   479 net.cpp:100] Creating Layer relu1_2
I1217 07:24:17.646045   479 net.cpp:434] relu1_2 <- conv1_2
I1217 07:24:17.646054   479 net.cpp:395] relu1_2 -> conv1_2 (in-place)
I1217 07:24:17.646183   479 net.cpp:150] Setting up relu1_2
I1217 07:24:17.646191   479 net.cpp:157] Top shape: 8 64 500 500 (128000000)
I1217 07:24:17.646198   479 net.cpp:165] Memory required for data: 2240000032
I1217 07:24:17.646203   479 layer_factory.hpp:77] Creating layer pool1
I1217 07:24:17.646211   479 net.cpp:100] Creating Layer pool1
I1217 07:24:17.646234   479 net.cpp:434] pool1 <- conv1_2
I1217 07:24:17.646242   479 net.cpp:408] pool1 -> pool1
I1217 07:24:17.646286   479 net.cpp:150] Setting up pool1
I1217 07:24:17.646293   479 net.cpp:157] Top shape: 8 64 250 250 (32000000)
I1217 07:24:17.646299   479 net.cpp:165] Memory required for data: 2368000032
I1217 07:24:17.646306   479 layer_factory.hpp:77] Creating layer conv2_1
I1217 07:24:17.646315   479 net.cpp:100] Creating Layer conv2_1
I1217 07:24:17.646322   479 net.cpp:434] conv2_1 <- pool1
I1217 07:24:17.646329   479 net.cpp:408] conv2_1 -> conv2_1
I1217 07:24:17.648289   479 net.cpp:150] Setting up conv2_1
I1217 07:24:17.648301   479 net.cpp:157] Top shape: 8 128 250 250 (64000000)
I1217 07:24:17.648306   479 net.cpp:165] Memory required for data: 2624000032
I1217 07:24:17.648319   479 layer_factory.hpp:77] Creating layer relu2_1
I1217 07:24:17.648329   479 net.cpp:100] Creating Layer relu2_1
I1217 07:24:17.648334   479 net.cpp:434] relu2_1 <- conv2_1
I1217 07:24:17.648342   479 net.cpp:395] relu2_1 -> conv2_1 (in-place)
I1217 07:24:17.648751   479 net.cpp:150] Setting up relu2_1
I1217 07:24:17.648762   479 net.cpp:157] Top shape: 8 128 250 250 (64000000)
I1217 07:24:17.648767   479 net.cpp:165] Memory required for data: 2880000032
I1217 07:24:17.648774   479 layer_factory.hpp:77] Creating layer conv2_2
I1217 07:24:17.648785   479 net.cpp:100] Creating Layer conv2_2
I1217 07:24:17.648792   479 net.cpp:434] conv2_2 <- conv2_1
I1217 07:24:17.648799   479 net.cpp:408] conv2_2 -> conv2_2
I1217 07:24:17.650364   479 net.cpp:150] Setting up conv2_2
I1217 07:24:17.650374   479 net.cpp:157] Top shape: 8 128 250 250 (64000000)
I1217 07:24:17.650380   479 net.cpp:165] Memory required for data: 3136000032
I1217 07:24:17.650390   479 layer_factory.hpp:77] Creating layer relu2_2
I1217 07:24:17.650398   479 net.cpp:100] Creating Layer relu2_2
I1217 07:24:17.650404   479 net.cpp:434] relu2_2 <- conv2_2
I1217 07:24:17.650411   479 net.cpp:395] relu2_2 -> conv2_2 (in-place)
I1217 07:24:17.650547   479 net.cpp:150] Setting up relu2_2
I1217 07:24:17.650557   479 net.cpp:157] Top shape: 8 128 250 250 (64000000)
I1217 07:24:17.650563   479 net.cpp:165] Memory required for data: 3392000032
I1217 07:24:17.650568   479 layer_factory.hpp:77] Creating layer pool2
I1217 07:24:17.650576   479 net.cpp:100] Creating Layer pool2
I1217 07:24:17.650583   479 net.cpp:434] pool2 <- conv2_2
I1217 07:24:17.650590   479 net.cpp:408] pool2 -> pool2
I1217 07:24:17.650624   479 net.cpp:150] Setting up pool2
I1217 07:24:17.650630   479 net.cpp:157] Top shape: 8 128 125 125 (16000000)
I1217 07:24:17.650635   479 net.cpp:165] Memory required for data: 3456000032
I1217 07:24:17.650641   479 layer_factory.hpp:77] Creating layer conv3_1
I1217 07:24:17.650651   479 net.cpp:100] Creating Layer conv3_1
I1217 07:24:17.650657   479 net.cpp:434] conv3_1 <- pool2
I1217 07:24:17.650665   479 net.cpp:408] conv3_1 -> conv3_1
I1217 07:24:17.653499   479 net.cpp:150] Setting up conv3_1
I1217 07:24:17.653513   479 net.cpp:157] Top shape: 8 256 125 125 (32000000)
I1217 07:24:17.653518   479 net.cpp:165] Memory required for data: 3584000032
I1217 07:24:17.653530   479 layer_factory.hpp:77] Creating layer relu3_1
I1217 07:24:17.653538   479 net.cpp:100] Creating Layer relu3_1
I1217 07:24:17.653545   479 net.cpp:434] relu3_1 <- conv3_1
I1217 07:24:17.653553   479 net.cpp:395] relu3_1 -> conv3_1 (in-place)
I1217 07:24:17.653697   479 net.cpp:150] Setting up relu3_1
I1217 07:24:17.653705   479 net.cpp:157] Top shape: 8 256 125 125 (32000000)
I1217 07:24:17.653712   479 net.cpp:165] Memory required for data: 3712000032
I1217 07:24:17.653717   479 layer_factory.hpp:77] Creating layer conv3_2
I1217 07:24:17.653728   479 net.cpp:100] Creating Layer conv3_2
I1217 07:24:17.653735   479 net.cpp:434] conv3_2 <- conv3_1
I1217 07:24:17.653743   479 net.cpp:408] conv3_2 -> conv3_2
I1217 07:24:17.658210   479 net.cpp:150] Setting up conv3_2
I1217 07:24:17.658226   479 net.cpp:157] Top shape: 8 256 125 125 (32000000)
I1217 07:24:17.658231   479 net.cpp:165] Memory required for data: 3840000032
I1217 07:24:17.658259   479 layer_factory.hpp:77] Creating layer relu3_2
I1217 07:24:17.658269   479 net.cpp:100] Creating Layer relu3_2
I1217 07:24:17.658277   479 net.cpp:434] relu3_2 <- conv3_2
I1217 07:24:17.658285   479 net.cpp:395] relu3_2 -> conv3_2 (in-place)
I1217 07:24:17.658689   479 net.cpp:150] Setting up relu3_2
I1217 07:24:17.658699   479 net.cpp:157] Top shape: 8 256 125 125 (32000000)
I1217 07:24:17.658704   479 net.cpp:165] Memory required for data: 3968000032
I1217 07:24:17.658710   479 layer_factory.hpp:77] Creating layer conv3_3
I1217 07:24:17.658725   479 net.cpp:100] Creating Layer conv3_3
I1217 07:24:17.658730   479 net.cpp:434] conv3_3 <- conv3_2
I1217 07:24:17.658738   479 net.cpp:408] conv3_3 -> conv3_3
I1217 07:24:17.662871   479 net.cpp:150] Setting up conv3_3
I1217 07:24:17.662885   479 net.cpp:157] Top shape: 8 256 125 125 (32000000)
I1217 07:24:17.662891   479 net.cpp:165] Memory required for data: 4096000032
I1217 07:24:17.662900   479 layer_factory.hpp:77] Creating layer relu3_3
I1217 07:24:17.662909   479 net.cpp:100] Creating Layer relu3_3
I1217 07:24:17.662916   479 net.cpp:434] relu3_3 <- conv3_3
I1217 07:24:17.662925   479 net.cpp:395] relu3_3 -> conv3_3 (in-place)
I1217 07:24:17.663061   479 net.cpp:150] Setting up relu3_3
I1217 07:24:17.663070   479 net.cpp:157] Top shape: 8 256 125 125 (32000000)
I1217 07:24:17.663075   479 net.cpp:165] Memory required for data: 4224000032
I1217 07:24:17.663081   479 layer_factory.hpp:77] Creating layer pool3
I1217 07:24:17.663089   479 net.cpp:100] Creating Layer pool3
I1217 07:24:17.663095   479 net.cpp:434] pool3 <- conv3_3
I1217 07:24:17.663102   479 net.cpp:408] pool3 -> pool3
I1217 07:24:17.663139   479 net.cpp:150] Setting up pool3
I1217 07:24:17.663146   479 net.cpp:157] Top shape: 8 256 63 63 (8128512)
I1217 07:24:17.663152   479 net.cpp:165] Memory required for data: 4256514080
I1217 07:24:17.663158   479 layer_factory.hpp:77] Creating layer conv4_1
I1217 07:24:17.663168   479 net.cpp:100] Creating Layer conv4_1
I1217 07:24:17.663174   479 net.cpp:434] conv4_1 <- pool3
I1217 07:24:17.663182   479 net.cpp:408] conv4_1 -> conv4_1
I1217 07:24:17.670617   479 net.cpp:150] Setting up conv4_1
I1217 07:24:17.670634   479 net.cpp:157] Top shape: 8 512 63 63 (16257024)
I1217 07:24:17.670639   479 net.cpp:165] Memory required for data: 4321542176
I1217 07:24:17.670650   479 layer_factory.hpp:77] Creating layer relu4_1
I1217 07:24:17.670665   479 net.cpp:100] Creating Layer relu4_1
I1217 07:24:17.670670   479 net.cpp:434] relu4_1 <- conv4_1
I1217 07:24:17.670680   479 net.cpp:395] relu4_1 -> conv4_1 (in-place)
I1217 07:24:17.670819   479 net.cpp:150] Setting up relu4_1
I1217 07:24:17.670827   479 net.cpp:157] Top shape: 8 512 63 63 (16257024)
I1217 07:24:17.670832   479 net.cpp:165] Memory required for data: 4386570272
I1217 07:24:17.670837   479 layer_factory.hpp:77] Creating layer conv4_2
I1217 07:24:17.670850   479 net.cpp:100] Creating Layer conv4_2
I1217 07:24:17.670855   479 net.cpp:434] conv4_2 <- conv4_1
I1217 07:24:17.670863   479 net.cpp:408] conv4_2 -> conv4_2
I1217 07:24:17.682981   479 net.cpp:150] Setting up conv4_2
I1217 07:24:17.683001   479 net.cpp:157] Top shape: 8 512 63 63 (16257024)
I1217 07:24:17.683006   479 net.cpp:165] Memory required for data: 4451598368
I1217 07:24:17.683019   479 layer_factory.hpp:77] Creating layer relu4_2
I1217 07:24:17.683030   479 net.cpp:100] Creating Layer relu4_2
I1217 07:24:17.683037   479 net.cpp:434] relu4_2 <- conv4_2
I1217 07:24:17.683044   479 net.cpp:395] relu4_2 -> conv4_2 (in-place)
I1217 07:24:17.683178   479 net.cpp:150] Setting up relu4_2
I1217 07:24:17.683187   479 net.cpp:157] Top shape: 8 512 63 63 (16257024)
I1217 07:24:17.683192   479 net.cpp:165] Memory required for data: 4516626464
I1217 07:24:17.683197   479 layer_factory.hpp:77] Creating layer conv4_3
I1217 07:24:17.683210   479 net.cpp:100] Creating Layer conv4_3
I1217 07:24:17.683215   479 net.cpp:434] conv4_3 <- conv4_2
I1217 07:24:17.683224   479 net.cpp:408] conv4_3 -> conv4_3
I1217 07:24:17.694749   479 net.cpp:150] Setting up conv4_3
I1217 07:24:17.694769   479 net.cpp:157] Top shape: 8 512 63 63 (16257024)
I1217 07:24:17.694774   479 net.cpp:165] Memory required for data: 4581654560
I1217 07:24:17.694784   479 layer_factory.hpp:77] Creating layer relu4_3
I1217 07:24:17.694795   479 net.cpp:100] Creating Layer relu4_3
I1217 07:24:17.694802   479 net.cpp:434] relu4_3 <- conv4_3
I1217 07:24:17.694813   479 net.cpp:395] relu4_3 -> conv4_3 (in-place)
I1217 07:24:17.695211   479 net.cpp:150] Setting up relu4_3
I1217 07:24:17.695221   479 net.cpp:157] Top shape: 8 512 63 63 (16257024)
I1217 07:24:17.695226   479 net.cpp:165] Memory required for data: 4646682656
I1217 07:24:17.695233   479 layer_factory.hpp:77] Creating layer conv4_3_relu4_3_0_split
I1217 07:24:17.695241   479 net.cpp:100] Creating Layer conv4_3_relu4_3_0_split
I1217 07:24:17.695247   479 net.cpp:434] conv4_3_relu4_3_0_split <- conv4_3
I1217 07:24:17.695255   479 net.cpp:408] conv4_3_relu4_3_0_split -> conv4_3_relu4_3_0_split_0
I1217 07:24:17.695266   479 net.cpp:408] conv4_3_relu4_3_0_split -> conv4_3_relu4_3_0_split_1
I1217 07:24:17.695298   479 net.cpp:150] Setting up conv4_3_relu4_3_0_split
I1217 07:24:17.695305   479 net.cpp:157] Top shape: 8 512 63 63 (16257024)
I1217 07:24:17.695312   479 net.cpp:157] Top shape: 8 512 63 63 (16257024)
I1217 07:24:17.695318   479 net.cpp:165] Memory required for data: 4776738848
I1217 07:24:17.695324   479 layer_factory.hpp:77] Creating layer pool4
I1217 07:24:17.695333   479 net.cpp:100] Creating Layer pool4
I1217 07:24:17.695338   479 net.cpp:434] pool4 <- conv4_3_relu4_3_0_split_0
I1217 07:24:17.695348   479 net.cpp:408] pool4 -> pool4
I1217 07:24:17.695376   479 net.cpp:150] Setting up pool4
I1217 07:24:17.695384   479 net.cpp:157] Top shape: 8 512 32 32 (4194304)
I1217 07:24:17.695389   479 net.cpp:165] Memory required for data: 4793516064
I1217 07:24:17.695395   479 layer_factory.hpp:77] Creating layer conv5_1
I1217 07:24:17.695406   479 net.cpp:100] Creating Layer conv5_1
I1217 07:24:17.695411   479 net.cpp:434] conv5_1 <- pool4
I1217 07:24:17.695420   479 net.cpp:408] conv5_1 -> conv5_1
I1217 07:24:17.707530   479 net.cpp:150] Setting up conv5_1
I1217 07:24:17.707551   479 net.cpp:157] Top shape: 8 512 32 32 (4194304)
I1217 07:24:17.707556   479 net.cpp:165] Memory required for data: 4810293280
I1217 07:24:17.707566   479 layer_factory.hpp:77] Creating layer relu5_1
I1217 07:24:17.707576   479 net.cpp:100] Creating Layer relu5_1
I1217 07:24:17.707583   479 net.cpp:434] relu5_1 <- conv5_1
I1217 07:24:17.707592   479 net.cpp:395] relu5_1 -> conv5_1 (in-place)
I1217 07:24:17.707731   479 net.cpp:150] Setting up relu5_1
I1217 07:24:17.707741   479 net.cpp:157] Top shape: 8 512 32 32 (4194304)
I1217 07:24:17.707746   479 net.cpp:165] Memory required for data: 4827070496
I1217 07:24:17.707751   479 layer_factory.hpp:77] Creating layer conv5_2
I1217 07:24:17.707764   479 net.cpp:100] Creating Layer conv5_2
I1217 07:24:17.707770   479 net.cpp:434] conv5_2 <- conv5_1
I1217 07:24:17.707779   479 net.cpp:408] conv5_2 -> conv5_2
I1217 07:24:17.719926   479 net.cpp:150] Setting up conv5_2
I1217 07:24:17.719944   479 net.cpp:157] Top shape: 8 512 32 32 (4194304)
I1217 07:24:17.719949   479 net.cpp:165] Memory required for data: 4843847712
I1217 07:24:17.719959   479 layer_factory.hpp:77] Creating layer relu5_2
I1217 07:24:17.719969   479 net.cpp:100] Creating Layer relu5_2
I1217 07:24:17.719976   479 net.cpp:434] relu5_2 <- conv5_2
I1217 07:24:17.719985   479 net.cpp:395] relu5_2 -> conv5_2 (in-place)
I1217 07:24:17.720118   479 net.cpp:150] Setting up relu5_2
I1217 07:24:17.720126   479 net.cpp:157] Top shape: 8 512 32 32 (4194304)
I1217 07:24:17.720132   479 net.cpp:165] Memory required for data: 4860624928
I1217 07:24:17.720139   479 layer_factory.hpp:77] Creating layer conv5_3
I1217 07:24:17.720149   479 net.cpp:100] Creating Layer conv5_3
I1217 07:24:17.720155   479 net.cpp:434] conv5_3 <- conv5_2
I1217 07:24:17.720163   479 net.cpp:408] conv5_3 -> conv5_3
I1217 07:24:17.731788   479 net.cpp:150] Setting up conv5_3
I1217 07:24:17.731825   479 net.cpp:157] Top shape: 8 512 32 32 (4194304)
I1217 07:24:17.731830   479 net.cpp:165] Memory required for data: 4877402144
I1217 07:24:17.731840   479 layer_factory.hpp:77] Creating layer relu5_3
I1217 07:24:17.731856   479 net.cpp:100] Creating Layer relu5_3
I1217 07:24:17.731863   479 net.cpp:434] relu5_3 <- conv5_3
I1217 07:24:17.731871   479 net.cpp:395] relu5_3 -> conv5_3 (in-place)
I1217 07:24:17.732483   479 net.cpp:150] Setting up relu5_3
I1217 07:24:17.732493   479 net.cpp:157] Top shape: 8 512 32 32 (4194304)
I1217 07:24:17.732499   479 net.cpp:165] Memory required for data: 4894179360
I1217 07:24:17.732506   479 layer_factory.hpp:77] Creating layer pool5
I1217 07:24:17.732517   479 net.cpp:100] Creating Layer pool5
I1217 07:24:17.732522   479 net.cpp:434] pool5 <- conv5_3
I1217 07:24:17.732530   479 net.cpp:408] pool5 -> pool5
I1217 07:24:17.732609   479 net.cpp:150] Setting up pool5
I1217 07:24:17.732630   479 net.cpp:157] Top shape: 8 512 32 32 (4194304)
I1217 07:24:17.732650   479 net.cpp:165] Memory required for data: 4910956576
I1217 07:24:17.732656   479 layer_factory.hpp:77] Creating layer fc6
I1217 07:24:17.732667   479 net.cpp:100] Creating Layer fc6
I1217 07:24:17.732686   479 net.cpp:434] fc6 <- pool5
I1217 07:24:17.732694   479 net.cpp:408] fc6 -> fc6
I1217 07:24:17.754112   479 net.cpp:150] Setting up fc6
I1217 07:24:17.754132   479 net.cpp:157] Top shape: 8 1024 32 32 (8388608)
I1217 07:24:17.754137   479 net.cpp:165] Memory required for data: 4944511008
I1217 07:24:17.754145   479 layer_factory.hpp:77] Creating layer relu6
I1217 07:24:17.754158   479 net.cpp:100] Creating Layer relu6
I1217 07:24:17.754163   479 net.cpp:434] relu6 <- fc6
I1217 07:24:17.754171   479 net.cpp:395] relu6 -> fc6 (in-place)
I1217 07:24:17.754348   479 net.cpp:150] Setting up relu6
I1217 07:24:17.754356   479 net.cpp:157] Top shape: 8 1024 32 32 (8388608)
I1217 07:24:17.754361   479 net.cpp:165] Memory required for data: 4978065440
I1217 07:24:17.754367   479 layer_factory.hpp:77] Creating layer fc7
I1217 07:24:17.754379   479 net.cpp:100] Creating Layer fc7
I1217 07:24:17.754384   479 net.cpp:434] fc7 <- fc6
I1217 07:24:17.754392   479 net.cpp:408] fc7 -> fc7
I1217 07:24:17.760176   479 net.cpp:150] Setting up fc7
I1217 07:24:17.760190   479 net.cpp:157] Top shape: 8 1024 32 32 (8388608)
I1217 07:24:17.760196   479 net.cpp:165] Memory required for data: 5011619872
I1217 07:24:17.760205   479 layer_factory.hpp:77] Creating layer relu7
I1217 07:24:17.760213   479 net.cpp:100] Creating Layer relu7
I1217 07:24:17.760221   479 net.cpp:434] relu7 <- fc7
I1217 07:24:17.760228   479 net.cpp:395] relu7 -> fc7 (in-place)
I1217 07:24:17.760365   479 net.cpp:150] Setting up relu7
I1217 07:24:17.760372   479 net.cpp:157] Top shape: 8 1024 32 32 (8388608)
I1217 07:24:17.760378   479 net.cpp:165] Memory required for data: 5045174304
I1217 07:24:17.760385   479 layer_factory.hpp:77] Creating layer fc7_relu7_0_split
I1217 07:24:17.760392   479 net.cpp:100] Creating Layer fc7_relu7_0_split
I1217 07:24:17.760398   479 net.cpp:434] fc7_relu7_0_split <- fc7
I1217 07:24:17.760406   479 net.cpp:408] fc7_relu7_0_split -> fc7_relu7_0_split_0
I1217 07:24:17.760416   479 net.cpp:408] fc7_relu7_0_split -> fc7_relu7_0_split_1
I1217 07:24:17.760428   479 net.cpp:408] fc7_relu7_0_split -> fc7_relu7_0_split_2
I1217 07:24:17.760437   479 net.cpp:408] fc7_relu7_0_split -> fc7_relu7_0_split_3
I1217 07:24:17.760486   479 net.cpp:150] Setting up fc7_relu7_0_split
I1217 07:24:17.760493   479 net.cpp:157] Top shape: 8 1024 32 32 (8388608)
I1217 07:24:17.760501   479 net.cpp:157] Top shape: 8 1024 32 32 (8388608)
I1217 07:24:17.760507   479 net.cpp:157] Top shape: 8 1024 32 32 (8388608)
I1217 07:24:17.760514   479 net.cpp:157] Top shape: 8 1024 32 32 (8388608)
I1217 07:24:17.760519   479 net.cpp:165] Memory required for data: 5179392032
I1217 07:24:17.760525   479 layer_factory.hpp:77] Creating layer conv6_1
I1217 07:24:17.760536   479 net.cpp:100] Creating Layer conv6_1
I1217 07:24:17.760542   479 net.cpp:434] conv6_1 <- fc7_relu7_0_split_0
I1217 07:24:17.760584   479 net.cpp:408] conv6_1 -> conv6_1
I1217 07:24:17.763325   479 net.cpp:150] Setting up conv6_1
I1217 07:24:17.763339   479 net.cpp:157] Top shape: 8 256 32 32 (2097152)
I1217 07:24:17.763343   479 net.cpp:165] Memory required for data: 5187780640
I1217 07:24:17.763352   479 layer_factory.hpp:77] Creating layer conv6_1_relu
I1217 07:24:17.763361   479 net.cpp:100] Creating Layer conv6_1_relu
I1217 07:24:17.763367   479 net.cpp:434] conv6_1_relu <- conv6_1
I1217 07:24:17.763375   479 net.cpp:395] conv6_1_relu -> conv6_1 (in-place)
I1217 07:24:17.763788   479 net.cpp:150] Setting up conv6_1_relu
I1217 07:24:17.763798   479 net.cpp:157] Top shape: 8 256 32 32 (2097152)
I1217 07:24:17.763803   479 net.cpp:165] Memory required for data: 5196169248
I1217 07:24:17.763811   479 layer_factory.hpp:77] Creating layer conv6_2
I1217 07:24:17.763823   479 net.cpp:100] Creating Layer conv6_2
I1217 07:24:17.763828   479 net.cpp:434] conv6_2 <- conv6_1
I1217 07:24:17.763839   479 net.cpp:408] conv6_2 -> conv6_2
I1217 07:24:17.770601   479 net.cpp:150] Setting up conv6_2
I1217 07:24:17.770617   479 net.cpp:157] Top shape: 8 512 16 16 (1048576)
I1217 07:24:17.770622   479 net.cpp:165] Memory required for data: 5200363552
I1217 07:24:17.770637   479 layer_factory.hpp:77] Creating layer conv6_2_relu
I1217 07:24:17.770648   479 net.cpp:100] Creating Layer conv6_2_relu
I1217 07:24:17.770653   479 net.cpp:434] conv6_2_relu <- conv6_2
I1217 07:24:17.770661   479 net.cpp:395] conv6_2_relu -> conv6_2 (in-place)
I1217 07:24:17.770798   479 net.cpp:150] Setting up conv6_2_relu
I1217 07:24:17.770807   479 net.cpp:157] Top shape: 8 512 16 16 (1048576)
I1217 07:24:17.770812   479 net.cpp:165] Memory required for data: 5204557856
I1217 07:24:17.770817   479 layer_factory.hpp:77] Creating layer conv6_2_conv6_2_relu_0_split
I1217 07:24:17.770826   479 net.cpp:100] Creating Layer conv6_2_conv6_2_relu_0_split
I1217 07:24:17.770833   479 net.cpp:434] conv6_2_conv6_2_relu_0_split <- conv6_2
I1217 07:24:17.770839   479 net.cpp:408] conv6_2_conv6_2_relu_0_split -> conv6_2_conv6_2_relu_0_split_0
I1217 07:24:17.770848   479 net.cpp:408] conv6_2_conv6_2_relu_0_split -> conv6_2_conv6_2_relu_0_split_1
I1217 07:24:17.770857   479 net.cpp:408] conv6_2_conv6_2_relu_0_split -> conv6_2_conv6_2_relu_0_split_2
I1217 07:24:17.770865   479 net.cpp:408] conv6_2_conv6_2_relu_0_split -> conv6_2_conv6_2_relu_0_split_3
I1217 07:24:17.770915   479 net.cpp:150] Setting up conv6_2_conv6_2_relu_0_split
I1217 07:24:17.770921   479 net.cpp:157] Top shape: 8 512 16 16 (1048576)
I1217 07:24:17.770928   479 net.cpp:157] Top shape: 8 512 16 16 (1048576)
I1217 07:24:17.770934   479 net.cpp:157] Top shape: 8 512 16 16 (1048576)
I1217 07:24:17.770941   479 net.cpp:157] Top shape: 8 512 16 16 (1048576)
I1217 07:24:17.770946   479 net.cpp:165] Memory required for data: 5221335072
I1217 07:24:17.770952   479 layer_factory.hpp:77] Creating layer conv7_1
I1217 07:24:17.770964   479 net.cpp:100] Creating Layer conv7_1
I1217 07:24:17.770969   479 net.cpp:434] conv7_1 <- conv6_2_conv6_2_relu_0_split_0
I1217 07:24:17.770977   479 net.cpp:408] conv7_1 -> conv7_1
I1217 07:24:17.772061   479 net.cpp:150] Setting up conv7_1
I1217 07:24:17.772073   479 net.cpp:157] Top shape: 8 128 16 16 (262144)
I1217 07:24:17.772078   479 net.cpp:165] Memory required for data: 5222383648
I1217 07:24:17.772089   479 layer_factory.hpp:77] Creating layer conv7_1_relu
I1217 07:24:17.772095   479 net.cpp:100] Creating Layer conv7_1_relu
I1217 07:24:17.772101   479 net.cpp:434] conv7_1_relu <- conv7_1
I1217 07:24:17.772109   479 net.cpp:395] conv7_1_relu -> conv7_1 (in-place)
I1217 07:24:17.772234   479 net.cpp:150] Setting up conv7_1_relu
I1217 07:24:17.772243   479 net.cpp:157] Top shape: 8 128 16 16 (262144)
I1217 07:24:17.772248   479 net.cpp:165] Memory required for data: 5223432224
I1217 07:24:17.772253   479 layer_factory.hpp:77] Creating layer conv7_2
I1217 07:24:17.772264   479 net.cpp:100] Creating Layer conv7_2
I1217 07:24:17.772270   479 net.cpp:434] conv7_2 <- conv7_1
I1217 07:24:17.772291   479 net.cpp:408] conv7_2 -> conv7_2
I1217 07:24:17.775144   479 net.cpp:150] Setting up conv7_2
I1217 07:24:17.775156   479 net.cpp:157] Top shape: 8 256 8 8 (131072)
I1217 07:24:17.775161   479 net.cpp:165] Memory required for data: 5223956512
I1217 07:24:17.775168   479 layer_factory.hpp:77] Creating layer conv7_2_relu
I1217 07:24:17.775177   479 net.cpp:100] Creating Layer conv7_2_relu
I1217 07:24:17.775184   479 net.cpp:434] conv7_2_relu <- conv7_2
I1217 07:24:17.775192   479 net.cpp:395] conv7_2_relu -> conv7_2 (in-place)
I1217 07:24:17.775323   479 net.cpp:150] Setting up conv7_2_relu
I1217 07:24:17.775331   479 net.cpp:157] Top shape: 8 256 8 8 (131072)
I1217 07:24:17.775337   479 net.cpp:165] Memory required for data: 5224480800
I1217 07:24:17.775343   479 layer_factory.hpp:77] Creating layer conv7_2_conv7_2_relu_0_split
I1217 07:24:17.775352   479 net.cpp:100] Creating Layer conv7_2_conv7_2_relu_0_split
I1217 07:24:17.775357   479 net.cpp:434] conv7_2_conv7_2_relu_0_split <- conv7_2
I1217 07:24:17.775365   479 net.cpp:408] conv7_2_conv7_2_relu_0_split -> conv7_2_conv7_2_relu_0_split_0
I1217 07:24:17.775374   479 net.cpp:408] conv7_2_conv7_2_relu_0_split -> conv7_2_conv7_2_relu_0_split_1
I1217 07:24:17.775383   479 net.cpp:408] conv7_2_conv7_2_relu_0_split -> conv7_2_conv7_2_relu_0_split_2
I1217 07:24:17.775391   479 net.cpp:408] conv7_2_conv7_2_relu_0_split -> conv7_2_conv7_2_relu_0_split_3
I1217 07:24:17.775442   479 net.cpp:150] Setting up conv7_2_conv7_2_relu_0_split
I1217 07:24:17.775449   479 net.cpp:157] Top shape: 8 256 8 8 (131072)
I1217 07:24:17.775456   479 net.cpp:157] Top shape: 8 256 8 8 (131072)
I1217 07:24:17.775462   479 net.cpp:157] Top shape: 8 256 8 8 (131072)
I1217 07:24:17.775470   479 net.cpp:157] Top shape: 8 256 8 8 (131072)
I1217 07:24:17.775475   479 net.cpp:165] Memory required for data: 5226577952
I1217 07:24:17.775480   479 layer_factory.hpp:77] Creating layer conv8_1
I1217 07:24:17.775490   479 net.cpp:100] Creating Layer conv8_1
I1217 07:24:17.775496   479 net.cpp:434] conv8_1 <- conv7_2_conv7_2_relu_0_split_0
I1217 07:24:17.775504   479 net.cpp:408] conv8_1 -> conv8_1
I1217 07:24:17.776450   479 net.cpp:150] Setting up conv8_1
I1217 07:24:17.776460   479 net.cpp:157] Top shape: 8 128 8 8 (65536)
I1217 07:24:17.776466   479 net.cpp:165] Memory required for data: 5226840096
I1217 07:24:17.776476   479 layer_factory.hpp:77] Creating layer conv8_1_relu
I1217 07:24:17.776484   479 net.cpp:100] Creating Layer conv8_1_relu
I1217 07:24:17.776489   479 net.cpp:434] conv8_1_relu <- conv8_1
I1217 07:24:17.776499   479 net.cpp:395] conv8_1_relu -> conv8_1 (in-place)
I1217 07:24:17.776947   479 net.cpp:150] Setting up conv8_1_relu
I1217 07:24:17.776958   479 net.cpp:157] Top shape: 8 128 8 8 (65536)
I1217 07:24:17.776963   479 net.cpp:165] Memory required for data: 5227102240
I1217 07:24:17.776970   479 layer_factory.hpp:77] Creating layer conv8_2
I1217 07:24:17.776981   479 net.cpp:100] Creating Layer conv8_2
I1217 07:24:17.776986   479 net.cpp:434] conv8_2 <- conv8_1
I1217 07:24:17.776995   479 net.cpp:408] conv8_2 -> conv8_2
I1217 07:24:17.779819   479 net.cpp:150] Setting up conv8_2
I1217 07:24:17.779830   479 net.cpp:157] Top shape: 8 256 6 6 (73728)
I1217 07:24:17.779836   479 net.cpp:165] Memory required for data: 5227397152
I1217 07:24:17.779844   479 layer_factory.hpp:77] Creating layer conv8_2_relu
I1217 07:24:17.779853   479 net.cpp:100] Creating Layer conv8_2_relu
I1217 07:24:17.779860   479 net.cpp:434] conv8_2_relu <- conv8_2
I1217 07:24:17.779867   479 net.cpp:395] conv8_2_relu -> conv8_2 (in-place)
I1217 07:24:17.780004   479 net.cpp:150] Setting up conv8_2_relu
I1217 07:24:17.780012   479 net.cpp:157] Top shape: 8 256 6 6 (73728)
I1217 07:24:17.780017   479 net.cpp:165] Memory required for data: 5227692064
I1217 07:24:17.780023   479 layer_factory.hpp:77] Creating layer conv8_2_conv8_2_relu_0_split
I1217 07:24:17.780031   479 net.cpp:100] Creating Layer conv8_2_conv8_2_relu_0_split
I1217 07:24:17.780037   479 net.cpp:434] conv8_2_conv8_2_relu_0_split <- conv8_2
I1217 07:24:17.780057   479 net.cpp:408] conv8_2_conv8_2_relu_0_split -> conv8_2_conv8_2_relu_0_split_0
I1217 07:24:17.780067   479 net.cpp:408] conv8_2_conv8_2_relu_0_split -> conv8_2_conv8_2_relu_0_split_1
I1217 07:24:17.780076   479 net.cpp:408] conv8_2_conv8_2_relu_0_split -> conv8_2_conv8_2_relu_0_split_2
I1217 07:24:17.780084   479 net.cpp:408] conv8_2_conv8_2_relu_0_split -> conv8_2_conv8_2_relu_0_split_3
I1217 07:24:17.780138   479 net.cpp:150] Setting up conv8_2_conv8_2_relu_0_split
I1217 07:24:17.780145   479 net.cpp:157] Top shape: 8 256 6 6 (73728)
I1217 07:24:17.780151   479 net.cpp:157] Top shape: 8 256 6 6 (73728)
I1217 07:24:17.780158   479 net.cpp:157] Top shape: 8 256 6 6 (73728)
I1217 07:24:17.780164   479 net.cpp:157] Top shape: 8 256 6 6 (73728)
I1217 07:24:17.780170   479 net.cpp:165] Memory required for data: 5228871712
I1217 07:24:17.780175   479 layer_factory.hpp:77] Creating layer conv9_1
I1217 07:24:17.780187   479 net.cpp:100] Creating Layer conv9_1
I1217 07:24:17.780192   479 net.cpp:434] conv9_1 <- conv8_2_conv8_2_relu_0_split_0
I1217 07:24:17.780201   479 net.cpp:408] conv9_1 -> conv9_1
I1217 07:24:17.781194   479 net.cpp:150] Setting up conv9_1
I1217 07:24:17.781205   479 net.cpp:157] Top shape: 8 128 6 6 (36864)
I1217 07:24:17.781210   479 net.cpp:165] Memory required for data: 5229019168
I1217 07:24:17.781221   479 layer_factory.hpp:77] Creating layer conv9_1_relu
I1217 07:24:17.781229   479 net.cpp:100] Creating Layer conv9_1_relu
I1217 07:24:17.781235   479 net.cpp:434] conv9_1_relu <- conv9_1
I1217 07:24:17.781242   479 net.cpp:395] conv9_1_relu -> conv9_1 (in-place)
I1217 07:24:17.781370   479 net.cpp:150] Setting up conv9_1_relu
I1217 07:24:17.781378   479 net.cpp:157] Top shape: 8 128 6 6 (36864)
I1217 07:24:17.781384   479 net.cpp:165] Memory required for data: 5229166624
I1217 07:24:17.781390   479 layer_factory.hpp:77] Creating layer conv9_2
I1217 07:24:17.781401   479 net.cpp:100] Creating Layer conv9_2
I1217 07:24:17.781407   479 net.cpp:434] conv9_2 <- conv9_1
I1217 07:24:17.781415   479 net.cpp:408] conv9_2 -> conv9_2
I1217 07:24:17.784220   479 net.cpp:150] Setting up conv9_2
I1217 07:24:17.784232   479 net.cpp:157] Top shape: 8 256 4 4 (32768)
I1217 07:24:17.784237   479 net.cpp:165] Memory required for data: 5229297696
I1217 07:24:17.784246   479 layer_factory.hpp:77] Creating layer conv9_2_relu
I1217 07:24:17.784255   479 net.cpp:100] Creating Layer conv9_2_relu
I1217 07:24:17.784261   479 net.cpp:434] conv9_2_relu <- conv9_2
I1217 07:24:17.784270   479 net.cpp:395] conv9_2_relu -> conv9_2 (in-place)
I1217 07:24:17.784721   479 net.cpp:150] Setting up conv9_2_relu
I1217 07:24:17.784732   479 net.cpp:157] Top shape: 8 256 4 4 (32768)
I1217 07:24:17.784737   479 net.cpp:165] Memory required for data: 5229428768
I1217 07:24:17.784742   479 layer_factory.hpp:77] Creating layer conv9_2_conv9_2_relu_0_split
I1217 07:24:17.784751   479 net.cpp:100] Creating Layer conv9_2_conv9_2_relu_0_split
I1217 07:24:17.784757   479 net.cpp:434] conv9_2_conv9_2_relu_0_split <- conv9_2
I1217 07:24:17.784765   479 net.cpp:408] conv9_2_conv9_2_relu_0_split -> conv9_2_conv9_2_relu_0_split_0
I1217 07:24:17.784775   479 net.cpp:408] conv9_2_conv9_2_relu_0_split -> conv9_2_conv9_2_relu_0_split_1
I1217 07:24:17.784783   479 net.cpp:408] conv9_2_conv9_2_relu_0_split -> conv9_2_conv9_2_relu_0_split_2
I1217 07:24:17.784827   479 net.cpp:150] Setting up conv9_2_conv9_2_relu_0_split
I1217 07:24:17.784834   479 net.cpp:157] Top shape: 8 256 4 4 (32768)
I1217 07:24:17.784842   479 net.cpp:157] Top shape: 8 256 4 4 (32768)
I1217 07:24:17.784848   479 net.cpp:157] Top shape: 8 256 4 4 (32768)
I1217 07:24:17.784853   479 net.cpp:165] Memory required for data: 5229821984
I1217 07:24:17.784859   479 layer_factory.hpp:77] Creating layer conv4_3_norm
I1217 07:24:17.784868   479 net.cpp:100] Creating Layer conv4_3_norm
I1217 07:24:17.784874   479 net.cpp:434] conv4_3_norm <- conv4_3_relu4_3_0_split_1
I1217 07:24:17.784883   479 net.cpp:408] conv4_3_norm -> conv4_3_norm
I1217 07:24:17.785012   479 net.cpp:150] Setting up conv4_3_norm
I1217 07:24:17.785019   479 net.cpp:157] Top shape: 8 512 63 63 (16257024)
I1217 07:24:17.785024   479 net.cpp:165] Memory required for data: 5294850080
I1217 07:24:17.785033   479 layer_factory.hpp:77] Creating layer conv4_3_norm_conv4_3_norm_0_split
I1217 07:24:17.785040   479 net.cpp:100] Creating Layer conv4_3_norm_conv4_3_norm_0_split
I1217 07:24:17.785046   479 net.cpp:434] conv4_3_norm_conv4_3_norm_0_split <- conv4_3_norm
I1217 07:24:17.785054   479 net.cpp:408] conv4_3_norm_conv4_3_norm_0_split -> conv4_3_norm_conv4_3_norm_0_split_0
I1217 07:24:17.785063   479 net.cpp:408] conv4_3_norm_conv4_3_norm_0_split -> conv4_3_norm_conv4_3_norm_0_split_1
I1217 07:24:17.785071   479 net.cpp:408] conv4_3_norm_conv4_3_norm_0_split -> conv4_3_norm_conv4_3_norm_0_split_2
I1217 07:24:17.785109   479 net.cpp:150] Setting up conv4_3_norm_conv4_3_norm_0_split
I1217 07:24:17.785116   479 net.cpp:157] Top shape: 8 512 63 63 (16257024)
I1217 07:24:17.785123   479 net.cpp:157] Top shape: 8 512 63 63 (16257024)
I1217 07:24:17.785130   479 net.cpp:157] Top shape: 8 512 63 63 (16257024)
I1217 07:24:17.785135   479 net.cpp:165] Memory required for data: 5489934368
I1217 07:24:17.785141   479 layer_factory.hpp:77] Creating layer conv4_3_norm_mbox_loc
I1217 07:24:17.785151   479 net.cpp:100] Creating Layer conv4_3_norm_mbox_loc
I1217 07:24:17.785157   479 net.cpp:434] conv4_3_norm_mbox_loc <- conv4_3_norm_conv4_3_norm_0_split_0
I1217 07:24:17.785166   479 net.cpp:408] conv4_3_norm_mbox_loc -> conv4_3_norm_mbox_loc
I1217 07:24:17.786545   479 net.cpp:150] Setting up conv4_3_norm_mbox_loc
I1217 07:24:17.786556   479 net.cpp:157] Top shape: 8 16 63 63 (508032)
I1217 07:24:17.786561   479 net.cpp:165] Memory required for data: 5491966496
I1217 07:24:17.786571   479 layer_factory.hpp:77] Creating layer conv4_3_norm_mbox_loc_perm
I1217 07:24:17.786581   479 net.cpp:100] Creating Layer conv4_3_norm_mbox_loc_perm
I1217 07:24:17.786586   479 net.cpp:434] conv4_3_norm_mbox_loc_perm <- conv4_3_norm_mbox_loc
I1217 07:24:17.786595   479 net.cpp:408] conv4_3_norm_mbox_loc_perm -> conv4_3_norm_mbox_loc_perm
I1217 07:24:17.786680   479 net.cpp:150] Setting up conv4_3_norm_mbox_loc_perm
I1217 07:24:17.786689   479 net.cpp:157] Top shape: 8 63 63 16 (508032)
I1217 07:24:17.786695   479 net.cpp:165] Memory required for data: 5493998624
I1217 07:24:17.786700   479 layer_factory.hpp:77] Creating layer conv4_3_norm_mbox_loc_flat
I1217 07:24:17.786710   479 net.cpp:100] Creating Layer conv4_3_norm_mbox_loc_flat
I1217 07:24:17.786716   479 net.cpp:434] conv4_3_norm_mbox_loc_flat <- conv4_3_norm_mbox_loc_perm
I1217 07:24:17.786725   479 net.cpp:408] conv4_3_norm_mbox_loc_flat -> conv4_3_norm_mbox_loc_flat
I1217 07:24:17.786757   479 net.cpp:150] Setting up conv4_3_norm_mbox_loc_flat
I1217 07:24:17.786765   479 net.cpp:157] Top shape: 8 63504 (508032)
I1217 07:24:17.786770   479 net.cpp:165] Memory required for data: 5496030752
I1217 07:24:17.786777   479 layer_factory.hpp:77] Creating layer conv4_3_norm_mbox_conf
I1217 07:24:17.786793   479 net.cpp:100] Creating Layer conv4_3_norm_mbox_conf
I1217 07:24:17.786798   479 net.cpp:434] conv4_3_norm_mbox_conf <- conv4_3_norm_conv4_3_norm_0_split_1
I1217 07:24:17.786808   479 net.cpp:408] conv4_3_norm_mbox_conf -> conv4_3_norm_mbox_conf
I1217 07:24:17.788105   479 net.cpp:150] Setting up conv4_3_norm_mbox_conf
I1217 07:24:17.788115   479 net.cpp:157] Top shape: 8 8 63 63 (254016)
I1217 07:24:17.788121   479 net.cpp:165] Memory required for data: 5497046816
I1217 07:24:17.788131   479 layer_factory.hpp:77] Creating layer conv4_3_norm_mbox_conf_perm
I1217 07:24:17.788141   479 net.cpp:100] Creating Layer conv4_3_norm_mbox_conf_perm
I1217 07:24:17.788146   479 net.cpp:434] conv4_3_norm_mbox_conf_perm <- conv4_3_norm_mbox_conf
I1217 07:24:17.788156   479 net.cpp:408] conv4_3_norm_mbox_conf_perm -> conv4_3_norm_mbox_conf_perm
I1217 07:24:17.788285   479 net.cpp:150] Setting up conv4_3_norm_mbox_conf_perm
I1217 07:24:17.788292   479 net.cpp:157] Top shape: 8 63 63 8 (254016)
I1217 07:24:17.788319   479 net.cpp:165] Memory required for data: 5498062880
I1217 07:24:17.788326   479 layer_factory.hpp:77] Creating layer conv4_3_norm_mbox_conf_flat
I1217 07:24:17.788349   479 net.cpp:100] Creating Layer conv4_3_norm_mbox_conf_flat
I1217 07:24:17.788355   479 net.cpp:434] conv4_3_norm_mbox_conf_flat <- conv4_3_norm_mbox_conf_perm
I1217 07:24:17.788378   479 net.cpp:408] conv4_3_norm_mbox_conf_flat -> conv4_3_norm_mbox_conf_flat
I1217 07:24:17.788414   479 net.cpp:150] Setting up conv4_3_norm_mbox_conf_flat
I1217 07:24:17.788421   479 net.cpp:157] Top shape: 8 31752 (254016)
I1217 07:24:17.788426   479 net.cpp:165] Memory required for data: 5499078944
I1217 07:24:17.788432   479 layer_factory.hpp:77] Creating layer conv4_3_norm_mbox_priorbox
I1217 07:24:17.788444   479 net.cpp:100] Creating Layer conv4_3_norm_mbox_priorbox
I1217 07:24:17.788450   479 net.cpp:434] conv4_3_norm_mbox_priorbox <- conv4_3_norm_conv4_3_norm_0_split_2
I1217 07:24:17.788456   479 net.cpp:434] conv4_3_norm_mbox_priorbox <- data_data_0_split_1
I1217 07:24:17.788465   479 net.cpp:408] conv4_3_norm_mbox_priorbox -> conv4_3_norm_mbox_priorbox
I1217 07:24:17.788491   479 net.cpp:150] Setting up conv4_3_norm_mbox_priorbox
I1217 07:24:17.788498   479 net.cpp:157] Top shape: 1 2 63504 (127008)
I1217 07:24:17.788503   479 net.cpp:165] Memory required for data: 5499586976
I1217 07:24:17.788509   479 layer_factory.hpp:77] Creating layer fc7_mbox_loc
I1217 07:24:17.788522   479 net.cpp:100] Creating Layer fc7_mbox_loc
I1217 07:24:17.788528   479 net.cpp:434] fc7_mbox_loc <- fc7_relu7_0_split_1
I1217 07:24:17.788537   479 net.cpp:408] fc7_mbox_loc -> fc7_mbox_loc
I1217 07:24:17.790560   479 net.cpp:150] Setting up fc7_mbox_loc
I1217 07:24:17.790571   479 net.cpp:157] Top shape: 8 24 32 32 (196608)
I1217 07:24:17.790577   479 net.cpp:165] Memory required for data: 5500373408
I1217 07:24:17.790587   479 layer_factory.hpp:77] Creating layer fc7_mbox_loc_perm
I1217 07:24:17.790596   479 net.cpp:100] Creating Layer fc7_mbox_loc_perm
I1217 07:24:17.790601   479 net.cpp:434] fc7_mbox_loc_perm <- fc7_mbox_loc
I1217 07:24:17.790612   479 net.cpp:408] fc7_mbox_loc_perm -> fc7_mbox_loc_perm
I1217 07:24:17.790699   479 net.cpp:150] Setting up fc7_mbox_loc_perm
I1217 07:24:17.790706   479 net.cpp:157] Top shape: 8 32 32 24 (196608)
I1217 07:24:17.790712   479 net.cpp:165] Memory required for data: 5501159840
I1217 07:24:17.790719   479 layer_factory.hpp:77] Creating layer fc7_mbox_loc_flat
I1217 07:24:17.790727   479 net.cpp:100] Creating Layer fc7_mbox_loc_flat
I1217 07:24:17.790732   479 net.cpp:434] fc7_mbox_loc_flat <- fc7_mbox_loc_perm
I1217 07:24:17.790740   479 net.cpp:408] fc7_mbox_loc_flat -> fc7_mbox_loc_flat
I1217 07:24:17.790765   479 net.cpp:150] Setting up fc7_mbox_loc_flat
I1217 07:24:17.790771   479 net.cpp:157] Top shape: 8 24576 (196608)
I1217 07:24:17.790776   479 net.cpp:165] Memory required for data: 5501946272
I1217 07:24:17.790781   479 layer_factory.hpp:77] Creating layer fc7_mbox_conf
I1217 07:24:17.790793   479 net.cpp:100] Creating Layer fc7_mbox_conf
I1217 07:24:17.790799   479 net.cpp:434] fc7_mbox_conf <- fc7_relu7_0_split_2
I1217 07:24:17.790809   479 net.cpp:408] fc7_mbox_conf -> fc7_mbox_conf
I1217 07:24:17.792388   479 net.cpp:150] Setting up fc7_mbox_conf
I1217 07:24:17.792399   479 net.cpp:157] Top shape: 8 12 32 32 (98304)
I1217 07:24:17.792404   479 net.cpp:165] Memory required for data: 5502339488
I1217 07:24:17.792415   479 layer_factory.hpp:77] Creating layer fc7_mbox_conf_perm
I1217 07:24:17.792424   479 net.cpp:100] Creating Layer fc7_mbox_conf_perm
I1217 07:24:17.792430   479 net.cpp:434] fc7_mbox_conf_perm <- fc7_mbox_conf
I1217 07:24:17.792438   479 net.cpp:408] fc7_mbox_conf_perm -> fc7_mbox_conf_perm
I1217 07:24:17.792526   479 net.cpp:150] Setting up fc7_mbox_conf_perm
I1217 07:24:17.792533   479 net.cpp:157] Top shape: 8 32 32 12 (98304)
I1217 07:24:17.792539   479 net.cpp:165] Memory required for data: 5502732704
I1217 07:24:17.792544   479 layer_factory.hpp:77] Creating layer fc7_mbox_conf_flat
I1217 07:24:17.792585   479 net.cpp:100] Creating Layer fc7_mbox_conf_flat
I1217 07:24:17.792593   479 net.cpp:434] fc7_mbox_conf_flat <- fc7_mbox_conf_perm
I1217 07:24:17.792600   479 net.cpp:408] fc7_mbox_conf_flat -> fc7_mbox_conf_flat
I1217 07:24:17.792637   479 net.cpp:150] Setting up fc7_mbox_conf_flat
I1217 07:24:17.792644   479 net.cpp:157] Top shape: 8 12288 (98304)
I1217 07:24:17.792650   479 net.cpp:165] Memory required for data: 5503125920
I1217 07:24:17.792656   479 layer_factory.hpp:77] Creating layer fc7_mbox_priorbox
I1217 07:24:17.792666   479 net.cpp:100] Creating Layer fc7_mbox_priorbox
I1217 07:24:17.792672   479 net.cpp:434] fc7_mbox_priorbox <- fc7_relu7_0_split_3
I1217 07:24:17.792680   479 net.cpp:434] fc7_mbox_priorbox <- data_data_0_split_2
I1217 07:24:17.792687   479 net.cpp:408] fc7_mbox_priorbox -> fc7_mbox_priorbox
I1217 07:24:17.792713   479 net.cpp:150] Setting up fc7_mbox_priorbox
I1217 07:24:17.792721   479 net.cpp:157] Top shape: 1 2 24576 (49152)
I1217 07:24:17.792726   479 net.cpp:165] Memory required for data: 5503322528
I1217 07:24:17.792732   479 layer_factory.hpp:77] Creating layer conv6_2_mbox_loc
I1217 07:24:17.792744   479 net.cpp:100] Creating Layer conv6_2_mbox_loc
I1217 07:24:17.792750   479 net.cpp:434] conv6_2_mbox_loc <- conv6_2_conv6_2_relu_0_split_1
I1217 07:24:17.792758   479 net.cpp:408] conv6_2_mbox_loc -> conv6_2_mbox_loc
I1217 07:24:17.794363   479 net.cpp:150] Setting up conv6_2_mbox_loc
I1217 07:24:17.794374   479 net.cpp:157] Top shape: 8 24 16 16 (49152)
I1217 07:24:17.794379   479 net.cpp:165] Memory required for data: 5503519136
I1217 07:24:17.794390   479 layer_factory.hpp:77] Creating layer conv6_2_mbox_loc_perm
I1217 07:24:17.794399   479 net.cpp:100] Creating Layer conv6_2_mbox_loc_perm
I1217 07:24:17.794404   479 net.cpp:434] conv6_2_mbox_loc_perm <- conv6_2_mbox_loc
I1217 07:24:17.794412   479 net.cpp:408] conv6_2_mbox_loc_perm -> conv6_2_mbox_loc_perm
I1217 07:24:17.794497   479 net.cpp:150] Setting up conv6_2_mbox_loc_perm
I1217 07:24:17.794503   479 net.cpp:157] Top shape: 8 16 16 24 (49152)
I1217 07:24:17.794509   479 net.cpp:165] Memory required for data: 5503715744
I1217 07:24:17.794514   479 layer_factory.hpp:77] Creating layer conv6_2_mbox_loc_flat
I1217 07:24:17.794523   479 net.cpp:100] Creating Layer conv6_2_mbox_loc_flat
I1217 07:24:17.794528   479 net.cpp:434] conv6_2_mbox_loc_flat <- conv6_2_mbox_loc_perm
I1217 07:24:17.794538   479 net.cpp:408] conv6_2_mbox_loc_flat -> conv6_2_mbox_loc_flat
I1217 07:24:17.794561   479 net.cpp:150] Setting up conv6_2_mbox_loc_flat
I1217 07:24:17.794569   479 net.cpp:157] Top shape: 8 6144 (49152)
I1217 07:24:17.794574   479 net.cpp:165] Memory required for data: 5503912352
I1217 07:24:17.794580   479 layer_factory.hpp:77] Creating layer conv6_2_mbox_conf
I1217 07:24:17.794591   479 net.cpp:100] Creating Layer conv6_2_mbox_conf
I1217 07:24:17.794597   479 net.cpp:434] conv6_2_mbox_conf <- conv6_2_conv6_2_relu_0_split_2
I1217 07:24:17.794608   479 net.cpp:408] conv6_2_mbox_conf -> conv6_2_mbox_conf
I1217 07:24:17.795986   479 net.cpp:150] Setting up conv6_2_mbox_conf
I1217 07:24:17.795996   479 net.cpp:157] Top shape: 8 12 16 16 (24576)
I1217 07:24:17.796001   479 net.cpp:165] Memory required for data: 5504010656
I1217 07:24:17.796011   479 layer_factory.hpp:77] Creating layer conv6_2_mbox_conf_perm
I1217 07:24:17.796020   479 net.cpp:100] Creating Layer conv6_2_mbox_conf_perm
I1217 07:24:17.796025   479 net.cpp:434] conv6_2_mbox_conf_perm <- conv6_2_mbox_conf
I1217 07:24:17.796036   479 net.cpp:408] conv6_2_mbox_conf_perm -> conv6_2_mbox_conf_perm
I1217 07:24:17.796123   479 net.cpp:150] Setting up conv6_2_mbox_conf_perm
I1217 07:24:17.796130   479 net.cpp:157] Top shape: 8 16 16 12 (24576)
I1217 07:24:17.796136   479 net.cpp:165] Memory required for data: 5504108960
I1217 07:24:17.796141   479 layer_factory.hpp:77] Creating layer conv6_2_mbox_conf_flat
I1217 07:24:17.796150   479 net.cpp:100] Creating Layer conv6_2_mbox_conf_flat
I1217 07:24:17.796156   479 net.cpp:434] conv6_2_mbox_conf_flat <- conv6_2_mbox_conf_perm
I1217 07:24:17.796172   479 net.cpp:408] conv6_2_mbox_conf_flat -> conv6_2_mbox_conf_flat
I1217 07:24:17.796196   479 net.cpp:150] Setting up conv6_2_mbox_conf_flat
I1217 07:24:17.796203   479 net.cpp:157] Top shape: 8 3072 (24576)
I1217 07:24:17.796208   479 net.cpp:165] Memory required for data: 5504207264
I1217 07:24:17.796214   479 layer_factory.hpp:77] Creating layer conv6_2_mbox_priorbox
I1217 07:24:17.796224   479 net.cpp:100] Creating Layer conv6_2_mbox_priorbox
I1217 07:24:17.796231   479 net.cpp:434] conv6_2_mbox_priorbox <- conv6_2_conv6_2_relu_0_split_3
I1217 07:24:17.796237   479 net.cpp:434] conv6_2_mbox_priorbox <- data_data_0_split_3
I1217 07:24:17.796247   479 net.cpp:408] conv6_2_mbox_priorbox -> conv6_2_mbox_priorbox
I1217 07:24:17.796270   479 net.cpp:150] Setting up conv6_2_mbox_priorbox
I1217 07:24:17.796277   479 net.cpp:157] Top shape: 1 2 6144 (12288)
I1217 07:24:17.796283   479 net.cpp:165] Memory required for data: 5504256416
I1217 07:24:17.796288   479 layer_factory.hpp:77] Creating layer conv7_2_mbox_loc
I1217 07:24:17.796300   479 net.cpp:100] Creating Layer conv7_2_mbox_loc
I1217 07:24:17.796306   479 net.cpp:434] conv7_2_mbox_loc <- conv7_2_conv7_2_relu_0_split_1
I1217 07:24:17.796315   479 net.cpp:408] conv7_2_mbox_loc -> conv7_2_mbox_loc
I1217 07:24:17.797740   479 net.cpp:150] Setting up conv7_2_mbox_loc
I1217 07:24:17.797751   479 net.cpp:157] Top shape: 8 24 8 8 (12288)
I1217 07:24:17.797757   479 net.cpp:165] Memory required for data: 5504305568
I1217 07:24:17.797766   479 layer_factory.hpp:77] Creating layer conv7_2_mbox_loc_perm
I1217 07:24:17.797776   479 net.cpp:100] Creating Layer conv7_2_mbox_loc_perm
I1217 07:24:17.797782   479 net.cpp:434] conv7_2_mbox_loc_perm <- conv7_2_mbox_loc
I1217 07:24:17.797791   479 net.cpp:408] conv7_2_mbox_loc_perm -> conv7_2_mbox_loc_perm
I1217 07:24:17.797878   479 net.cpp:150] Setting up conv7_2_mbox_loc_perm
I1217 07:24:17.797886   479 net.cpp:157] Top shape: 8 8 8 24 (12288)
I1217 07:24:17.797891   479 net.cpp:165] Memory required for data: 5504354720
I1217 07:24:17.797899   479 layer_factory.hpp:77] Creating layer conv7_2_mbox_loc_flat
I1217 07:24:17.797905   479 net.cpp:100] Creating Layer conv7_2_mbox_loc_flat
I1217 07:24:17.797911   479 net.cpp:434] conv7_2_mbox_loc_flat <- conv7_2_mbox_loc_perm
I1217 07:24:17.797919   479 net.cpp:408] conv7_2_mbox_loc_flat -> conv7_2_mbox_loc_flat
I1217 07:24:17.797942   479 net.cpp:150] Setting up conv7_2_mbox_loc_flat
I1217 07:24:17.797950   479 net.cpp:157] Top shape: 8 1536 (12288)
I1217 07:24:17.797955   479 net.cpp:165] Memory required for data: 5504403872
I1217 07:24:17.797960   479 layer_factory.hpp:77] Creating layer conv7_2_mbox_conf
I1217 07:24:17.797972   479 net.cpp:100] Creating Layer conv7_2_mbox_conf
I1217 07:24:17.797977   479 net.cpp:434] conv7_2_mbox_conf <- conv7_2_conv7_2_relu_0_split_2
I1217 07:24:17.797988   479 net.cpp:408] conv7_2_mbox_conf -> conv7_2_mbox_conf
I1217 07:24:17.799280   479 net.cpp:150] Setting up conv7_2_mbox_conf
I1217 07:24:17.799291   479 net.cpp:157] Top shape: 8 12 8 8 (6144)
I1217 07:24:17.799296   479 net.cpp:165] Memory required for data: 5504428448
I1217 07:24:17.799304   479 layer_factory.hpp:77] Creating layer conv7_2_mbox_conf_perm
I1217 07:24:17.799314   479 net.cpp:100] Creating Layer conv7_2_mbox_conf_perm
I1217 07:24:17.799320   479 net.cpp:434] conv7_2_mbox_conf_perm <- conv7_2_mbox_conf
I1217 07:24:17.799329   479 net.cpp:408] conv7_2_mbox_conf_perm -> conv7_2_mbox_conf_perm
I1217 07:24:17.799419   479 net.cpp:150] Setting up conv7_2_mbox_conf_perm
I1217 07:24:17.799427   479 net.cpp:157] Top shape: 8 8 8 12 (6144)
I1217 07:24:17.799432   479 net.cpp:165] Memory required for data: 5504453024
I1217 07:24:17.799437   479 layer_factory.hpp:77] Creating layer conv7_2_mbox_conf_flat
I1217 07:24:17.799446   479 net.cpp:100] Creating Layer conv7_2_mbox_conf_flat
I1217 07:24:17.799453   479 net.cpp:434] conv7_2_mbox_conf_flat <- conv7_2_mbox_conf_perm
I1217 07:24:17.799461   479 net.cpp:408] conv7_2_mbox_conf_flat -> conv7_2_mbox_conf_flat
I1217 07:24:17.799494   479 net.cpp:150] Setting up conv7_2_mbox_conf_flat
I1217 07:24:17.799500   479 net.cpp:157] Top shape: 8 768 (6144)
I1217 07:24:17.799505   479 net.cpp:165] Memory required for data: 5504477600
I1217 07:24:17.799512   479 layer_factory.hpp:77] Creating layer conv7_2_mbox_priorbox
I1217 07:24:17.799521   479 net.cpp:100] Creating Layer conv7_2_mbox_priorbox
I1217 07:24:17.799527   479 net.cpp:434] conv7_2_mbox_priorbox <- conv7_2_conv7_2_relu_0_split_3
I1217 07:24:17.799535   479 net.cpp:434] conv7_2_mbox_priorbox <- data_data_0_split_4
I1217 07:24:17.799543   479 net.cpp:408] conv7_2_mbox_priorbox -> conv7_2_mbox_priorbox
I1217 07:24:17.799567   479 net.cpp:150] Setting up conv7_2_mbox_priorbox
I1217 07:24:17.799574   479 net.cpp:157] Top shape: 1 2 1536 (3072)
I1217 07:24:17.799579   479 net.cpp:165] Memory required for data: 5504489888
I1217 07:24:17.799585   479 layer_factory.hpp:77] Creating layer conv8_2_mbox_loc
I1217 07:24:17.799597   479 net.cpp:100] Creating Layer conv8_2_mbox_loc
I1217 07:24:17.799603   479 net.cpp:434] conv8_2_mbox_loc <- conv8_2_conv8_2_relu_0_split_1
I1217 07:24:17.799612   479 net.cpp:408] conv8_2_mbox_loc -> conv8_2_mbox_loc
I1217 07:24:17.800990   479 net.cpp:150] Setting up conv8_2_mbox_loc
I1217 07:24:17.801002   479 net.cpp:157] Top shape: 8 16 6 6 (4608)
I1217 07:24:17.801005   479 net.cpp:165] Memory required for data: 5504508320
I1217 07:24:17.801021   479 layer_factory.hpp:77] Creating layer conv8_2_mbox_loc_perm
I1217 07:24:17.801030   479 net.cpp:100] Creating Layer conv8_2_mbox_loc_perm
I1217 07:24:17.801036   479 net.cpp:434] conv8_2_mbox_loc_perm <- conv8_2_mbox_loc
I1217 07:24:17.801045   479 net.cpp:408] conv8_2_mbox_loc_perm -> conv8_2_mbox_loc_perm
I1217 07:24:17.801136   479 net.cpp:150] Setting up conv8_2_mbox_loc_perm
I1217 07:24:17.801142   479 net.cpp:157] Top shape: 8 6 6 16 (4608)
I1217 07:24:17.801147   479 net.cpp:165] Memory required for data: 5504526752
I1217 07:24:17.801153   479 layer_factory.hpp:77] Creating layer conv8_2_mbox_loc_flat
I1217 07:24:17.801160   479 net.cpp:100] Creating Layer conv8_2_mbox_loc_flat
I1217 07:24:17.801167   479 net.cpp:434] conv8_2_mbox_loc_flat <- conv8_2_mbox_loc_perm
I1217 07:24:17.801175   479 net.cpp:408] conv8_2_mbox_loc_flat -> conv8_2_mbox_loc_flat
I1217 07:24:17.801199   479 net.cpp:150] Setting up conv8_2_mbox_loc_flat
I1217 07:24:17.801206   479 net.cpp:157] Top shape: 8 576 (4608)
I1217 07:24:17.801211   479 net.cpp:165] Memory required for data: 5504545184
I1217 07:24:17.801218   479 layer_factory.hpp:77] Creating layer conv8_2_mbox_conf
I1217 07:24:17.801229   479 net.cpp:100] Creating Layer conv8_2_mbox_conf
I1217 07:24:17.801234   479 net.cpp:434] conv8_2_mbox_conf <- conv8_2_conv8_2_relu_0_split_2
I1217 07:24:17.801244   479 net.cpp:408] conv8_2_mbox_conf -> conv8_2_mbox_conf
I1217 07:24:17.802510   479 net.cpp:150] Setting up conv8_2_mbox_conf
I1217 07:24:17.802520   479 net.cpp:157] Top shape: 8 8 6 6 (2304)
I1217 07:24:17.802525   479 net.cpp:165] Memory required for data: 5504554400
I1217 07:24:17.802532   479 layer_factory.hpp:77] Creating layer conv8_2_mbox_conf_perm
I1217 07:24:17.802541   479 net.cpp:100] Creating Layer conv8_2_mbox_conf_perm
I1217 07:24:17.802547   479 net.cpp:434] conv8_2_mbox_conf_perm <- conv8_2_mbox_conf
I1217 07:24:17.802559   479 net.cpp:408] conv8_2_mbox_conf_perm -> conv8_2_mbox_conf_perm
I1217 07:24:17.802649   479 net.cpp:150] Setting up conv8_2_mbox_conf_perm
I1217 07:24:17.802656   479 net.cpp:157] Top shape: 8 6 6 8 (2304)
I1217 07:24:17.802661   479 net.cpp:165] Memory required for data: 5504563616
I1217 07:24:17.802666   479 layer_factory.hpp:77] Creating layer conv8_2_mbox_conf_flat
I1217 07:24:17.802675   479 net.cpp:100] Creating Layer conv8_2_mbox_conf_flat
I1217 07:24:17.802681   479 net.cpp:434] conv8_2_mbox_conf_flat <- conv8_2_mbox_conf_perm
I1217 07:24:17.802690   479 net.cpp:408] conv8_2_mbox_conf_flat -> conv8_2_mbox_conf_flat
I1217 07:24:17.802713   479 net.cpp:150] Setting up conv8_2_mbox_conf_flat
I1217 07:24:17.802719   479 net.cpp:157] Top shape: 8 288 (2304)
I1217 07:24:17.802733   479 net.cpp:165] Memory required for data: 5504572832
I1217 07:24:17.802739   479 layer_factory.hpp:77] Creating layer conv8_2_mbox_priorbox
I1217 07:24:17.802748   479 net.cpp:100] Creating Layer conv8_2_mbox_priorbox
I1217 07:24:17.802754   479 net.cpp:434] conv8_2_mbox_priorbox <- conv8_2_conv8_2_relu_0_split_3
I1217 07:24:17.802762   479 net.cpp:434] conv8_2_mbox_priorbox <- data_data_0_split_5
I1217 07:24:17.802770   479 net.cpp:408] conv8_2_mbox_priorbox -> conv8_2_mbox_priorbox
I1217 07:24:17.802795   479 net.cpp:150] Setting up conv8_2_mbox_priorbox
I1217 07:24:17.802803   479 net.cpp:157] Top shape: 1 2 576 (1152)
I1217 07:24:17.802809   479 net.cpp:165] Memory required for data: 5504577440
I1217 07:24:17.802814   479 layer_factory.hpp:77] Creating layer conv9_2_mbox_loc
I1217 07:24:17.802825   479 net.cpp:100] Creating Layer conv9_2_mbox_loc
I1217 07:24:17.802830   479 net.cpp:434] conv9_2_mbox_loc <- conv9_2_conv9_2_relu_0_split_0
I1217 07:24:17.802840   479 net.cpp:408] conv9_2_mbox_loc -> conv9_2_mbox_loc
I1217 07:24:17.804863   479 net.cpp:150] Setting up conv9_2_mbox_loc
I1217 07:24:17.804877   479 net.cpp:157] Top shape: 8 16 4 4 (2048)
I1217 07:24:17.804880   479 net.cpp:165] Memory required for data: 5504585632
I1217 07:24:17.804889   479 layer_factory.hpp:77] Creating layer conv9_2_mbox_loc_perm
I1217 07:24:17.804899   479 net.cpp:100] Creating Layer conv9_2_mbox_loc_perm
I1217 07:24:17.804905   479 net.cpp:434] conv9_2_mbox_loc_perm <- conv9_2_mbox_loc
I1217 07:24:17.804913   479 net.cpp:408] conv9_2_mbox_loc_perm -> conv9_2_mbox_loc_perm
I1217 07:24:17.804999   479 net.cpp:150] Setting up conv9_2_mbox_loc_perm
I1217 07:24:17.805007   479 net.cpp:157] Top shape: 8 4 4 16 (2048)
I1217 07:24:17.805012   479 net.cpp:165] Memory required for data: 5504593824
I1217 07:24:17.805017   479 layer_factory.hpp:77] Creating layer conv9_2_mbox_loc_flat
I1217 07:24:17.805027   479 net.cpp:100] Creating Layer conv9_2_mbox_loc_flat
I1217 07:24:17.805033   479 net.cpp:434] conv9_2_mbox_loc_flat <- conv9_2_mbox_loc_perm
I1217 07:24:17.805042   479 net.cpp:408] conv9_2_mbox_loc_flat -> conv9_2_mbox_loc_flat
I1217 07:24:17.805065   479 net.cpp:150] Setting up conv9_2_mbox_loc_flat
I1217 07:24:17.805073   479 net.cpp:157] Top shape: 8 256 (2048)
I1217 07:24:17.805076   479 net.cpp:165] Memory required for data: 5504602016
I1217 07:24:17.805083   479 layer_factory.hpp:77] Creating layer conv9_2_mbox_conf
I1217 07:24:17.805094   479 net.cpp:100] Creating Layer conv9_2_mbox_conf
I1217 07:24:17.805099   479 net.cpp:434] conv9_2_mbox_conf <- conv9_2_conv9_2_relu_0_split_1
I1217 07:24:17.805109   479 net.cpp:408] conv9_2_mbox_conf -> conv9_2_mbox_conf
I1217 07:24:17.806092   479 net.cpp:150] Setting up conv9_2_mbox_conf
I1217 07:24:17.806103   479 net.cpp:157] Top shape: 8 8 4 4 (1024)
I1217 07:24:17.806108   479 net.cpp:165] Memory required for data: 5504606112
I1217 07:24:17.806118   479 layer_factory.hpp:77] Creating layer conv9_2_mbox_conf_perm
I1217 07:24:17.806126   479 net.cpp:100] Creating Layer conv9_2_mbox_conf_perm
I1217 07:24:17.806133   479 net.cpp:434] conv9_2_mbox_conf_perm <- conv9_2_mbox_conf
I1217 07:24:17.806141   479 net.cpp:408] conv9_2_mbox_conf_perm -> conv9_2_mbox_conf_perm
I1217 07:24:17.806228   479 net.cpp:150] Setting up conv9_2_mbox_conf_perm
I1217 07:24:17.806236   479 net.cpp:157] Top shape: 8 4 4 8 (1024)
I1217 07:24:17.806241   479 net.cpp:165] Memory required for data: 5504610208
I1217 07:24:17.806246   479 layer_factory.hpp:77] Creating layer conv9_2_mbox_conf_flat
I1217 07:24:17.806255   479 net.cpp:100] Creating Layer conv9_2_mbox_conf_flat
I1217 07:24:17.806262   479 net.cpp:434] conv9_2_mbox_conf_flat <- conv9_2_mbox_conf_perm
I1217 07:24:17.806269   479 net.cpp:408] conv9_2_mbox_conf_flat -> conv9_2_mbox_conf_flat
I1217 07:24:17.806293   479 net.cpp:150] Setting up conv9_2_mbox_conf_flat
I1217 07:24:17.806300   479 net.cpp:157] Top shape: 8 128 (1024)
I1217 07:24:17.806304   479 net.cpp:165] Memory required for data: 5504614304
I1217 07:24:17.806310   479 layer_factory.hpp:77] Creating layer conv9_2_mbox_priorbox
I1217 07:24:17.806327   479 net.cpp:100] Creating Layer conv9_2_mbox_priorbox
I1217 07:24:17.806334   479 net.cpp:434] conv9_2_mbox_priorbox <- conv9_2_conv9_2_relu_0_split_2
I1217 07:24:17.806341   479 net.cpp:434] conv9_2_mbox_priorbox <- data_data_0_split_6
I1217 07:24:17.806349   479 net.cpp:408] conv9_2_mbox_priorbox -> conv9_2_mbox_priorbox
I1217 07:24:17.806375   479 net.cpp:150] Setting up conv9_2_mbox_priorbox
I1217 07:24:17.806382   479 net.cpp:157] Top shape: 1 2 256 (512)
I1217 07:24:17.806388   479 net.cpp:165] Memory required for data: 5504616352
I1217 07:24:17.806393   479 layer_factory.hpp:77] Creating layer mbox_loc
I1217 07:24:17.806407   479 net.cpp:100] Creating Layer mbox_loc
I1217 07:24:17.806413   479 net.cpp:434] mbox_loc <- conv4_3_norm_mbox_loc_flat
I1217 07:24:17.806421   479 net.cpp:434] mbox_loc <- fc7_mbox_loc_flat
I1217 07:24:17.806428   479 net.cpp:434] mbox_loc <- conv6_2_mbox_loc_flat
I1217 07:24:17.806435   479 net.cpp:434] mbox_loc <- conv7_2_mbox_loc_flat
I1217 07:24:17.806442   479 net.cpp:434] mbox_loc <- conv8_2_mbox_loc_flat
I1217 07:24:17.806448   479 net.cpp:434] mbox_loc <- conv9_2_mbox_loc_flat
I1217 07:24:17.806457   479 net.cpp:408] mbox_loc -> mbox_loc
I1217 07:24:17.806483   479 net.cpp:150] Setting up mbox_loc
I1217 07:24:17.806490   479 net.cpp:157] Top shape: 8 96592 (772736)
I1217 07:24:17.806496   479 net.cpp:165] Memory required for data: 5507707296
I1217 07:24:17.806502   479 layer_factory.hpp:77] Creating layer mbox_conf
I1217 07:24:17.806510   479 net.cpp:100] Creating Layer mbox_conf
I1217 07:24:17.806516   479 net.cpp:434] mbox_conf <- conv4_3_norm_mbox_conf_flat
I1217 07:24:17.806524   479 net.cpp:434] mbox_conf <- fc7_mbox_conf_flat
I1217 07:24:17.806530   479 net.cpp:434] mbox_conf <- conv6_2_mbox_conf_flat
I1217 07:24:17.806537   479 net.cpp:434] mbox_conf <- conv7_2_mbox_conf_flat
I1217 07:24:17.806545   479 net.cpp:434] mbox_conf <- conv8_2_mbox_conf_flat
I1217 07:24:17.806550   479 net.cpp:434] mbox_conf <- conv9_2_mbox_conf_flat
I1217 07:24:17.806558   479 net.cpp:408] mbox_conf -> mbox_conf
I1217 07:24:17.806581   479 net.cpp:150] Setting up mbox_conf
I1217 07:24:17.806588   479 net.cpp:157] Top shape: 8 48296 (386368)
I1217 07:24:17.806593   479 net.cpp:165] Memory required for data: 5509252768
I1217 07:24:17.806599   479 layer_factory.hpp:77] Creating layer mbox_priorbox
I1217 07:24:17.806608   479 net.cpp:100] Creating Layer mbox_priorbox
I1217 07:24:17.806614   479 net.cpp:434] mbox_priorbox <- conv4_3_norm_mbox_priorbox
I1217 07:24:17.806622   479 net.cpp:434] mbox_priorbox <- fc7_mbox_priorbox
I1217 07:24:17.806628   479 net.cpp:434] mbox_priorbox <- conv6_2_mbox_priorbox
I1217 07:24:17.806635   479 net.cpp:434] mbox_priorbox <- conv7_2_mbox_priorbox
I1217 07:24:17.806640   479 net.cpp:434] mbox_priorbox <- conv8_2_mbox_priorbox
I1217 07:24:17.806648   479 net.cpp:434] mbox_priorbox <- conv9_2_mbox_priorbox
I1217 07:24:17.806654   479 net.cpp:408] mbox_priorbox -> mbox_priorbox
I1217 07:24:17.806677   479 net.cpp:150] Setting up mbox_priorbox
I1217 07:24:17.806684   479 net.cpp:157] Top shape: 1 2 96592 (193184)
I1217 07:24:17.806689   479 net.cpp:165] Memory required for data: 5510025504
I1217 07:24:17.806695   479 layer_factory.hpp:77] Creating layer mbox_loss
I1217 07:24:17.806710   479 net.cpp:100] Creating Layer mbox_loss
I1217 07:24:17.806716   479 net.cpp:434] mbox_loss <- mbox_loc
I1217 07:24:17.806723   479 net.cpp:434] mbox_loss <- mbox_conf
I1217 07:24:17.806730   479 net.cpp:434] mbox_loss <- mbox_priorbox
…
  transform_param {
    mean_value: 128
    mean_value: 128
    mean_value: 128
    resize_param {
      prob: 1
      resize_mode: WARP
      height: 500
      width: 500
      interp_mode: LINEAR
    }
  }
  data_param {
    source: "/root/mount_out/work2018/cataract_recognition_train_test/detection/diffuse_train_test/diffuse_test_lmdb"
    batch_size: 1
    backend: LMDB
  }
  annotated_data_param {
    batch_sampler {
    }
    label_map_file: "/root/mount_out/work2018/cataract_recognition_train_test/detection/diffuse_train_test/labelmap_pupil.prototxt"
  }
}
layer {
  name: "conv1_1"
  type: "Convolution"
  bottom: "data"
  top: "conv1_1"
  param {
    lr_mult: 1
    decay_mult: 1
  }
  param {
    lr_mult: 2
    decay_mult: 0
  }
  convolution_param {
    num_output: 64
    pad: 1
    kernel_size: 3
    weight_filler {
      type: "xavier"
    }
    bias_filler {
      type: "constant"
      value: 0
    }
  }
}
layer {
  name: "relu1_1"
  type: "ReLU"
  bottom: "conv1_1"
  top: "conv1_1"
}
layer {
  name: "conv1_2"
  type: "Convolution"
  bottom: "conv1_1"
  top: "conv1_2"
  param {
    lr_mult: 1
    decay_mult: 1
  }
  param {
    lr_mult: 2
    decay_mult: 0
  }
  convolution_param {
    num_output: 64
    pad: 1
    kernel_size: 3
    weight_filler {
      type: "xavier"
    }
    bias_filler {
      type: "constant"
      value: 0
    }
  }
}
layer {
  name: "relu1_2"
  type: "ReLU"
  bottom: "conv1_2"
  top: "conv1_2"
}
layer {
  name: "pool1"
  type: "Pooling"
  bottom: "conv1_2"
  top: "pool1"
  pooling_param {
    pool: MAX
    kernel_size: 2
    stride: 2
  }
}
layer {
  name: "conv2_1"
  type: "Convolution"
  bottom: "pool1"
  top: "conv2_1"
  param {
    lr_mult: 1
    decay_mult: 1
  }
  param {
    lr_mult: 2
    decay_mult: 0
  }
  convolution_param {
    num_output: 128
    pad: 1
    kernel_size: 3
    weight_filler {
      type: "xavier"
    }
    bias_filler {
      type: "constant"
      value: 0
    }
  }
}
layer {
  name: "relu2_1"
  type: "ReLU"
  bottom: "conv2_1"
  top: "conv2_1"
}
layer {
  name: "conv2_2"
  type: "Convolution"
  bottom: "conv2_1"
  top: "conv2_2"
  param {
    lr_mult: 1
    decay_mult: 1
  }
  param {
    lr_mult: 2
    decay_mult: 0
  }
  convolution_param {
    num_output: 128
    pad: 1
    kernel_size: 3
    weight_filler {
      type: "xavier"
    }
    bias_filler {
      type: "constant"
      value: 0
    }
  }
}
layer {
  name: "relu2_2"
  type: "ReLU"
  bottom: "conv2_2"
  top: "conv2_2"
}
layer {
  name: "pool2"
  type: "Pooling"
  bottom: "conv2_2"
  top: "pool2"
  pooling_param {
    pool: MAX
    kernel_size: 2
    stride: 2
  }
}
layer {
  name: "conv3_1"
  type: "Convolution"
  bottom: "pool2"
  top: "conv3_1"
  param {
    lr_mult: 1
    decay_mult: 1
  }
  param {
    lr_mult: 2
    decay_mult: 0
  }
  convolution_param {
    num_output: 256
    pad: 1
    kernel_size: 3
    weight_filler {
      type: "xavier"
    }
    bias_filler {
      type: "constant"
      value: 0
    }
  }
}
layer {
  name: "relu3_1"
  type: "ReLU"
  bottom: "conv3_1"
  top: "conv3_1"
}
layer {
  name: "conv3_2"
  type: "Convolution"
  bottom: "conv3_1"
  top: "conv3_2"
  param {
    lr_mult: 1
    decay_mult: 1
  }
  param {
    lr_mult: 2
    decay_mult: 0
  }
  convolution_param {
    num_output: 256
    pad: 1
    kernel_size: 3
    weight_filler {
      type: "xavier"
    }
    bias_filler {
      type: "constant"
      value: 0
    }
  }
}
layer {
  name: "relu3_2"
  type: "ReLU"
  bottom: "conv3_2"
  top: "conv3_2"
}
layer {
  name: "conv3_3"
  type: "Convolution"
  bottom: "conv3_2"
  top: "conv3_3"
  param {
    lr_mult: 1
    decay_mult: 1
  }
  param {
    lr_mult: 2
    decay_mult: 0
  }
  convolution_param {
    num_output: 256
    pad: 1
    kernel_size: 3
    weight_filler {
      type: "xavier"
    }
    bias_filler {
      type: "constant"
      value: 0
    }
  }
}
layer {
  name: "relu3_3"
  type: "ReLU"
  bottom: "conv3_3"
  top: "conv3_3"
}
layer {
  name: "pool3"
  type: "Pooling"
  bottom: "conv3_3"
  top: "pool3"
  pooling_param {
    pool: MAX
    kernel_size: 2
    stride: 2
  }
}
layer {
  name: "conv4_1"
  type: "Convolution"
  bottom: "pool3"
  top: "conv4_1"
  param {
    lr_mult: 1
    decay_mult: 1
  }
  param {
    lr_mult: 2
    decay_mult: 0
  }
  convolution_param {
    num_output: 512
    pad: 1
    kernel_size: 3
    weight_filler {
      type: "xavier"
    }
    bias_filler {
      type: "constant"
      value: 0
    }
  }
}
layer {
  name: "relu4_1"
  type: "ReLU"
  bottom: "conv4_1"
  top: "conv4_1"
}
layer {
  name: "conv4_2"
  type: "Convolution"
  bottom: "conv4_1"
  top: "conv4_2"
  param {
    lr_mult: 1
    decay_mult: 1
  }
  param {
    lr_mult: 2
    decay_mult: 0
  }
  convolution_param {
    num_output: 512
    pad: 1
    kernel_size: 3
    weight_filler {
      type: "xavier"
    }
    bias_filler {
      type: "constant"
      value: 0
    }
  }
}
layer {
  name: "relu4_2"
  type: "ReLU"
  bottom: "conv4_2"
  top: "conv4_2"
}
layer {
  name: "conv4_3"
  type: "Convolution"
  bottom: "conv4_2"
  top: "conv4_3"
  param {
    lr_mult: 1
    decay_mult: 1
  }
  param {
    lr_mult: 2
    decay_mult: 0
  }
  convolution_param {
    num_output: 512
    pad: 1
    kernel_size: 3
    weight_filler {
      type: "xavier"
    }
    bias_filler {
      type: "constant"
      value: 0
    }
  }
}
layer {
  name: "relu4_3"
  type: "ReLU"
  bottom: "conv4_3"
  top: "conv4_3"
}
layer {
  name: "pool4"
  type: "Pooling"
  bottom: "conv4_3"
  top: "pool4"
  pooling_param {
    pool: MAX
    kernel_size: 2
    stride: 2
  }
}
layer {
  name: "conv5_1"
  type: "Convolution"
  bottom: "pool4"
  top: "conv5_1"
  param {
    lr_mult: 1
    decay_mult: 1
  }
  param {
    lr_mult: 2
    decay_mult: 0
  }
  convolution_param {
    num_output: 512
    pad: 1
    kernel_size: 3
    weight_filler {
      type: "xavier"
    }
    bias_filler {
      type: "constant"
      value: 0
    }
    dilation: 1
  }
}
layer {
  name: "relu5_1"
  type: "ReLU"
  bottom: "conv5_1"
  top: "conv5_1"
}
layer {
  name: "conv5_2"
  type: "Convolution"
  bottom: "conv5_1"
  top: "conv5_2"
  param {
    lr_mult: 1
    decay_mult: 1
  }
  param {
    lr_mult: 2
    decay_mult: 0
  }
  convolution_param {
    num_output: 512
    pad: 1
    kernel_size: 3
    weight_filler {
      type: "xavier"
    }
    bias_filler {
      type: "constant"
      value: 0
    }
    dilation: 1
  }
}
layer {
  name: "relu5_2"
  type: "ReLU"
  bottom: "conv5_2"
  top: "conv5_2"
}
layer {
  name: "conv5_3"
  type: "Convolution"
  bottom: "conv5_2"
  top: "conv5_3"
  param {
    lr_mult: 1
    decay_mult: 1
  }
  param {
    lr_mult: 2
    decay_mult: 0
  }
  convolution_param {
    num_output: 512
    pad: 1
    kernel_size: 3
    weight_filler {
      type: "xavier"
    }
    bias_filler {
      type: "constant"
      value: 0
    }
    dilation: 1
  }
}
layer {
  name: "relu5_3"
  type: "ReLU"
  bottom: "conv5_3"
  top: "conv5_3"
}
layer {
  name: "pool5"
  type: "Pooling"
  bottom: "conv5_3"
  top: "pool5"
  pooling_param {
    pool: MAX
    kernel_size: 3
    stride: 1
    pad: 1
  }
}
layer {
  name: "fc6"
  type: "Convolution"
  bottom: "pool5"
  top: "fc6"
  param {
    lr_mult: 1
    decay_mult: 1
  }
  param {
    lr_mult: 2
    decay_mult: 0
  }
  convolution_param {
    num_output: 1024
    pad: 6
    kernel_size: 3
    weight_filler {
      type: "xavier"
    }
    bias_filler {
      type: "constant"
      value: 0
    }
    dilation: 6
  }
}
layer {
  name: "relu6"
  type: "ReLU"
  bottom: "fc6"
  top: "fc6"
}
layer {
  name: "fc7"
  type: "Convolution"
  bottom: "fc6"
  top: "fc7"
  param {
    lr_mult: 1
    decay_mult: 1
  }
  param {
    lr_mult: 2
    decay_mult: 0
  }
  convolution_param {
    num_output: 1024
    kernel_size: 1
    weight_filler {
      type: "xavier"
    }
    bias_filler {
      type: "constant"
      value: 0
    }
  }
}
layer {
  name: "relu7"
  type: "ReLU"
  bottom: "fc7"
  top: "fc7"
}
layer {
  name: "conv6_1"
  type: "Convolution"
  bottom: "fc7"
  top: "conv6_1"
  param {
    lr_mult: 1
    decay_mult: 1
  }
  param {
    lr_mult: 2
    decay_mult: 0
  }
  convolution_param {
    num_output: 256
    pad: 0
    kernel_size: 1
    stride: 1
    weight_filler {
      type: "xavier"
    }
    bias_filler {
      type: "constant"
      value: 0
    }
  }
}
layer {
  name: "conv6_1_relu"
  type: "ReLU"
  bottom: "conv6_1"
  top: "conv6_1"
}
layer {
  name: "conv6_2"
  type: "Convolution"
  bottom: "conv6_1"
  top: "conv6_2"
  param {
    lr_mult: 1
    decay_mult: 1
  }
  param {
    lr_mult: 2
    decay_mult: 0
  }
  convolution_param {
    num_output: 512
    pad: 1
    kernel_size: 3
    stride: 2
    weight_filler {
      type: "xavier"
    }
    bias_filler {
      type: "constant"
      value: 0
    }
  }
}
layer {
  name: "conv6_2_relu"
  type: "ReLU"
  bottom: "conv6_2"
  top: "conv6_2"
}
layer {
  name: "conv7_1"
  type: "Convolution"
  bottom: "conv6_2"
  top: "conv7_1"
  param {
    lr_mult: 1
    decay_mult: 1
  }
  param {
    lr_mult: 2
    decay_mult: 0
  }
  convolution_param {
    num_output: 128
    pad: 0
    kernel_size: 1
    stride: 1
    weight_filler {
      type: "xavier"
    }
    bias_filler {
      type: "constant"
      value: 0
    }
  }
}
layer {
  name: "conv7_1_relu"
  type: "ReLU"
  bottom: "conv7_1"
  top: "conv7_1"
}
layer {
  name: "conv7_2"
  type: "Convolution"
  bottom: "conv7_1"
  top: "conv7_2"
  param {
    lr_mult: 1
    decay_mult: 1
  }
  param {
    lr_mult: 2
    decay_mult: 0
  }
  convolution_param {
    num_output: 256
    pad: 1
    kernel_size: 3
    stride: 2
    weight_filler {
      type: "xavier"
    }
    bias_filler {
      type: "constant"
      value: 0
    }
  }
}
layer {
  name: "conv7_2_relu"
  type: "ReLU"
  bottom: "conv7_2"
  top: "conv7_2"
}
layer {
  name: "conv8_1"
  type: "Convolution"
  bottom: "conv7_2"
  top: "conv8_1"
  param {
    lr_mult: 1
    decay_mult: 1
  }
  param {
    lr_mult: 2
    decay_mult: 0
  }
  convolution_param {
    num_output: 128
    pad: 0
    kernel_size: 1
    stride: 1
    weight_filler {
      type: "xavier"
    }
    bias_filler {
      type: "constant"
      value: 0
    }
  }
}
layer {
  name: "conv8_1_relu"
  type: "ReLU"
  bottom: "conv8_1"
  top: "conv8_1"
}
layer {
  name: "conv8_2"
  type: "Convolution"
  bottom: "conv8_1"
  top: "conv8_2"
  param {
    lr_mult: 1
    decay_mult: 1
  }
  param {
    lr_mult: 2
    decay_mult: 0
  }
  convolution_param {
    num_output: 256
    pad: 0
    kernel_size: 3
    stride: 1
    weight_filler {
      type: "xavier"
    }
    bias_filler {
      type: "constant"
      value: 0
    }
  }
}
layer {
  name: "conv8_2_relu"
  type: "ReLU"
  bottom: "conv8_2"
  top: "conv8_2"
}
layer {
  name: "conv9_1"
  type: "Convolution"
  bottom: "conv8_2"
  top: "conv9_1"
  param {
    lr_mult: 1
    decay_mult: 1
  }
  param {
    lr_mult: 2
    decay_mult: 0
  }
  convolution_param {
    num_output: 128
    pad: 0
    kernel_size: 1
    stride: 1
    weight_filler {
      type: "xavier"
    }
    bias_filler {
      type: "constant"
      value: 0
    }
  }
}
layer {
  name: "conv9_1_relu"
  type: "ReLU"
  bottom: "conv9_1"
  top: "conv9_1"
}
layer {
  name: "conv9_2"
  type: "Convolution"
  bottom: "conv9_1"
  top: "conv9_2"
  param {
    lr_mult: 1
    decay_mult: 1
  }
  param {
    lr_mult: 2
    decay_mult: 0
  }
  convolution_param {
    num_output: 256
    pad: 0
    kernel_size: 3
    stride: 1
    weight_filler {
      type: "xavier"
    }
    bias_filler {
      type: "constant"
      value: 0
    }
  }
}
layer {
  name: "conv9_2_relu"
  type: "ReLU"
  bottom: "conv9_2"
  top: "conv9_2"
}
layer {
  name: "conv4_3_norm"
  type: "Normalize"
  bottom: "conv4_3"
  top: "conv4_3_norm"
  norm_param {
    across_spatial: false
    scale_filler {
      type: "constant"
      value: 20
    }
    channel_shared: false
  }
}
layer {
  name: "conv4_3_norm_mbox_loc"
  type: "Convolution"
  bottom: "conv4_3_norm"
  top: "conv4_3_norm_mbox_loc"
  param {
    lr_mult: 1
    decay_mult: 1
  }
  param {
    lr_mult: 2
    decay_mult: 0
  }
  convolution_param {
    num_output: 16
    pad: 1
    kernel_size: 3
    stride: 1
    weight_filler {
      type: "xavier"
    }
    bias_filler {
      type: "constant"
      value: 0
    }
  }
}
layer {
  name: "conv4_3_norm_mbox_loc_perm"
  type: "Permute"
  bottom: "conv4_3_norm_mbox_loc"
  top: "conv4_3_norm_mbox_loc_perm"
  permute_param {
    order: 0
    order: 2
    order: 3
    order: 1
  }
}
layer {
  name: "conv4_3_norm_mbox_loc_flat"
  type: "Flatten"
  bottom: "conv4_3_norm_mbox_loc_perm"
  top: "conv4_3_norm_mbox_loc_flat"
  flatten_param {
    axis: 1
  }
}
layer {
  name: "conv4_3_norm_mbox_conf"
  type: "Convolution"
  bottom: "conv4_3_norm"
  top: "conv4_3_norm_mbox_conf"
  param {
    lr_mult: 1
    decay_mult: 1
  }
  param {
    lr_mult: 2
    decay_mult: 0
  }
  convolution_param {
    num_output: 8
    pad: 1
    kernel_size: 3
    stride: 1
    weight_filler {
      type: "xavier"
    }
    bias_filler {
      type: "constant"
      value: 0
    }
  }
}
layer {
  name: "conv4_3_norm_mbox_conf_perm"
  type: "Permute"
  bottom: "conv4_3_norm_mbox_conf"
  top: "conv4_3_norm_mbox_conf_perm"
  permute_param {
    order: 0
    order: 2
    order: 3
    order: 1
  }
}
layer {
  name: "conv4_3_norm_mbox_conf_flat"
  type: "Flatten"
  bottom: "conv4_3_norm_mbox_conf_perm"
  top: "conv4_3_norm_mbox_conf_flat"
  flatten_param {
    axis: 1
  }
}
layer {
  name: "conv4_3_norm_mbox_priorbox"
  type: "PriorBox"
  bottom: "conv4_3_norm"
  bottom: "data"
  top: "conv4_3_norm_mbox_priorbox"
  prior_box_param {
    min_size: 50
    max_size: 100
    aspect_ratio: 2
    flip: true
    clip: false
    variance: 0.1
    variance: 0.1
    variance: 0.2
    variance: 0.2
    step: 8
    offset: 0.5
  }
}
layer {
  name: "fc7_mbox_loc"
  type: "Convolution"
  bottom: "fc7"
  top: "fc7_mbox_loc"
  param {
    lr_mult: 1
    decay_mult: 1
  }
  param {
    lr_mult: 2
    decay_mult: 0
  }
  convolution_param {
    num_output: 24
    pad: 1
    kernel_size: 3
    stride: 1
    weight_filler {
      type: "xavier"
    }
    bias_filler {
      type: "constant"
      value: 0
    }
  }
}
layer {
  name: "fc7_mbox_loc_perm"
  type: "Permute"
  bottom: "fc7_mbox_loc"
  top: "fc7_mbox_loc_perm"
  permute_param {
    order: 0
    order: 2
    order: 3
    order: 1
  }
}
layer {
  name: "fc7_mbox_loc_flat"
  type: "Flatten"
  bottom: "fc7_mbox_loc_perm"
  top: "fc7_mbox_loc_flat"
  flatten_param {
    axis: 1
  }
}
layer {
  name: "fc7_mbox_conf"
  type: "Convolution"
  bottom: "fc7"
  top: "fc7_mbox_conf"
  param {
    lr_mult: 1
    decay_mult: 1
  }
  param {
    lr_mult: 2
    decay_mult: 0
  }
  convolution_param {
    num_output: 12
    pad: 1
    kernel_size: 3
    stride: 1
    weight_filler {
      type: "xavier"
    }
    bias_filler {
      type: "constant"
      value: 0
    }
  }
}
layer {
  name: "fc7_mbox_conf_perm"
  type: "Permute"
  bottom: "fc7_mbox_conf"
  top: "fc7_mbox_conf_perm"
  permute_param {
    order: 0
    order: 2
    order: 3
    order: 1
  }
}
layer {
  name: "fc7_mbox_conf_flat"
  type: "Flatten"
  bottom: "fc7_mbox_conf_perm"
  top: "fc7_mbox_conf_flat"
  flatten_param {
    axis: 1
  }
}
layer {
  name: "fc7_mbox_priorbox"
  type: "PriorBox"
  bottom: "fc7"
  bottom: "data"
  top: "fc7_mbox_priorbox"
  prior_box_param {
    min_size: 100
    max_size: 185
    aspect_ratio: 2
    aspect_ratio: 3
    flip: true
    clip: false
    variance: 0.1
    variance: 0.1
    variance: 0.2
    variance: 0.2
    step: 16
    offset: 0.5
  }
}
layer {
  name: "conv6_2_mbox_loc"
  type: "Convolution"
  bottom: "conv6_2"
  top: "conv6_2_mbox_loc"
  param {
    lr_mult: 1
    decay_mult: 1
  }
  param {
    lr_mult: 2
    decay_mult: 0
  }
  convolution_param {
    num_output: 24
    pad: 1
    kernel_size: 3
    stride: 1
    weight_filler {
      type: "xavier"
    }
    bias_filler {
      type: "constant"
      value: 0
    }
  }
}
layer {
  name: "conv6_2_mbox_loc_perm"
  type: "Permute"
  bottom: "conv6_2_mbox_loc"
  top: "conv6_2_mbox_loc_perm"
  permute_param {
    order: 0
    order: 2
    order: 3
    order: 1
  }
}
layer {
  name: "conv6_2_mbox_loc_flat"
  type: "Flatten"
  bottom: "conv6_2_mbox_loc_perm"
  top: "conv6_2_mbox_loc_flat"
  flatten_param {
    axis: 1
  }
}
layer {
  name: "conv6_2_mbox_conf"
  type: "Convolution"
  bottom: "conv6_2"
  top: "conv6_2_mbox_conf"
  param {
    lr_mult: 1
    decay_mult: 1
  }
  param {
    lr_mult: 2
    decay_mult: 0
  }
  convolution_param {
    num_output: 12
    pad: 1
    kernel_size: 3
    stride: 1
    weight_filler {
      type: "xavier"
    }
    bias_filler {
      type: "constant"
      value: 0
    }
  }
}
layer {
  name: "conv6_2_mbox_conf_perm"
  type: "Permute"
  bottom: "conv6_2_mbox_conf"
  top: "conv6_2_mbox_conf_perm"
  permute_param {
    order: 0
    order: 2
    order: 3
    order: 1
  }
}
layer {
  name: "conv6_2_mbox_conf_flat"
  type: "Flatten"
  bottom: "conv6_2_mbox_conf_perm"
  top: "conv6_2_mbox_conf_flat"
  flatten_param {
    axis: 1
  }
}
layer {
  name: "conv6_2_mbox_priorbox"
  type: "PriorBox"
  bottom: "conv6_2"
  bottom: "data"
  top: "conv6_2_mbox_priorbox"
  prior_box_param {
    min_size: 185
    max_size: 270
    aspect_ratio: 2
    aspect_ratio: 3
    flip: true
    clip: false
    variance: 0.1
    variance: 0.1
    variance: 0.2
    variance: 0.2
    step: 32
    offset: 0.5
  }
}
layer {
  name: "conv7_2_mbox_loc"
  type: "Convolution"
  bottom: "conv7_2"
  top: "conv7_2_mbox_loc"
  param {
    lr_mult: 1
    decay_mult: 1
  }
  param {
    lr_mult: 2
    decay_mult: 0
  }
  convolution_param {
    num_output: 24
    pad: 1
    kernel_size: 3
    stride: 1
    weight_filler {
      type: "xavier"
    }
    bias_filler {
      type: "constant"
      value: 0
    }
  }
}
layer {
  name: "conv7_2_mbox_loc_perm"
  type: "Permute"
  bottom: "conv7_2_mbox_loc"
  top: "conv7_2_mbox_loc_perm"
  permute_param {
    order: 0
    order: 2
    order: 3
    order: 1
  }
}
layer {
  name: "conv7_2_mbox_loc_flat"
  type: "Flatten"
  bottom: "conv7_2_mbox_loc_perm"
  top: "conv7_2_mbox_loc_flat"
  flatten_param {
    axis: 1
  }
}
layer {
  name: "conv7_2_mbox_conf"
  type: "Convolution"
  bottom: "conv7_2"
  top: "conv7_2_mbox_conf"
  param {
    lr_mult: 1
    decay_mult: 1
  }
  param {
    lr_mult: 2
    decay_mult: 0
  }
  convolution_param {
    num_output: 12
    pad: 1
    kernel_size: 3
    stride: 1
    weight_filler {
      type: "xavier"
    }
    bias_filler {
      type: "constant"
      value: 0
    }
  }
}
layer {
  name: "conv7_2_mbox_conf_perm"
  type: "Permute"
  bottom: "conv7_2_mbox_conf"
  top: "conv7_2_mbox_conf_perm"
  permute_param {
    order: 0
    order: 2
    order: 3
    order: 1
  }
}
layer {
  name: "conv7_2_mbox_conf_flat"
  type: "Flatten"
  bottom: "conv7_2_mbox_conf_perm"
  top: "conv7_2_mbox_conf_flat"
  flatten_param {
    axis: 1
  }
}
layer {
  name: "conv7_2_mbox_priorbox"
  type: "PriorBox"
  bottom: "conv7_2"
  bottom: "data"
  top: "conv7_2_mbox_priorbox"
  prior_box_param {
    min_size: 270
    max_size: 355
    aspect_ratio: 2
    aspect_ratio: 3
    flip: true
    clip: false
    variance: 0.1
    variance: 0.1
    variance: 0.2
    variance: 0.2
    step: 64
    offset: 0.5
  }
}
layer {
  name: "conv8_2_mbox_loc"
  type: "Convolution"
  bottom: "conv8_2"
  top: "conv8_2_mbox_loc"
  param {
    lr_mult: 1
    decay_mult: 1
  }
  param {
    lr_mult: 2
    decay_mult: 0
  }
  convolution_param {
    num_output: 16
    pad: 1
    kernel_size: 3
    stride: 1
    weight_filler {
      type: "xavier"
    }
    bias_filler {
      type: "constant"
      value: 0
    }
  }
}
layer {
  name: "conv8_2_mbox_loc_perm"
  type: "Permute"
  bottom: "conv8_2_mbox_loc"
  top: "conv8_2_mbox_loc_perm"
  permute_param {
    order: 0
    order: 2
    order: 3
    order: 1
  }
}
layer {
  name: "conv8_2_mbox_loc_flat"
  type: "Flatten"
  bottom: "conv8_2_mbox_loc_perm"
  top: "conv8_2_mbox_loc_flat"
  flatten_param {
    axis: 1
  }
}
layer {
  name: "conv8_2_mbox_conf"
  type: "Convolution"
  bottom: "conv8_2"
  top: "conv8_2_mbox_conf"
  param {
    lr_mult: 1
    decay_mult: 1
  }
  param {
    lr_mult: 2
    decay_mult: 0
  }
  convolution_param {
    num_output: 8
    pad: 1
    kernel_size: 3
    stride: 1
    weight_filler {
      type: "xavier"
    }
    bias_filler {
      type: "constant"
      value: 0
    }
  }
}
layer {
  name: "conv8_2_mbox_conf_perm"
  type: "Permute"
  bottom: "conv8_2_mbox_conf"
  top: "conv8_2_mbox_conf_perm"
  permute_param {
    order: 0
    order: 2
    order: 3
    order: 1
  }
}
layer {
  name: "conv8_2_mbox_conf_flat"
  type: "Flatten"
  bottom: "conv8_2_mbox_conf_perm"
  top: "conv8_2_mbox_conf_flat"
  flatten_param {
    axis: 1
  }
}
layer {
  name: "conv8_2_mbox_priorbox"
  type: "PriorBox"
  bottom: "conv8_2"
  bottom: "data"
  top: "conv8_2_mbox_priorbox"
  prior_box_param {
    min_size: 355
    max_size: 440
    aspect_ratio: 2
    flip: true
    clip: false
    variance: 0.1
    variance: 0.1
    variance: 0.2
    variance: 0.2
    step: 100
    offset: 0.5
  }
}
layer {
  name: "conv9_2_mbox_loc"
  type: "Convolution"
  bottom: "conv9_2"
  top: "conv9_2_mbox_loc"
  param {
    lr_mult: 1
    decay_mult: 1
  }
  param {
    lr_mult: 2
    decay_mult: 0
  }
  convolution_param {
    num_output: 16
    pad: 1
    kernel_size: 3
    stride: 1
    weight_filler {
      type: "xavier"
    }
    bias_filler {
      type: "constant"
      value: 0
    }
  }
}
layer {
  name: "conv9_2_mbox_loc_perm"
  type: "Permute"
  bottom: "conv9_2_mbox_loc"
  top: "conv9_2_mbox_loc_perm"
  permute_param {
    order: 0
    order: 2
    order: 3
    order: 1
  }
}
layer {
  name: "conv9_2_mbox_loc_flat"
  type: "Flatten"
  bottom: "conv9_2_mbox_loc_perm"
  top: "conv9_2_mbox_loc_flat"
  flatten_param {
    axis: 1
  }
}
layer {
  name: "conv9_2_mbox_conf"
  type: "Convolution"
  bottom: "conv9_2"
  top: "conv9_2_mbox_conf"
  param {
    lr_mult: 1
    decay_mult: 1
  }
  param {
    lr_mult: 2
    decay_mult: 0
  }
  convolution_param {
    num_output: 8
    pad: 1
    kernel_size: 3
    stride: 1
    weight_filler {
      type: "xavier"
    }
    bias_filler {
      type: "constant"
      value: 0
    }
  }
}
layer {
  name: "conv9_2_mbox_conf_perm"
  type: "Permute"
  bottom: "conv9_2_mbox_conf"
  top: "conv9_2_mbox_conf_perm"
  permute_param {
    order: 0
    order: 2
    order: 3
    order: 1
  }
}
layer {
  name: "conv9_2_mbox_conf_flat"
  type: "Flatten"
  bottom: "conv9_2_mbox_conf_perm"
  top: "conv9_2_mbox_conf_flat"
  flatten_param {
    axis: 1
  }
}
layer {
  name: "conv9_2_mbox_priorbox"
  type: "PriorBox"
  bottom: "conv9_2"
  bottom: "data"
  top: "conv9_2_mbox_priorbox"
  prior_box_param {
    min_size: 440
    max_size: 525
    aspect_ratio: 2
    flip: true
    clip: false
    variance: 0.1
    variance: 0.1
    variance: 0.2
    variance: 0.2
    step: 300
    offset: 0.5
  }
}
layer {
  name: "mbox_loc"
  type: "Concat"
  bottom: "conv4_3_norm_mbox_loc_flat"
  bottom: "fc7_mbox_loc_flat"
  bottom: "conv6_2_mbox_loc_flat"
  bottom: "conv7_2_mbox_loc_flat"
  bottom: "conv8_2_mbox_loc_flat"
  bottom: "conv9_2_mbox_loc_flat"
  top: "mbox_loc"
  concat_param {
    axis: 1
  }
}
layer {
  name: "mbox_conf"
  type: "Concat"
  bottom: "conv4_3_norm_mbox_conf_flat"
  bottom: "fc7_mbox_conf_flat"
  bottom: "conv6_2_mbox_conf_flat"
  bottom: "conv7_2_mbox_conf_flat"
  bottom: "conv8_2_mbox_conf_flat"
  bottom: "conv9_2_mbox_conf_flat"
  top: "mbox_conf"
  concat_param {
    axis: 1
  }
}
layer {
  name: "mbox_priorbox"
  type: "Concat"
  bottom: "conv4_3_norm_mbox_priorbox"
  bottom: "fc7_mbox_priorbox"
  bottom: "conv6_2_mbox_priorbox"
  bottom: "conv7_2_mbox_priorbox"
  bottom: "conv8_2_mbox_priorbox"
  bottom: "conv9_2_mbox_priorbox"
  top: "mbox_priorbox"
  concat_param {
    axis: 2
  }
}
layer {
  name: "mbox_conf_reshape"
  type: "Reshape"
  bottom: "mbox_conf"
  top: "mbox_conf_reshape"
  reshape_param {
    shape {
      dim: 0
      dim: -1
      dim: 2
    }
  }
}
layer {
  name: "mbox_conf_softmax"
  type: "Softmax"
  bottom: "mbox_conf_reshape"
  top: "mbox_conf_softmax"
  softmax_param {
    axis: 2
  }
}
layer {
  name: "mbox_conf_flatten"
  type: "Flatten"
  bottom: "mbox_conf_softmax"
  top: "mbox_conf_flatten"
  flatten_param {
    axis: 1
  }
}
layer {
  name: "detection_out"
  type: "DetectionOutput"
  bottom: "mbox_loc"
  bottom: "mbox_conf_flatten"
  bottom: "mbox_priorbox"
  top: "detection_out"
  include {
    phase: TEST
  }
  detection_output_param {
    num_classes: 2
    share_location: true
    background_label_id: 0
    nms_param {
      nms_threshold: 0.5
      top_k: 20
    }
    save_output_param {
      output_directory: "/root/mount_out/work2018/cataract_recognition_train_test/detection/diffuse_train_test/training/results/"
      output_name_prefix: "comp4_det_test_"
      output_format: "pupil"
      label_map_file: "/root/mount_out/work2018/cataract_recognition_train_test/detection/diffuse_train_test/labelmap_pupil.prototxt"
      name_size_file: "/root/mount_out/work2018/cataract_recognition_train_test/detection/diffuse_train_test/test_name_size.txt"
      num_test_image: 116
    }
    code_type: CENTER_SIZE
    keep_top_k: 10
    confidence_threshold: 0.01
  }
}
layer {
  name: "detection_eval"
  type: "DetectionEvaluate"
  bottom: "detection_out"
  bottom: "label"
  top: "detection_eval"
  include {
    phase: TEST
  }
  detection_evaluate_param {
    num_classes: 2
    background_label_id: 0
    overlap_threshold: 0.5
    evaluate_difficult_gt: false
    name_size_file: "/root/mount_out/work2018/cataract_recognition_train_test/detection/diffuse_train_test/test_name_size.txt"
  }
}
I1217 07:24:17.813766   479 layer_factory.hpp:77] Creating layer data
I1217 07:24:17.813817   479 net.cpp:100] Creating Layer data
I1217 07:24:17.813828   479 net.cpp:408] data -> data
I1217 07:24:17.813854   479 net.cpp:408] data -> label
I1217 07:24:17.822806   495 db_lmdb.cpp:35] Opened lmdb /root/mount_out/work2018/cataract_recognition_train_test/detection/diffuse_train_test/diffuse_test_lmdb
I1217 07:24:17.827574   479 annotated_data_layer.cpp:62] output data size: 1,3,500,500
I1217 07:24:17.833431   479 net.cpp:150] Setting up data
I1217 07:24:17.833463   479 net.cpp:157] Top shape: 1 3 500 500 (750000)
I1217 07:24:17.833468   479 net.cpp:157] Top shape: 1 1 1 8 (8)
I1217 07:24:17.833472   479 net.cpp:165] Memory required for data: 3000032
I1217 07:24:17.833493   479 layer_factory.hpp:77] Creating layer data_data_0_split
I1217 07:24:17.833518   479 net.cpp:100] Creating Layer data_data_0_split
I1217 07:24:17.833523   479 net.cpp:434] data_data_0_split <- data
I1217 07:24:17.833533   479 net.cpp:408] data_data_0_split -> data_data_0_split_0
I1217 07:24:17.833554   479 net.cpp:408] data_data_0_split -> data_data_0_split_1
I1217 07:24:17.833603   479 net.cpp:408] data_data_0_split -> data_data_0_split_2
I1217 07:24:17.833611   479 net.cpp:408] data_data_0_split -> data_data_0_split_3
I1217 07:24:17.833616   479 net.cpp:408] data_data_0_split -> data_data_0_split_4
I1217 07:24:17.833638   479 net.cpp:408] data_data_0_split -> data_data_0_split_5
I1217 07:24:17.833643   479 net.cpp:408] data_data_0_split -> data_data_0_split_6
I1217 07:24:17.833770   479 net.cpp:150] Setting up data_data_0_split
I1217 07:24:17.833776   479 net.cpp:157] Top shape: 1 3 500 500 (750000)
I1217 07:24:17.833781   479 net.cpp:157] Top shape: 1 3 500 500 (750000)
I1217 07:24:17.833784   479 net.cpp:157] Top shape: 1 3 500 500 (750000)
I1217 07:24:17.833803   479 net.cpp:157] Top shape: 1 3 500 500 (750000)
I1217 07:24:17.833808   479 net.cpp:157] Top shape: 1 3 500 500 (750000)
I1217 07:24:17.833827   479 net.cpp:157] Top shape: 1 3 500 500 (750000)
I1217 07:24:17.833830   479 net.cpp:157] Top shape: 1 3 500 500 (750000)
I1217 07:24:17.833834   479 net.cpp:165] Memory required for data: 24000032
I1217 07:24:17.833842   479 layer_factory.hpp:77] Creating layer conv1_1
I1217 07:24:17.833851   479 net.cpp:100] Creating Layer conv1_1
I1217 07:24:17.833856   479 net.cpp:434] conv1_1 <- data_data_0_split_0
I1217 07:24:17.833863   479 net.cpp:408] conv1_1 -> conv1_1
I1217 07:24:17.835428   479 net.cpp:150] Setting up conv1_1
I1217 07:24:17.835439   479 net.cpp:157] Top shape: 1 64 500 500 (16000000)
I1217 07:24:17.835443   479 net.cpp:165] Memory required for data: 88000032
I1217 07:24:17.835469   479 layer_factory.hpp:77] Creating layer relu1_1
I1217 07:24:17.835476   479 net.cpp:100] Creating Layer relu1_1
I1217 07:24:17.835484   479 net.cpp:434] relu1_1 <- conv1_1
I1217 07:24:17.835490   479 net.cpp:395] relu1_1 -> conv1_1 (in-place)
I1217 07:24:17.835676   479 net.cpp:150] Setting up relu1_1
I1217 07:24:17.835685   479 net.cpp:157] Top shape: 1 64 500 500 (16000000)
I1217 07:24:17.835690   479 net.cpp:165] Memory required for data: 152000032
I1217 07:24:17.835707   479 layer_factory.hpp:77] Creating layer conv1_2
I1217 07:24:17.835717   479 net.cpp:100] Creating Layer conv1_2
I1217 07:24:17.835722   479 net.cpp:434] conv1_2 <- conv1_1
I1217 07:24:17.835731   479 net.cpp:408] conv1_2 -> conv1_2
I1217 07:24:17.838186   479 net.cpp:150] Setting up conv1_2
I1217 07:24:17.838197   479 net.cpp:157] Top shape: 1 64 500 500 (16000000)
I1217 07:24:17.838201   479 net.cpp:165] Memory required for data: 216000032
I1217 07:24:17.838210   479 layer_factory.hpp:77] Creating layer relu1_2
I1217 07:24:17.838232   479 net.cpp:100] Creating Layer relu1_2
I1217 07:24:17.838237   479 net.cpp:434] relu1_2 <- conv1_2
I1217 07:24:17.838255   479 net.cpp:395] relu1_2 -> conv1_2 (in-place)
I1217 07:24:17.838783   479 net.cpp:150] Setting up relu1_2
I1217 07:24:17.838793   479 net.cpp:157] Top shape: 1 64 500 500 (16000000)
I1217 07:24:17.838796   479 net.cpp:165] Memory required for data: 280000032
I1217 07:24:17.838800   479 layer_factory.hpp:77] Creating layer pool1
I1217 07:24:17.838822   479 net.cpp:100] Creating Layer pool1
I1217 07:24:17.838827   479 net.cpp:434] pool1 <- conv1_2
I1217 07:24:17.838846   479 net.cpp:408] pool1 -> pool1
I1217 07:24:17.838891   479 net.cpp:150] Setting up pool1
I1217 07:24:17.838897   479 net.cpp:157] Top shape: 1 64 250 250 (4000000)
I1217 07:24:17.838913   479 net.cpp:165] Memory required for data: 296000032
I1217 07:24:17.838917   479 layer_factory.hpp:77] Creating layer conv2_1
I1217 07:24:17.838940   479 net.cpp:100] Creating Layer conv2_1
I1217 07:24:17.838945   479 net.cpp:434] conv2_1 <- pool1
I1217 07:24:17.838951   479 net.cpp:408] conv2_1 -> conv2_1
I1217 07:24:17.841058   479 net.cpp:150] Setting up conv2_1
I1217 07:24:17.841068   479 net.cpp:157] Top shape: 1 128 250 250 (8000000)
I1217 07:24:17.841073   479 net.cpp:165] Memory required for data: 328000032
I1217 07:24:17.841097   479 layer_factory.hpp:77] Creating layer relu2_1
I1217 07:24:17.841120   479 net.cpp:100] Creating Layer relu2_1
I1217 07:24:17.841137   479 net.cpp:434] relu2_1 <- conv2_1
I1217 07:24:17.841172   479 net.cpp:395] relu2_1 -> conv2_1 (in-place)
I1217 07:24:17.841383   479 net.cpp:150] Setting up relu2_1
I1217 07:24:17.841392   479 net.cpp:157] Top shape: 1 128 250 250 (8000000)
I1217 07:24:17.841395   479 net.cpp:165] Memory required for data: 360000032
I1217 07:24:17.841400   479 layer_factory.hpp:77] Creating layer conv2_2
I1217 07:24:17.841423   479 net.cpp:100] Creating Layer conv2_2
I1217 07:24:17.841428   479 net.cpp:434] conv2_2 <- conv2_1
I1217 07:24:17.841434   479 net.cpp:408] conv2_2 -> conv2_2
I1217 07:24:17.845027   479 net.cpp:150] Setting up conv2_2
I1217 07:24:17.845037   479 net.cpp:157] Top shape: 1 128 250 250 (8000000)
I1217 07:24:17.845046   479 net.cpp:165] Memory required for data: 392000032
I1217 07:24:17.845054   479 layer_factory.hpp:77] Creating layer relu2_2
I1217 07:24:17.845082   479 net.cpp:100] Creating Layer relu2_2
I1217 07:24:17.845088   479 net.cpp:434] relu2_2 <- conv2_2
I1217 07:24:17.845099   479 net.cpp:395] relu2_2 -> conv2_2 (in-place)
I1217 07:24:17.845289   479 net.cpp:150] Setting up relu2_2
I1217 07:24:17.845297   479 net.cpp:157] Top shape: 1 128 250 250 (8000000)
I1217 07:24:17.845302   479 net.cpp:165] Memory required for data: 424000032
I1217 07:24:17.845306   479 layer_factory.hpp:77] Creating layer pool2
I1217 07:24:17.845327   479 net.cpp:100] Creating Layer pool2
I1217 07:24:17.845331   479 net.cpp:434] pool2 <- conv2_2
I1217 07:24:17.845350   479 net.cpp:408] pool2 -> pool2
I1217 07:24:17.845392   479 net.cpp:150] Setting up pool2
I1217 07:24:17.845398   479 net.cpp:157] Top shape: 1 128 125 125 (2000000)
I1217 07:24:17.845414   479 net.cpp:165] Memory required for data: 432000032
I1217 07:24:17.845419   479 layer_factory.hpp:77] Creating layer conv3_1
I1217 07:24:17.845443   479 net.cpp:100] Creating Layer conv3_1
I1217 07:24:17.845459   479 net.cpp:434] conv3_1 <- pool2
I1217 07:24:17.845465   479 net.cpp:408] conv3_1 -> conv3_1
I1217 07:24:17.851790   479 net.cpp:150] Setting up conv3_1
I1217 07:24:17.851804   479 net.cpp:157] Top shape: 1 256 125 125 (4000000)
I1217 07:24:17.851807   479 net.cpp:165] Memory required for data: 448000032
I1217 07:24:17.851831   479 layer_factory.hpp:77] Creating layer relu3_1
I1217 07:24:17.851840   479 net.cpp:100] Creating Layer relu3_1
I1217 07:24:17.851845   479 net.cpp:434] relu3_1 <- conv3_1
I1217 07:24:17.851852   479 net.cpp:395] relu3_1 -> conv3_1 (in-place)
I1217 07:24:17.852030   479 net.cpp:150] Setting up relu3_1
I1217 07:24:17.852038   479 net.cpp:157] Top shape: 1 256 125 125 (4000000)
I1217 07:24:17.852042   479 net.cpp:165] Memory required for data: 464000032
I1217 07:24:17.852046   479 layer_factory.hpp:77] Creating layer conv3_2
I1217 07:24:17.852069   479 net.cpp:100] Creating Layer conv3_2
I1217 07:24:17.852074   479 net.cpp:434] conv3_2 <- conv3_1
I1217 07:24:17.852080   479 net.cpp:408] conv3_2 -> conv3_2
I1217 07:24:17.857213   479 net.cpp:150] Setting up conv3_2
I1217 07:24:17.857228   479 net.cpp:157] Top shape: 1 256 125 125 (4000000)
I1217 07:24:17.857234   479 net.cpp:165] Memory required for data: 480000032
I1217 07:24:17.857255   479 layer_factory.hpp:77] Creating layer relu3_2
I1217 07:24:17.857264   479 net.cpp:100] Creating Layer relu3_2
I1217 07:24:17.857267   479 net.cpp:434] relu3_2 <- conv3_2
I1217 07:24:17.857275   479 net.cpp:395] relu3_2 -> conv3_2 (in-place)
I1217 07:24:17.857796   479 net.cpp:150] Setting up relu3_2
I1217 07:24:17.857806   479 net.cpp:157] Top shape: 1 256 125 125 (4000000)
I1217 07:24:17.857811   479 net.cpp:165] Memory required for data: 496000032
I1217 07:24:17.857815   479 layer_factory.hpp:77] Creating layer conv3_3
I1217 07:24:17.857843   479 net.cpp:100] Creating Layer conv3_3
I1217 07:24:17.857848   479 net.cpp:434] conv3_3 <- conv3_2
I1217 07:24:17.857856   479 net.cpp:408] conv3_3 -> conv3_3
I1217 07:24:17.862570   479 net.cpp:150] Setting up conv3_3
I1217 07:24:17.862588   479 net.cpp:157] Top shape: 1 256 125 125 (4000000)
I1217 07:24:17.862594   479 net.cpp:165] Memory required for data: 512000032
I1217 07:24:17.862634   479 layer_factory.hpp:77] Creating layer relu3_3
I1217 07:24:17.862648   479 net.cpp:100] Creating Layer relu3_3
I1217 07:24:17.862655   479 net.cpp:434] relu3_3 <- conv3_3
I1217 07:24:17.862663   479 net.cpp:395] relu3_3 -> conv3_3 (in-place)
I1217 07:24:17.862839   479 net.cpp:150] Setting up relu3_3
I1217 07:24:17.862848   479 net.cpp:157] Top shape: 1 256 125 125 (4000000)
I1217 07:24:17.862854   479 net.cpp:165] Memory required for data: 528000032
I1217 07:24:17.862864   479 layer_factory.hpp:77] Creating layer pool3
I1217 07:24:17.862874   479 net.cpp:100] Creating Layer pool3
I1217 07:24:17.862880   479 net.cpp:434] pool3 <- conv3_3
I1217 07:24:17.862888   479 net.cpp:408] pool3 -> pool3
I1217 07:24:17.862949   479 net.cpp:150] Setting up pool3
I1217 07:24:17.862957   479 net.cpp:157] Top shape: 1 256 63 63 (1016064)
I1217 07:24:17.862962   479 net.cpp:165] Memory required for data: 532064288
I1217 07:24:17.862967   479 layer_factory.hpp:77] Creating layer conv4_1
I1217 07:24:17.862980   479 net.cpp:100] Creating Layer conv4_1
I1217 07:24:17.862998   479 net.cpp:434] conv4_1 <- pool3
I1217 07:24:17.863024   479 net.cpp:408] conv4_1 -> conv4_1
I1217 07:24:17.870337   479 net.cpp:150] Setting up conv4_1
I1217 07:24:17.870357   479 net.cpp:157] Top shape: 1 512 63 63 (2032128)
I1217 07:24:17.870362   479 net.cpp:165] Memory required for data: 540192800
I1217 07:24:17.870369   479 layer_factory.hpp:77] Creating layer relu4_1
I1217 07:24:17.870378   479 net.cpp:100] Creating Layer relu4_1
I1217 07:24:17.870383   479 net.cpp:434] relu4_1 <- conv4_1
I1217 07:24:17.870393   479 net.cpp:395] relu4_1 -> conv4_1 (in-place)
I1217 07:24:17.870553   479 net.cpp:150] Setting up relu4_1
I1217 07:24:17.870561   479 net.cpp:157] Top shape: 1 512 63 63 (2032128)
I1217 07:24:17.870564   479 net.cpp:165] Memory required for data: 548321312
I1217 07:24:17.870569   479 layer_factory.hpp:77] Creating layer conv4_2
I1217 07:24:17.870579   479 net.cpp:100] Creating Layer conv4_2
I1217 07:24:17.870584   479 net.cpp:434] conv4_2 <- conv4_1
I1217 07:24:17.870590   479 net.cpp:408] conv4_2 -> conv4_2
I1217 07:24:17.882887   479 net.cpp:150] Setting up conv4_2
I1217 07:24:17.882905   479 net.cpp:157] Top shape: 1 512 63 63 (2032128)
I1217 07:24:17.882910   479 net.cpp:165] Memory required for data: 556449824
I1217 07:24:17.882922   479 layer_factory.hpp:77] Creating layer relu4_2
I1217 07:24:17.882936   479 net.cpp:100] Creating Layer relu4_2
I1217 07:24:17.882941   479 net.cpp:434] relu4_2 <- conv4_2
I1217 07:24:17.882947   479 net.cpp:395] relu4_2 -> conv4_2 (in-place)
I1217 07:24:17.883430   479 net.cpp:150] Setting up relu4_2
I1217 07:24:17.883440   479 net.cpp:157] Top shape: 1 512 63 63 (2032128)
I1217 07:24:17.883445   479 net.cpp:165] Memory required for data: 564578336
I1217 07:24:17.883450   479 layer_factory.hpp:77] Creating layer conv4_3
I1217 07:24:17.883460   479 net.cpp:100] Creating Layer conv4_3
I1217 07:24:17.883466   479 net.cpp:434] conv4_3 <- conv4_2
I1217 07:24:17.883471   479 net.cpp:408] conv4_3 -> conv4_3
I1217 07:24:17.897611   479 net.cpp:150] Setting up conv4_3
I1217 07:24:17.897627   479 net.cpp:157] Top shape: 1 512 63 63 (2032128)
I1217 07:24:17.897631   479 net.cpp:165] Memory required for data: 572706848
I1217 07:24:17.897639   479 layer_factory.hpp:77] Creating layer relu4_3
I1217 07:24:17.897647   479 net.cpp:100] Creating Layer relu4_3
I1217 07:24:17.897655   479 net.cpp:434] relu4_3 <- conv4_3
I1217 07:24:17.897661   479 net.cpp:395] relu4_3 -> conv4_3 (in-place)
I1217 07:24:17.897809   479 net.cpp:150] Setting up relu4_3
I1217 07:24:17.897817   479 net.cpp:157] Top shape: 1 512 63 63 (2032128)
I1217 07:24:17.897821   479 net.cpp:165] Memory required for data: 580835360
I1217 07:24:17.897825   479 layer_factory.hpp:77] Creating layer conv4_3_relu4_3_0_split
I1217 07:24:17.897831   479 net.cpp:100] Creating Layer conv4_3_relu4_3_0_split
I1217 07:24:17.897836   479 net.cpp:434] conv4_3_relu4_3_0_split <- conv4_3
I1217 07:24:17.897842   479 net.cpp:408] conv4_3_relu4_3_0_split -> conv4_3_relu4_3_0_split_0
I1217 07:24:17.897863   479 net.cpp:408] conv4_3_relu4_3_0_split -> conv4_3_relu4_3_0_split_1
I1217 07:24:17.897902   479 net.cpp:150] Setting up conv4_3_relu4_3_0_split
I1217 07:24:17.897909   479 net.cpp:157] Top shape: 1 512 63 63 (2032128)
I1217 07:24:17.897913   479 net.cpp:157] Top shape: 1 512 63 63 (2032128)
I1217 07:24:17.897917   479 net.cpp:165] Memory required for data: 597092384
I1217 07:24:17.897922   479 layer_factory.hpp:77] Creating layer pool4
I1217 07:24:17.897928   479 net.cpp:100] Creating Layer pool4
I1217 07:24:17.897933   479 net.cpp:434] pool4 <- conv4_3_relu4_3_0_split_0
I1217 07:24:17.897938   479 net.cpp:408] pool4 -> pool4
I1217 07:24:17.897972   479 net.cpp:150] Setting up pool4
I1217 07:24:17.897979   479 net.cpp:157] Top shape: 1 512 32 32 (524288)
I1217 07:24:17.897982   479 net.cpp:165] Memory required for data: 599189536
I1217 07:24:17.897986   479 layer_factory.hpp:77] Creating layer conv5_1
I1217 07:24:17.897994   479 net.cpp:100] Creating Layer conv5_1
I1217 07:24:17.898000   479 net.cpp:434] conv5_1 <- pool4
I1217 07:24:17.898006   479 net.cpp:408] conv5_1 -> conv5_1
I1217 07:24:17.909826   479 net.cpp:150] Setting up conv5_1
I1217 07:24:17.909847   479 net.cpp:157] Top shape: 1 512 32 32 (524288)
I1217 07:24:17.909852   479 net.cpp:165] Memory required for data: 601286688
I1217 07:24:17.909859   479 layer_factory.hpp:77] Creating layer relu5_1
I1217 07:24:17.909868   479 net.cpp:100] Creating Layer relu5_1
I1217 07:24:17.909873   479 net.cpp:434] relu5_1 <- conv5_1
I1217 07:24:17.909881   479 net.cpp:395] relu5_1 -> conv5_1 (in-place)
I1217 07:24:17.910034   479 net.cpp:150] Setting up relu5_1
I1217 07:24:17.910042   479 net.cpp:157] Top shape: 1 512 32 32 (524288)
I1217 07:24:17.910045   479 net.cpp:165] Memory required for data: 603383840
I1217 07:24:17.910049   479 layer_factory.hpp:77] Creating layer conv5_2
I1217 07:24:17.910059   479 net.cpp:100] Creating Layer conv5_2
I1217 07:24:17.910064   479 net.cpp:434] conv5_2 <- conv5_1
I1217 07:24:17.910071   479 net.cpp:408] conv5_2 -> conv5_2
I1217 07:24:17.922017   479 net.cpp:150] Setting up conv5_2
I1217 07:24:17.922036   479 net.cpp:157] Top shape: 1 512 32 32 (524288)
I1217 07:24:17.922040   479 net.cpp:165] Memory required for data: 605480992
I1217 07:24:17.922047   479 layer_factory.hpp:77] Creating layer relu5_2
I1217 07:24:17.922057   479 net.cpp:100] Creating Layer relu5_2
I1217 07:24:17.922063   479 net.cpp:434] relu5_2 <- conv5_2
I1217 07:24:17.922070   479 net.cpp:395] relu5_2 -> conv5_2 (in-place)
I1217 07:24:17.922559   479 net.cpp:150] Setting up relu5_2
I1217 07:24:17.922569   479 net.cpp:157] Top shape: 1 512 32 32 (524288)
I1217 07:24:17.922574   479 net.cpp:165] Memory required for data: 607578144
I1217 07:24:17.922577   479 layer_factory.hpp:77] Creating layer conv5_3
I1217 07:24:17.922587   479 net.cpp:100] Creating Layer conv5_3
I1217 07:24:17.922592   479 net.cpp:434] conv5_3 <- conv5_2
I1217 07:24:17.922598   479 net.cpp:408] conv5_3 -> conv5_3
I1217 07:24:17.934465   479 net.cpp:150] Setting up conv5_3
I1217 07:24:17.934484   479 net.cpp:157] Top shape: 1 512 32 32 (524288)
I1217 07:24:17.934487   479 net.cpp:165] Memory required for data: 609675296
I1217 07:24:17.934495   479 layer_factory.hpp:77] Creating layer relu5_3
I1217 07:24:17.934509   479 net.cpp:100] Creating Layer relu5_3
I1217 07:24:17.934514   479 net.cpp:434] relu5_3 <- conv5_3
I1217 07:24:17.934520   479 net.cpp:395] relu5_3 -> conv5_3 (in-place)
I1217 07:24:17.934676   479 net.cpp:150] Setting up relu5_3
I1217 07:24:17.934684   479 net.cpp:157] Top shape: 1 512 32 32 (524288)
I1217 07:24:17.934687   479 net.cpp:165] Memory required for data: 611772448
I1217 07:24:17.934691   479 layer_factory.hpp:77] Creating layer pool5
I1217 07:24:17.934698   479 net.cpp:100] Creating Layer pool5
I1217 07:24:17.934703   479 net.cpp:434] pool5 <- conv5_3
I1217 07:24:17.934708   479 net.cpp:408] pool5 -> pool5
I1217 07:24:17.934747   479 net.cpp:150] Setting up pool5
I1217 07:24:17.934754   479 net.cpp:157] Top shape: 1 512 32 32 (524288)
I1217 07:24:17.934772   479 net.cpp:165] Memory required for data: 613869600
I1217 07:24:17.934777   479 layer_factory.hpp:77] Creating layer fc6
I1217 07:24:17.934787   479 net.cpp:100] Creating Layer fc6
I1217 07:24:17.934792   479 net.cpp:434] fc6 <- pool5
I1217 07:24:17.934799   479 net.cpp:408] fc6 -> fc6
I1217 07:24:17.955904   479 net.cpp:150] Setting up fc6
I1217 07:24:17.955924   479 net.cpp:157] Top shape: 1 1024 32 32 (1048576)
I1217 07:24:17.955929   479 net.cpp:165] Memory required for data: 618063904
I1217 07:24:17.955950   479 layer_factory.hpp:77] Creating layer relu6
I1217 07:24:17.955958   479 net.cpp:100] Creating Layer relu6
I1217 07:24:17.955963   479 net.cpp:434] relu6 <- fc6
I1217 07:24:17.955971   479 net.cpp:395] relu6 -> fc6 (in-place)
I1217 07:24:17.956192   479 net.cpp:150] Setting up relu6
I1217 07:24:17.956202   479 net.cpp:157] Top shape: 1 1024 32 32 (1048576)
I1217 07:24:17.956204   479 net.cpp:165] Memory required for data: 622258208
I1217 07:24:17.956209   479 layer_factory.hpp:77] Creating layer fc7
I1217 07:24:17.956233   479 net.cpp:100] Creating Layer fc7
I1217 07:24:17.956236   479 net.cpp:434] fc7 <- fc6
I1217 07:24:17.956243   479 net.cpp:408] fc7 -> fc7
I1217 07:24:17.963292   479 net.cpp:150] Setting up fc7
I1217 07:24:17.963310   479 net.cpp:157] Top shape: 1 1024 32 32 (1048576)
I1217 07:24:17.963315   479 net.cpp:165] Memory required for data: 626452512
I1217 07:24:17.963321   479 layer_factory.hpp:77] Creating layer relu7
I1217 07:24:17.963343   479 net.cpp:100] Creating Layer relu7
I1217 07:24:17.963348   479 net.cpp:434] relu7 <- fc7
I1217 07:24:17.963354   479 net.cpp:395] relu7 -> fc7 (in-place)
I1217 07:24:17.963541   479 net.cpp:150] Setting up relu7
I1217 07:24:17.963548   479 net.cpp:157] Top shape: 1 1024 32 32 (1048576)
I1217 07:24:17.963552   479 net.cpp:165] Memory required for data: 630646816
I1217 07:24:17.963557   479 layer_factory.hpp:77] Creating layer fc7_relu7_0_split
I1217 07:24:17.963580   479 net.cpp:100] Creating Layer fc7_relu7_0_split
I1217 07:24:17.963585   479 net.cpp:434] fc7_relu7_0_split <- fc7
I1217 07:24:17.963590   479 net.cpp:408] fc7_relu7_0_split -> fc7_relu7_0_split_0
I1217 07:24:17.963599   479 net.cpp:408] fc7_relu7_0_split -> fc7_relu7_0_split_1
I1217 07:24:17.963610   479 net.cpp:408] fc7_relu7_0_split -> fc7_relu7_0_split_2
I1217 07:24:17.963618   479 net.cpp:408] fc7_relu7_0_split -> fc7_relu7_0_split_3
I1217 07:24:17.963719   479 net.cpp:150] Setting up fc7_relu7_0_split
I1217 07:24:17.963726   479 net.cpp:157] Top shape: 1 1024 32 32 (1048576)
I1217 07:24:17.963730   479 net.cpp:157] Top shape: 1 1024 32 32 (1048576)
I1217 07:24:17.963734   479 net.cpp:157] Top shape: 1 1024 32 32 (1048576)
I1217 07:24:17.963753   479 net.cpp:157] Top shape: 1 1024 32 32 (1048576)
I1217 07:24:17.963757   479 net.cpp:165] Memory required for data: 647424032
I1217 07:24:17.963762   479 layer_factory.hpp:77] Creating layer conv6_1
I1217 07:24:17.963773   479 net.cpp:100] Creating Layer conv6_1
I1217 07:24:17.963778   479 net.cpp:434] conv6_1 <- fc7_relu7_0_split_0
I1217 07:24:17.963783   479 net.cpp:408] conv6_1 -> conv6_1
I1217 07:24:17.966655   479 net.cpp:150] Setting up conv6_1
I1217 07:24:17.966671   479 net.cpp:157] Top shape: 1 256 32 32 (262144)
I1217 07:24:17.966675   479 net.cpp:165] Memory required for data: 648472608
I1217 07:24:17.966697   479 layer_factory.hpp:77] Creating layer conv6_1_relu
I1217 07:24:17.966717   479 net.cpp:100] Creating Layer conv6_1_relu
I1217 07:24:17.966722   479 net.cpp:434] conv6_1_relu <- conv6_1
I1217 07:24:17.966727   479 net.cpp:395] conv6_1_relu -> conv6_1 (in-place)
I1217 07:24:17.967226   479 net.cpp:150] Setting up conv6_1_relu
I1217 07:24:17.967236   479 net.cpp:157] Top shape: 1 256 32 32 (262144)
I1217 07:24:17.967239   479 net.cpp:165] Memory required for data: 649521184
I1217 07:24:17.967244   479 layer_factory.hpp:77] Creating layer conv6_2
I1217 07:24:17.967268   479 net.cpp:100] Creating Layer conv6_2
I1217 07:24:17.967273   479 net.cpp:434] conv6_2 <- conv6_1
I1217 07:24:17.967283   479 net.cpp:408] conv6_2 -> conv6_2
I1217 07:24:17.974301   479 net.cpp:150] Setting up conv6_2
I1217 07:24:17.974316   479 net.cpp:157] Top shape: 1 512 16 16 (131072)
I1217 07:24:17.974320   479 net.cpp:165] Memory required for data: 650045472
I1217 07:24:17.974347   479 layer_factory.hpp:77] Creating layer conv6_2_relu
I1217 07:24:17.974355   479 net.cpp:100] Creating Layer conv6_2_relu
I1217 07:24:17.974361   479 net.cpp:434] conv6_2_relu <- conv6_2
I1217 07:24:17.974369   479 net.cpp:395] conv6_2_relu -> conv6_2 (in-place)
I1217 07:24:17.974556   479 net.cpp:150] Setting up conv6_2_relu
I1217 07:24:17.974565   479 net.cpp:157] Top shape: 1 512 16 16 (131072)
I1217 07:24:17.974568   479 net.cpp:165] Memory required for data: 650569760
I1217 07:24:17.974572   479 layer_factory.hpp:77] Creating layer conv6_2_conv6_2_relu_0_split
I1217 07:24:17.974578   479 net.cpp:100] Creating Layer conv6_2_conv6_2_relu_0_split
I1217 07:24:17.974598   479 net.cpp:434] conv6_2_conv6_2_relu_0_split <- conv6_2
I1217 07:24:17.974603   479 net.cpp:408] conv6_2_conv6_2_relu_0_split -> conv6_2_conv6_2_relu_0_split_0
I1217 07:24:17.974611   479 net.cpp:408] conv6_2_conv6_2_relu_0_split -> conv6_2_conv6_2_relu_0_split_1
I1217 07:24:17.974618   479 net.cpp:408] conv6_2_conv6_2_relu_0_split -> conv6_2_conv6_2_relu_0_split_2
I1217 07:24:17.974624   479 net.cpp:408] conv6_2_conv6_2_relu_0_split -> conv6_2_conv6_2_relu_0_split_3
I1217 07:24:17.974714   479 net.cpp:150] Setting up conv6_2_conv6_2_relu_0_split
I1217 07:24:17.974720   479 net.cpp:157] Top shape: 1 512 16 16 (131072)
I1217 07:24:17.974723   479 net.cpp:157] Top shape: 1 512 16 16 (131072)
I1217 07:24:17.974728   479 net.cpp:157] Top shape: 1 512 16 16 (131072)
I1217 07:24:17.974747   479 net.cpp:157] Top shape: 1 512 16 16 (131072)
I1217 07:24:17.974750   479 net.cpp:165] Memory required for data: 652666912
I1217 07:24:17.974755   479 layer_factory.hpp:77] Creating layer conv7_1
I1217 07:24:17.974766   479 net.cpp:100] Creating Layer conv7_1
I1217 07:24:17.974771   479 net.cpp:434] conv7_1 <- conv6_2_conv6_2_relu_0_split_0
I1217 07:24:17.974776   479 net.cpp:408] conv7_1 -> conv7_1
I1217 07:24:17.976094   479 net.cpp:150] Setting up conv7_1
I1217 07:24:17.976105   479 net.cpp:157] Top shape: 1 128 16 16 (32768)
I1217 07:24:17.976110   479 net.cpp:165] Memory required for data: 652797984
I1217 07:24:17.976117   479 layer_factory.hpp:77] Creating layer conv7_1_relu
I1217 07:24:17.976125   479 net.cpp:100] Creating Layer conv7_1_relu
I1217 07:24:17.976130   479 net.cpp:434] conv7_1_relu <- conv7_1
I1217 07:24:17.976136   479 net.cpp:395] conv7_1_relu -> conv7_1 (in-place)
I1217 07:24:17.976289   479 net.cpp:150] Setting up conv7_1_relu
I1217 07:24:17.976296   479 net.cpp:157] Top shape: 1 128 16 16 (32768)
I1217 07:24:17.976301   479 net.cpp:165] Memory required for data: 652929056
I1217 07:24:17.976305   479 layer_factory.hpp:77] Creating layer conv7_2
I1217 07:24:17.976315   479 net.cpp:100] Creating Layer conv7_2
I1217 07:24:17.976320   479 net.cpp:434] conv7_2 <- conv7_1
I1217 07:24:17.976326   479 net.cpp:408] conv7_2 -> conv7_2
I1217 07:24:17.979280   479 net.cpp:150] Setting up conv7_2
I1217 07:24:17.979295   479 net.cpp:157] Top shape: 1 256 8 8 (16384)
I1217 07:24:17.979298   479 net.cpp:165] Memory required for data: 652994592
I1217 07:24:17.979305   479 layer_factory.hpp:77] Creating layer conv7_2_relu
I1217 07:24:17.979312   479 net.cpp:100] Creating Layer conv7_2_relu
I1217 07:24:17.979317   479 net.cpp:434] conv7_2_relu <- conv7_2
I1217 07:24:17.979324   479 net.cpp:395] conv7_2_relu -> conv7_2 (in-place)
I1217 07:24:17.979815   479 net.cpp:150] Setting up conv7_2_relu
I1217 07:24:17.979825   479 net.cpp:157] Top shape: 1 256 8 8 (16384)
I1217 07:24:17.979830   479 net.cpp:165] Memory required for data: 653060128
I1217 07:24:17.979835   479 layer_factory.hpp:77] Creating layer conv7_2_conv7_2_relu_0_split
I1217 07:24:17.979841   479 net.cpp:100] Creating Layer conv7_2_conv7_2_relu_0_split
I1217 07:24:17.979847   479 net.cpp:434] conv7_2_conv7_2_relu_0_split <- conv7_2
I1217 07:24:17.979879   479 net.cpp:408] conv7_2_conv7_2_relu_0_split -> conv7_2_conv7_2_relu_0_split_0
I1217 07:24:17.979902   479 net.cpp:408] conv7_2_conv7_2_relu_0_split -> conv7_2_conv7_2_relu_0_split_1
I1217 07:24:17.979907   479 net.cpp:408] conv7_2_conv7_2_relu_0_split -> conv7_2_conv7_2_relu_0_split_2
I1217 07:24:17.979913   479 net.cpp:408] conv7_2_conv7_2_relu_0_split -> conv7_2_conv7_2_relu_0_split_3
I1217 07:24:17.980005   479 net.cpp:150] Setting up conv7_2_conv7_2_relu_0_split
I1217 07:24:17.980012   479 net.cpp:157] Top shape: 1 256 8 8 (16384)
I1217 07:24:17.980016   479 net.cpp:157] Top shape: 1 256 8 8 (16384)
I1217 07:24:17.980020   479 net.cpp:157] Top shape: 1 256 8 8 (16384)
I1217 07:24:17.980038   479 net.cpp:157] Top shape: 1 256 8 8 (16384)
I1217 07:24:17.980042   479 net.cpp:165] Memory required for data: 653322272
I1217 07:24:17.980046   479 layer_factory.hpp:77] Creating layer conv8_1
I1217 07:24:17.980056   479 net.cpp:100] Creating Layer conv8_1
I1217 07:24:17.980073   479 net.cpp:434] conv8_1 <- conv7_2_conv7_2_relu_0_split_0
I1217 07:24:17.980082   479 net.cpp:408] conv8_1 -> conv8_1
I1217 07:24:17.981287   479 net.cpp:150] Setting up conv8_1
I1217 07:24:17.981297   479 net.cpp:157] Top shape: 1 128 8 8 (8192)
I1217 07:24:17.981302   479 net.cpp:165] Memory required for data: 653355040
I1217 07:24:17.981308   479 layer_factory.hpp:77] Creating layer conv8_1_relu
I1217 07:24:17.981315   479 net.cpp:100] Creating Layer conv8_1_relu
I1217 07:24:17.981320   479 net.cpp:434] conv8_1_relu <- conv8_1
I1217 07:24:17.981328   479 net.cpp:395] conv8_1_relu -> conv8_1 (in-place)
I1217 07:24:17.981479   479 net.cpp:150] Setting up conv8_1_relu
I1217 07:24:17.981487   479 net.cpp:157] Top shape: 1 128 8 8 (8192)
I1217 07:24:17.981492   479 net.cpp:165] Memory required for data: 653387808
I1217 07:24:17.981496   479 layer_factory.hpp:77] Creating layer conv8_2
I1217 07:24:17.981508   479 net.cpp:100] Creating Layer conv8_2
I1217 07:24:17.981513   479 net.cpp:434] conv8_2 <- conv8_1
I1217 07:24:17.981520   479 net.cpp:408] conv8_2 -> conv8_2
I1217 07:24:17.984766   479 net.cpp:150] Setting up conv8_2
I1217 07:24:17.984777   479 net.cpp:157] Top shape: 1 256 6 6 (9216)
I1217 07:24:17.984782   479 net.cpp:165] Memory required for data: 653424672
I1217 07:24:17.984788   479 layer_factory.hpp:77] Creating layer conv8_2_relu
I1217 07:24:17.984796   479 net.cpp:100] Creating Layer conv8_2_relu
I1217 07:24:17.984802   479 net.cpp:434] conv8_2_relu <- conv8_2
I1217 07:24:17.984807   479 net.cpp:395] conv8_2_relu -> conv8_2 (in-place)
I1217 07:24:17.984998   479 net.cpp:150] Setting up conv8_2_relu
I1217 07:24:17.985007   479 net.cpp:157] Top shape: 1 256 6 6 (9216)
I1217 07:24:17.985011   479 net.cpp:165] Memory required for data: 653461536
I1217 07:24:17.985015   479 layer_factory.hpp:77] Creating layer conv8_2_conv8_2_relu_0_split
I1217 07:24:17.985023   479 net.cpp:100] Creating Layer conv8_2_conv8_2_relu_0_split
I1217 07:24:17.985028   479 net.cpp:434] conv8_2_conv8_2_relu_0_split <- conv8_2
I1217 07:24:17.985034   479 net.cpp:408] conv8_2_conv8_2_relu_0_split -> conv8_2_conv8_2_relu_0_split_0
I1217 07:24:17.985041   479 net.cpp:408] conv8_2_conv8_2_relu_0_split -> conv8_2_conv8_2_relu_0_split_1
I1217 07:24:17.985049   479 net.cpp:408] conv8_2_conv8_2_relu_0_split -> conv8_2_conv8_2_relu_0_split_2
I1217 07:24:17.985054   479 net.cpp:408] conv8_2_conv8_2_relu_0_split -> conv8_2_conv8_2_relu_0_split_3
I1217 07:24:17.985122   479 net.cpp:150] Setting up conv8_2_conv8_2_relu_0_split
I1217 07:24:17.985129   479 net.cpp:157] Top shape: 1 256 6 6 (9216)
I1217 07:24:17.985134   479 net.cpp:157] Top shape: 1 256 6 6 (9216)
I1217 07:24:17.985139   479 net.cpp:157] Top shape: 1 256 6 6 (9216)
I1217 07:24:17.985144   479 net.cpp:157] Top shape: 1 256 6 6 (9216)
I1217 07:24:17.985148   479 net.cpp:165] Memory required for data: 653608992
I1217 07:24:17.985152   479 layer_factory.hpp:77] Creating layer conv9_1
I1217 07:24:17.985163   479 net.cpp:100] Creating Layer conv9_1
I1217 07:24:17.985168   479 net.cpp:434] conv9_1 <- conv8_2_conv8_2_relu_0_split_0
I1217 07:24:17.985185   479 net.cpp:408] conv9_1 -> conv9_1
I1217 07:24:17.986407   479 net.cpp:150] Setting up conv9_1
I1217 07:24:17.986418   479 net.cpp:157] Top shape: 1 128 6 6 (4608)
I1217 07:24:17.986423   479 net.cpp:165] Memory required for data: 653627424
I1217 07:24:17.986429   479 layer_factory.hpp:77] Creating layer conv9_1_relu
I1217 07:24:17.986436   479 net.cpp:100] Creating Layer conv9_1_relu
I1217 07:24:17.986441   479 net.cpp:434] conv9_1_relu <- conv9_1
I1217 07:24:17.986449   479 net.cpp:395] conv9_1_relu -> conv9_1 (in-place)
I1217 07:24:17.986933   479 net.cpp:150] Setting up conv9_1_relu
I1217 07:24:17.986943   479 net.cpp:157] Top shape: 1 128 6 6 (4608)
I1217 07:24:17.986948   479 net.cpp:165] Memory required for data: 653645856
I1217 07:24:17.986953   479 layer_factory.hpp:77] Creating layer conv9_2
I1217 07:24:17.986963   479 net.cpp:100] Creating Layer conv9_2
I1217 07:24:17.986968   479 net.cpp:434] conv9_2 <- conv9_1
I1217 07:24:17.986975   479 net.cpp:408] conv9_2 -> conv9_2
I1217 07:24:17.990226   479 net.cpp:150] Setting up conv9_2
I1217 07:24:17.990237   479 net.cpp:157] Top shape: 1 256 4 4 (4096)
I1217 07:24:17.990242   479 net.cpp:165] Memory required for data: 653662240
I1217 07:24:17.990248   479 layer_factory.hpp:77] Creating layer conv9_2_relu
I1217 07:24:17.990257   479 net.cpp:100] Creating Layer conv9_2_relu
I1217 07:24:17.990262   479 net.cpp:434] conv9_2_relu <- conv9_2
I1217 07:24:17.990269   479 net.cpp:395] conv9_2_relu -> conv9_2 (in-place)
I1217 07:24:17.990432   479 net.cpp:150] Setting up conv9_2_relu
I1217 07:24:17.990440   479 net.cpp:157] Top shape: 1 256 4 4 (4096)
I1217 07:24:17.990445   479 net.cpp:165] Memory required for data: 653678624
I1217 07:24:17.990451   479 layer_factory.hpp:77] Creating layer conv9_2_conv9_2_relu_0_split
I1217 07:24:17.990458   479 net.cpp:100] Creating Layer conv9_2_conv9_2_relu_0_split
I1217 07:24:17.990463   479 net.cpp:434] conv9_2_conv9_2_relu_0_split <- conv9_2
I1217 07:24:17.990468   479 net.cpp:408] conv9_2_conv9_2_relu_0_split -> conv9_2_conv9_2_relu_0_split_0
I1217 07:24:17.990478   479 net.cpp:408] conv9_2_conv9_2_relu_0_split -> conv9_2_conv9_2_relu_0_split_1
I1217 07:24:17.990484   479 net.cpp:408] conv9_2_conv9_2_relu_0_split -> conv9_2_conv9_2_relu_0_split_2
I1217 07:24:17.990541   479 net.cpp:150] Setting up conv9_2_conv9_2_relu_0_split
I1217 07:24:17.990548   479 net.cpp:157] Top shape: 1 256 4 4 (4096)
I1217 07:24:17.990555   479 net.cpp:157] Top shape: 1 256 4 4 (4096)
I1217 07:24:17.990559   479 net.cpp:157] Top shape: 1 256 4 4 (4096)
I1217 07:24:17.990564   479 net.cpp:165] Memory required for data: 653727776
I1217 07:24:17.990568   479 layer_factory.hpp:77] Creating layer conv4_3_norm
I1217 07:24:17.990576   479 net.cpp:100] Creating Layer conv4_3_norm
I1217 07:24:17.990581   479 net.cpp:434] conv4_3_norm <- conv4_3_relu4_3_0_split_1
I1217 07:24:17.990589   479 net.cpp:408] conv4_3_norm -> conv4_3_norm
I1217 07:24:17.990747   479 net.cpp:150] Setting up conv4_3_norm
I1217 07:24:17.990754   479 net.cpp:157] Top shape: 1 512 63 63 (2032128)
I1217 07:24:17.990759   479 net.cpp:165] Memory required for data: 661856288
I1217 07:24:17.990764   479 layer_factory.hpp:77] Creating layer conv4_3_norm_conv4_3_norm_0_split
I1217 07:24:17.990770   479 net.cpp:100] Creating Layer conv4_3_norm_conv4_3_norm_0_split
I1217 07:24:17.990775   479 net.cpp:434] conv4_3_norm_conv4_3_norm_0_split <- conv4_3_norm
I1217 07:24:17.990782   479 net.cpp:408] conv4_3_norm_conv4_3_norm_0_split -> conv4_3_norm_conv4_3_norm_0_split_0
I1217 07:24:17.990788   479 net.cpp:408] conv4_3_norm_conv4_3_norm_0_split -> conv4_3_norm_conv4_3_norm_0_split_1
I1217 07:24:17.990795   479 net.cpp:408] conv4_3_norm_conv4_3_norm_0_split -> conv4_3_norm_conv4_3_norm_0_split_2
I1217 07:24:17.990842   479 net.cpp:150] Setting up conv4_3_norm_conv4_3_norm_0_split
I1217 07:24:17.990849   479 net.cpp:157] Top shape: 1 512 63 63 (2032128)
I1217 07:24:17.990854   479 net.cpp:157] Top shape: 1 512 63 63 (2032128)
I1217 07:24:17.990859   479 net.cpp:157] Top shape: 1 512 63 63 (2032128)
I1217 07:24:17.990873   479 net.cpp:165] Memory required for data: 686241824
I1217 07:24:17.990877   479 layer_factory.hpp:77] Creating layer conv4_3_norm_mbox_loc
I1217 07:24:17.990886   479 net.cpp:100] Creating Layer conv4_3_norm_mbox_loc
I1217 07:24:17.990891   479 net.cpp:434] conv4_3_norm_mbox_loc <- conv4_3_norm_conv4_3_norm_0_split_0
I1217 07:24:17.990900   479 net.cpp:408] conv4_3_norm_mbox_loc -> conv4_3_norm_mbox_loc
I1217 07:24:17.992616   479 net.cpp:150] Setting up conv4_3_norm_mbox_loc
I1217 07:24:17.992640   479 net.cpp:157] Top shape: 1 16 63 63 (63504)
I1217 07:24:17.992645   479 net.cpp:165] Memory required for data: 686495840
I1217 07:24:17.992651   479 layer_factory.hpp:77] Creating layer conv4_3_norm_mbox_loc_perm
I1217 07:24:17.992660   479 net.cpp:100] Creating Layer conv4_3_norm_mbox_loc_perm
I1217 07:24:17.992664   479 net.cpp:434] conv4_3_norm_mbox_loc_perm <- conv4_3_norm_mbox_loc
I1217 07:24:17.992672   479 net.cpp:408] conv4_3_norm_mbox_loc_perm -> conv4_3_norm_mbox_loc_perm
I1217 07:24:17.992780   479 net.cpp:150] Setting up conv4_3_norm_mbox_loc_perm
I1217 07:24:17.992787   479 net.cpp:157] Top shape: 1 63 63 16 (63504)
I1217 07:24:17.992791   479 net.cpp:165] Memory required for data: 686749856
I1217 07:24:17.992795   479 layer_factory.hpp:77] Creating layer conv4_3_norm_mbox_loc_flat
I1217 07:24:17.992803   479 net.cpp:100] Creating Layer conv4_3_norm_mbox_loc_flat
I1217 07:24:17.992808   479 net.cpp:434] conv4_3_norm_mbox_loc_flat <- conv4_3_norm_mbox_loc_perm
I1217 07:24:17.992815   479 net.cpp:408] conv4_3_norm_mbox_loc_flat -> conv4_3_norm_mbox_loc_flat
I1217 07:24:17.992847   479 net.cpp:150] Setting up conv4_3_norm_mbox_loc_flat
I1217 07:24:17.992856   479 net.cpp:157] Top shape: 1 63504 (63504)
I1217 07:24:17.992859   479 net.cpp:165] Memory required for data: 687003872
I1217 07:24:17.992863   479 layer_factory.hpp:77] Creating layer conv4_3_norm_mbox_conf
I1217 07:24:17.992877   479 net.cpp:100] Creating Layer conv4_3_norm_mbox_conf
I1217 07:24:17.992882   479 net.cpp:434] conv4_3_norm_mbox_conf <- conv4_3_norm_conv4_3_norm_0_split_1
I1217 07:24:17.992889   479 net.cpp:408] conv4_3_norm_mbox_conf -> conv4_3_norm_mbox_conf
I1217 07:24:17.994438   479 net.cpp:150] Setting up conv4_3_norm_mbox_conf
I1217 07:24:17.994448   479 net.cpp:157] Top shape: 1 8 63 63 (31752)
I1217 07:24:17.994453   479 net.cpp:165] Memory required for data: 687130880
I1217 07:24:17.994462   479 layer_factory.hpp:77] Creating layer conv4_3_norm_mbox_conf_perm
I1217 07:24:17.994469   479 net.cpp:100] Creating Layer conv4_3_norm_mbox_conf_perm
I1217 07:24:17.994475   479 net.cpp:434] conv4_3_norm_mbox_conf_perm <- conv4_3_norm_mbox_conf
I1217 07:24:17.994482   479 net.cpp:408] conv4_3_norm_mbox_conf_perm -> conv4_3_norm_mbox_conf_perm
I1217 07:24:17.994590   479 net.cpp:150] Setting up conv4_3_norm_mbox_conf_perm
I1217 07:24:17.994597   479 net.cpp:157] Top shape: 1 63 63 8 (31752)
I1217 07:24:17.994601   479 net.cpp:165] Memory required for data: 687257888
I1217 07:24:17.994606   479 layer_factory.hpp:77] Creating layer conv4_3_norm_mbox_conf_flat
I1217 07:24:17.994613   479 net.cpp:100] Creating Layer conv4_3_norm_mbox_conf_flat
I1217 07:24:17.994618   479 net.cpp:434] conv4_3_norm_mbox_conf_flat <- conv4_3_norm_mbox_conf_perm
I1217 07:24:17.994624   479 net.cpp:408] conv4_3_norm_mbox_conf_flat -> conv4_3_norm_mbox_conf_flat
I1217 07:24:17.994648   479 net.cpp:150] Setting up conv4_3_norm_mbox_conf_flat
I1217 07:24:17.994655   479 net.cpp:157] Top shape: 1 31752 (31752)
I1217 07:24:17.994659   479 net.cpp:165] Memory required for data: 687384896
I1217 07:24:17.994663   479 layer_factory.hpp:77] Creating layer conv4_3_norm_mbox_priorbox
I1217 07:24:17.994671   479 net.cpp:100] Creating Layer conv4_3_norm_mbox_priorbox
I1217 07:24:17.994678   479 net.cpp:434] conv4_3_norm_mbox_priorbox <- conv4_3_norm_conv4_3_norm_0_split_2
I1217 07:24:17.994683   479 net.cpp:434] conv4_3_norm_mbox_priorbox <- data_data_0_split_1
I1217 07:24:17.994690   479 net.cpp:408] conv4_3_norm_mbox_priorbox -> conv4_3_norm_mbox_priorbox
I1217 07:24:17.994724   479 net.cpp:150] Setting up conv4_3_norm_mbox_priorbox
I1217 07:24:17.994731   479 net.cpp:157] Top shape: 1 2 63504 (127008)
I1217 07:24:17.994736   479 net.cpp:165] Memory required for data: 687892928
I1217 07:24:17.994740   479 layer_factory.hpp:77] Creating layer fc7_mbox_loc
I1217 07:24:17.994750   479 net.cpp:100] Creating Layer fc7_mbox_loc
I1217 07:24:17.994755   479 net.cpp:434] fc7_mbox_loc <- fc7_relu7_0_split_1
I1217 07:24:17.994763   479 net.cpp:408] fc7_mbox_loc -> fc7_mbox_loc
I1217 07:24:17.997022   479 net.cpp:150] Setting up fc7_mbox_loc
I1217 07:24:17.997033   479 net.cpp:157] Top shape: 1 24 32 32 (24576)
I1217 07:24:17.997038   479 net.cpp:165] Memory required for data: 687991232
I1217 07:24:17.997046   479 layer_factory.hpp:77] Creating layer fc7_mbox_loc_perm
I1217 07:24:17.997053   479 net.cpp:100] Creating Layer fc7_mbox_loc_perm
I1217 07:24:17.997058   479 net.cpp:434] fc7_mbox_loc_perm <- fc7_mbox_loc
I1217 07:24:17.997066   479 net.cpp:408] fc7_mbox_loc_perm -> fc7_mbox_loc_perm
I1217 07:24:17.997172   479 net.cpp:150] Setting up fc7_mbox_loc_perm
I1217 07:24:17.997179   479 net.cpp:157] Top shape: 1 32 32 24 (24576)
I1217 07:24:17.997184   479 net.cpp:165] Memory required for data: 688089536
I1217 07:24:17.997189   479 layer_factory.hpp:77] Creating layer fc7_mbox_loc_flat
I1217 07:24:17.997193   479 net.cpp:100] Creating Layer fc7_mbox_loc_flat
I1217 07:24:17.997198   479 net.cpp:434] fc7_mbox_loc_flat <- fc7_mbox_loc_perm
I1217 07:24:17.997205   479 net.cpp:408] fc7_mbox_loc_flat -> fc7_mbox_loc_flat
I1217 07:24:17.997228   479 net.cpp:150] Setting up fc7_mbox_loc_flat
I1217 07:24:17.997236   479 net.cpp:157] Top shape: 1 24576 (24576)
I1217 07:24:17.997239   479 net.cpp:165] Memory required for data: 688187840
I1217 07:24:17.997243   479 layer_factory.hpp:77] Creating layer fc7_mbox_conf
I1217 07:24:17.997252   479 net.cpp:100] Creating Layer fc7_mbox_conf
I1217 07:24:17.997258   479 net.cpp:434] fc7_mbox_conf <- fc7_relu7_0_split_2
I1217 07:24:17.997265   479 net.cpp:408] fc7_mbox_conf -> fc7_mbox_conf
I1217 07:24:17.999084   479 net.cpp:150] Setting up fc7_mbox_conf
I1217 07:24:17.999094   479 net.cpp:157] Top shape: 1 12 32 32 (12288)
I1217 07:24:17.999099   479 net.cpp:165] Memory required for data: 688236992
I1217 07:24:17.999106   479 layer_factory.hpp:77] Creating layer fc7_mbox_conf_perm
I1217 07:24:17.999114   479 net.cpp:100] Creating Layer fc7_mbox_conf_perm
I1217 07:24:17.999119   479 net.cpp:434] fc7_mbox_conf_perm <- fc7_mbox_conf
I1217 07:24:17.999126   479 net.cpp:408] fc7_mbox_conf_perm -> fc7_mbox_conf_perm
I1217 07:24:17.999235   479 net.cpp:150] Setting up fc7_mbox_conf_perm
I1217 07:24:17.999241   479 net.cpp:157] Top shape: 1 32 32 12 (12288)
I1217 07:24:17.999246   479 net.cpp:165] Memory required for data: 688286144
I1217 07:24:17.999250   479 layer_factory.hpp:77] Creating layer fc7_mbox_conf_flat
I1217 07:24:17.999258   479 net.cpp:100] Creating Layer fc7_mbox_conf_flat
I1217 07:24:17.999264   479 net.cpp:434] fc7_mbox_conf_flat <- fc7_mbox_conf_perm
I1217 07:24:17.999269   479 net.cpp:408] fc7_mbox_conf_flat -> fc7_mbox_conf_flat
I1217 07:24:17.999292   479 net.cpp:150] Setting up fc7_mbox_conf_flat
I1217 07:24:17.999298   479 net.cpp:157] Top shape: 1 12288 (12288)
I1217 07:24:17.999303   479 net.cpp:165] Memory required for data: 688335296
I1217 07:24:17.999307   479 layer_factory.hpp:77] Creating layer fc7_mbox_priorbox
I1217 07:24:17.999315   479 net.cpp:100] Creating Layer fc7_mbox_priorbox
I1217 07:24:17.999320   479 net.cpp:434] fc7_mbox_priorbox <- fc7_relu7_0_split_3
I1217 07:24:17.999325   479 net.cpp:434] fc7_mbox_priorbox <- data_data_0_split_2
I1217 07:24:17.999331   479 net.cpp:408] fc7_mbox_priorbox -> fc7_mbox_priorbox
I1217 07:24:17.999357   479 net.cpp:150] Setting up fc7_mbox_priorbox
I1217 07:24:17.999364   479 net.cpp:157] Top shape: 1 2 24576 (49152)
I1217 07:24:17.999368   479 net.cpp:165] Memory required for data: 688531904
I1217 07:24:17.999372   479 layer_factory.hpp:77] Creating layer conv6_2_mbox_loc
I1217 07:24:17.999390   479 net.cpp:100] Creating Layer conv6_2_mbox_loc
I1217 07:24:17.999397   479 net.cpp:434] conv6_2_mbox_loc <- conv6_2_conv6_2_relu_0_split_1
I1217 07:24:17.999404   479 net.cpp:408] conv6_2_mbox_loc -> conv6_2_mbox_loc
I1217 07:24:18.001273   479 net.cpp:150] Setting up conv6_2_mbox_loc
I1217 07:24:18.001283   479 net.cpp:157] Top shape: 1 24 16 16 (6144)
I1217 07:24:18.001289   479 net.cpp:165] Memory required for data: 688556480
I1217 07:24:18.001296   479 layer_factory.hpp:77] Creating layer conv6_2_mbox_loc_perm
I1217 07:24:18.001303   479 net.cpp:100] Creating Layer conv6_2_mbox_loc_perm
I1217 07:24:18.001309   479 net.cpp:434] conv6_2_mbox_loc_perm <- conv6_2_mbox_loc
I1217 07:24:18.001317   479 net.cpp:408] conv6_2_mbox_loc_perm -> conv6_2_mbox_loc_perm
I1217 07:24:18.001421   479 net.cpp:150] Setting up conv6_2_mbox_loc_perm
I1217 07:24:18.001427   479 net.cpp:157] Top shape: 1 16 16 24 (6144)
I1217 07:24:18.001432   479 net.cpp:165] Memory required for data: 688581056
I1217 07:24:18.001436   479 layer_factory.hpp:77] Creating layer conv6_2_mbox_loc_flat
I1217 07:24:18.001443   479 net.cpp:100] Creating Layer conv6_2_mbox_loc_flat
I1217 07:24:18.001448   479 net.cpp:434] conv6_2_mbox_loc_flat <- conv6_2_mbox_loc_perm
I1217 07:24:18.001456   479 net.cpp:408] conv6_2_mbox_loc_flat -> conv6_2_mbox_loc_flat
I1217 07:24:18.001478   479 net.cpp:150] Setting up conv6_2_mbox_loc_flat
I1217 07:24:18.001485   479 net.cpp:157] Top shape: 1 6144 (6144)
I1217 07:24:18.001489   479 net.cpp:165] Memory required for data: 688605632
I1217 07:24:18.001494   479 layer_factory.hpp:77] Creating layer conv6_2_mbox_conf
I1217 07:24:18.001503   479 net.cpp:100] Creating Layer conv6_2_mbox_conf
I1217 07:24:18.001509   479 net.cpp:434] conv6_2_mbox_conf <- conv6_2_conv6_2_relu_0_split_2
I1217 07:24:18.001518   479 net.cpp:408] conv6_2_mbox_conf -> conv6_2_mbox_conf
I1217 07:24:18.003146   479 net.cpp:150] Setting up conv6_2_mbox_conf
I1217 07:24:18.003156   479 net.cpp:157] Top shape: 1 12 16 16 (3072)
I1217 07:24:18.003160   479 net.cpp:165] Memory required for data: 688617920
I1217 07:24:18.003167   479 layer_factory.hpp:77] Creating layer conv6_2_mbox_conf_perm
I1217 07:24:18.003178   479 net.cpp:100] Creating Layer conv6_2_mbox_conf_perm
I1217 07:24:18.003185   479 net.cpp:434] conv6_2_mbox_conf_perm <- conv6_2_mbox_conf
I1217 07:24:18.003191   479 net.cpp:408] conv6_2_mbox_conf_perm -> conv6_2_mbox_conf_perm
I1217 07:24:18.003296   479 net.cpp:150] Setting up conv6_2_mbox_conf_perm
I1217 07:24:18.003304   479 net.cpp:157] Top shape: 1 16 16 12 (3072)
I1217 07:24:18.003309   479 net.cpp:165] Memory required for data: 688630208
I1217 07:24:18.003312   479 layer_factory.hpp:77] Creating layer conv6_2_mbox_conf_flat
I1217 07:24:18.003319   479 net.cpp:100] Creating Layer conv6_2_mbox_conf_flat
I1217 07:24:18.003324   479 net.cpp:434] conv6_2_mbox_conf_flat <- conv6_2_mbox_conf_perm
I1217 07:24:18.003331   479 net.cpp:408] conv6_2_mbox_conf_flat -> conv6_2_mbox_conf_flat
I1217 07:24:18.003355   479 net.cpp:150] Setting up conv6_2_mbox_conf_flat
I1217 07:24:18.003361   479 net.cpp:157] Top shape: 1 3072 (3072)
I1217 07:24:18.003366   479 net.cpp:165] Memory required for data: 688642496
I1217 07:24:18.003370   479 layer_factory.hpp:77] Creating layer conv6_2_mbox_priorbox
I1217 07:24:18.003377   479 net.cpp:100] Creating Layer conv6_2_mbox_priorbox
I1217 07:24:18.003382   479 net.cpp:434] conv6_2_mbox_priorbox <- conv6_2_conv6_2_relu_0_split_3
I1217 07:24:18.003388   479 net.cpp:434] conv6_2_mbox_priorbox <- data_data_0_split_3
I1217 07:24:18.003396   479 net.cpp:408] conv6_2_mbox_priorbox -> conv6_2_mbox_priorbox
I1217 07:24:18.003422   479 net.cpp:150] Setting up conv6_2_mbox_priorbox
I1217 07:24:18.003428   479 net.cpp:157] Top shape: 1 2 6144 (12288)
I1217 07:24:18.003433   479 net.cpp:165] Memory required for data: 688691648
I1217 07:24:18.003437   479 layer_factory.hpp:77] Creating layer conv7_2_mbox_loc
I1217 07:24:18.003445   479 net.cpp:100] Creating Layer conv7_2_mbox_loc
I1217 07:24:18.003459   479 net.cpp:434] conv7_2_mbox_loc <- conv7_2_conv7_2_relu_0_split_1
I1217 07:24:18.003468   479 net.cpp:408] conv7_2_mbox_loc -> conv7_2_mbox_loc
I1217 07:24:18.005143   479 net.cpp:150] Setting up conv7_2_mbox_loc
I1217 07:24:18.005154   479 net.cpp:157] Top shape: 1 24 8 8 (1536)
I1217 07:24:18.005159   479 net.cpp:165] Memory required for data: 688697792
I1217 07:24:18.005167   479 layer_factory.hpp:77] Creating layer conv7_2_mbox_loc_perm
I1217 07:24:18.005174   479 net.cpp:100] Creating Layer conv7_2_mbox_loc_perm
I1217 07:24:18.005180   479 net.cpp:434] conv7_2_mbox_loc_perm <- conv7_2_mbox_loc
I1217 07:24:18.005187   479 net.cpp:408] conv7_2_mbox_loc_perm -> conv7_2_mbox_loc_perm
I1217 07:24:18.005296   479 net.cpp:150] Setting up conv7_2_mbox_loc_perm
I1217 07:24:18.005303   479 net.cpp:157] Top shape: 1 8 8 24 (1536)
I1217 07:24:18.005307   479 net.cpp:165] Memory required for data: 688703936
I1217 07:24:18.005311   479 layer_factory.hpp:77] Creating layer conv7_2_mbox_loc_flat
I1217 07:24:18.005318   479 net.cpp:100] Creating Layer conv7_2_mbox_loc_flat
I1217 07:24:18.005323   479 net.cpp:434] conv7_2_mbox_loc_flat <- conv7_2_mbox_loc_perm
I1217 07:24:18.005329   479 net.cpp:408] conv7_2_mbox_loc_flat -> conv7_2_mbox_loc_flat
I1217 07:24:18.005352   479 net.cpp:150] Setting up conv7_2_mbox_loc_flat
I1217 07:24:18.005359   479 net.cpp:157] Top shape: 1 1536 (1536)
I1217 07:24:18.005364   479 net.cpp:165] Memory required for data: 688710080
I1217 07:24:18.005368   479 layer_factory.hpp:77] Creating layer conv7_2_mbox_conf
I1217 07:24:18.005378   479 net.cpp:100] Creating Layer conv7_2_mbox_conf
I1217 07:24:18.005383   479 net.cpp:434] conv7_2_mbox_conf <- conv7_2_conv7_2_relu_0_split_2
I1217 07:24:18.005390   479 net.cpp:408] conv7_2_mbox_conf -> conv7_2_mbox_conf
I1217 07:24:18.006903   479 net.cpp:150] Setting up conv7_2_mbox_conf
I1217 07:24:18.006913   479 net.cpp:157] Top shape: 1 12 8 8 (768)
I1217 07:24:18.006918   479 net.cpp:165] Memory required for data: 688713152
I1217 07:24:18.006924   479 layer_factory.hpp:77] Creating layer conv7_2_mbox_conf_perm
I1217 07:24:18.006932   479 net.cpp:100] Creating Layer conv7_2_mbox_conf_perm
I1217 07:24:18.006938   479 net.cpp:434] conv7_2_mbox_conf_perm <- conv7_2_mbox_conf
I1217 07:24:18.006945   479 net.cpp:408] conv7_2_mbox_conf_perm -> conv7_2_mbox_conf_perm
I1217 07:24:18.007053   479 net.cpp:150] Setting up conv7_2_mbox_conf_perm
I1217 07:24:18.007059   479 net.cpp:157] Top shape: 1 8 8 12 (768)
I1217 07:24:18.007064   479 net.cpp:165] Memory required for data: 688716224
I1217 07:24:18.007068   479 layer_factory.hpp:77] Creating layer conv7_2_mbox_conf_flat
I1217 07:24:18.007076   479 net.cpp:100] Creating Layer conv7_2_mbox_conf_flat
I1217 07:24:18.007081   479 net.cpp:434] conv7_2_mbox_conf_flat <- conv7_2_mbox_conf_perm
I1217 07:24:18.007086   479 net.cpp:408] conv7_2_mbox_conf_flat -> conv7_2_mbox_conf_flat
I1217 07:24:18.007110   479 net.cpp:150] Setting up conv7_2_mbox_conf_flat
I1217 07:24:18.007117   479 net.cpp:157] Top shape: 1 768 (768)
I1217 07:24:18.007120   479 net.cpp:165] Memory required for data: 688719296
I1217 07:24:18.007124   479 layer_factory.hpp:77] Creating layer conv7_2_mbox_priorbox
I1217 07:24:18.007133   479 net.cpp:100] Creating Layer conv7_2_mbox_priorbox
I1217 07:24:18.007138   479 net.cpp:434] conv7_2_mbox_priorbox <- conv7_2_conv7_2_relu_0_split_3
I1217 07:24:18.007143   479 net.cpp:434] conv7_2_mbox_priorbox <- data_data_0_split_4
I1217 07:24:18.007149   479 net.cpp:408] conv7_2_mbox_priorbox -> conv7_2_mbox_priorbox
I1217 07:24:18.007174   479 net.cpp:150] Setting up conv7_2_mbox_priorbox
I1217 07:24:18.007182   479 net.cpp:157] Top shape: 1 2 1536 (3072)
I1217 07:24:18.007186   479 net.cpp:165] Memory required for data: 688731584
I1217 07:24:18.007190   479 layer_factory.hpp:77] Creating layer conv8_2_mbox_loc
I1217 07:24:18.007200   479 net.cpp:100] Creating Layer conv8_2_mbox_loc
I1217 07:24:18.007205   479 net.cpp:434] conv8_2_mbox_loc <- conv8_2_conv8_2_relu_0_split_1
I1217 07:24:18.007212   479 net.cpp:408] conv8_2_mbox_loc -> conv8_2_mbox_loc
I1217 07:24:18.009546   479 net.cpp:150] Setting up conv8_2_mbox_loc
I1217 07:24:18.009557   479 net.cpp:157] Top shape: 1 16 6 6 (576)
I1217 07:24:18.009562   479 net.cpp:165] Memory required for data: 688733888
I1217 07:24:18.009575   479 layer_factory.hpp:77] Creating layer conv8_2_mbox_loc_perm
I1217 07:24:18.009583   479 net.cpp:100] Creating Layer conv8_2_mbox_loc_perm
I1217 07:24:18.009589   479 net.cpp:434] conv8_2_mbox_loc_perm <- conv8_2_mbox_loc
I1217 07:24:18.009596   479 net.cpp:408] conv8_2_mbox_loc_perm -> conv8_2_mbox_loc_perm
I1217 07:24:18.009706   479 net.cpp:150] Setting up conv8_2_mbox_loc_perm
I1217 07:24:18.009712   479 net.cpp:157] Top shape: 1 6 6 16 (576)
I1217 07:24:18.009716   479 net.cpp:165] Memory required for data: 688736192
I1217 07:24:18.009721   479 layer_factory.hpp:77] Creating layer conv8_2_mbox_loc_flat
I1217 07:24:18.009727   479 net.cpp:100] Creating Layer conv8_2_mbox_loc_flat
I1217 07:24:18.009732   479 net.cpp:434] conv8_2_mbox_loc_flat <- conv8_2_mbox_loc_perm
I1217 07:24:18.009739   479 net.cpp:408] conv8_2_mbox_loc_flat -> conv8_2_mbox_loc_flat
I1217 07:24:18.009764   479 net.cpp:150] Setting up conv8_2_mbox_loc_flat
I1217 07:24:18.009770   479 net.cpp:157] Top shape: 1 576 (576)
I1217 07:24:18.009775   479 net.cpp:165] Memory required for data: 688738496
I1217 07:24:18.009779   479 layer_factory.hpp:77] Creating layer conv8_2_mbox_conf
I1217 07:24:18.009788   479 net.cpp:100] Creating Layer conv8_2_mbox_conf
I1217 07:24:18.009794   479 net.cpp:434] conv8_2_mbox_conf <- conv8_2_conv8_2_relu_0_split_2
I1217 07:24:18.009801   479 net.cpp:408] conv8_2_mbox_conf -> conv8_2_mbox_conf
I1217 07:24:18.010964   479 net.cpp:150] Setting up conv8_2_mbox_conf
I1217 07:24:18.010975   479 net.cpp:157] Top shape: 1 8 6 6 (288)
I1217 07:24:18.010980   479 net.cpp:165] Memory required for data: 688739648
I1217 07:24:18.010987   479 layer_factory.hpp:77] Creating layer conv8_2_mbox_conf_perm
I1217 07:24:18.010993   479 net.cpp:100] Creating Layer conv8_2_mbox_conf_perm
I1217 07:24:18.010999   479 net.cpp:434] conv8_2_mbox_conf_perm <- conv8_2_mbox_conf
I1217 07:24:18.011006   479 net.cpp:408] conv8_2_mbox_conf_perm -> conv8_2_mbox_conf_perm
I1217 07:24:18.011113   479 net.cpp:150] Setting up conv8_2_mbox_conf_perm
I1217 07:24:18.011121   479 net.cpp:157] Top shape: 1 6 6 8 (288)
I1217 07:24:18.011126   479 net.cpp:165] Memory required for data: 688740800
I1217 07:24:18.011129   479 layer_factory.hpp:77] Creating layer conv8_2_mbox_conf_flat
I1217 07:24:18.011135   479 net.cpp:100] Creating Layer conv8_2_mbox_conf_flat
I1217 07:24:18.011140   479 net.cpp:434] conv8_2_mbox_conf_flat <- conv8_2_mbox_conf_perm
I1217 07:24:18.011147   479 net.cpp:408] conv8_2_mbox_conf_flat -> conv8_2_mbox_conf_flat
I1217 07:24:18.011173   479 net.cpp:150] Setting up conv8_2_mbox_conf_flat
I1217 07:24:18.011178   479 net.cpp:157] Top shape: 1 288 (288)
I1217 07:24:18.011183   479 net.cpp:165] Memory required for data: 688741952
I1217 07:24:18.011188   479 layer_factory.hpp:77] Creating layer conv8_2_mbox_priorbox
I1217 07:24:18.011193   479 net.cpp:100] Creating Layer conv8_2_mbox_priorbox
I1217 07:24:18.011198   479 net.cpp:434] conv8_2_mbox_priorbox <- conv8_2_conv8_2_relu_0_split_3
I1217 07:24:18.011204   479 net.cpp:434] conv8_2_mbox_priorbox <- data_data_0_split_5
I1217 07:24:18.011214   479 net.cpp:408] conv8_2_mbox_priorbox -> conv8_2_mbox_priorbox
I1217 07:24:18.011240   479 net.cpp:150] Setting up conv8_2_mbox_priorbox
I1217 07:24:18.011245   479 net.cpp:157] Top shape: 1 2 576 (1152)
I1217 07:24:18.011250   479 net.cpp:165] Memory required for data: 688746560
I1217 07:24:18.011255   479 layer_factory.hpp:77] Creating layer conv9_2_mbox_loc
I1217 07:24:18.011263   479 net.cpp:100] Creating Layer conv9_2_mbox_loc
I1217 07:24:18.011268   479 net.cpp:434] conv9_2_mbox_loc <- conv9_2_conv9_2_relu_0_split_0
I1217 07:24:18.011274   479 net.cpp:408] conv9_2_mbox_loc -> conv9_2_mbox_loc
I1217 07:24:18.012482   479 net.cpp:150] Setting up conv9_2_mbox_loc
I1217 07:24:18.012492   479 net.cpp:157] Top shape: 1 16 4 4 (256)
I1217 07:24:18.012506   479 net.cpp:165] Memory required for data: 688747584
I1217 07:24:18.012512   479 layer_factory.hpp:77] Creating layer conv9_2_mbox_loc_perm
I1217 07:24:18.012521   479 net.cpp:100] Creating Layer conv9_2_mbox_loc_perm
I1217 07:24:18.012526   479 net.cpp:434] conv9_2_mbox_loc_perm <- conv9_2_mbox_loc
I1217 07:24:18.012533   479 net.cpp:408] conv9_2_mbox_loc_perm -> conv9_2_mbox_loc_perm
I1217 07:24:18.012677   479 net.cpp:150] Setting up conv9_2_mbox_loc_perm
I1217 07:24:18.012684   479 net.cpp:157] Top shape: 1 4 4 16 (256)
I1217 07:24:18.012689   479 net.cpp:165] Memory required for data: 688748608
I1217 07:24:18.012693   479 layer_factory.hpp:77] Creating layer conv9_2_mbox_loc_flat
I1217 07:24:18.012699   479 net.cpp:100] Creating Layer conv9_2_mbox_loc_flat
I1217 07:24:18.012704   479 net.cpp:434] conv9_2_mbox_loc_flat <- conv9_2_mbox_loc_perm
I1217 07:24:18.012712   479 net.cpp:408] conv9_2_mbox_loc_flat -> conv9_2_mbox_loc_flat
I1217 07:24:18.012737   479 net.cpp:150] Setting up conv9_2_mbox_loc_flat
I1217 07:24:18.012742   479 net.cpp:157] Top shape: 1 256 (256)
I1217 07:24:18.012746   479 net.cpp:165] Memory required for data: 688749632
I1217 07:24:18.012750   479 layer_factory.hpp:77] Creating layer conv9_2_mbox_conf
I1217 07:24:18.012759   479 net.cpp:100] Creating Layer conv9_2_mbox_conf
I1217 07:24:18.012764   479 net.cpp:434] conv9_2_mbox_conf <- conv9_2_conv9_2_relu_0_split_1
I1217 07:24:18.012771   479 net.cpp:408] conv9_2_mbox_conf -> conv9_2_mbox_conf
I1217 07:24:18.013900   479 net.cpp:150] Setting up conv9_2_mbox_conf
I1217 07:24:18.013909   479 net.cpp:157] Top shape: 1 8 4 4 (128)
I1217 07:24:18.013914   479 net.cpp:165] Memory required for data: 688750144
I1217 07:24:18.013921   479 layer_factory.hpp:77] Creating layer conv9_2_mbox_conf_perm
I1217 07:24:18.013928   479 net.cpp:100] Creating Layer conv9_2_mbox_conf_perm
I1217 07:24:18.013934   479 net.cpp:434] conv9_2_mbox_conf_perm <- conv9_2_mbox_conf
I1217 07:24:18.013942   479 net.cpp:408] conv9_2_mbox_conf_perm -> conv9_2_mbox_conf_perm
I1217 07:24:18.014046   479 net.cpp:150] Setting up conv9_2_mbox_conf_perm
I1217 07:24:18.014055   479 net.cpp:157] Top shape: 1 4 4 8 (128)
I1217 07:24:18.014058   479 net.cpp:165] Memory required for data: 688750656
I1217 07:24:18.014062   479 layer_factory.hpp:77] Creating layer conv9_2_mbox_conf_flat
I1217 07:24:18.014070   479 net.cpp:100] Creating Layer conv9_2_mbox_conf_flat
I1217 07:24:18.014075   479 net.cpp:434] conv9_2_mbox_conf_flat <- conv9_2_mbox_conf_perm
I1217 07:24:18.014081   479 net.cpp:408] conv9_2_mbox_conf_flat -> conv9_2_mbox_conf_flat
I1217 07:24:18.014103   479 net.cpp:150] Setting up conv9_2_mbox_conf_flat
I1217 07:24:18.014111   479 net.cpp:157] Top shape: 1 128 (128)
I1217 07:24:18.014117   479 net.cpp:165] Memory required for data: 688751168
I1217 07:24:18.014120   479 layer_factory.hpp:77] Creating layer conv9_2_mbox_priorbox
I1217 07:24:18.014127   479 net.cpp:100] Creating Layer conv9_2_mbox_priorbox
I1217 07:24:18.014132   479 net.cpp:434] conv9_2_mbox_priorbox <- conv9_2_conv9_2_relu_0_split_2
I1217 07:24:18.014138   479 net.cpp:434] conv9_2_mbox_priorbox <- data_data_0_split_6
I1217 07:24:18.014145   479 net.cpp:408] conv9_2_mbox_priorbox -> conv9_2_mbox_priorbox
I1217 07:24:18.014169   479 net.cpp:150] Setting up conv9_2_mbox_priorbox
I1217 07:24:18.014178   479 net.cpp:157] Top shape: 1 2 256 (512)
I1217 07:24:18.014183   479 net.cpp:165] Memory required for data: 688753216
I1217 07:24:18.014186   479 layer_factory.hpp:77] Creating layer mbox_loc
I1217 07:24:18.014192   479 net.cpp:100] Creating Layer mbox_loc
I1217 07:24:18.014199   479 net.cpp:434] mbox_loc <- conv4_3_norm_mbox_loc_flat
I1217 07:24:18.014204   479 net.cpp:434] mbox_loc <- fc7_mbox_loc_flat
I1217 07:24:18.014210   479 net.cpp:434] mbox_loc <- conv6_2_mbox_loc_flat
I1217 07:24:18.014216   479 net.cpp:434] mbox_loc <- conv7_2_mbox_loc_flat
I1217 07:24:18.014221   479 net.cpp:434] mbox_loc <- conv8_2_mbox_loc_flat
I1217 07:24:18.014227   479 net.cpp:434] mbox_loc <- conv9_2_mbox_loc_flat
I1217 07:24:18.014245   479 net.cpp:408] mbox_loc -> mbox_loc
I1217 07:24:18.014271   479 net.cpp:150] Setting up mbox_loc
I1217 07:24:18.014276   479 net.cpp:157] Top shape: 1 96592 (96592)
I1217 07:24:18.014281   479 net.cpp:165] Memory required for data: 689139584
I1217 07:24:18.014286   479 layer_factory.hpp:77] Creating layer mbox_conf
I1217 07:24:18.014292   479 net.cpp:100] Creating Layer mbox_conf
I1217 07:24:18.014297   479 net.cpp:434] mbox_conf <- conv4_3_norm_mbox_conf_flat
I1217 07:24:18.014303   479 net.cpp:434] mbox_conf <- fc7_mbox_conf_flat
I1217 07:24:18.014308   479 net.cpp:434] mbox_conf <- conv6_2_mbox_conf_flat
I1217 07:24:18.014313   479 net.cpp:434] mbox_conf <- conv7_2_mbox_conf_flat
I1217 07:24:18.014319   479 net.cpp:434] mbox_conf <- conv8_2_mbox_conf_flat
I1217 07:24:18.014324   479 net.cpp:434] mbox_conf <- conv9_2_mbox_conf_flat
I1217 07:24:18.014330   479 net.cpp:408] mbox_conf -> mbox_conf
I1217 07:24:18.014354   479 net.cpp:150] Setting up mbox_conf
I1217 07:24:18.014360   479 net.cpp:157] Top shape: 1 48296 (48296)
I1217 07:24:18.014365   479 net.cpp:165] Memory required for data: 689332768
I1217 07:24:18.014369   479 layer_factory.hpp:77] Creating layer mbox_priorbox
I1217 07:24:18.014375   479 net.cpp:100] Creating Layer mbox_priorbox
I1217 07:24:18.014380   479 net.cpp:434] mbox_priorbox <- conv4_3_norm_mbox_priorbox
I1217 07:24:18.014386   479 net.cpp:434] mbox_priorbox <- fc7_mbox_priorbox
I1217 07:24:18.014391   479 net.cpp:434] mbox_priorbox <- conv6_2_mbox_priorbox
I1217 07:24:18.014396   479 net.cpp:434] mbox_priorbox <- conv7_2_mbox_priorbox
I1217 07:24:18.014402   479 net.cpp:434] mbox_priorbox <- conv8_2_mbox_priorbox
I1217 07:24:18.014407   479 net.cpp:434] mbox_priorbox <- conv9_2_mbox_priorbox
I1217 07:24:18.014412   479 net.cpp:408] mbox_priorbox -> mbox_priorbox
I1217 07:24:18.014437   479 net.cpp:150] Setting up mbox_priorbox
I1217 07:24:18.014443   479 net.cpp:157] Top shape: 1 2 96592 (193184)
I1217 07:24:18.014448   479 net.cpp:165] Memory required for data: 690105504
I1217 07:24:18.014451   479 layer_factory.hpp:77] Creating layer mbox_conf_reshape
I1217 07:24:18.014458   479 net.cpp:100] Creating Layer mbox_conf_reshape
I1217 07:24:18.014463   479 net.cpp:434] mbox_conf_reshape <- mbox_conf
I1217 07:24:18.014472   479 net.cpp:408] mbox_conf_reshape -> mbox_conf_reshape
I1217 07:24:18.014499   479 net.cpp:150] Setting up mbox_conf_reshape
I1217 07:24:18.014505   479 net.cpp:157] Top shape: 1 24148 2 (48296)
I1217 07:24:18.014510   479 net.cpp:165] Memory required for data: 690298688
I1217 07:24:18.014514   479 layer_factory.hpp:77] Creating layer mbox_conf_softmax
I1217 07:24:18.014523   479 net.cpp:100] Creating Layer mbox_conf_softmax
I1217 07:24:18.014528   479 net.cpp:434] mbox_conf_softmax <- mbox_conf_reshape
I1217 07:24:18.014533   479 net.cpp:408] mbox_conf_softmax -> mbox_conf_softmax
I1217 07:24:18.014745   479 net.cpp:150] Setting up mbox_conf_softmax
I1217 07:24:18.014753   479 net.cpp:157] Top shape: 1 24148 2 (48296)
I1217 07:24:18.014757   479 net.cpp:165] Memory required for data: 690491872
I1217 07:24:18.014762   479 layer_factory.hpp:77] Creating layer mbox_conf_flatten
I1217 07:24:18.014770   479 net.cpp:100] Creating Layer mbox_conf_flatten
I1217 07:24:18.014775   479 net.cpp:434] mbox_conf_flatten <- mbox_conf_softmax
I1217 07:24:18.014780   479 net.cpp:408] mbox_conf_flatten -> mbox_conf_flatten
I1217 07:24:18.014803   479 net.cpp:150] Setting up mbox_conf_flatten
I1217 07:24:18.014811   479 net.cpp:157] Top shape: 1 48296 (48296)
I1217 07:24:18.014816   479 net.cpp:165] Memory required for data: 690685056
I1217 07:24:18.014818   479 layer_factory.hpp:77] Creating layer detection_out
I1217 07:24:18.014830   479 net.cpp:100] Creating Layer detection_out
I1217 07:24:18.014837   479 net.cpp:434] detection_out <- mbox_loc
I1217 07:24:18.014842   479 net.cpp:434] detection_out <- mbox_conf_flatten
I1217 07:24:18.014847   479 net.cpp:434] detection_out <- mbox_priorbox
I1217 07:24:18.014853   479 net.cpp:408] detection_out -> detection_out
W1217 07:24:18.018134   479 detection_output_layer.cpp:49] Failed to create directory: /root/mount_out/work2018/cataract_recognition_train_test/detection/diffuse_train_test/training/results/
I1217 07:24:18.021803   479 net.cpp:150] Setting up detection_out
I1217 07:24:18.021816   479 net.cpp:157] Top shape: 1 1 1 7 (7)
I1217 07:24:18.021823   479 net.cpp:165] Memory required for data: 690685084
I1217 07:24:18.021829   479 layer_factory.hpp:77] Creating layer detection_eval
I1217 07:24:18.021837   479 net.cpp:100] Creating Layer detection_eval
I1217 07:24:18.021842   479 net.cpp:434] detection_eval <- detection_out
I1217 07:24:18.021849   479 net.cpp:434] detection_eval <- label
I1217 07:24:18.021855   479 net.cpp:408] detection_eval -> detection_eval
I1217 07:24:18.022899   479 net.cpp:150] Setting up detection_eval
I1217 07:24:18.022910   479 net.cpp:157] Top shape: 1 1 2 5 (10)
I1217 07:24:18.022915   479 net.cpp:165] Memory required for data: 690685124
I1217 07:24:18.022920   479 net.cpp:228] detection_eval does not need backward computation.
I1217 07:24:18.022927   479 net.cpp:228] detection_out does not need backward computation.
I1217 07:24:18.022931   479 net.cpp:228] mbox_conf_flatten does not need backward computation.
I1217 07:24:18.022936   479 net.cpp:228] mbox_conf_softmax does not need backward computation.
…
