…
        min_aspect_ratio: 0.5
        max_aspect_ratio: 2
      }
      sample_constraint {
        min_jaccard_overlap: 0.9
      }
      max_sample: 1
      max_trials: 50
    }
    batch_sampler {
      sampler {
        min_scale: 0.3
        max_scale: 1
        min_aspect_ratio: 0.5
        max_aspect_ratio: 2
      }
      sample_constraint {
        max_jaccard_overlap: 1
      }
      max_sample: 1
      max_trials: 50
    }
    label_map_file: "/root/mount_out/work2018/cataract_recognition_train_test/detection/diffuse_train_test/labelmap_pupil.prototxt"
  }
}
layer {
  name: "conv1_1"
  type: "Convolution"
  bottom: "data"
  top: "conv1_1"
  param {
    lr_mult: 1
    decay_mult: 1
  }
  param {
    lr_mult: 2
    decay_mult: 0
  }
  convolution_param {
    num_output: 64
    pad: 1
    kernel_size: 3
    weight_filler {
      type: "xavier"
    }
    bias_filler {
      type: "constant"
      value: 0
    }
  }
}
layer {
  name: "relu1_1"
  type: "ReLU"
  bottom: "conv1_1"
  top: "conv1_1"
}
layer {
  name: "conv1_2"
  type: "Convolution"
  bottom: "conv1_1"
  top: "conv1_2"
  param {
    lr_mult: 1
    decay_mult: 1
  }
  param {
    lr_mult: 2
    decay_mult: 0
  }
  convolution_param {
    num_output: 64
    pad: 1
    kernel_size: 3
    weight_filler {
      type: "xavier"
    }
    bias_filler {
      type: "constant"
      value: 0
    }
  }
}
layer {
  name: "relu1_2"
  type: "ReLU"
  bottom: "conv1_2"
  top: "conv1_2"
}
layer {
  name: "pool1"
  type: "Pooling"
  bottom: "conv1_2"
  top: "pool1"
  pooling_param {
    pool: MAX
    kernel_size: 2
    stride: 2
  }
}
layer {
  name: "conv2_1"
  type: "Convolution"
  bottom: "pool1"
  top: "conv2_1"
  param {
    lr_mult: 1
    decay_mult: 1
  }
  param {
    lr_mult: 2
    decay_mult: 0
  }
  convolution_param {
    num_output: 128
    pad: 1
    kernel_size: 3
    weight_filler {
      type: "xavier"
    }
    bias_filler {
      type: "constant"
      value: 0
    }
  }
}
layer {
  name: "relu2_1"
  type: "ReLU"
  bottom: "conv2_1"
  top: "conv2_1"
}
layer {
  name: "conv2_2"
  type: "Convolution"
  bottom: "conv2_1"
  top: "conv2_2"
  param {
    lr_mult: 1
    decay_mult: 1
  }
  param {
    lr_mult: 2
    decay_mult: 0
  }
  convolution_param {
    num_output: 128
    pad: 1
    kernel_size: 3
    weight_filler {
      type: "xavier"
    }
    bias_filler {
      type: "constant"
      value: 0
    }
  }
}
layer {
  name: "relu2_2"
  type: "ReLU"
  bottom: "conv2_2"
  top: "conv2_2"
}
layer {
  name: "pool2"
  type: "Pooling"
  bottom: "conv2_2"
  top: "pool2"
  pooling_param {
    pool: MAX
    kernel_size: 2
    stride: 2
  }
}
layer {
  name: "conv3_1"
  type: "Convolution"
  bottom: "pool2"
  top: "conv3_1"
  param {
    lr_mult: 1
    decay_mult: 1
  }
  param {
    lr_mult: 2
    decay_mult: 0
  }
  convolution_param {
    num_output: 256
    pad: 1
    kernel_size: 3
    weight_filler {
      type: "xavier"
    }
    bias_filler {
      type: "constant"
      value: 0
    }
  }
}
layer {
  name: "relu3_1"
  type: "ReLU"
  bottom: "conv3_1"
  top: "conv3_1"
}
layer {
  name: "conv3_2"
  type: "Convolution"
  bottom: "conv3_1"
  top: "conv3_2"
  param {
    lr_mult: 1
    decay_mult: 1
  }
  param {
    lr_mult: 2
    decay_mult: 0
  }
  convolution_param {
    num_output: 256
    pad: 1
    kernel_size: 3
    weight_filler {
      type: "xavier"
    }
    bias_filler {
      type: "constant"
      value: 0
    }
  }
}
layer {
  name: "relu3_2"
  type: "ReLU"
  bottom: "conv3_2"
  top: "conv3_2"
}
layer {
  name: "conv3_3"
  type: "Convolution"
  bottom: "conv3_2"
  top: "conv3_3"
  param {
    lr_mult: 1
    decay_mult: 1
  }
  param {
    lr_mult: 2
    decay_mult: 0
  }
  convolution_param {
    num_output: 256
    pad: 1
    kernel_size: 3
    weight_filler {
      type: "xavier"
    }
    bias_filler {
      type: "constant"
      value: 0
    }
  }
}
layer {
  name: "relu3_3"
  type: "ReLU"
  bottom: "conv3_3"
  top: "conv3_3"
}
layer {
  name: "pool3"
  type: "Pooling"
  bottom: "conv3_3"
  top: "pool3"
  pooling_param {
    pool: MAX
    kernel_size: 2
    stride: 2
  }
}
layer {
  name: "conv4_1"
  type: "Convolution"
  bottom: "pool3"
  top: "conv4_1"
  param {
    lr_mult: 1
    decay_mult: 1
  }
  param {
    lr_mult: 2
    decay_mult: 0
  }
  convolution_param {
    num_output: 512
    pad: 1
    kernel_size: 3
    weight_filler {
      type: "xavier"
    }
    bias_filler {
      type: "constant"
      value: 0
    }
  }
}
layer {
  name: "relu4_1"
  type: "ReLU"
  bottom: "conv4_1"
  top: "conv4_1"
}
layer {
  name: "conv4_2"
  type: "Convolution"
  bottom: "conv4_1"
  top: "conv4_2"
  param {
    lr_mult: 1
    decay_mult: 1
  }
  param {
    lr_mult: 2
    decay_mult: 0
  }
  convolution_param {
    num_output: 512
    pad: 1
    kernel_size: 3
    weight_filler {
      type: "xavier"
    }
    bias_filler {
      type: "constant"
      value: 0
    }
  }
}
layer {
  name: "relu4_2"
  type: "ReLU"
  bottom: "conv4_2"
  top: "conv4_2"
}
layer {
  name: "conv4_3"
  type: "Convolution"
  bottom: "conv4_2"
  top: "conv4_3"
  param {
    lr_mult: 1
    decay_mult: 1
  }
  param {
    lr_mult: 2
    decay_mult: 0
  }
  convolution_param {
    num_output: 512
    pad: 1
    kernel_size: 3
    weight_filler {
      type: "xavier"
    }
    bias_filler {
      type: "constant"
      value: 0
    }
  }
}
layer {
  name: "relu4_3"
  type: "ReLU"
  bottom: "conv4_3"
  top: "conv4_3"
}
layer {
  name: "pool4"
  type: "Pooling"
  bottom: "conv4_3"
  top: "pool4"
  pooling_param {
    pool: MAX
    kernel_size: 2
    stride: 2
  }
}
layer {
  name: "conv5_1"
  type: "Convolution"
  bottom: "pool4"
  top: "conv5_1"
  param {
    lr_mult: 1
    decay_mult: 1
  }
  param {
    lr_mult: 2
    decay_mult: 0
  }
  convolution_param {
    num_output: 512
    pad: 1
    kernel_size: 3
    weight_filler {
      type: "xavier"
    }
    bias_filler {
      type: "constant"
      value: 0
    }
    dilation: 1
  }
}
layer {
  name: "relu5_1"
  type: "ReLU"
  bottom: "conv5_1"
  top: "conv5_1"
}
layer {
  name: "conv5_2"
  type: "Convolution"
  bottom: "conv5_1"
  top: "conv5_2"
  param {
    lr_mult: 1
    decay_mult: 1
  }
  param {
    lr_mult: 2
    decay_mult: 0
  }
  convolution_param {
    num_output: 512
    pad: 1
    kernel_size: 3
    weight_filler {
      type: "xavier"
    }
    bias_filler {
      type: "constant"
      value: 0
    }
    dilation: 1
  }
}
layer {
  name: "relu5_2"
  type: "ReLU"
  bottom: "conv5_2"
  top: "conv5_2"
}
layer {
  name: "conv5_3"
  type: "Convolution"
  bottom: "conv5_2"
  top: "conv5_3"
  param {
    lr_mult: 1
    decay_mult: 1
  }
  param {
    lr_mult: 2
    decay_mult: 0
  }
  convolution_param {
    num_output: 512
    pad: 1
    kernel_size: 3
    weight_filler {
      type: "xavier"
    }
    bias_filler {
      type: "constant"
      value: 0
    }
    dilation: 1
  }
}
layer {
  name: "relu5_3"
  type: "ReLU"
  bottom: "conv5_3"
  top: "conv5_3"
}
layer {
  name: "pool5"
  type: "Pooling"
  bottom: "conv5_3"
  top: "pool5"
  pooling_param {
    pool: MAX
    kernel_size: 3
    stride: 1
    pad: 1
  }
}
layer {
  name: "fc6"
  type: "Convolution"
  bottom: "pool5"
  top: "fc6"
  param {
    lr_mult: 1
    decay_mult: 1
  }
  param {
    lr_mult: 2
    decay_mult: 0
  }
  convolution_param {
    num_output: 1024
    pad: 6
    kernel_size: 3
    weight_filler {
      type: "xavier"
    }
    bias_filler {
      type: "constant"
      value: 0
    }
    dilation: 6
  }
}
layer {
  name: "relu6"
  type: "ReLU"
  bottom: "fc6"
  top: "fc6"
}
layer {
  name: "fc7"
  type: "Convolution"
  bottom: "fc6"
  top: "fc7"
  param {
    lr_mult: 1
    decay_mult: 1
  }
  param {
    lr_mult: 2
    decay_mult: 0
  }
  convolution_param {
    num_output: 1024
    kernel_size: 1
    weight_filler {
      type: "xavier"
    }
    bias_filler {
      type: "constant"
      value: 0
    }
  }
}
layer {
  name: "relu7"
  type: "ReLU"
  bottom: "fc7"
  top: "fc7"
}
layer {
  name: "conv6_1"
  type: "Convolution"
  bottom: "fc7"
  top: "conv6_1"
  param {
    lr_mult: 1
    decay_mult: 1
  }
  param {
    lr_mult: 2
    decay_mult: 0
  }
  convolution_param {
    num_output: 256
    pad: 0
    kernel_size: 1
    stride: 1
    weight_filler {
      type: "xavier"
    }
    bias_filler {
      type: "constant"
      value: 0
    }
  }
}
layer {
  name: "conv6_1_relu"
  type: "ReLU"
  bottom: "conv6_1"
  top: "conv6_1"
}
layer {
  name: "conv6_2"
  type: "Convolution"
  bottom: "conv6_1"
  top: "conv6_2"
  param {
    lr_mult: 1
    decay_mult: 1
  }
  param {
    lr_mult: 2
    decay_mult: 0
  }
  convolution_param {
    num_output: 512
    pad: 1
    kernel_size: 3
    stride: 2
    weight_filler {
      type: "xavier"
    }
    bias_filler {
      type: "constant"
      value: 0
    }
  }
}
layer {
  name: "conv6_2_relu"
  type: "ReLU"
  bottom: "conv6_2"
  top: "conv6_2"
}
layer {
  name: "conv7_1"
  type: "Convolution"
  bottom: "conv6_2"
  top: "conv7_1"
  param {
    lr_mult: 1
    decay_mult: 1
  }
  param {
    lr_mult: 2
    decay_mult: 0
  }
  convolution_param {
    num_output: 128
    pad: 0
    kernel_size: 1
    stride: 1
    weight_filler {
      type: "xavier"
    }
    bias_filler {
      type: "constant"
      value: 0
    }
  }
}
layer {
  name: "conv7_1_relu"
  type: "ReLU"
  bottom: "conv7_1"
  top: "conv7_1"
}
layer {
  name: "conv7_2"
  type: "Convolution"
  bottom: "conv7_1"
  top: "conv7_2"
  param {
    lr_mult: 1
    decay_mult: 1
  }
  param {
    lr_mult: 2
    decay_mult: 0
  }
  convolution_param {
    num_output: 256
    pad: 1
    kernel_size: 3
    stride: 2
    weight_filler {
      type: "xavier"
    }
    bias_filler {
      type: "constant"
      value: 0
    }
  }
}
layer {
  name: "conv7_2_relu"
  type: "ReLU"
  bottom: "conv7_2"
  top: "conv7_2"
}
layer {
  name: "conv8_1"
  type: "Convolution"
  bottom: "conv7_2"
  top: "conv8_1"
  param {
    lr_mult: 1
    decay_mult: 1
  }
  param {
    lr_mult: 2
    decay_mult: 0
  }
  convolution_param {
    num_output: 128
    pad: 0
    kernel_size: 1
    stride: 1
    weight_filler {
      type: "xavier"
    }
    bias_filler {
      type: "constant"
      value: 0
    }
  }
}
layer {
  name: "conv8_1_relu"
  type: "ReLU"
  bottom: "conv8_1"
  top: "conv8_1"
}
layer {
  name: "conv8_2"
  type: "Convolution"
  bottom: "conv8_1"
  top: "conv8_2"
  param {
    lr_mult: 1
    decay_mult: 1
  }
  param {
    lr_mult: 2
    decay_mult: 0
  }
  convolution_param {
    num_output: 256
    pad: 0
    kernel_size: 3
    stride: 1
    weight_filler {
      type: "xavier"
    }
    bias_filler {
      type: "constant"
      value: 0
    }
  }
}
layer {
  name: "conv8_2_relu"
  type: "ReLU"
  bottom: "conv8_2"
  top: "conv8_2"
}
layer {
  name: "conv9_1"
  type: "Convolution"
  bottom: "conv8_2"
  top: "conv9_1"
  param {
    lr_mult: 1
    decay_mult: 1
  }
  param {
    lr_mult: 2
    decay_mult: 0
  }
  convolution_param {
    num_output: 128
    pad: 0
    kernel_size: 1
    stride: 1
    weight_filler {
      type: "xavier"
    }
    bias_filler {
      type: "constant"
      value: 0
    }
  }
}
layer {
  name: "conv9_1_relu"
  type: "ReLU"
  bottom: "conv9_1"
  top: "conv9_1"
}
layer {
  name: "conv9_2"
  type: "Convolution"
  bottom: "conv9_1"
  top: "conv9_2"
  param {
    lr_mult: 1
    decay_mult: 1
  }
  param {
    lr_mult: 2
    decay_mult: 0
  }
  convolution_param {
    num_output: 256
    pad: 0
    kernel_size: 3
    stride: 1
    weight_filler {
      type: "xavier"
    }
    bias_filler {
      type: "constant"
      value: 0
    }
  }
}
layer {
  name: "conv9_2_relu"
  type: "ReLU"
  bottom: "conv9_2"
  top: "conv9_2"
}
layer {
  name: "conv4_3_norm"
  type: "Normalize"
  bottom: "conv4_3"
  top: "conv4_3_norm"
  norm_param {
    across_spatial: false
    scale_filler {
      type: "constant"
      value: 20
    }
    channel_shared: false
  }
}
layer {
  name: "conv4_3_norm_mbox_loc"
  type: "Convolution"
  bottom: "conv4_3_norm"
  top: "conv4_3_norm_mbox_loc"
  param {
    lr_mult: 1
    decay_mult: 1
  }
  param {
    lr_mult: 2
    decay_mult: 0
  }
  convolution_param {
    num_output: 16
    pad: 1
    kernel_size: 3
    stride: 1
    weight_filler {
      type: "xavier"
    }
    bias_filler {
      type: "constant"
      value: 0
    }
  }
}
layer {
  name: "conv4_3_norm_mbox_loc_perm"
  type: "Permute"
  bottom: "conv4_3_norm_mbox_loc"
  top: "conv4_3_norm_mbox_loc_perm"
  permute_param {
    order: 0
    order: 2
    order: 3
    order: 1
  }
}
layer {
  name: "conv4_3_norm_mbox_loc_flat"
  type: "Flatten"
  bottom: "conv4_3_norm_mbox_loc_perm"
  top: "conv4_3_norm_mbox_loc_flat"
  flatten_param {
    axis: 1
  }
}
layer {
  name: "conv4_3_norm_mbox_conf"
  type: "Convolution"
  bottom: "conv4_3_norm"
  top: "conv4_3_norm_mbox_conf"
  param {
    lr_mult: 1
    decay_mult: 1
  }
  param {
    lr_mult: 2
    decay_mult: 0
  }
  convolution_param {
    num_output: 8
    pad: 1
    kernel_size: 3
    stride: 1
    weight_filler {
      type: "xavier"
    }
    bias_filler {
      type: "constant"
      value: 0
    }
  }
}
layer {
  name: "conv4_3_norm_mbox_conf_perm"
  type: "Permute"
  bottom: "conv4_3_norm_mbox_conf"
  top: "conv4_3_norm_mbox_conf_perm"
  permute_param {
    order: 0
    order: 2
    order: 3
    order: 1
  }
}
layer {
  name: "conv4_3_norm_mbox_conf_flat"
  type: "Flatten"
  bottom: "conv4_3_norm_mbox_conf_perm"
  top: "conv4_3_norm_mbox_conf_flat"
  flatten_param {
    axis: 1
  }
}
layer {
  name: "conv4_3_norm_mbox_priorbox"
  type: "PriorBox"
  bottom: "conv4_3_norm"
  bottom: "data"
  top: "conv4_3_norm_mbox_priorbox"
  prior_box_param {
    min_size: 30
    max_size: 60
    aspect_ratio: 2
    flip: true
    clip: false
    variance: 0.1
    variance: 0.1
    variance: 0.2
    variance: 0.2
    step: 8
    offset: 0.5
  }
}
layer {
  name: "fc7_mbox_loc"
  type: "Convolution"
  bottom: "fc7"
  top: "fc7_mbox_loc"
  param {
    lr_mult: 1
    decay_mult: 1
  }
  param {
    lr_mult: 2
    decay_mult: 0
  }
  convolution_param {
    num_output: 24
    pad: 1
    kernel_size: 3
    stride: 1
    weight_filler {
      type: "xavier"
    }
    bias_filler {
      type: "constant"
      value: 0
    }
  }
}
layer {
  name: "fc7_mbox_loc_perm"
  type: "Permute"
  bottom: "fc7_mbox_loc"
  top: "fc7_mbox_loc_perm"
  permute_param {
    order: 0
    order: 2
    order: 3
    order: 1
  }
}
layer {
  name: "fc7_mbox_loc_flat"
  type: "Flatten"
  bottom: "fc7_mbox_loc_perm"
  top: "fc7_mbox_loc_flat"
  flatten_param {
    axis: 1
  }
}
layer {
  name: "fc7_mbox_conf"
  type: "Convolution"
  bottom: "fc7"
  top: "fc7_mbox_conf"
  param {
    lr_mult: 1
    decay_mult: 1
  }
  param {
    lr_mult: 2
    decay_mult: 0
  }
  convolution_param {
    num_output: 12
    pad: 1
    kernel_size: 3
    stride: 1
    weight_filler {
      type: "xavier"
    }
    bias_filler {
      type: "constant"
      value: 0
    }
  }
}
layer {
  name: "fc7_mbox_conf_perm"
  type: "Permute"
  bottom: "fc7_mbox_conf"
  top: "fc7_mbox_conf_perm"
  permute_param {
    order: 0
    order: 2
    order: 3
    order: 1
  }
}
layer {
  name: "fc7_mbox_conf_flat"
  type: "Flatten"
  bottom: "fc7_mbox_conf_perm"
  top: "fc7_mbox_conf_flat"
  flatten_param {
    axis: 1
  }
}
layer {
  name: "fc7_mbox_priorbox"
  type: "PriorBox"
  bottom: "fc7"
  bottom: "data"
  top: "fc7_mbox_priorbox"
  prior_box_param {
    min_size: 60
    max_size: 111
    aspect_ratio: 2
    aspect_ratio: 3
    flip: true
    clip: false
    variance: 0.1
    variance: 0.1
    variance: 0.2
    variance: 0.2
    step: 16
    offset: 0.5
  }
}
layer {
  name: "conv6_2_mbox_loc"
  type: "Convolution"
  bottom: "conv6_2"
  top: "conv6_2_mbox_loc"
  param {
    lr_mult: 1
    decay_mult: 1
  }
  param {
    lr_mult: 2
    decay_mult: 0
  }
  convolution_param {
    num_output: 24
    pad: 1
    kernel_size: 3
    stride: 1
    weight_filler {
      type: "xavier"
    }
    bias_filler {
      type: "constant"
      value: 0
    }
  }
}
layer {
  name: "conv6_2_mbox_loc_perm"
  type: "Permute"
  bottom: "conv6_2_mbox_loc"
  top: "conv6_2_mbox_loc_perm"
  permute_param {
    order: 0
    order: 2
    order: 3
    order: 1
  }
}
layer {
  name: "conv6_2_mbox_loc_flat"
  type: "Flatten"
  bottom: "conv6_2_mbox_loc_perm"
  top: "conv6_2_mbox_loc_flat"
  flatten_param {
    axis: 1
  }
}
layer {
  name: "conv6_2_mbox_conf"
  type: "Convolution"
  bottom: "conv6_2"
  top: "conv6_2_mbox_conf"
  param {
    lr_mult: 1
    decay_mult: 1
  }
  param {
    lr_mult: 2
    decay_mult: 0
  }
  convolution_param {
    num_output: 12
    pad: 1
    kernel_size: 3
    stride: 1
    weight_filler {
      type: "xavier"
    }
    bias_filler {
      type: "constant"
      value: 0
    }
  }
}
layer {
  name: "conv6_2_mbox_conf_perm"
  type: "Permute"
  bottom: "conv6_2_mbox_conf"
  top: "conv6_2_mbox_conf_perm"
  permute_param {
    order: 0
    order: 2
    order: 3
    order: 1
  }
}
layer {
  name: "conv6_2_mbox_conf_flat"
  type: "Flatten"
  bottom: "conv6_2_mbox_conf_perm"
  top: "conv6_2_mbox_conf_flat"
  flatten_param {
    axis: 1
  }
}
layer {
  name: "conv6_2_mbox_priorbox"
  type: "PriorBox"
  bottom: "conv6_2"
  bottom: "data"
  top: "conv6_2_mbox_priorbox"
  prior_box_param {
    min_size: 111
    max_size: 162
    aspect_ratio: 2
    aspect_ratio: 3
    flip: true
    clip: false
    variance: 0.1
    variance: 0.1
    variance: 0.2
    variance: 0.2
    step: 32
    offset: 0.5
  }
}
layer {
  name: "conv7_2_mbox_loc"
  type: "Convolution"
  bottom: "conv7_2"
  top: "conv7_2_mbox_loc"
  param {
    lr_mult: 1
    decay_mult: 1
  }
  param {
    lr_mult: 2
    decay_mult: 0
  }
  convolution_param {
    num_output: 24
    pad: 1
    kernel_size: 3
    stride: 1
    weight_filler {
      type: "xavier"
    }
    bias_filler {
      type: "constant"
      value: 0
    }
  }
}
layer {
  name: "conv7_2_mbox_loc_perm"
  type: "Permute"
  bottom: "conv7_2_mbox_loc"
  top: "conv7_2_mbox_loc_perm"
  permute_param {
    order: 0
    order: 2
    order: 3
    order: 1
  }
}
layer {
  name: "conv7_2_mbox_loc_flat"
  type: "Flatten"
  bottom: "conv7_2_mbox_loc_perm"
  top: "conv7_2_mbox_loc_flat"
  flatten_param {
    axis: 1
  }
}
layer {
  name: "conv7_2_mbox_conf"
  type: "Convolution"
  bottom: "conv7_2"
  top: "conv7_2_mbox_conf"
  param {
    lr_mult: 1
    decay_mult: 1
  }
  param {
    lr_mult: 2
    decay_mult: 0
  }
  convolution_param {
    num_output: 12
    pad: 1
    kernel_size: 3
    stride: 1
    weight_filler {
      type: "xavier"
    }
    bias_filler {
      type: "constant"
      value: 0
    }
  }
}
layer {
  name: "conv7_2_mbox_conf_perm"
  type: "Permute"
  bottom: "conv7_2_mbox_conf"
  top: "conv7_2_mbox_conf_perm"
  permute_param {
    order: 0
    order: 2
    order: 3
    order: 1
  }
}
layer {
  name: "conv7_2_mbox_conf_flat"
  type: "Flatten"
  bottom: "conv7_2_mbox_conf_perm"
  top: "conv7_2_mbox_conf_flat"
  flatten_param {
    axis: 1
  }
}
layer {
  name: "conv7_2_mbox_priorbox"
  type: "PriorBox"
  bottom: "conv7_2"
  bottom: "data"
  top: "conv7_2_mbox_priorbox"
  prior_box_param {
    min_size: 162
    max_size: 213
    aspect_ratio: 2
    aspect_ratio: 3
    flip: true
    clip: false
    variance: 0.1
    variance: 0.1
    variance: 0.2
    variance: 0.2
    step: 64
    offset: 0.5
  }
}
layer {
  name: "conv8_2_mbox_loc"
  type: "Convolution"
  bottom: "conv8_2"
  top: "conv8_2_mbox_loc"
  param {
    lr_mult: 1
    decay_mult: 1
  }
  param {
    lr_mult: 2
    decay_mult: 0
  }
  convolution_param {
    num_output: 16
    pad: 1
    kernel_size: 3
    stride: 1
    weight_filler {
      type: "xavier"
    }
    bias_filler {
      type: "constant"
      value: 0
    }
  }
}
layer {
  name: "conv8_2_mbox_loc_perm"
  type: "Permute"
  bottom: "conv8_2_mbox_loc"
  top: "conv8_2_mbox_loc_perm"
  permute_param {
    order: 0
    order: 2
    order: 3
    order: 1
  }
}
layer {
  name: "conv8_2_mbox_loc_flat"
  type: "Flatten"
  bottom: "conv8_2_mbox_loc_perm"
  top: "conv8_2_mbox_loc_flat"
  flatten_param {
    axis: 1
  }
}
layer {
  name: "conv8_2_mbox_conf"
  type: "Convolution"
  bottom: "conv8_2"
  top: "conv8_2_mbox_conf"
  param {
    lr_mult: 1
    decay_mult: 1
  }
  param {
    lr_mult: 2
    decay_mult: 0
  }
  convolution_param {
    num_output: 8
    pad: 1
    kernel_size: 3
    stride: 1
    weight_filler {
      type: "xavier"
    }
    bias_filler {
      type: "constant"
      value: 0
    }
  }
}
layer {
  name: "conv8_2_mbox_conf_perm"
  type: "Permute"
  bottom: "conv8_2_mbox_conf"
  top: "conv8_2_mbox_conf_perm"
  permute_param {
    order: 0
    order: 2
    order: 3
    order: 1
  }
}
layer {
  name: "conv8_2_mbox_conf_flat"
  type: "Flatten"
  bottom: "conv8_2_mbox_conf_perm"
  top: "conv8_2_mbox_conf_flat"
  flatten_param {
    axis: 1
  }
}
layer {
  name: "conv8_2_mbox_priorbox"
  type: "PriorBox"
  bottom: "conv8_2"
  bottom: "data"
  top: "conv8_2_mbox_priorbox"
  prior_box_param {
    min_size: 213
    max_size: 264
    aspect_ratio: 2
    flip: true
    clip: false
    variance: 0.1
    variance: 0.1
    variance: 0.2
    variance: 0.2
    step: 100
    offset: 0.5
  }
}
layer {
  name: "conv9_2_mbox_loc"
  type: "Convolution"
  bottom: "conv9_2"
  top: "conv9_2_mbox_loc"
  param {
    lr_mult: 1
    decay_mult: 1
  }
  param {
    lr_mult: 2
    decay_mult: 0
  }
  convolution_param {
    num_output: 16
    pad: 1
    kernel_size: 3
    stride: 1
    weight_filler {
      type: "xavier"
    }
    bias_filler {
      type: "constant"
      value: 0
    }
  }
}
layer {
  name: "conv9_2_mbox_loc_perm"
  type: "Permute"
  bottom: "conv9_2_mbox_loc"
  top: "conv9_2_mbox_loc_perm"
  permute_param {
    order: 0
    order: 2
    order: 3
    order: 1
  }
}
layer {
  name: "conv9_2_mbox_loc_flat"
  type: "Flatten"
  bottom: "conv9_2_mbox_loc_perm"
  top: "conv9_2_mbox_loc_flat"
  flatten_param {
    axis: 1
  }
}
layer {
  name: "conv9_2_mbox_conf"
  type: "Convolution"
  bottom: "conv9_2"
  top: "conv9_2_mbox_conf"
  param {
    lr_mult: 1
    decay_mult: 1
  }
  param {
    lr_mult: 2
    decay_mult: 0
  }
  convolution_param {
    num_output: 8
    pad: 1
    kernel_size: 3
    stride: 1
    weight_filler {
      type: "xavier"
    }
    bias_filler {
      type: "constant"
      value: 0
    }
  }
}
layer {
  name: "conv9_2_mbox_conf_perm"
  type: "Permute"
  bottom: "conv9_2_mbox_conf"
  top: "conv9_2_mbox_conf_perm"
  permute_param {
    order: 0
    order: 2
    order: 3
    order: 1
  }
}
layer {
  name: "conv9_2_mbox_conf_flat"
  type: "Flatten"
  bottom: "conv9_2_mbox_conf_perm"
  top: "conv9_2_mbox_conf_flat"
  flatten_param {
    axis: 1
  }
}
layer {
  name: "conv9_2_mbox_priorbox"
  type: "PriorBox"
  bottom: "conv9_2"
  bottom: "data"
  top: "conv9_2_mbox_priorbox"
  prior_box_param {
    min_size: 264
    max_size: 315
    aspect_ratio: 2
    flip: true
    clip: false
    variance: 0.1
    variance: 0.1
    variance: 0.2
    variance: 0.2
    step: 300
    offset: 0.5
  }
}
layer {
  name: "mbox_loc"
  type: "Concat"
  bottom: "conv4_3_norm_mbox_loc_flat"
  bottom: "fc7_mbox_loc_flat"
  bottom: "conv6_2_mbox_loc_flat"
  bottom: "conv7_2_mbox_loc_flat"
  bottom: "conv8_2_mbox_loc_flat"
  bottom: "conv9_2_mbox_loc_flat"
  top: "mbox_loc"
  concat_param {
    axis: 1
  }
}
layer {
  name: "mbox_conf"
  type: "Concat"
  bottom: "conv4_3_norm_mbox_conf_flat"
  bottom: "fc7_mbox_conf_flat"
  bottom: "conv6_2_mbox_conf_flat"
  bottom: "conv7_2_mbox_conf_flat"
  bottom: "conv8_2_mbox_conf_flat"
  bottom: "conv9_2_mbox_conf_flat"
  top: "mbox_conf"
  concat_param {
    axis: 1
  }
}
layer {
  name: "mbox_priorbox"
  type: "Concat"
  bottom: "conv4_3_norm_mbox_priorbox"
  bottom: "fc7_mbox_priorbox"
  bottom: "conv6_2_mbox_priorbox"
  bottom: "conv7_2_mbox_priorbox"
  bottom: "conv8_2_mbox_priorbox"
  bottom: "conv9_2_mbox_priorbox"
  top: "mbox_priorbox"
  concat_param {
    axis: 2
  }
}
layer {
  name: "mbox_loss"
  type: "MultiBoxLoss"
  bottom: "mbox_loc"
  bottom: "mbox_conf"
  bottom: "mbox_priorbox"
  bottom: "label"
  top: "mbox_loss"
  include {
    phase: TRAIN
  }
  propagate_down: true
  propagate_down: true
  propagate_down: false
  propagate_down: false
  loss_param {
    normalization: VALID
  }
  multibox_loss_param {
    loc_loss_type: SMOOTH_L1
    conf_loss_type: SOFTMAX
    loc_weight: 1
    num_classes: 2
    share_location: true
    match_type: PER_PREDICTION
    overlap_threshold: 0.5
    use_prior_for_matching: true
    background_label_id: 0
    use_difficult_gt: true
    neg_pos_ratio: 3
    neg_overlap: 0.5
    code_type: CENTER_SIZE
    ignore_cross_boundary_bbox: false
    mining_type: MAX_NEGATIVE
  }
}
I1217 03:18:02.717356 12597 layer_factory.hpp:77] Creating layer data
I1217 03:18:02.717746 12597 net.cpp:100] Creating Layer data
I1217 03:18:02.717774 12597 net.cpp:408] data -> data
I1217 03:18:02.717906 12597 net.cpp:408] data -> label
I1217 03:18:02.718636 12603 db_lmdb.cpp:35] Opened lmdb /root/workspace/cataract_detection_lmdb/diffuse_train_lmdb
I1217 03:18:02.817229 12597 annotated_data_layer.cpp:62] output data size: 8,3,500,500
I1217 03:18:02.844399 12597 net.cpp:150] Setting up data
I1217 03:18:02.844449 12597 net.cpp:157] Top shape: 8 3 500 500 (6000000)
I1217 03:18:02.844455 12597 net.cpp:157] Top shape: 1 1 1 8 (8)
I1217 03:18:02.844458 12597 net.cpp:165] Memory required for data: 24000032
I1217 03:18:02.844470 12597 layer_factory.hpp:77] Creating layer data_data_0_split
I1217 03:18:02.844483 12597 net.cpp:100] Creating Layer data_data_0_split
I1217 03:18:02.844491 12597 net.cpp:434] data_data_0_split <- data
I1217 03:18:02.844504 12597 net.cpp:408] data_data_0_split -> data_data_0_split_0
I1217 03:18:02.844514 12597 net.cpp:408] data_data_0_split -> data_data_0_split_1
I1217 03:18:02.844522 12597 net.cpp:408] data_data_0_split -> data_data_0_split_2
I1217 03:18:02.844530 12597 net.cpp:408] data_data_0_split -> data_data_0_split_3
I1217 03:18:02.844537 12597 net.cpp:408] data_data_0_split -> data_data_0_split_4
I1217 03:18:02.844543 12597 net.cpp:408] data_data_0_split -> data_data_0_split_5
I1217 03:18:02.844555 12597 net.cpp:408] data_data_0_split -> data_data_0_split_6
I1217 03:18:02.844666 12597 net.cpp:150] Setting up data_data_0_split
I1217 03:18:02.844672 12597 net.cpp:157] Top shape: 8 3 500 500 (6000000)
I1217 03:18:02.844677 12597 net.cpp:157] Top shape: 8 3 500 500 (6000000)
I1217 03:18:02.844682 12597 net.cpp:157] Top shape: 8 3 500 500 (6000000)
I1217 03:18:02.844688 12597 net.cpp:157] Top shape: 8 3 500 500 (6000000)
I1217 03:18:02.844693 12597 net.cpp:157] Top shape: 8 3 500 500 (6000000)
I1217 03:18:02.844697 12597 net.cpp:157] Top shape: 8 3 500 500 (6000000)
I1217 03:18:02.844702 12597 net.cpp:157] Top shape: 8 3 500 500 (6000000)
I1217 03:18:02.844707 12597 net.cpp:165] Memory required for data: 192000032
I1217 03:18:02.844712 12597 layer_factory.hpp:77] Creating layer conv1_1
I1217 03:18:02.844727 12597 net.cpp:100] Creating Layer conv1_1
I1217 03:18:02.844732 12597 net.cpp:434] conv1_1 <- data_data_0_split_0
I1217 03:18:02.844738 12597 net.cpp:408] conv1_1 -> conv1_1
I1217 03:18:03.199826 12597 net.cpp:150] Setting up conv1_1
I1217 03:18:03.199847 12597 net.cpp:157] Top shape: 8 64 500 500 (128000000)
I1217 03:18:03.199852 12597 net.cpp:165] Memory required for data: 704000032
I1217 03:18:03.199898 12597 layer_factory.hpp:77] Creating layer relu1_1
I1217 03:18:03.199908 12597 net.cpp:100] Creating Layer relu1_1
I1217 03:18:03.199923 12597 net.cpp:434] relu1_1 <- conv1_1
I1217 03:18:03.199929 12597 net.cpp:395] relu1_1 -> conv1_1 (in-place)
I1217 03:18:03.200122 12597 net.cpp:150] Setting up relu1_1
I1217 03:18:03.200130 12597 net.cpp:157] Top shape: 8 64 500 500 (128000000)
I1217 03:18:03.200134 12597 net.cpp:165] Memory required for data: 1216000032
I1217 03:18:03.200139 12597 layer_factory.hpp:77] Creating layer conv1_2
I1217 03:18:03.200166 12597 net.cpp:100] Creating Layer conv1_2
I1217 03:18:03.200172 12597 net.cpp:434] conv1_2 <- conv1_1
I1217 03:18:03.200178 12597 net.cpp:408] conv1_2 -> conv1_2
I1217 03:18:03.201937 12597 net.cpp:150] Setting up conv1_2
I1217 03:18:03.201951 12597 net.cpp:157] Top shape: 8 64 500 500 (128000000)
I1217 03:18:03.201954 12597 net.cpp:165] Memory required for data: 1728000032
I1217 03:18:03.201963 12597 layer_factory.hpp:77] Creating layer relu1_2
I1217 03:18:03.201984 12597 net.cpp:100] Creating Layer relu1_2
I1217 03:18:03.201989 12597 net.cpp:434] relu1_2 <- conv1_2
I1217 03:18:03.201995 12597 net.cpp:395] relu1_2 -> conv1_2 (in-place)
I1217 03:18:03.202153 12597 net.cpp:150] Setting up relu1_2
I1217 03:18:03.202160 12597 net.cpp:157] Top shape: 8 64 500 500 (128000000)
I1217 03:18:03.202164 12597 net.cpp:165] Memory required for data: 2240000032
I1217 03:18:03.202168 12597 layer_factory.hpp:77] Creating layer pool1
I1217 03:18:03.202190 12597 net.cpp:100] Creating Layer pool1
I1217 03:18:03.202194 12597 net.cpp:434] pool1 <- conv1_2
I1217 03:18:03.202229 12597 net.cpp:408] pool1 -> pool1
I1217 03:18:03.202284 12597 net.cpp:150] Setting up pool1
I1217 03:18:03.202291 12597 net.cpp:157] Top shape: 8 64 250 250 (32000000)
I1217 03:18:03.202297 12597 net.cpp:165] Memory required for data: 2368000032
I1217 03:18:03.202303 12597 layer_factory.hpp:77] Creating layer conv2_1
I1217 03:18:03.202324 12597 net.cpp:100] Creating Layer conv2_1
I1217 03:18:03.202329 12597 net.cpp:434] conv2_1 <- pool1
I1217 03:18:03.202335 12597 net.cpp:408] conv2_1 -> conv2_1
I1217 03:18:03.204404 12597 net.cpp:150] Setting up conv2_1
I1217 03:18:03.204416 12597 net.cpp:157] Top shape: 8 128 250 250 (64000000)
I1217 03:18:03.204419 12597 net.cpp:165] Memory required for data: 2624000032
I1217 03:18:03.204444 12597 layer_factory.hpp:77] Creating layer relu2_1
I1217 03:18:03.204465 12597 net.cpp:100] Creating Layer relu2_1
I1217 03:18:03.204470 12597 net.cpp:434] relu2_1 <- conv2_1
I1217 03:18:03.204478 12597 net.cpp:395] relu2_1 -> conv2_1 (in-place)
I1217 03:18:03.204946 12597 net.cpp:150] Setting up relu2_1
I1217 03:18:03.204957 12597 net.cpp:157] Top shape: 8 128 250 250 (64000000)
I1217 03:18:03.204962 12597 net.cpp:165] Memory required for data: 2880000032
I1217 03:18:03.204965 12597 layer_factory.hpp:77] Creating layer conv2_2
I1217 03:18:03.204988 12597 net.cpp:100] Creating Layer conv2_2
I1217 03:18:03.204993 12597 net.cpp:434] conv2_2 <- conv2_1
I1217 03:18:03.204999 12597 net.cpp:408] conv2_2 -> conv2_2
I1217 03:18:03.206768 12597 net.cpp:150] Setting up conv2_2
I1217 03:18:03.206777 12597 net.cpp:157] Top shape: 8 128 250 250 (64000000)
I1217 03:18:03.206781 12597 net.cpp:165] Memory required for data: 3136000032
I1217 03:18:03.206789 12597 layer_factory.hpp:77] Creating layer relu2_2
I1217 03:18:03.206809 12597 net.cpp:100] Creating Layer relu2_2
I1217 03:18:03.206813 12597 net.cpp:434] relu2_2 <- conv2_2
I1217 03:18:03.206832 12597 net.cpp:395] relu2_2 -> conv2_2 (in-place)
I1217 03:18:03.206984 12597 net.cpp:150] Setting up relu2_2
I1217 03:18:03.206991 12597 net.cpp:157] Top shape: 8 128 250 250 (64000000)
I1217 03:18:03.206995 12597 net.cpp:165] Memory required for data: 3392000032
I1217 03:18:03.207000 12597 layer_factory.hpp:77] Creating layer pool2
I1217 03:18:03.207020 12597 net.cpp:100] Creating Layer pool2
I1217 03:18:03.207024 12597 net.cpp:434] pool2 <- conv2_2
I1217 03:18:03.207031 12597 net.cpp:408] pool2 -> pool2
I1217 03:18:03.207072 12597 net.cpp:150] Setting up pool2
I1217 03:18:03.207078 12597 net.cpp:157] Top shape: 8 128 125 125 (16000000)
I1217 03:18:03.207082 12597 net.cpp:165] Memory required for data: 3456000032
I1217 03:18:03.207087 12597 layer_factory.hpp:77] Creating layer conv3_1
I1217 03:18:03.207109 12597 net.cpp:100] Creating Layer conv3_1
I1217 03:18:03.207113 12597 net.cpp:434] conv3_1 <- pool2
I1217 03:18:03.207119 12597 net.cpp:408] conv3_1 -> conv3_1
I1217 03:18:03.209986 12597 net.cpp:150] Setting up conv3_1
I1217 03:18:03.210000 12597 net.cpp:157] Top shape: 8 256 125 125 (32000000)
I1217 03:18:03.210003 12597 net.cpp:165] Memory required for data: 3584000032
I1217 03:18:03.210029 12597 layer_factory.hpp:77] Creating layer relu3_1
I1217 03:18:03.210036 12597 net.cpp:100] Creating Layer relu3_1
I1217 03:18:03.210041 12597 net.cpp:434] relu3_1 <- conv3_1
I1217 03:18:03.210047 12597 net.cpp:395] relu3_1 -> conv3_1 (in-place)
I1217 03:18:03.210204 12597 net.cpp:150] Setting up relu3_1
I1217 03:18:03.210211 12597 net.cpp:157] Top shape: 8 256 125 125 (32000000)
I1217 03:18:03.210216 12597 net.cpp:165] Memory required for data: 3712000032
I1217 03:18:03.210220 12597 layer_factory.hpp:77] Creating layer conv3_2
I1217 03:18:03.210243 12597 net.cpp:100] Creating Layer conv3_2
I1217 03:18:03.210247 12597 net.cpp:434] conv3_2 <- conv3_1
I1217 03:18:03.210254 12597 net.cpp:408] conv3_2 -> conv3_2
I1217 03:18:03.214251 12597 net.cpp:150] Setting up conv3_2
I1217 03:18:03.214264 12597 net.cpp:157] Top shape: 8 256 125 125 (32000000)
I1217 03:18:03.214268 12597 net.cpp:165] Memory required for data: 3840000032
I1217 03:18:03.214290 12597 layer_factory.hpp:77] Creating layer relu3_2
I1217 03:18:03.214325 12597 net.cpp:100] Creating Layer relu3_2
I1217 03:18:03.214331 12597 net.cpp:434] relu3_2 <- conv3_2
I1217 03:18:03.214337 12597 net.cpp:395] relu3_2 -> conv3_2 (in-place)
I1217 03:18:03.214792 12597 net.cpp:150] Setting up relu3_2
I1217 03:18:03.214802 12597 net.cpp:157] Top shape: 8 256 125 125 (32000000)
I1217 03:18:03.214805 12597 net.cpp:165] Memory required for data: 3968000032
I1217 03:18:03.214809 12597 layer_factory.hpp:77] Creating layer conv3_3
I1217 03:18:03.214834 12597 net.cpp:100] Creating Layer conv3_3
I1217 03:18:03.214839 12597 net.cpp:434] conv3_3 <- conv3_2
I1217 03:18:03.214846 12597 net.cpp:408] conv3_3 -> conv3_3
I1217 03:18:03.219038 12597 net.cpp:150] Setting up conv3_3
I1217 03:18:03.219058 12597 net.cpp:157] Top shape: 8 256 125 125 (32000000)
I1217 03:18:03.219063 12597 net.cpp:165] Memory required for data: 4096000032
I1217 03:18:03.219086 12597 layer_factory.hpp:77] Creating layer relu3_3
I1217 03:18:03.219110 12597 net.cpp:100] Creating Layer relu3_3
I1217 03:18:03.219115 12597 net.cpp:434] relu3_3 <- conv3_3
I1217 03:18:03.219121 12597 net.cpp:395] relu3_3 -> conv3_3 (in-place)
I1217 03:18:03.219291 12597 net.cpp:150] Setting up relu3_3
I1217 03:18:03.219298 12597 net.cpp:157] Top shape: 8 256 125 125 (32000000)
I1217 03:18:03.219303 12597 net.cpp:165] Memory required for data: 4224000032
I1217 03:18:03.219307 12597 layer_factory.hpp:77] Creating layer pool3
I1217 03:18:03.219328 12597 net.cpp:100] Creating Layer pool3
I1217 03:18:03.219332 12597 net.cpp:434] pool3 <- conv3_3
I1217 03:18:03.219338 12597 net.cpp:408] pool3 -> pool3
I1217 03:18:03.219384 12597 net.cpp:150] Setting up pool3
I1217 03:18:03.219391 12597 net.cpp:157] Top shape: 8 256 63 63 (8128512)
I1217 03:18:03.219395 12597 net.cpp:165] Memory required for data: 4256514080
I1217 03:18:03.219399 12597 layer_factory.hpp:77] Creating layer conv4_1
I1217 03:18:03.219408 12597 net.cpp:100] Creating Layer conv4_1
I1217 03:18:03.219413 12597 net.cpp:434] conv4_1 <- pool3
I1217 03:18:03.219418 12597 net.cpp:408] conv4_1 -> conv4_1
I1217 03:18:03.226824 12597 net.cpp:150] Setting up conv4_1
I1217 03:18:03.226840 12597 net.cpp:157] Top shape: 8 512 63 63 (16257024)
I1217 03:18:03.226845 12597 net.cpp:165] Memory required for data: 4321542176
I1217 03:18:03.226868 12597 layer_factory.hpp:77] Creating layer relu4_1
I1217 03:18:03.226878 12597 net.cpp:100] Creating Layer relu4_1
I1217 03:18:03.226882 12597 net.cpp:434] relu4_1 <- conv4_1
I1217 03:18:03.226889 12597 net.cpp:395] relu4_1 -> conv4_1 (in-place)
I1217 03:18:03.227048 12597 net.cpp:150] Setting up relu4_1
I1217 03:18:03.227056 12597 net.cpp:157] Top shape: 8 512 63 63 (16257024)
I1217 03:18:03.227061 12597 net.cpp:165] Memory required for data: 4386570272
I1217 03:18:03.227064 12597 layer_factory.hpp:77] Creating layer conv4_2
I1217 03:18:03.227088 12597 net.cpp:100] Creating Layer conv4_2
I1217 03:18:03.227093 12597 net.cpp:434] conv4_2 <- conv4_1
I1217 03:18:03.227099 12597 net.cpp:408] conv4_2 -> conv4_2
I1217 03:18:03.239184 12597 net.cpp:150] Setting up conv4_2
I1217 03:18:03.239204 12597 net.cpp:157] Top shape: 8 512 63 63 (16257024)
I1217 03:18:03.239209 12597 net.cpp:165] Memory required for data: 4451598368
I1217 03:18:03.239249 12597 layer_factory.hpp:77] Creating layer relu4_2
I1217 03:18:03.239259 12597 net.cpp:100] Creating Layer relu4_2
I1217 03:18:03.239264 12597 net.cpp:434] relu4_2 <- conv4_2
I1217 03:18:03.239270 12597 net.cpp:395] relu4_2 -> conv4_2 (in-place)
I1217 03:18:03.239426 12597 net.cpp:150] Setting up relu4_2
I1217 03:18:03.239434 12597 net.cpp:157] Top shape: 8 512 63 63 (16257024)
I1217 03:18:03.239437 12597 net.cpp:165] Memory required for data: 4516626464
I1217 03:18:03.239442 12597 layer_factory.hpp:77] Creating layer conv4_3
I1217 03:18:03.239466 12597 net.cpp:100] Creating Layer conv4_3
I1217 03:18:03.239470 12597 net.cpp:434] conv4_3 <- conv4_2
I1217 03:18:03.239477 12597 net.cpp:408] conv4_3 -> conv4_3
I1217 03:18:03.251186 12597 net.cpp:150] Setting up conv4_3
I1217 03:18:03.251205 12597 net.cpp:157] Top shape: 8 512 63 63 (16257024)
I1217 03:18:03.251241 12597 net.cpp:165] Memory required for data: 4581654560
I1217 03:18:03.251263 12597 layer_factory.hpp:77] Creating layer relu4_3
I1217 03:18:03.251272 12597 net.cpp:100] Creating Layer relu4_3
I1217 03:18:03.251278 12597 net.cpp:434] relu4_3 <- conv4_3
I1217 03:18:03.251286 12597 net.cpp:395] relu4_3 -> conv4_3 (in-place)
I1217 03:18:03.251793 12597 net.cpp:150] Setting up relu4_3
I1217 03:18:03.251803 12597 net.cpp:157] Top shape: 8 512 63 63 (16257024)
I1217 03:18:03.251807 12597 net.cpp:165] Memory required for data: 4646682656
I1217 03:18:03.251811 12597 layer_factory.hpp:77] Creating layer conv4_3_relu4_3_0_split
I1217 03:18:03.251833 12597 net.cpp:100] Creating Layer conv4_3_relu4_3_0_split
I1217 03:18:03.251837 12597 net.cpp:434] conv4_3_relu4_3_0_split <- conv4_3
I1217 03:18:03.251843 12597 net.cpp:408] conv4_3_relu4_3_0_split -> conv4_3_relu4_3_0_split_0
I1217 03:18:03.251852 12597 net.cpp:408] conv4_3_relu4_3_0_split -> conv4_3_relu4_3_0_split_1
I1217 03:18:03.251914 12597 net.cpp:150] Setting up conv4_3_relu4_3_0_split
I1217 03:18:03.251933 12597 net.cpp:157] Top shape: 8 512 63 63 (16257024)
I1217 03:18:03.251938 12597 net.cpp:157] Top shape: 8 512 63 63 (16257024)
I1217 03:18:03.251941 12597 net.cpp:165] Memory required for data: 4776738848
I1217 03:18:03.251945 12597 layer_factory.hpp:77] Creating layer pool4
I1217 03:18:03.251967 12597 net.cpp:100] Creating Layer pool4
I1217 03:18:03.251971 12597 net.cpp:434] pool4 <- conv4_3_relu4_3_0_split_0
I1217 03:18:03.251977 12597 net.cpp:408] pool4 -> pool4
I1217 03:18:03.252019 12597 net.cpp:150] Setting up pool4
I1217 03:18:03.252025 12597 net.cpp:157] Top shape: 8 512 32 32 (4194304)
I1217 03:18:03.252029 12597 net.cpp:165] Memory required for data: 4793516064
I1217 03:18:03.252033 12597 layer_factory.hpp:77] Creating layer conv5_1
I1217 03:18:03.252043 12597 net.cpp:100] Creating Layer conv5_1
I1217 03:18:03.252048 12597 net.cpp:434] conv5_1 <- pool4
I1217 03:18:03.252053 12597 net.cpp:408] conv5_1 -> conv5_1
I1217 03:18:03.264039 12597 net.cpp:150] Setting up conv5_1
I1217 03:18:03.264057 12597 net.cpp:157] Top shape: 8 512 32 32 (4194304)
I1217 03:18:03.264062 12597 net.cpp:165] Memory required for data: 4810293280
I1217 03:18:03.264086 12597 layer_factory.hpp:77] Creating layer relu5_1
I1217 03:18:03.264094 12597 net.cpp:100] Creating Layer relu5_1
I1217 03:18:03.264101 12597 net.cpp:434] relu5_1 <- conv5_1
I1217 03:18:03.264107 12597 net.cpp:395] relu5_1 -> conv5_1 (in-place)
I1217 03:18:03.264283 12597 net.cpp:150] Setting up relu5_1
I1217 03:18:03.264292 12597 net.cpp:157] Top shape: 8 512 32 32 (4194304)
I1217 03:18:03.264295 12597 net.cpp:165] Memory required for data: 4827070496
I1217 03:18:03.264299 12597 layer_factory.hpp:77] Creating layer conv5_2
I1217 03:18:03.264324 12597 net.cpp:100] Creating Layer conv5_2
I1217 03:18:03.264341 12597 net.cpp:434] conv5_2 <- conv5_1
I1217 03:18:03.264348 12597 net.cpp:408] conv5_2 -> conv5_2
I1217 03:18:03.276144 12597 net.cpp:150] Setting up conv5_2
I1217 03:18:03.276163 12597 net.cpp:157] Top shape: 8 512 32 32 (4194304)
I1217 03:18:03.276167 12597 net.cpp:165] Memory required for data: 4843847712
I1217 03:18:03.276190 12597 layer_factory.hpp:77] Creating layer relu5_2
I1217 03:18:03.276201 12597 net.cpp:100] Creating Layer relu5_2
I1217 03:18:03.276206 12597 net.cpp:434] relu5_2 <- conv5_2
I1217 03:18:03.276212 12597 net.cpp:395] relu5_2 -> conv5_2 (in-place)
I1217 03:18:03.276388 12597 net.cpp:150] Setting up relu5_2
I1217 03:18:03.276397 12597 net.cpp:157] Top shape: 8 512 32 32 (4194304)
I1217 03:18:03.276401 12597 net.cpp:165] Memory required for data: 4860624928
I1217 03:18:03.276405 12597 layer_factory.hpp:77] Creating layer conv5_3
I1217 03:18:03.276430 12597 net.cpp:100] Creating Layer conv5_3
I1217 03:18:03.276435 12597 net.cpp:434] conv5_3 <- conv5_2
I1217 03:18:03.276441 12597 net.cpp:408] conv5_3 -> conv5_3
I1217 03:18:03.288389 12597 net.cpp:150] Setting up conv5_3
I1217 03:18:03.288408 12597 net.cpp:157] Top shape: 8 512 32 32 (4194304)
I1217 03:18:03.288441 12597 net.cpp:165] Memory required for data: 4877402144
I1217 03:18:03.288450 12597 layer_factory.hpp:77] Creating layer relu5_3
I1217 03:18:03.288465 12597 net.cpp:100] Creating Layer relu5_3
I1217 03:18:03.288471 12597 net.cpp:434] relu5_3 <- conv5_3
I1217 03:18:03.288491 12597 net.cpp:395] relu5_3 -> conv5_3 (in-place)
I1217 03:18:03.289022 12597 net.cpp:150] Setting up relu5_3
I1217 03:18:03.289032 12597 net.cpp:157] Top shape: 8 512 32 32 (4194304)
I1217 03:18:03.289036 12597 net.cpp:165] Memory required for data: 4894179360
I1217 03:18:03.289041 12597 layer_factory.hpp:77] Creating layer pool5
I1217 03:18:03.289062 12597 net.cpp:100] Creating Layer pool5
I1217 03:18:03.289067 12597 net.cpp:434] pool5 <- conv5_3
I1217 03:18:03.289073 12597 net.cpp:408] pool5 -> pool5
I1217 03:18:03.289125 12597 net.cpp:150] Setting up pool5
I1217 03:18:03.289132 12597 net.cpp:157] Top shape: 8 512 32 32 (4194304)
I1217 03:18:03.289136 12597 net.cpp:165] Memory required for data: 4910956576
I1217 03:18:03.289140 12597 layer_factory.hpp:77] Creating layer fc6
I1217 03:18:03.289162 12597 net.cpp:100] Creating Layer fc6
I1217 03:18:03.289181 12597 net.cpp:434] fc6 <- pool5
I1217 03:18:03.289188 12597 net.cpp:408] fc6 -> fc6
I1217 03:18:03.310389 12597 net.cpp:150] Setting up fc6
I1217 03:18:03.310410 12597 net.cpp:157] Top shape: 8 1024 32 32 (8388608)
I1217 03:18:03.310415 12597 net.cpp:165] Memory required for data: 4944511008
I1217 03:18:03.310437 12597 layer_factory.hpp:77] Creating layer relu6
I1217 03:18:03.310447 12597 net.cpp:100] Creating Layer relu6
I1217 03:18:03.310452 12597 net.cpp:434] relu6 <- fc6
I1217 03:18:03.310473 12597 net.cpp:395] relu6 -> fc6 (in-place)
I1217 03:18:03.310680 12597 net.cpp:150] Setting up relu6
I1217 03:18:03.310688 12597 net.cpp:157] Top shape: 8 1024 32 32 (8388608)
I1217 03:18:03.310691 12597 net.cpp:165] Memory required for data: 4978065440
I1217 03:18:03.310696 12597 layer_factory.hpp:77] Creating layer fc7
I1217 03:18:03.310720 12597 net.cpp:100] Creating Layer fc7
I1217 03:18:03.310737 12597 net.cpp:434] fc7 <- fc6
I1217 03:18:03.310745 12597 net.cpp:408] fc7 -> fc7
I1217 03:18:03.316752 12597 net.cpp:150] Setting up fc7
I1217 03:18:03.316767 12597 net.cpp:157] Top shape: 8 1024 32 32 (8388608)
I1217 03:18:03.316772 12597 net.cpp:165] Memory required for data: 5011619872
I1217 03:18:03.316794 12597 layer_factory.hpp:77] Creating layer relu7
I1217 03:18:03.316802 12597 net.cpp:100] Creating Layer relu7
I1217 03:18:03.316807 12597 net.cpp:434] relu7 <- fc7
I1217 03:18:03.316813 12597 net.cpp:395] relu7 -> fc7 (in-place)
I1217 03:18:03.316990 12597 net.cpp:150] Setting up relu7
I1217 03:18:03.316998 12597 net.cpp:157] Top shape: 8 1024 32 32 (8388608)
I1217 03:18:03.317001 12597 net.cpp:165] Memory required for data: 5045174304
I1217 03:18:03.317005 12597 layer_factory.hpp:77] Creating layer fc7_relu7_0_split
I1217 03:18:03.317028 12597 net.cpp:100] Creating Layer fc7_relu7_0_split
I1217 03:18:03.317032 12597 net.cpp:434] fc7_relu7_0_split <- fc7
I1217 03:18:03.317039 12597 net.cpp:408] fc7_relu7_0_split -> fc7_relu7_0_split_0
I1217 03:18:03.317046 12597 net.cpp:408] fc7_relu7_0_split -> fc7_relu7_0_split_1
I1217 03:18:03.317059 12597 net.cpp:408] fc7_relu7_0_split -> fc7_relu7_0_split_2
I1217 03:18:03.317080 12597 net.cpp:408] fc7_relu7_0_split -> fc7_relu7_0_split_3
I1217 03:18:03.317132 12597 net.cpp:150] Setting up fc7_relu7_0_split
I1217 03:18:03.317150 12597 net.cpp:157] Top shape: 8 1024 32 32 (8388608)
I1217 03:18:03.317155 12597 net.cpp:157] Top shape: 8 1024 32 32 (8388608)
I1217 03:18:03.317160 12597 net.cpp:157] Top shape: 8 1024 32 32 (8388608)
I1217 03:18:03.317179 12597 net.cpp:157] Top shape: 8 1024 32 32 (8388608)
I1217 03:18:03.317183 12597 net.cpp:165] Memory required for data: 5179392032
I1217 03:18:03.317188 12597 layer_factory.hpp:77] Creating layer conv6_1
I1217 03:18:03.317199 12597 net.cpp:100] Creating Layer conv6_1
I1217 03:18:03.317204 12597 net.cpp:434] conv6_1 <- fc7_relu7_0_split_0
I1217 03:18:03.317224 12597 net.cpp:408] conv6_1 -> conv6_1
I1217 03:18:03.320241 12597 net.cpp:150] Setting up conv6_1
I1217 03:18:03.320253 12597 net.cpp:157] Top shape: 8 256 32 32 (2097152)
I1217 03:18:03.320257 12597 net.cpp:165] Memory required for data: 5187780640
I1217 03:18:03.320264 12597 layer_factory.hpp:77] Creating layer conv6_1_relu
I1217 03:18:03.320287 12597 net.cpp:100] Creating Layer conv6_1_relu
I1217 03:18:03.320292 12597 net.cpp:434] conv6_1_relu <- conv6_1
I1217 03:18:03.320298 12597 net.cpp:395] conv6_1_relu -> conv6_1 (in-place)
I1217 03:18:03.320808 12597 net.cpp:150] Setting up conv6_1_relu
I1217 03:18:03.320819 12597 net.cpp:157] Top shape: 8 256 32 32 (2097152)
I1217 03:18:03.320823 12597 net.cpp:165] Memory required for data: 5196169248
I1217 03:18:03.320828 12597 layer_factory.hpp:77] Creating layer conv6_2
I1217 03:18:03.320852 12597 net.cpp:100] Creating Layer conv6_2
I1217 03:18:03.320857 12597 net.cpp:434] conv6_2 <- conv6_1
I1217 03:18:03.320866 12597 net.cpp:408] conv6_2 -> conv6_2
I1217 03:18:03.329980 12597 net.cpp:150] Setting up conv6_2
I1217 03:18:03.330001 12597 net.cpp:157] Top shape: 8 512 16 16 (1048576)
I1217 03:18:03.330006 12597 net.cpp:165] Memory required for data: 5200363552
I1217 03:18:03.330036 12597 layer_factory.hpp:77] Creating layer conv6_2_relu
I1217 03:18:03.330046 12597 net.cpp:100] Creating Layer conv6_2_relu
I1217 03:18:03.330051 12597 net.cpp:434] conv6_2_relu <- conv6_2
I1217 03:18:03.330060 12597 net.cpp:395] conv6_2_relu -> conv6_2 (in-place)
I1217 03:18:03.330255 12597 net.cpp:150] Setting up conv6_2_relu
I1217 03:18:03.330261 12597 net.cpp:157] Top shape: 8 512 16 16 (1048576)
I1217 03:18:03.330265 12597 net.cpp:165] Memory required for data: 5204557856
I1217 03:18:03.330269 12597 layer_factory.hpp:77] Creating layer conv6_2_conv6_2_relu_0_split
I1217 03:18:03.330291 12597 net.cpp:100] Creating Layer conv6_2_conv6_2_relu_0_split
I1217 03:18:03.330296 12597 net.cpp:434] conv6_2_conv6_2_relu_0_split <- conv6_2
I1217 03:18:03.330301 12597 net.cpp:408] conv6_2_conv6_2_relu_0_split -> conv6_2_conv6_2_relu_0_split_0
I1217 03:18:03.330309 12597 net.cpp:408] conv6_2_conv6_2_relu_0_split -> conv6_2_conv6_2_relu_0_split_1
I1217 03:18:03.330317 12597 net.cpp:408] conv6_2_conv6_2_relu_0_split -> conv6_2_conv6_2_relu_0_split_2
I1217 03:18:03.330323 12597 net.cpp:408] conv6_2_conv6_2_relu_0_split -> conv6_2_conv6_2_relu_0_split_3
I1217 03:18:03.330392 12597 net.cpp:150] Setting up conv6_2_conv6_2_relu_0_split
I1217 03:18:03.330399 12597 net.cpp:157] Top shape: 8 512 16 16 (1048576)
I1217 03:18:03.330404 12597 net.cpp:157] Top shape: 8 512 16 16 (1048576)
I1217 03:18:03.330408 12597 net.cpp:157] Top shape: 8 512 16 16 (1048576)
I1217 03:18:03.330412 12597 net.cpp:157] Top shape: 8 512 16 16 (1048576)
I1217 03:18:03.330416 12597 net.cpp:165] Memory required for data: 5221335072
I1217 03:18:03.330420 12597 layer_factory.hpp:77] Creating layer conv7_1
I1217 03:18:03.330446 12597 net.cpp:100] Creating Layer conv7_1
I1217 03:18:03.330451 12597 net.cpp:434] conv7_1 <- conv6_2_conv6_2_relu_0_split_0
I1217 03:18:03.330461 12597 net.cpp:408] conv7_1 -> conv7_1
I1217 03:18:03.331907 12597 net.cpp:150] Setting up conv7_1
I1217 03:18:03.331925 12597 net.cpp:157] Top shape: 8 128 16 16 (262144)
I1217 03:18:03.331929 12597 net.cpp:165] Memory required for data: 5222383648
I1217 03:18:03.331951 12597 layer_factory.hpp:77] Creating layer conv7_1_relu
I1217 03:18:03.331959 12597 net.cpp:100] Creating Layer conv7_1_relu
I1217 03:18:03.331966 12597 net.cpp:434] conv7_1_relu <- conv7_1
I1217 03:18:03.331985 12597 net.cpp:395] conv7_1_relu -> conv7_1 (in-place)
I1217 03:18:03.332145 12597 net.cpp:150] Setting up conv7_1_relu
I1217 03:18:03.332154 12597 net.cpp:157] Top shape: 8 128 16 16 (262144)
I1217 03:18:03.332156 12597 net.cpp:165] Memory required for data: 5223432224
I1217 03:18:03.332160 12597 layer_factory.hpp:77] Creating layer conv7_2
I1217 03:18:03.332185 12597 net.cpp:100] Creating Layer conv7_2
I1217 03:18:03.332190 12597 net.cpp:434] conv7_2 <- conv7_1
I1217 03:18:03.332197 12597 net.cpp:408] conv7_2 -> conv7_2
I1217 03:18:03.335389 12597 net.cpp:150] Setting up conv7_2
I1217 03:18:03.335403 12597 net.cpp:157] Top shape: 8 256 8 8 (131072)
I1217 03:18:03.335408 12597 net.cpp:165] Memory required for data: 5223956512
I1217 03:18:03.335430 12597 layer_factory.hpp:77] Creating layer conv7_2_relu
I1217 03:18:03.335453 12597 net.cpp:100] Creating Layer conv7_2_relu
I1217 03:18:03.335458 12597 net.cpp:434] conv7_2_relu <- conv7_2
I1217 03:18:03.335464 12597 net.cpp:395] conv7_2_relu -> conv7_2 (in-place)
I1217 03:18:03.335630 12597 net.cpp:150] Setting up conv7_2_relu
I1217 03:18:03.335638 12597 net.cpp:157] Top shape: 8 256 8 8 (131072)
I1217 03:18:03.335641 12597 net.cpp:165] Memory required for data: 5224480800
I1217 03:18:03.335646 12597 layer_factory.hpp:77] Creating layer conv7_2_conv7_2_relu_0_split
I1217 03:18:03.335667 12597 net.cpp:100] Creating Layer conv7_2_conv7_2_relu_0_split
I1217 03:18:03.335672 12597 net.cpp:434] conv7_2_conv7_2_relu_0_split <- conv7_2
I1217 03:18:03.335677 12597 net.cpp:408] conv7_2_conv7_2_relu_0_split -> conv7_2_conv7_2_relu_0_split_0
I1217 03:18:03.335686 12597 net.cpp:408] conv7_2_conv7_2_relu_0_split -> conv7_2_conv7_2_relu_0_split_1
I1217 03:18:03.335695 12597 net.cpp:408] conv7_2_conv7_2_relu_0_split -> conv7_2_conv7_2_relu_0_split_2
I1217 03:18:03.335700 12597 net.cpp:408] conv7_2_conv7_2_relu_0_split -> conv7_2_conv7_2_relu_0_split_3
I1217 03:18:03.335781 12597 net.cpp:150] Setting up conv7_2_conv7_2_relu_0_split
I1217 03:18:03.335788 12597 net.cpp:157] Top shape: 8 256 8 8 (131072)
I1217 03:18:03.335793 12597 net.cpp:157] Top shape: 8 256 8 8 (131072)
I1217 03:18:03.335798 12597 net.cpp:157] Top shape: 8 256 8 8 (131072)
I1217 03:18:03.335816 12597 net.cpp:157] Top shape: 8 256 8 8 (131072)
I1217 03:18:03.335820 12597 net.cpp:165] Memory required for data: 5226577952
I1217 03:18:03.335824 12597 layer_factory.hpp:77] Creating layer conv8_1
I1217 03:18:03.335834 12597 net.cpp:100] Creating Layer conv8_1
I1217 03:18:03.335839 12597 net.cpp:434] conv8_1 <- conv7_2_conv7_2_relu_0_split_0
I1217 03:18:03.335845 12597 net.cpp:408] conv8_1 -> conv8_1
I1217 03:18:03.336997 12597 net.cpp:150] Setting up conv8_1
I1217 03:18:03.337007 12597 net.cpp:157] Top shape: 8 128 8 8 (65536)
I1217 03:18:03.337010 12597 net.cpp:165] Memory required for data: 5226840096
I1217 03:18:03.337016 12597 layer_factory.hpp:77] Creating layer conv8_1_relu
I1217 03:18:03.337038 12597 net.cpp:100] Creating Layer conv8_1_relu
I1217 03:18:03.337043 12597 net.cpp:434] conv8_1_relu <- conv8_1
I1217 03:18:03.337049 12597 net.cpp:395] conv8_1_relu -> conv8_1 (in-place)
I1217 03:18:03.337561 12597 net.cpp:150] Setting up conv8_1_relu
I1217 03:18:03.337571 12597 net.cpp:157] Top shape: 8 128 8 8 (65536)
I1217 03:18:03.337576 12597 net.cpp:165] Memory required for data: 5227102240
I1217 03:18:03.337580 12597 layer_factory.hpp:77] Creating layer conv8_2
I1217 03:18:03.337589 12597 net.cpp:100] Creating Layer conv8_2
I1217 03:18:03.337594 12597 net.cpp:434] conv8_2 <- conv8_1
I1217 03:18:03.337602 12597 net.cpp:408] conv8_2 -> conv8_2
I1217 03:18:03.340766 12597 net.cpp:150] Setting up conv8_2
I1217 03:18:03.340782 12597 net.cpp:157] Top shape: 8 256 6 6 (73728)
I1217 03:18:03.340786 12597 net.cpp:165] Memory required for data: 5227397152
I1217 03:18:03.340808 12597 layer_factory.hpp:77] Creating layer conv8_2_relu
I1217 03:18:03.340816 12597 net.cpp:100] Creating Layer conv8_2_relu
I1217 03:18:03.340822 12597 net.cpp:434] conv8_2_relu <- conv8_2
I1217 03:18:03.340828 12597 net.cpp:395] conv8_2_relu -> conv8_2 (in-place)
I1217 03:18:03.340999 12597 net.cpp:150] Setting up conv8_2_relu
I1217 03:18:03.341006 12597 net.cpp:157] Top shape: 8 256 6 6 (73728)
I1217 03:18:03.341012 12597 net.cpp:165] Memory required for data: 5227692064
I1217 03:18:03.341015 12597 layer_factory.hpp:77] Creating layer conv8_2_conv8_2_relu_0_split
I1217 03:18:03.341022 12597 net.cpp:100] Creating Layer conv8_2_conv8_2_relu_0_split
I1217 03:18:03.341042 12597 net.cpp:434] conv8_2_conv8_2_relu_0_split <- conv8_2
I1217 03:18:03.341048 12597 net.cpp:408] conv8_2_conv8_2_relu_0_split -> conv8_2_conv8_2_relu_0_split_0
I1217 03:18:03.341082 12597 net.cpp:408] conv8_2_conv8_2_relu_0_split -> conv8_2_conv8_2_relu_0_split_1
I1217 03:18:03.341104 12597 net.cpp:408] conv8_2_conv8_2_relu_0_split -> conv8_2_conv8_2_relu_0_split_2
I1217 03:18:03.341109 12597 net.cpp:408] conv8_2_conv8_2_relu_0_split -> conv8_2_conv8_2_relu_0_split_3
I1217 03:18:03.341192 12597 net.cpp:150] Setting up conv8_2_conv8_2_relu_0_split
I1217 03:18:03.341199 12597 net.cpp:157] Top shape: 8 256 6 6 (73728)
I1217 03:18:03.341204 12597 net.cpp:157] Top shape: 8 256 6 6 (73728)
I1217 03:18:03.341208 12597 net.cpp:157] Top shape: 8 256 6 6 (73728)
I1217 03:18:03.341228 12597 net.cpp:157] Top shape: 8 256 6 6 (73728)
I1217 03:18:03.341233 12597 net.cpp:165] Memory required for data: 5228871712
I1217 03:18:03.341236 12597 layer_factory.hpp:77] Creating layer conv9_1
I1217 03:18:03.341245 12597 net.cpp:100] Creating Layer conv9_1
I1217 03:18:03.341250 12597 net.cpp:434] conv9_1 <- conv8_2_conv8_2_relu_0_split_0
I1217 03:18:03.341259 12597 net.cpp:408] conv9_1 -> conv9_1
I1217 03:18:03.342407 12597 net.cpp:150] Setting up conv9_1
I1217 03:18:03.342417 12597 net.cpp:157] Top shape: 8 128 6 6 (36864)
I1217 03:18:03.342422 12597 net.cpp:165] Memory required for data: 5229019168
I1217 03:18:03.342427 12597 layer_factory.hpp:77] Creating layer conv9_1_relu
I1217 03:18:03.342448 12597 net.cpp:100] Creating Layer conv9_1_relu
I1217 03:18:03.342453 12597 net.cpp:434] conv9_1_relu <- conv9_1
I1217 03:18:03.342459 12597 net.cpp:395] conv9_1_relu -> conv9_1 (in-place)
I1217 03:18:03.342617 12597 net.cpp:150] Setting up conv9_1_relu
I1217 03:18:03.342624 12597 net.cpp:157] Top shape: 8 128 6 6 (36864)
I1217 03:18:03.342629 12597 net.cpp:165] Memory required for data: 5229166624
I1217 03:18:03.342634 12597 layer_factory.hpp:77] Creating layer conv9_2
I1217 03:18:03.342644 12597 net.cpp:100] Creating Layer conv9_2
I1217 03:18:03.342649 12597 net.cpp:434] conv9_2 <- conv9_1
I1217 03:18:03.342656 12597 net.cpp:408] conv9_2 -> conv9_2
I1217 03:18:03.345832 12597 net.cpp:150] Setting up conv9_2
I1217 03:18:03.345846 12597 net.cpp:157] Top shape: 8 256 4 4 (32768)
I1217 03:18:03.345851 12597 net.cpp:165] Memory required for data: 5229297696
I1217 03:18:03.345860 12597 layer_factory.hpp:77] Creating layer conv9_2_relu
I1217 03:18:03.345867 12597 net.cpp:100] Creating Layer conv9_2_relu
I1217 03:18:03.345873 12597 net.cpp:434] conv9_2_relu <- conv9_2
I1217 03:18:03.345880 12597 net.cpp:395] conv9_2_relu -> conv9_2 (in-place)
I1217 03:18:03.346405 12597 net.cpp:150] Setting up conv9_2_relu
I1217 03:18:03.346415 12597 net.cpp:157] Top shape: 8 256 4 4 (32768)
I1217 03:18:03.346419 12597 net.cpp:165] Memory required for data: 5229428768
I1217 03:18:03.346423 12597 layer_factory.hpp:77] Creating layer conv9_2_conv9_2_relu_0_split
I1217 03:18:03.346431 12597 net.cpp:100] Creating Layer conv9_2_conv9_2_relu_0_split
I1217 03:18:03.346436 12597 net.cpp:434] conv9_2_conv9_2_relu_0_split <- conv9_2
I1217 03:18:03.346442 12597 net.cpp:408] conv9_2_conv9_2_relu_0_split -> conv9_2_conv9_2_relu_0_split_0
I1217 03:18:03.346451 12597 net.cpp:408] conv9_2_conv9_2_relu_0_split -> conv9_2_conv9_2_relu_0_split_1
I1217 03:18:03.346459 12597 net.cpp:408] conv9_2_conv9_2_relu_0_split -> conv9_2_conv9_2_relu_0_split_2
I1217 03:18:03.346519 12597 net.cpp:150] Setting up conv9_2_conv9_2_relu_0_split
I1217 03:18:03.346526 12597 net.cpp:157] Top shape: 8 256 4 4 (32768)
I1217 03:18:03.346530 12597 net.cpp:157] Top shape: 8 256 4 4 (32768)
I1217 03:18:03.346534 12597 net.cpp:157] Top shape: 8 256 4 4 (32768)
I1217 03:18:03.346554 12597 net.cpp:165] Memory required for data: 5229821984
I1217 03:18:03.346557 12597 layer_factory.hpp:77] Creating layer conv4_3_norm
I1217 03:18:03.346565 12597 net.cpp:100] Creating Layer conv4_3_norm
I1217 03:18:03.346571 12597 net.cpp:434] conv4_3_norm <- conv4_3_relu4_3_0_split_1
I1217 03:18:03.346580 12597 net.cpp:408] conv4_3_norm -> conv4_3_norm
I1217 03:18:03.346727 12597 net.cpp:150] Setting up conv4_3_norm
I1217 03:18:03.346735 12597 net.cpp:157] Top shape: 8 512 63 63 (16257024)
I1217 03:18:03.346752 12597 net.cpp:165] Memory required for data: 5294850080
I1217 03:18:03.346758 12597 layer_factory.hpp:77] Creating layer conv4_3_norm_conv4_3_norm_0_split
I1217 03:18:03.346766 12597 net.cpp:100] Creating Layer conv4_3_norm_conv4_3_norm_0_split
I1217 03:18:03.346771 12597 net.cpp:434] conv4_3_norm_conv4_3_norm_0_split <- conv4_3_norm
I1217 03:18:03.346777 12597 net.cpp:408] conv4_3_norm_conv4_3_norm_0_split -> conv4_3_norm_conv4_3_norm_0_split_0
I1217 03:18:03.346786 12597 net.cpp:408] conv4_3_norm_conv4_3_norm_0_split -> conv4_3_norm_conv4_3_norm_0_split_1
I1217 03:18:03.346792 12597 net.cpp:408] conv4_3_norm_conv4_3_norm_0_split -> conv4_3_norm_conv4_3_norm_0_split_2
I1217 03:18:03.346832 12597 net.cpp:150] Setting up conv4_3_norm_conv4_3_norm_0_split
I1217 03:18:03.346838 12597 net.cpp:157] Top shape: 8 512 63 63 (16257024)
I1217 03:18:03.346844 12597 net.cpp:157] Top shape: 8 512 63 63 (16257024)
I1217 03:18:03.346849 12597 net.cpp:157] Top shape: 8 512 63 63 (16257024)
I1217 03:18:03.346853 12597 net.cpp:165] Memory required for data: 5489934368
I1217 03:18:03.346858 12597 layer_factory.hpp:77] Creating layer conv4_3_norm_mbox_loc
I1217 03:18:03.346868 12597 net.cpp:100] Creating Layer conv4_3_norm_mbox_loc
I1217 03:18:03.346873 12597 net.cpp:434] conv4_3_norm_mbox_loc <- conv4_3_norm_conv4_3_norm_0_split_0
I1217 03:18:03.346881 12597 net.cpp:408] conv4_3_norm_mbox_loc -> conv4_3_norm_mbox_loc
I1217 03:18:03.348501 12597 net.cpp:150] Setting up conv4_3_norm_mbox_loc
I1217 03:18:03.348512 12597 net.cpp:157] Top shape: 8 16 63 63 (508032)
I1217 03:18:03.348517 12597 net.cpp:165] Memory required for data: 5491966496
I1217 03:18:03.348525 12597 layer_factory.hpp:77] Creating layer conv4_3_norm_mbox_loc_perm
I1217 03:18:03.348531 12597 net.cpp:100] Creating Layer conv4_3_norm_mbox_loc_perm
I1217 03:18:03.348538 12597 net.cpp:434] conv4_3_norm_mbox_loc_perm <- conv4_3_norm_mbox_loc
I1217 03:18:03.348546 12597 net.cpp:408] conv4_3_norm_mbox_loc_perm -> conv4_3_norm_mbox_loc_perm
I1217 03:18:03.348644 12597 net.cpp:150] Setting up conv4_3_norm_mbox_loc_perm
I1217 03:18:03.348650 12597 net.cpp:157] Top shape: 8 63 63 16 (508032)
I1217 03:18:03.348656 12597 net.cpp:165] Memory required for data: 5493998624
I1217 03:18:03.348660 12597 layer_factory.hpp:77] Creating layer conv4_3_norm_mbox_loc_flat
I1217 03:18:03.348666 12597 net.cpp:100] Creating Layer conv4_3_norm_mbox_loc_flat
I1217 03:18:03.348672 12597 net.cpp:434] conv4_3_norm_mbox_loc_flat <- conv4_3_norm_mbox_loc_perm
I1217 03:18:03.348680 12597 net.cpp:408] conv4_3_norm_mbox_loc_flat -> conv4_3_norm_mbox_loc_flat
I1217 03:18:03.348711 12597 net.cpp:150] Setting up conv4_3_norm_mbox_loc_flat
I1217 03:18:03.348717 12597 net.cpp:157] Top shape: 8 63504 (508032)
I1217 03:18:03.348722 12597 net.cpp:165] Memory required for data: 5496030752
I1217 03:18:03.348728 12597 layer_factory.hpp:77] Creating layer conv4_3_norm_mbox_conf
I1217 03:18:03.348742 12597 net.cpp:100] Creating Layer conv4_3_norm_mbox_conf
I1217 03:18:03.348747 12597 net.cpp:434] conv4_3_norm_mbox_conf <- conv4_3_norm_conv4_3_norm_0_split_1
I1217 03:18:03.348754 12597 net.cpp:408] conv4_3_norm_mbox_conf -> conv4_3_norm_mbox_conf
I1217 03:18:03.350250 12597 net.cpp:150] Setting up conv4_3_norm_mbox_conf
I1217 03:18:03.350261 12597 net.cpp:157] Top shape: 8 8 63 63 (254016)
I1217 03:18:03.350267 12597 net.cpp:165] Memory required for data: 5497046816
I1217 03:18:03.350275 12597 layer_factory.hpp:77] Creating layer conv4_3_norm_mbox_conf_perm
I1217 03:18:03.350284 12597 net.cpp:100] Creating Layer conv4_3_norm_mbox_conf_perm
I1217 03:18:03.350291 12597 net.cpp:434] conv4_3_norm_mbox_conf_perm <- conv4_3_norm_mbox_conf
I1217 03:18:03.350296 12597 net.cpp:408] conv4_3_norm_mbox_conf_perm -> conv4_3_norm_mbox_conf_perm
I1217 03:18:03.350385 12597 net.cpp:150] Setting up conv4_3_norm_mbox_conf_perm
I1217 03:18:03.350392 12597 net.cpp:157] Top shape: 8 63 63 8 (254016)
I1217 03:18:03.350397 12597 net.cpp:165] Memory required for data: 5498062880
I1217 03:18:03.350401 12597 layer_factory.hpp:77] Creating layer conv4_3_norm_mbox_conf_flat
I1217 03:18:03.350417 12597 net.cpp:100] Creating Layer conv4_3_norm_mbox_conf_flat
I1217 03:18:03.350425 12597 net.cpp:434] conv4_3_norm_mbox_conf_flat <- conv4_3_norm_mbox_conf_perm
I1217 03:18:03.350431 12597 net.cpp:408] conv4_3_norm_mbox_conf_flat -> conv4_3_norm_mbox_conf_flat
I1217 03:18:03.350453 12597 net.cpp:150] Setting up conv4_3_norm_mbox_conf_flat
I1217 03:18:03.350459 12597 net.cpp:157] Top shape: 8 31752 (254016)
I1217 03:18:03.350466 12597 net.cpp:165] Memory required for data: 5499078944
I1217 03:18:03.350469 12597 layer_factory.hpp:77] Creating layer conv4_3_norm_mbox_priorbox
I1217 03:18:03.350477 12597 net.cpp:100] Creating Layer conv4_3_norm_mbox_priorbox
I1217 03:18:03.350482 12597 net.cpp:434] conv4_3_norm_mbox_priorbox <- conv4_3_norm_conv4_3_norm_0_split_2
I1217 03:18:03.350489 12597 net.cpp:434] conv4_3_norm_mbox_priorbox <- data_data_0_split_1
I1217 03:18:03.350497 12597 net.cpp:408] conv4_3_norm_mbox_priorbox -> conv4_3_norm_mbox_priorbox
I1217 03:18:03.350520 12597 net.cpp:150] Setting up conv4_3_norm_mbox_priorbox
I1217 03:18:03.350528 12597 net.cpp:157] Top shape: 1 2 63504 (127008)
I1217 03:18:03.350533 12597 net.cpp:165] Memory required for data: 5499586976
I1217 03:18:03.350536 12597 layer_factory.hpp:77] Creating layer fc7_mbox_loc
I1217 03:18:03.350546 12597 net.cpp:100] Creating Layer fc7_mbox_loc
I1217 03:18:03.350551 12597 net.cpp:434] fc7_mbox_loc <- fc7_relu7_0_split_1
I1217 03:18:03.350559 12597 net.cpp:408] fc7_mbox_loc -> fc7_mbox_loc
I1217 03:18:03.352764 12597 net.cpp:150] Setting up fc7_mbox_loc
I1217 03:18:03.352777 12597 net.cpp:157] Top shape: 8 24 32 32 (196608)
I1217 03:18:03.352780 12597 net.cpp:165] Memory required for data: 5500373408
I1217 03:18:03.352788 12597 layer_factory.hpp:77] Creating layer fc7_mbox_loc_perm
I1217 03:18:03.352797 12597 net.cpp:100] Creating Layer fc7_mbox_loc_perm
I1217 03:18:03.352802 12597 net.cpp:434] fc7_mbox_loc_perm <- fc7_mbox_loc
I1217 03:18:03.352809 12597 net.cpp:408] fc7_mbox_loc_perm -> fc7_mbox_loc_perm
I1217 03:18:03.352900 12597 net.cpp:150] Setting up fc7_mbox_loc_perm
I1217 03:18:03.352907 12597 net.cpp:157] Top shape: 8 32 32 24 (196608)
I1217 03:18:03.352911 12597 net.cpp:165] Memory required for data: 5501159840
I1217 03:18:03.352916 12597 layer_factory.hpp:77] Creating layer fc7_mbox_loc_flat
I1217 03:18:03.352923 12597 net.cpp:100] Creating Layer fc7_mbox_loc_flat
I1217 03:18:03.352928 12597 net.cpp:434] fc7_mbox_loc_flat <- fc7_mbox_loc_perm
I1217 03:18:03.352934 12597 net.cpp:408] fc7_mbox_loc_flat -> fc7_mbox_loc_flat
I1217 03:18:03.352954 12597 net.cpp:150] Setting up fc7_mbox_loc_flat
I1217 03:18:03.352960 12597 net.cpp:157] Top shape: 8 24576 (196608)
I1217 03:18:03.352965 12597 net.cpp:165] Memory required for data: 5501946272
I1217 03:18:03.352969 12597 layer_factory.hpp:77] Creating layer fc7_mbox_conf
I1217 03:18:03.352980 12597 net.cpp:100] Creating Layer fc7_mbox_conf
I1217 03:18:03.352985 12597 net.cpp:434] fc7_mbox_conf <- fc7_relu7_0_split_2
I1217 03:18:03.352991 12597 net.cpp:408] fc7_mbox_conf -> fc7_mbox_conf
I1217 03:18:03.354760 12597 net.cpp:150] Setting up fc7_mbox_conf
I1217 03:18:03.354770 12597 net.cpp:157] Top shape: 8 12 32 32 (98304)
I1217 03:18:03.354776 12597 net.cpp:165] Memory required for data: 5502339488
I1217 03:18:03.354782 12597 layer_factory.hpp:77] Creating layer fc7_mbox_conf_perm
I1217 03:18:03.354789 12597 net.cpp:100] Creating Layer fc7_mbox_conf_perm
I1217 03:18:03.354795 12597 net.cpp:434] fc7_mbox_conf_perm <- fc7_mbox_conf
I1217 03:18:03.354804 12597 net.cpp:408] fc7_mbox_conf_perm -> fc7_mbox_conf_perm
I1217 03:18:03.354895 12597 net.cpp:150] Setting up fc7_mbox_conf_perm
I1217 03:18:03.354902 12597 net.cpp:157] Top shape: 8 32 32 12 (98304)
I1217 03:18:03.354907 12597 net.cpp:165] Memory required for data: 5502732704
I1217 03:18:03.354912 12597 layer_factory.hpp:77] Creating layer fc7_mbox_conf_flat
I1217 03:18:03.354919 12597 net.cpp:100] Creating Layer fc7_mbox_conf_flat
I1217 03:18:03.354924 12597 net.cpp:434] fc7_mbox_conf_flat <- fc7_mbox_conf_perm
I1217 03:18:03.354943 12597 net.cpp:408] fc7_mbox_conf_flat -> fc7_mbox_conf_flat
I1217 03:18:03.354964 12597 net.cpp:150] Setting up fc7_mbox_conf_flat
I1217 03:18:03.354971 12597 net.cpp:157] Top shape: 8 12288 (98304)
I1217 03:18:03.354975 12597 net.cpp:165] Memory required for data: 5503125920
I1217 03:18:03.354979 12597 layer_factory.hpp:77] Creating layer fc7_mbox_priorbox
I1217 03:18:03.354987 12597 net.cpp:100] Creating Layer fc7_mbox_priorbox
I1217 03:18:03.354993 12597 net.cpp:434] fc7_mbox_priorbox <- fc7_relu7_0_split_3
I1217 03:18:03.354998 12597 net.cpp:434] fc7_mbox_priorbox <- data_data_0_split_2
I1217 03:18:03.355005 12597 net.cpp:408] fc7_mbox_priorbox -> fc7_mbox_priorbox
I1217 03:18:03.355028 12597 net.cpp:150] Setting up fc7_mbox_priorbox
I1217 03:18:03.355036 12597 net.cpp:157] Top shape: 1 2 24576 (49152)
I1217 03:18:03.355039 12597 net.cpp:165] Memory required for data: 5503322528
I1217 03:18:03.355044 12597 layer_factory.hpp:77] Creating layer conv6_2_mbox_loc
I1217 03:18:03.355053 12597 net.cpp:100] Creating Layer conv6_2_mbox_loc
I1217 03:18:03.355059 12597 net.cpp:434] conv6_2_mbox_loc <- conv6_2_conv6_2_relu_0_split_1
I1217 03:18:03.355067 12597 net.cpp:408] conv6_2_mbox_loc -> conv6_2_mbox_loc
I1217 03:18:03.356863 12597 net.cpp:150] Setting up conv6_2_mbox_loc
I1217 03:18:03.356874 12597 net.cpp:157] Top shape: 8 24 16 16 (49152)
I1217 03:18:03.356878 12597 net.cpp:165] Memory required for data: 5503519136
I1217 03:18:03.356886 12597 layer_factory.hpp:77] Creating layer conv6_2_mbox_loc_perm
I1217 03:18:03.356894 12597 net.cpp:100] Creating Layer conv6_2_mbox_loc_perm
I1217 03:18:03.356899 12597 net.cpp:434] conv6_2_mbox_loc_perm <- conv6_2_mbox_loc
I1217 03:18:03.356906 12597 net.cpp:408] conv6_2_mbox_loc_perm -> conv6_2_mbox_loc_perm
I1217 03:18:03.356995 12597 net.cpp:150] Setting up conv6_2_mbox_loc_perm
I1217 03:18:03.357003 12597 net.cpp:157] Top shape: 8 16 16 24 (49152)
I1217 03:18:03.357008 12597 net.cpp:165] Memory required for data: 5503715744
I1217 03:18:03.357012 12597 layer_factory.hpp:77] Creating layer conv6_2_mbox_loc_flat
I1217 03:18:03.357019 12597 net.cpp:100] Creating Layer conv6_2_mbox_loc_flat
I1217 03:18:03.357024 12597 net.cpp:434] conv6_2_mbox_loc_flat <- conv6_2_mbox_loc_perm
I1217 03:18:03.357031 12597 net.cpp:408] conv6_2_mbox_loc_flat -> conv6_2_mbox_loc_flat
I1217 03:18:03.357053 12597 net.cpp:150] Setting up conv6_2_mbox_loc_flat
I1217 03:18:03.357059 12597 net.cpp:157] Top shape: 8 6144 (49152)
I1217 03:18:03.357064 12597 net.cpp:165] Memory required for data: 5503912352
I1217 03:18:03.357069 12597 layer_factory.hpp:77] Creating layer conv6_2_mbox_conf
I1217 03:18:03.357077 12597 net.cpp:100] Creating Layer conv6_2_mbox_conf
I1217 03:18:03.357082 12597 net.cpp:434] conv6_2_mbox_conf <- conv6_2_conv6_2_relu_0_split_2
I1217 03:18:03.357089 12597 net.cpp:408] conv6_2_mbox_conf -> conv6_2_mbox_conf
I1217 03:18:03.358662 12597 net.cpp:150] Setting up conv6_2_mbox_conf
I1217 03:18:03.358673 12597 net.cpp:157] Top shape: 8 12 16 16 (24576)
I1217 03:18:03.358677 12597 net.cpp:165] Memory required for data: 5504010656
I1217 03:18:03.358683 12597 layer_factory.hpp:77] Creating layer conv6_2_mbox_conf_perm
I1217 03:18:03.358692 12597 net.cpp:100] Creating Layer conv6_2_mbox_conf_perm
I1217 03:18:03.358698 12597 net.cpp:434] conv6_2_mbox_conf_perm <- conv6_2_mbox_conf
I1217 03:18:03.358706 12597 net.cpp:408] conv6_2_mbox_conf_perm -> conv6_2_mbox_conf_perm
I1217 03:18:03.358794 12597 net.cpp:150] Setting up conv6_2_mbox_conf_perm
I1217 03:18:03.358801 12597 net.cpp:157] Top shape: 8 16 16 12 (24576)
I1217 03:18:03.358806 12597 net.cpp:165] Memory required for data: 5504108960
I1217 03:18:03.358810 12597 layer_factory.hpp:77] Creating layer conv6_2_mbox_conf_flat
I1217 03:18:03.358819 12597 net.cpp:100] Creating Layer conv6_2_mbox_conf_flat
I1217 03:18:03.358824 12597 net.cpp:434] conv6_2_mbox_conf_flat <- conv6_2_mbox_conf_perm
I1217 03:18:03.358830 12597 net.cpp:408] conv6_2_mbox_conf_flat -> conv6_2_mbox_conf_flat
I1217 03:18:03.358865 12597 net.cpp:150] Setting up conv6_2_mbox_conf_flat
I1217 03:18:03.358871 12597 net.cpp:157] Top shape: 8 3072 (24576)
I1217 03:18:03.358876 12597 net.cpp:165] Memory required for data: 5504207264
I1217 03:18:03.358881 12597 layer_factory.hpp:77] Creating layer conv6_2_mbox_priorbox
I1217 03:18:03.358888 12597 net.cpp:100] Creating Layer conv6_2_mbox_priorbox
I1217 03:18:03.358894 12597 net.cpp:434] conv6_2_mbox_priorbox <- conv6_2_conv6_2_relu_0_split_3
I1217 03:18:03.358901 12597 net.cpp:434] conv6_2_mbox_priorbox <- data_data_0_split_3
I1217 03:18:03.358907 12597 net.cpp:408] conv6_2_mbox_priorbox -> conv6_2_mbox_priorbox
I1217 03:18:03.358930 12597 net.cpp:150] Setting up conv6_2_mbox_priorbox
I1217 03:18:03.358937 12597 net.cpp:157] Top shape: 1 2 6144 (12288)
I1217 03:18:03.358942 12597 net.cpp:165] Memory required for data: 5504256416
I1217 03:18:03.358945 12597 layer_factory.hpp:77] Creating layer conv7_2_mbox_loc
I1217 03:18:03.358954 12597 net.cpp:100] Creating Layer conv7_2_mbox_loc
I1217 03:18:03.358960 12597 net.cpp:434] conv7_2_mbox_loc <- conv7_2_conv7_2_relu_0_split_1
I1217 03:18:03.358968 12597 net.cpp:408] conv7_2_mbox_loc -> conv7_2_mbox_loc
I1217 03:18:03.360572 12597 net.cpp:150] Setting up conv7_2_mbox_loc
I1217 03:18:03.360584 12597 net.cpp:157] Top shape: 8 24 8 8 (12288)
I1217 03:18:03.360589 12597 net.cpp:165] Memory required for data: 5504305568
I1217 03:18:03.360596 12597 layer_factory.hpp:77] Creating layer conv7_2_mbox_loc_perm
I1217 03:18:03.360605 12597 net.cpp:100] Creating Layer conv7_2_mbox_loc_perm
I1217 03:18:03.360610 12597 net.cpp:434] conv7_2_mbox_loc_perm <- conv7_2_mbox_loc
I1217 03:18:03.360616 12597 net.cpp:408] conv7_2_mbox_loc_perm -> conv7_2_mbox_loc_perm
I1217 03:18:03.360709 12597 net.cpp:150] Setting up conv7_2_mbox_loc_perm
I1217 03:18:03.360716 12597 net.cpp:157] Top shape: 8 8 8 24 (12288)
I1217 03:18:03.360720 12597 net.cpp:165] Memory required for data: 5504354720
I1217 03:18:03.360724 12597 layer_factory.hpp:77] Creating layer conv7_2_mbox_loc_flat
I1217 03:18:03.360731 12597 net.cpp:100] Creating Layer conv7_2_mbox_loc_flat
I1217 03:18:03.360738 12597 net.cpp:434] conv7_2_mbox_loc_flat <- conv7_2_mbox_loc_perm
I1217 03:18:03.360743 12597 net.cpp:408] conv7_2_mbox_loc_flat -> conv7_2_mbox_loc_flat
I1217 03:18:03.360764 12597 net.cpp:150] Setting up conv7_2_mbox_loc_flat
I1217 03:18:03.360771 12597 net.cpp:157] Top shape: 8 1536 (12288)
I1217 03:18:03.360775 12597 net.cpp:165] Memory required for data: 5504403872
I1217 03:18:03.360780 12597 layer_factory.hpp:77] Creating layer conv7_2_mbox_conf
I1217 03:18:03.360790 12597 net.cpp:100] Creating Layer conv7_2_mbox_conf
I1217 03:18:03.360795 12597 net.cpp:434] conv7_2_mbox_conf <- conv7_2_conv7_2_relu_0_split_2
I1217 03:18:03.360803 12597 net.cpp:408] conv7_2_mbox_conf -> conv7_2_mbox_conf
I1217 03:18:03.362331 12597 net.cpp:150] Setting up conv7_2_mbox_conf
I1217 03:18:03.362341 12597 net.cpp:157] Top shape: 8 12 8 8 (6144)
I1217 03:18:03.362346 12597 net.cpp:165] Memory required for data: 5504428448
I1217 03:18:03.362352 12597 layer_factory.hpp:77] Creating layer conv7_2_mbox_conf_perm
I1217 03:18:03.362360 12597 net.cpp:100] Creating Layer conv7_2_mbox_conf_perm
I1217 03:18:03.362366 12597 net.cpp:434] conv7_2_mbox_conf_perm <- conv7_2_mbox_conf
I1217 03:18:03.362372 12597 net.cpp:408] conv7_2_mbox_conf_perm -> conv7_2_mbox_conf_perm
I1217 03:18:03.362479 12597 net.cpp:150] Setting up conv7_2_mbox_conf_perm
I1217 03:18:03.362485 12597 net.cpp:157] Top shape: 8 8 8 12 (6144)
I1217 03:18:03.362489 12597 net.cpp:165] Memory required for data: 5504453024
I1217 03:18:03.362493 12597 layer_factory.hpp:77] Creating layer conv7_2_mbox_conf_flat
I1217 03:18:03.362498 12597 net.cpp:100] Creating Layer conv7_2_mbox_conf_flat
I1217 03:18:03.362517 12597 net.cpp:434] conv7_2_mbox_conf_flat <- conv7_2_mbox_conf_perm
I1217 03:18:03.362524 12597 net.cpp:408] conv7_2_mbox_conf_flat -> conv7_2_mbox_conf_flat
I1217 03:18:03.362558 12597 net.cpp:150] Setting up conv7_2_mbox_conf_flat
I1217 03:18:03.362565 12597 net.cpp:157] Top shape: 8 768 (6144)
I1217 03:18:03.362592 12597 net.cpp:165] Memory required for data: 5504477600
I1217 03:18:03.362596 12597 layer_factory.hpp:77] Creating layer conv7_2_mbox_priorbox
I1217 03:18:03.362604 12597 net.cpp:100] Creating Layer conv7_2_mbox_priorbox
I1217 03:18:03.362608 12597 net.cpp:434] conv7_2_mbox_priorbox <- conv7_2_conv7_2_relu_0_split_3
I1217 03:18:03.362617 12597 net.cpp:434] conv7_2_mbox_priorbox <- data_data_0_split_4
I1217 03:18:03.362637 12597 net.cpp:408] conv7_2_mbox_priorbox -> conv7_2_mbox_priorbox
I1217 03:18:03.362661 12597 net.cpp:150] Setting up conv7_2_mbox_priorbox
I1217 03:18:03.362668 12597 net.cpp:157] Top shape: 1 2 1536 (3072)
I1217 03:18:03.362671 12597 net.cpp:165] Memory required for data: 5504489888
I1217 03:18:03.362675 12597 layer_factory.hpp:77] Creating layer conv8_2_mbox_loc
I1217 03:18:03.362685 12597 net.cpp:100] Creating Layer conv8_2_mbox_loc
I1217 03:18:03.362690 12597 net.cpp:434] conv8_2_mbox_loc <- conv8_2_conv8_2_relu_0_split_1
I1217 03:18:03.362697 12597 net.cpp:408] conv8_2_mbox_loc -> conv8_2_mbox_loc
I1217 03:18:03.364245 12597 net.cpp:150] Setting up conv8_2_mbox_loc
I1217 03:18:03.364256 12597 net.cpp:157] Top shape: 8 16 6 6 (4608)
I1217 03:18:03.364261 12597 net.cpp:165] Memory required for data: 5504508320
I1217 03:18:03.364281 12597 layer_factory.hpp:77] Creating layer conv8_2_mbox_loc_perm
I1217 03:18:03.364290 12597 net.cpp:100] Creating Layer conv8_2_mbox_loc_perm
I1217 03:18:03.364296 12597 net.cpp:434] conv8_2_mbox_loc_perm <- conv8_2_mbox_loc
I1217 03:18:03.364303 12597 net.cpp:408] conv8_2_mbox_loc_perm -> conv8_2_mbox_loc_perm
I1217 03:18:03.364397 12597 net.cpp:150] Setting up conv8_2_mbox_loc_perm
I1217 03:18:03.364404 12597 net.cpp:157] Top shape: 8 6 6 16 (4608)
I1217 03:18:03.364409 12597 net.cpp:165] Memory required for data: 5504526752
I1217 03:18:03.364413 12597 layer_factory.hpp:77] Creating layer conv8_2_mbox_loc_flat
I1217 03:18:03.364419 12597 net.cpp:100] Creating Layer conv8_2_mbox_loc_flat
I1217 03:18:03.364425 12597 net.cpp:434] conv8_2_mbox_loc_flat <- conv8_2_mbox_loc_perm
I1217 03:18:03.364431 12597 net.cpp:408] conv8_2_mbox_loc_flat -> conv8_2_mbox_loc_flat
I1217 03:18:03.364452 12597 net.cpp:150] Setting up conv8_2_mbox_loc_flat
I1217 03:18:03.364460 12597 net.cpp:157] Top shape: 8 576 (4608)
I1217 03:18:03.364464 12597 net.cpp:165] Memory required for data: 5504545184
I1217 03:18:03.364470 12597 layer_factory.hpp:77] Creating layer conv8_2_mbox_conf
I1217 03:18:03.364477 12597 net.cpp:100] Creating Layer conv8_2_mbox_conf
I1217 03:18:03.364482 12597 net.cpp:434] conv8_2_mbox_conf <- conv8_2_conv8_2_relu_0_split_2
I1217 03:18:03.364490 12597 net.cpp:408] conv8_2_mbox_conf -> conv8_2_mbox_conf
I1217 03:18:03.365983 12597 net.cpp:150] Setting up conv8_2_mbox_conf
I1217 03:18:03.365993 12597 net.cpp:157] Top shape: 8 8 6 6 (2304)
I1217 03:18:03.365998 12597 net.cpp:165] Memory required for data: 5504554400
I1217 03:18:03.366005 12597 layer_factory.hpp:77] Creating layer conv8_2_mbox_conf_perm
I1217 03:18:03.366012 12597 net.cpp:100] Creating Layer conv8_2_mbox_conf_perm
I1217 03:18:03.366019 12597 net.cpp:434] conv8_2_mbox_conf_perm <- conv8_2_mbox_conf
I1217 03:18:03.366025 12597 net.cpp:408] conv8_2_mbox_conf_perm -> conv8_2_mbox_conf_perm
I1217 03:18:03.366122 12597 net.cpp:150] Setting up conv8_2_mbox_conf_perm
I1217 03:18:03.366129 12597 net.cpp:157] Top shape: 8 6 6 8 (2304)
I1217 03:18:03.366134 12597 net.cpp:165] Memory required for data: 5504563616
I1217 03:18:03.366137 12597 layer_factory.hpp:77] Creating layer conv8_2_mbox_conf_flat
I1217 03:18:03.366145 12597 net.cpp:100] Creating Layer conv8_2_mbox_conf_flat
I1217 03:18:03.366152 12597 net.cpp:434] conv8_2_mbox_conf_flat <- conv8_2_mbox_conf_perm
I1217 03:18:03.366158 12597 net.cpp:408] conv8_2_mbox_conf_flat -> conv8_2_mbox_conf_flat
I1217 03:18:03.366179 12597 net.cpp:150] Setting up conv8_2_mbox_conf_flat
I1217 03:18:03.366185 12597 net.cpp:157] Top shape: 8 288 (2304)
I1217 03:18:03.366190 12597 net.cpp:165] Memory required for data: 5504572832
I1217 03:18:03.366206 12597 layer_factory.hpp:77] Creating layer conv8_2_mbox_priorbox
I1217 03:18:03.366214 12597 net.cpp:100] Creating Layer conv8_2_mbox_priorbox
I1217 03:18:03.366219 12597 net.cpp:434] conv8_2_mbox_priorbox <- conv8_2_conv8_2_relu_0_split_3
I1217 03:18:03.366227 12597 net.cpp:434] conv8_2_mbox_priorbox <- data_data_0_split_5
I1217 03:18:03.366235 12597 net.cpp:408] conv8_2_mbox_priorbox -> conv8_2_mbox_priorbox
I1217 03:18:03.366258 12597 net.cpp:150] Setting up conv8_2_mbox_priorbox
I1217 03:18:03.366264 12597 net.cpp:157] Top shape: 1 2 576 (1152)
I1217 03:18:03.366269 12597 net.cpp:165] Memory required for data: 5504577440
I1217 03:18:03.366273 12597 layer_factory.hpp:77] Creating layer conv9_2_mbox_loc
I1217 03:18:03.366284 12597 net.cpp:100] Creating Layer conv9_2_mbox_loc
I1217 03:18:03.366289 12597 net.cpp:434] conv9_2_mbox_loc <- conv9_2_conv9_2_relu_0_split_0
I1217 03:18:03.366297 12597 net.cpp:408] conv9_2_mbox_loc -> conv9_2_mbox_loc
I1217 03:18:03.368530 12597 net.cpp:150] Setting up conv9_2_mbox_loc
I1217 03:18:03.368542 12597 net.cpp:157] Top shape: 8 16 4 4 (2048)
I1217 03:18:03.368546 12597 net.cpp:165] Memory required for data: 5504585632
I1217 03:18:03.368561 12597 layer_factory.hpp:77] Creating layer conv9_2_mbox_loc_perm
I1217 03:18:03.368567 12597 net.cpp:100] Creating Layer conv9_2_mbox_loc_perm
I1217 03:18:03.368573 12597 net.cpp:434] conv9_2_mbox_loc_perm <- conv9_2_mbox_loc
I1217 03:18:03.368582 12597 net.cpp:408] conv9_2_mbox_loc_perm -> conv9_2_mbox_loc_perm
I1217 03:18:03.368674 12597 net.cpp:150] Setting up conv9_2_mbox_loc_perm
I1217 03:18:03.368681 12597 net.cpp:157] Top shape: 8 4 4 16 (2048)
I1217 03:18:03.368685 12597 net.cpp:165] Memory required for data: 5504593824
I1217 03:18:03.368690 12597 layer_factory.hpp:77] Creating layer conv9_2_mbox_loc_flat
I1217 03:18:03.368696 12597 net.cpp:100] Creating Layer conv9_2_mbox_loc_flat
I1217 03:18:03.368701 12597 net.cpp:434] conv9_2_mbox_loc_flat <- conv9_2_mbox_loc_perm
I1217 03:18:03.368708 12597 net.cpp:408] conv9_2_mbox_loc_flat -> conv9_2_mbox_loc_flat
I1217 03:18:03.368731 12597 net.cpp:150] Setting up conv9_2_mbox_loc_flat
I1217 03:18:03.368737 12597 net.cpp:157] Top shape: 8 256 (2048)
I1217 03:18:03.368741 12597 net.cpp:165] Memory required for data: 5504602016
I1217 03:18:03.368746 12597 layer_factory.hpp:77] Creating layer conv9_2_mbox_conf
I1217 03:18:03.368755 12597 net.cpp:100] Creating Layer conv9_2_mbox_conf
I1217 03:18:03.368760 12597 net.cpp:434] conv9_2_mbox_conf <- conv9_2_conv9_2_relu_0_split_1
I1217 03:18:03.368768 12597 net.cpp:408] conv9_2_mbox_conf -> conv9_2_mbox_conf
I1217 03:18:03.369880 12597 net.cpp:150] Setting up conv9_2_mbox_conf
I1217 03:18:03.369891 12597 net.cpp:157] Top shape: 8 8 4 4 (1024)
I1217 03:18:03.369897 12597 net.cpp:165] Memory required for data: 5504606112
I1217 03:18:03.369905 12597 layer_factory.hpp:77] Creating layer conv9_2_mbox_conf_perm
I1217 03:18:03.369912 12597 net.cpp:100] Creating Layer conv9_2_mbox_conf_perm
I1217 03:18:03.369917 12597 net.cpp:434] conv9_2_mbox_conf_perm <- conv9_2_mbox_conf
I1217 03:18:03.369925 12597 net.cpp:408] conv9_2_mbox_conf_perm -> conv9_2_mbox_conf_perm
I1217 03:18:03.370015 12597 net.cpp:150] Setting up conv9_2_mbox_conf_perm
I1217 03:18:03.370023 12597 net.cpp:157] Top shape: 8 4 4 8 (1024)
I1217 03:18:03.370028 12597 net.cpp:165] Memory required for data: 5504610208
I1217 03:18:03.370031 12597 layer_factory.hpp:77] Creating layer conv9_2_mbox_conf_flat
I1217 03:18:03.370038 12597 net.cpp:100] Creating Layer conv9_2_mbox_conf_flat
I1217 03:18:03.370043 12597 net.cpp:434] conv9_2_mbox_conf_flat <- conv9_2_mbox_conf_perm
I1217 03:18:03.370051 12597 net.cpp:408] conv9_2_mbox_conf_flat -> conv9_2_mbox_conf_flat
I1217 03:18:03.370071 12597 net.cpp:150] Setting up conv9_2_mbox_conf_flat
I1217 03:18:03.370079 12597 net.cpp:157] Top shape: 8 128 (1024)
I1217 03:18:03.370082 12597 net.cpp:165] Memory required for data: 5504614304
I1217 03:18:03.370086 12597 layer_factory.hpp:77] Creating layer conv9_2_mbox_priorbox
I1217 03:18:03.370093 12597 net.cpp:100] Creating Layer conv9_2_mbox_priorbox
I1217 03:18:03.370111 12597 net.cpp:434] conv9_2_mbox_priorbox <- conv9_2_conv9_2_relu_0_split_2
I1217 03:18:03.370118 12597 net.cpp:434] conv9_2_mbox_priorbox <- data_data_0_split_6
I1217 03:18:03.370126 12597 net.cpp:408] conv9_2_mbox_priorbox -> conv9_2_mbox_priorbox
I1217 03:18:03.370148 12597 net.cpp:150] Setting up conv9_2_mbox_priorbox
I1217 03:18:03.370155 12597 net.cpp:157] Top shape: 1 2 256 (512)
I1217 03:18:03.370160 12597 net.cpp:165] Memory required for data: 5504616352
I1217 03:18:03.370164 12597 layer_factory.hpp:77] Creating layer mbox_loc
I1217 03:18:03.370172 12597 net.cpp:100] Creating Layer mbox_loc
I1217 03:18:03.370178 12597 net.cpp:434] mbox_loc <- conv4_3_norm_mbox_loc_flat
I1217 03:18:03.370184 12597 net.cpp:434] mbox_loc <- fc7_mbox_loc_flat
I1217 03:18:03.370191 12597 net.cpp:434] mbox_loc <- conv6_2_mbox_loc_flat
I1217 03:18:03.370198 12597 net.cpp:434] mbox_loc <- conv7_2_mbox_loc_flat
I1217 03:18:03.370203 12597 net.cpp:434] mbox_loc <- conv8_2_mbox_loc_flat
I1217 03:18:03.370208 12597 net.cpp:434] mbox_loc <- conv9_2_mbox_loc_flat
I1217 03:18:03.370216 12597 net.cpp:408] mbox_loc -> mbox_loc
I1217 03:18:03.370240 12597 net.cpp:150] Setting up mbox_loc
I1217 03:18:03.370247 12597 net.cpp:157] Top shape: 8 96592 (772736)
I1217 03:18:03.370252 12597 net.cpp:165] Memory required for data: 5507707296
I1217 03:18:03.370255 12597 layer_factory.hpp:77] Creating layer mbox_conf
I1217 03:18:03.370263 12597 net.cpp:100] Creating Layer mbox_conf
I1217 03:18:03.370270 12597 net.cpp:434] mbox_conf <- conv4_3_norm_mbox_conf_flat
I1217 03:18:03.370275 12597 net.cpp:434] mbox_conf <- fc7_mbox_conf_flat
I1217 03:18:03.370280 12597 net.cpp:434] mbox_conf <- conv6_2_mbox_conf_flat
I1217 03:18:03.370286 12597 net.cpp:434] mbox_conf <- conv7_2_mbox_conf_flat
I1217 03:18:03.370292 12597 net.cpp:434] mbox_conf <- conv8_2_mbox_conf_flat
I1217 03:18:03.370297 12597 net.cpp:434] mbox_conf <- conv9_2_mbox_conf_flat
I1217 03:18:03.370303 12597 net.cpp:408] mbox_conf -> mbox_conf
I1217 03:18:03.370324 12597 net.cpp:150] Setting up mbox_conf
I1217 03:18:03.370332 12597 net.cpp:157] Top shape: 8 48296 (386368)
I1217 03:18:03.370337 12597 net.cpp:165] Memory required for data: 5509252768
I1217 03:18:03.370340 12597 layer_factory.hpp:77] Creating layer mbox_priorbox
I1217 03:18:03.370347 12597 net.cpp:100] Creating Layer mbox_priorbox
I1217 03:18:03.370353 12597 net.cpp:434] mbox_priorbox <- conv4_3_norm_mbox_priorbox
I1217 03:18:03.370359 12597 net.cpp:434] mbox_priorbox <- fc7_mbox_priorbox
I1217 03:18:03.370364 12597 net.cpp:434] mbox_priorbox <- conv6_2_mbox_priorbox
I1217 03:18:03.370369 12597 net.cpp:434] mbox_priorbox <- conv7_2_mbox_priorbox
I1217 03:18:03.370375 12597 net.cpp:434] mbox_priorbox <- conv8_2_mbox_priorbox
I1217 03:18:03.370379 12597 net.cpp:434] mbox_priorbox <- conv9_2_mbox_priorbox
I1217 03:18:03.370385 12597 net.cpp:408] mbox_priorbox -> mbox_priorbox
I1217 03:18:03.370406 12597 net.cpp:150] Setting up mbox_priorbox
I1217 03:18:03.370412 12597 net.cpp:157] Top shape: 1 2 96592 (193184)
I1217 03:18:03.370417 12597 net.cpp:165] Memory required for data: 5510025504
I1217 03:18:03.370421 12597 layer_factory.hpp:77] Creating layer mbox_loss
I1217 03:18:03.370431 12597 net.cpp:100] Creating Layer mbox_loss
I1217 03:18:03.370437 12597 net.cpp:434] mbox_loss <- mbox_loc
I1217 03:18:03.370443 12597 net.cpp:434] mbox_loss <- mbox_conf
I1217 03:18:03.370448 12597 net.cpp:434] mbox_loss <- mbox_priorbox
…
  include {
    phase: TEST
  }
  transform_param {
    mean_value: 128
    mean_value: 128
    mean_value: 128
    resize_param {
      prob: 1
      resize_mode: WARP
      height: 500
      width: 500
      interp_mode: LINEAR
    }
  }
  data_param {
    source: "/root/workspace/cataract_detection_lmdb/diffuse_test_lmdb"
    batch_size: 1
    backend: LMDB
  }
  annotated_data_param {
    batch_sampler {
    }
    label_map_file: "/root/mount_out/work2018/cataract_recognition_train_test/detection/diffuse_train_test/labelmap_pupil.prototxt"
  }
}
layer {
  name: "conv1_1"
  type: "Convolution"
  bottom: "data"
  top: "conv1_1"
  param {
    lr_mult: 1
    decay_mult: 1
  }
  param {
    lr_mult: 2
    decay_mult: 0
  }
  convolution_param {
    num_output: 64
    pad: 1
    kernel_size: 3
    weight_filler {
      type: "xavier"
    }
    bias_filler {
      type: "constant"
      value: 0
    }
  }
}
layer {
  name: "relu1_1"
  type: "ReLU"
  bottom: "conv1_1"
  top: "conv1_1"
}
layer {
  name: "conv1_2"
  type: "Convolution"
  bottom: "conv1_1"
  top: "conv1_2"
  param {
    lr_mult: 1
    decay_mult: 1
  }
  param {
    lr_mult: 2
    decay_mult: 0
  }
  convolution_param {
    num_output: 64
    pad: 1
    kernel_size: 3
    weight_filler {
      type: "xavier"
    }
    bias_filler {
      type: "constant"
      value: 0
    }
  }
}
layer {
  name: "relu1_2"
  type: "ReLU"
  bottom: "conv1_2"
  top: "conv1_2"
}
layer {
  name: "pool1"
  type: "Pooling"
  bottom: "conv1_2"
  top: "pool1"
  pooling_param {
    pool: MAX
    kernel_size: 2
    stride: 2
  }
}
layer {
  name: "conv2_1"
  type: "Convolution"
  bottom: "pool1"
  top: "conv2_1"
  param {
    lr_mult: 1
    decay_mult: 1
  }
  param {
    lr_mult: 2
    decay_mult: 0
  }
  convolution_param {
    num_output: 128
    pad: 1
    kernel_size: 3
    weight_filler {
      type: "xavier"
    }
    bias_filler {
      type: "constant"
      value: 0
    }
  }
}
layer {
  name: "relu2_1"
  type: "ReLU"
  bottom: "conv2_1"
  top: "conv2_1"
}
layer {
  name: "conv2_2"
  type: "Convolution"
  bottom: "conv2_1"
  top: "conv2_2"
  param {
    lr_mult: 1
    decay_mult: 1
  }
  param {
    lr_mult: 2
    decay_mult: 0
  }
  convolution_param {
    num_output: 128
    pad: 1
    kernel_size: 3
    weight_filler {
      type: "xavier"
    }
    bias_filler {
      type: "constant"
      value: 0
    }
  }
}
layer {
  name: "relu2_2"
  type: "ReLU"
  bottom: "conv2_2"
  top: "conv2_2"
}
layer {
  name: "pool2"
  type: "Pooling"
  bottom: "conv2_2"
  top: "pool2"
  pooling_param {
    pool: MAX
    kernel_size: 2
    stride: 2
  }
}
layer {
  name: "conv3_1"
  type: "Convolution"
  bottom: "pool2"
  top: "conv3_1"
  param {
    lr_mult: 1
    decay_mult: 1
  }
  param {
    lr_mult: 2
    decay_mult: 0
  }
  convolution_param {
    num_output: 256
    pad: 1
    kernel_size: 3
    weight_filler {
      type: "xavier"
    }
    bias_filler {
      type: "constant"
      value: 0
    }
  }
}
layer {
  name: "relu3_1"
  type: "ReLU"
  bottom: "conv3_1"
  top: "conv3_1"
}
layer {
  name: "conv3_2"
  type: "Convolution"
  bottom: "conv3_1"
  top: "conv3_2"
  param {
    lr_mult: 1
    decay_mult: 1
  }
  param {
    lr_mult: 2
    decay_mult: 0
  }
  convolution_param {
    num_output: 256
    pad: 1
    kernel_size: 3
    weight_filler {
      type: "xavier"
    }
    bias_filler {
      type: "constant"
      value: 0
    }
  }
}
layer {
  name: "relu3_2"
  type: "ReLU"
  bottom: "conv3_2"
  top: "conv3_2"
}
layer {
  name: "conv3_3"
  type: "Convolution"
  bottom: "conv3_2"
  top: "conv3_3"
  param {
    lr_mult: 1
    decay_mult: 1
  }
  param {
    lr_mult: 2
    decay_mult: 0
  }
  convolution_param {
    num_output: 256
    pad: 1
    kernel_size: 3
    weight_filler {
      type: "xavier"
    }
    bias_filler {
      type: "constant"
      value: 0
    }
  }
}
layer {
  name: "relu3_3"
  type: "ReLU"
  bottom: "conv3_3"
  top: "conv3_3"
}
layer {
  name: "pool3"
  type: "Pooling"
  bottom: "conv3_3"
  top: "pool3"
  pooling_param {
    pool: MAX
    kernel_size: 2
    stride: 2
  }
}
layer {
  name: "conv4_1"
  type: "Convolution"
  bottom: "pool3"
  top: "conv4_1"
  param {
    lr_mult: 1
    decay_mult: 1
  }
  param {
    lr_mult: 2
    decay_mult: 0
  }
  convolution_param {
    num_output: 512
    pad: 1
    kernel_size: 3
    weight_filler {
      type: "xavier"
    }
    bias_filler {
      type: "constant"
      value: 0
    }
  }
}
layer {
  name: "relu4_1"
  type: "ReLU"
  bottom: "conv4_1"
  top: "conv4_1"
}
layer {
  name: "conv4_2"
  type: "Convolution"
  bottom: "conv4_1"
  top: "conv4_2"
  param {
    lr_mult: 1
    decay_mult: 1
  }
  param {
    lr_mult: 2
    decay_mult: 0
  }
  convolution_param {
    num_output: 512
    pad: 1
    kernel_size: 3
    weight_filler {
      type: "xavier"
    }
    bias_filler {
      type: "constant"
      value: 0
    }
  }
}
layer {
  name: "relu4_2"
  type: "ReLU"
  bottom: "conv4_2"
  top: "conv4_2"
}
layer {
  name: "conv4_3"
  type: "Convolution"
  bottom: "conv4_2"
  top: "conv4_3"
  param {
    lr_mult: 1
    decay_mult: 1
  }
  param {
    lr_mult: 2
    decay_mult: 0
  }
  convolution_param {
    num_output: 512
    pad: 1
    kernel_size: 3
    weight_filler {
      type: "xavier"
    }
    bias_filler {
      type: "constant"
      value: 0
    }
  }
}
layer {
  name: "relu4_3"
  type: "ReLU"
  bottom: "conv4_3"
  top: "conv4_3"
}
layer {
  name: "pool4"
  type: "Pooling"
  bottom: "conv4_3"
  top: "pool4"
  pooling_param {
    pool: MAX
    kernel_size: 2
    stride: 2
  }
}
layer {
  name: "conv5_1"
  type: "Convolution"
  bottom: "pool4"
  top: "conv5_1"
  param {
    lr_mult: 1
    decay_mult: 1
  }
  param {
    lr_mult: 2
    decay_mult: 0
  }
  convolution_param {
    num_output: 512
    pad: 1
    kernel_size: 3
    weight_filler {
      type: "xavier"
    }
    bias_filler {
      type: "constant"
      value: 0
    }
    dilation: 1
  }
}
layer {
  name: "relu5_1"
  type: "ReLU"
  bottom: "conv5_1"
  top: "conv5_1"
}
layer {
  name: "conv5_2"
  type: "Convolution"
  bottom: "conv5_1"
  top: "conv5_2"
  param {
    lr_mult: 1
    decay_mult: 1
  }
  param {
    lr_mult: 2
    decay_mult: 0
  }
  convolution_param {
    num_output: 512
    pad: 1
    kernel_size: 3
    weight_filler {
      type: "xavier"
    }
    bias_filler {
      type: "constant"
      value: 0
    }
    dilation: 1
  }
}
layer {
  name: "relu5_2"
  type: "ReLU"
  bottom: "conv5_2"
  top: "conv5_2"
}
layer {
  name: "conv5_3"
  type: "Convolution"
  bottom: "conv5_2"
  top: "conv5_3"
  param {
    lr_mult: 1
    decay_mult: 1
  }
  param {
    lr_mult: 2
    decay_mult: 0
  }
  convolution_param {
    num_output: 512
    pad: 1
    kernel_size: 3
    weight_filler {
      type: "xavier"
    }
    bias_filler {
      type: "constant"
      value: 0
    }
    dilation: 1
  }
}
layer {
  name: "relu5_3"
  type: "ReLU"
  bottom: "conv5_3"
  top: "conv5_3"
}
layer {
  name: "pool5"
  type: "Pooling"
  bottom: "conv5_3"
  top: "pool5"
  pooling_param {
    pool: MAX
    kernel_size: 3
    stride: 1
    pad: 1
  }
}
layer {
  name: "fc6"
  type: "Convolution"
  bottom: "pool5"
  top: "fc6"
  param {
    lr_mult: 1
    decay_mult: 1
  }
  param {
    lr_mult: 2
    decay_mult: 0
  }
  convolution_param {
    num_output: 1024
    pad: 6
    kernel_size: 3
    weight_filler {
      type: "xavier"
    }
    bias_filler {
      type: "constant"
      value: 0
    }
    dilation: 6
  }
}
layer {
  name: "relu6"
  type: "ReLU"
  bottom: "fc6"
  top: "fc6"
}
layer {
  name: "fc7"
  type: "Convolution"
  bottom: "fc6"
  top: "fc7"
  param {
    lr_mult: 1
    decay_mult: 1
  }
  param {
    lr_mult: 2
    decay_mult: 0
  }
  convolution_param {
    num_output: 1024
    kernel_size: 1
    weight_filler {
      type: "xavier"
    }
    bias_filler {
      type: "constant"
      value: 0
    }
  }
}
layer {
  name: "relu7"
  type: "ReLU"
  bottom: "fc7"
  top: "fc7"
}
layer {
  name: "conv6_1"
  type: "Convolution"
  bottom: "fc7"
  top: "conv6_1"
  param {
    lr_mult: 1
    decay_mult: 1
  }
  param {
    lr_mult: 2
    decay_mult: 0
  }
  convolution_param {
    num_output: 256
    pad: 0
    kernel_size: 1
    stride: 1
    weight_filler {
      type: "xavier"
    }
    bias_filler {
      type: "constant"
      value: 0
    }
  }
}
layer {
  name: "conv6_1_relu"
  type: "ReLU"
  bottom: "conv6_1"
  top: "conv6_1"
}
layer {
  name: "conv6_2"
  type: "Convolution"
  bottom: "conv6_1"
  top: "conv6_2"
  param {
    lr_mult: 1
    decay_mult: 1
  }
  param {
    lr_mult: 2
    decay_mult: 0
  }
  convolution_param {
    num_output: 512
    pad: 1
    kernel_size: 3
    stride: 2
    weight_filler {
      type: "xavier"
    }
    bias_filler {
      type: "constant"
      value: 0
    }
  }
}
layer {
  name: "conv6_2_relu"
  type: "ReLU"
  bottom: "conv6_2"
  top: "conv6_2"
}
layer {
  name: "conv7_1"
  type: "Convolution"
  bottom: "conv6_2"
  top: "conv7_1"
  param {
    lr_mult: 1
    decay_mult: 1
  }
  param {
    lr_mult: 2
    decay_mult: 0
  }
  convolution_param {
    num_output: 128
    pad: 0
    kernel_size: 1
    stride: 1
    weight_filler {
      type: "xavier"
    }
    bias_filler {
      type: "constant"
      value: 0
    }
  }
}
layer {
  name: "conv7_1_relu"
  type: "ReLU"
  bottom: "conv7_1"
  top: "conv7_1"
}
layer {
  name: "conv7_2"
  type: "Convolution"
  bottom: "conv7_1"
  top: "conv7_2"
  param {
    lr_mult: 1
    decay_mult: 1
  }
  param {
    lr_mult: 2
    decay_mult: 0
  }
  convolution_param {
    num_output: 256
    pad: 1
    kernel_size: 3
    stride: 2
    weight_filler {
      type: "xavier"
    }
    bias_filler {
      type: "constant"
      value: 0
    }
  }
}
layer {
  name: "conv7_2_relu"
  type: "ReLU"
  bottom: "conv7_2"
  top: "conv7_2"
}
layer {
  name: "conv8_1"
  type: "Convolution"
  bottom: "conv7_2"
  top: "conv8_1"
  param {
    lr_mult: 1
    decay_mult: 1
  }
  param {
    lr_mult: 2
    decay_mult: 0
  }
  convolution_param {
    num_output: 128
    pad: 0
    kernel_size: 1
    stride: 1
    weight_filler {
      type: "xavier"
    }
    bias_filler {
      type: "constant"
      value: 0
    }
  }
}
layer {
  name: "conv8_1_relu"
  type: "ReLU"
  bottom: "conv8_1"
  top: "conv8_1"
}
layer {
  name: "conv8_2"
  type: "Convolution"
  bottom: "conv8_1"
  top: "conv8_2"
  param {
    lr_mult: 1
    decay_mult: 1
  }
  param {
    lr_mult: 2
    decay_mult: 0
  }
  convolution_param {
    num_output: 256
    pad: 0
    kernel_size: 3
    stride: 1
    weight_filler {
      type: "xavier"
    }
    bias_filler {
      type: "constant"
      value: 0
    }
  }
}
layer {
  name: "conv8_2_relu"
  type: "ReLU"
  bottom: "conv8_2"
  top: "conv8_2"
}
layer {
  name: "conv9_1"
  type: "Convolution"
  bottom: "conv8_2"
  top: "conv9_1"
  param {
    lr_mult: 1
    decay_mult: 1
  }
  param {
    lr_mult: 2
    decay_mult: 0
  }
  convolution_param {
    num_output: 128
    pad: 0
    kernel_size: 1
    stride: 1
    weight_filler {
      type: "xavier"
    }
    bias_filler {
      type: "constant"
      value: 0
    }
  }
}
layer {
  name: "conv9_1_relu"
  type: "ReLU"
  bottom: "conv9_1"
  top: "conv9_1"
}
layer {
  name: "conv9_2"
  type: "Convolution"
  bottom: "conv9_1"
  top: "conv9_2"
  param {
    lr_mult: 1
    decay_mult: 1
  }
  param {
    lr_mult: 2
    decay_mult: 0
  }
  convolution_param {
    num_output: 256
    pad: 0
    kernel_size: 3
    stride: 1
    weight_filler {
      type: "xavier"
    }
    bias_filler {
      type: "constant"
      value: 0
    }
  }
}
layer {
  name: "conv9_2_relu"
  type: "ReLU"
  bottom: "conv9_2"
  top: "conv9_2"
}
layer {
  name: "conv4_3_norm"
  type: "Normalize"
  bottom: "conv4_3"
  top: "conv4_3_norm"
  norm_param {
    across_spatial: false
    scale_filler {
      type: "constant"
      value: 20
    }
    channel_shared: false
  }
}
layer {
  name: "conv4_3_norm_mbox_loc"
  type: "Convolution"
  bottom: "conv4_3_norm"
  top: "conv4_3_norm_mbox_loc"
  param {
    lr_mult: 1
    decay_mult: 1
  }
  param {
    lr_mult: 2
    decay_mult: 0
  }
  convolution_param {
    num_output: 16
    pad: 1
    kernel_size: 3
    stride: 1
    weight_filler {
      type: "xavier"
    }
    bias_filler {
      type: "constant"
      value: 0
    }
  }
}
layer {
  name: "conv4_3_norm_mbox_loc_perm"
  type: "Permute"
  bottom: "conv4_3_norm_mbox_loc"
  top: "conv4_3_norm_mbox_loc_perm"
  permute_param {
    order: 0
    order: 2
    order: 3
    order: 1
  }
}
layer {
  name: "conv4_3_norm_mbox_loc_flat"
  type: "Flatten"
  bottom: "conv4_3_norm_mbox_loc_perm"
  top: "conv4_3_norm_mbox_loc_flat"
  flatten_param {
    axis: 1
  }
}
layer {
  name: "conv4_3_norm_mbox_conf"
  type: "Convolution"
  bottom: "conv4_3_norm"
  top: "conv4_3_norm_mbox_conf"
  param {
    lr_mult: 1
    decay_mult: 1
  }
  param {
    lr_mult: 2
    decay_mult: 0
  }
  convolution_param {
    num_output: 8
    pad: 1
    kernel_size: 3
    stride: 1
    weight_filler {
      type: "xavier"
    }
    bias_filler {
      type: "constant"
      value: 0
    }
  }
}
layer {
  name: "conv4_3_norm_mbox_conf_perm"
  type: "Permute"
  bottom: "conv4_3_norm_mbox_conf"
  top: "conv4_3_norm_mbox_conf_perm"
  permute_param {
    order: 0
    order: 2
    order: 3
    order: 1
  }
}
layer {
  name: "conv4_3_norm_mbox_conf_flat"
  type: "Flatten"
  bottom: "conv4_3_norm_mbox_conf_perm"
  top: "conv4_3_norm_mbox_conf_flat"
  flatten_param {
    axis: 1
  }
}
layer {
  name: "conv4_3_norm_mbox_priorbox"
  type: "PriorBox"
  bottom: "conv4_3_norm"
  bottom: "data"
  top: "conv4_3_norm_mbox_priorbox"
  prior_box_param {
    min_size: 30
    max_size: 60
    aspect_ratio: 2
    flip: true
    clip: false
    variance: 0.1
    variance: 0.1
    variance: 0.2
    variance: 0.2
    step: 8
    offset: 0.5
  }
}
layer {
  name: "fc7_mbox_loc"
  type: "Convolution"
  bottom: "fc7"
  top: "fc7_mbox_loc"
  param {
    lr_mult: 1
    decay_mult: 1
  }
  param {
    lr_mult: 2
    decay_mult: 0
  }
  convolution_param {
    num_output: 24
    pad: 1
    kernel_size: 3
    stride: 1
    weight_filler {
      type: "xavier"
    }
    bias_filler {
      type: "constant"
      value: 0
    }
  }
}
layer {
  name: "fc7_mbox_loc_perm"
  type: "Permute"
  bottom: "fc7_mbox_loc"
  top: "fc7_mbox_loc_perm"
  permute_param {
    order: 0
    order: 2
    order: 3
    order: 1
  }
}
layer {
  name: "fc7_mbox_loc_flat"
  type: "Flatten"
  bottom: "fc7_mbox_loc_perm"
  top: "fc7_mbox_loc_flat"
  flatten_param {
    axis: 1
  }
}
layer {
  name: "fc7_mbox_conf"
  type: "Convolution"
  bottom: "fc7"
  top: "fc7_mbox_conf"
  param {
    lr_mult: 1
    decay_mult: 1
  }
  param {
    lr_mult: 2
    decay_mult: 0
  }
  convolution_param {
    num_output: 12
    pad: 1
    kernel_size: 3
    stride: 1
    weight_filler {
      type: "xavier"
    }
    bias_filler {
      type: "constant"
      value: 0
    }
  }
}
layer {
  name: "fc7_mbox_conf_perm"
  type: "Permute"
  bottom: "fc7_mbox_conf"
  top: "fc7_mbox_conf_perm"
  permute_param {
    order: 0
    order: 2
    order: 3
    order: 1
  }
}
layer {
  name: "fc7_mbox_conf_flat"
  type: "Flatten"
  bottom: "fc7_mbox_conf_perm"
  top: "fc7_mbox_conf_flat"
  flatten_param {
    axis: 1
  }
}
layer {
  name: "fc7_mbox_priorbox"
  type: "PriorBox"
  bottom: "fc7"
  bottom: "data"
  top: "fc7_mbox_priorbox"
  prior_box_param {
    min_size: 60
    max_size: 111
    aspect_ratio: 2
    aspect_ratio: 3
    flip: true
    clip: false
    variance: 0.1
    variance: 0.1
    variance: 0.2
    variance: 0.2
    step: 16
    offset: 0.5
  }
}
layer {
  name: "conv6_2_mbox_loc"
  type: "Convolution"
  bottom: "conv6_2"
  top: "conv6_2_mbox_loc"
  param {
    lr_mult: 1
    decay_mult: 1
  }
  param {
    lr_mult: 2
    decay_mult: 0
  }
  convolution_param {
    num_output: 24
    pad: 1
    kernel_size: 3
    stride: 1
    weight_filler {
      type: "xavier"
    }
    bias_filler {
      type: "constant"
      value: 0
    }
  }
}
layer {
  name: "conv6_2_mbox_loc_perm"
  type: "Permute"
  bottom: "conv6_2_mbox_loc"
  top: "conv6_2_mbox_loc_perm"
  permute_param {
    order: 0
    order: 2
    order: 3
    order: 1
  }
}
layer {
  name: "conv6_2_mbox_loc_flat"
  type: "Flatten"
  bottom: "conv6_2_mbox_loc_perm"
  top: "conv6_2_mbox_loc_flat"
  flatten_param {
    axis: 1
  }
}
layer {
  name: "conv6_2_mbox_conf"
  type: "Convolution"
  bottom: "conv6_2"
  top: "conv6_2_mbox_conf"
  param {
    lr_mult: 1
    decay_mult: 1
  }
  param {
    lr_mult: 2
    decay_mult: 0
  }
  convolution_param {
    num_output: 12
    pad: 1
    kernel_size: 3
    stride: 1
    weight_filler {
      type: "xavier"
    }
    bias_filler {
      type: "constant"
      value: 0
    }
  }
}
layer {
  name: "conv6_2_mbox_conf_perm"
  type: "Permute"
  bottom: "conv6_2_mbox_conf"
  top: "conv6_2_mbox_conf_perm"
  permute_param {
    order: 0
    order: 2
    order: 3
    order: 1
  }
}
layer {
  name: "conv6_2_mbox_conf_flat"
  type: "Flatten"
  bottom: "conv6_2_mbox_conf_perm"
  top: "conv6_2_mbox_conf_flat"
  flatten_param {
    axis: 1
  }
}
layer {
  name: "conv6_2_mbox_priorbox"
  type: "PriorBox"
  bottom: "conv6_2"
  bottom: "data"
  top: "conv6_2_mbox_priorbox"
  prior_box_param {
    min_size: 111
    max_size: 162
    aspect_ratio: 2
    aspect_ratio: 3
    flip: true
    clip: false
    variance: 0.1
    variance: 0.1
    variance: 0.2
    variance: 0.2
    step: 32
    offset: 0.5
  }
}
layer {
  name: "conv7_2_mbox_loc"
  type: "Convolution"
  bottom: "conv7_2"
  top: "conv7_2_mbox_loc"
  param {
    lr_mult: 1
    decay_mult: 1
  }
  param {
    lr_mult: 2
    decay_mult: 0
  }
  convolution_param {
    num_output: 24
    pad: 1
    kernel_size: 3
    stride: 1
    weight_filler {
      type: "xavier"
    }
    bias_filler {
      type: "constant"
      value: 0
    }
  }
}
layer {
  name: "conv7_2_mbox_loc_perm"
  type: "Permute"
  bottom: "conv7_2_mbox_loc"
  top: "conv7_2_mbox_loc_perm"
  permute_param {
    order: 0
    order: 2
    order: 3
    order: 1
  }
}
layer {
  name: "conv7_2_mbox_loc_flat"
  type: "Flatten"
  bottom: "conv7_2_mbox_loc_perm"
  top: "conv7_2_mbox_loc_flat"
  flatten_param {
    axis: 1
  }
}
layer {
  name: "conv7_2_mbox_conf"
  type: "Convolution"
  bottom: "conv7_2"
  top: "conv7_2_mbox_conf"
  param {
    lr_mult: 1
    decay_mult: 1
  }
  param {
    lr_mult: 2
    decay_mult: 0
  }
  convolution_param {
    num_output: 12
    pad: 1
    kernel_size: 3
    stride: 1
    weight_filler {
      type: "xavier"
    }
    bias_filler {
      type: "constant"
      value: 0
    }
  }
}
layer {
  name: "conv7_2_mbox_conf_perm"
  type: "Permute"
  bottom: "conv7_2_mbox_conf"
  top: "conv7_2_mbox_conf_perm"
  permute_param {
    order: 0
    order: 2
    order: 3
    order: 1
  }
}
layer {
  name: "conv7_2_mbox_conf_flat"
  type: "Flatten"
  bottom: "conv7_2_mbox_conf_perm"
  top: "conv7_2_mbox_conf_flat"
  flatten_param {
    axis: 1
  }
}
layer {
  name: "conv7_2_mbox_priorbox"
  type: "PriorBox"
  bottom: "conv7_2"
  bottom: "data"
  top: "conv7_2_mbox_priorbox"
  prior_box_param {
    min_size: 162
    max_size: 213
    aspect_ratio: 2
    aspect_ratio: 3
    flip: true
    clip: false
    variance: 0.1
    variance: 0.1
    variance: 0.2
    variance: 0.2
    step: 64
    offset: 0.5
  }
}
layer {
  name: "conv8_2_mbox_loc"
  type: "Convolution"
  bottom: "conv8_2"
  top: "conv8_2_mbox_loc"
  param {
    lr_mult: 1
    decay_mult: 1
  }
  param {
    lr_mult: 2
    decay_mult: 0
  }
  convolution_param {
    num_output: 16
    pad: 1
    kernel_size: 3
    stride: 1
    weight_filler {
      type: "xavier"
    }
    bias_filler {
      type: "constant"
      value: 0
    }
  }
}
layer {
  name: "conv8_2_mbox_loc_perm"
  type: "Permute"
  bottom: "conv8_2_mbox_loc"
  top: "conv8_2_mbox_loc_perm"
  permute_param {
    order: 0
    order: 2
    order: 3
    order: 1
  }
}
layer {
  name: "conv8_2_mbox_loc_flat"
  type: "Flatten"
  bottom: "conv8_2_mbox_loc_perm"
  top: "conv8_2_mbox_loc_flat"
  flatten_param {
    axis: 1
  }
}
layer {
  name: "conv8_2_mbox_conf"
  type: "Convolution"
  bottom: "conv8_2"
  top: "conv8_2_mbox_conf"
  param {
    lr_mult: 1
    decay_mult: 1
  }
  param {
    lr_mult: 2
    decay_mult: 0
  }
  convolution_param {
    num_output: 8
    pad: 1
    kernel_size: 3
    stride: 1
    weight_filler {
      type: "xavier"
    }
    bias_filler {
      type: "constant"
      value: 0
    }
  }
}
layer {
  name: "conv8_2_mbox_conf_perm"
  type: "Permute"
  bottom: "conv8_2_mbox_conf"
  top: "conv8_2_mbox_conf_perm"
  permute_param {
    order: 0
    order: 2
    order: 3
    order: 1
  }
}
layer {
  name: "conv8_2_mbox_conf_flat"
  type: "Flatten"
  bottom: "conv8_2_mbox_conf_perm"
  top: "conv8_2_mbox_conf_flat"
  flatten_param {
    axis: 1
  }
}
layer {
  name: "conv8_2_mbox_priorbox"
  type: "PriorBox"
  bottom: "conv8_2"
  bottom: "data"
  top: "conv8_2_mbox_priorbox"
  prior_box_param {
    min_size: 213
    max_size: 264
    aspect_ratio: 2
    flip: true
    clip: false
    variance: 0.1
    variance: 0.1
    variance: 0.2
    variance: 0.2
    step: 100
    offset: 0.5
  }
}
layer {
  name: "conv9_2_mbox_loc"
  type: "Convolution"
  bottom: "conv9_2"
  top: "conv9_2_mbox_loc"
  param {
    lr_mult: 1
    decay_mult: 1
  }
  param {
    lr_mult: 2
    decay_mult: 0
  }
  convolution_param {
    num_output: 16
    pad: 1
    kernel_size: 3
    stride: 1
    weight_filler {
      type: "xavier"
    }
    bias_filler {
      type: "constant"
      value: 0
    }
  }
}
layer {
  name: "conv9_2_mbox_loc_perm"
  type: "Permute"
  bottom: "conv9_2_mbox_loc"
  top: "conv9_2_mbox_loc_perm"
  permute_param {
    order: 0
    order: 2
    order: 3
    order: 1
  }
}
layer {
  name: "conv9_2_mbox_loc_flat"
  type: "Flatten"
  bottom: "conv9_2_mbox_loc_perm"
  top: "conv9_2_mbox_loc_flat"
  flatten_param {
    axis: 1
  }
}
layer {
  name: "conv9_2_mbox_conf"
  type: "Convolution"
  bottom: "conv9_2"
  top: "conv9_2_mbox_conf"
  param {
    lr_mult: 1
    decay_mult: 1
  }
  param {
    lr_mult: 2
    decay_mult: 0
  }
  convolution_param {
    num_output: 8
    pad: 1
    kernel_size: 3
    stride: 1
    weight_filler {
      type: "xavier"
    }
    bias_filler {
      type: "constant"
      value: 0
    }
  }
}
layer {
  name: "conv9_2_mbox_conf_perm"
  type: "Permute"
  bottom: "conv9_2_mbox_conf"
  top: "conv9_2_mbox_conf_perm"
  permute_param {
    order: 0
    order: 2
    order: 3
    order: 1
  }
}
layer {
  name: "conv9_2_mbox_conf_flat"
  type: "Flatten"
  bottom: "conv9_2_mbox_conf_perm"
  top: "conv9_2_mbox_conf_flat"
  flatten_param {
    axis: 1
  }
}
layer {
  name: "conv9_2_mbox_priorbox"
  type: "PriorBox"
  bottom: "conv9_2"
  bottom: "data"
  top: "conv9_2_mbox_priorbox"
  prior_box_param {
    min_size: 264
    max_size: 315
    aspect_ratio: 2
    flip: true
    clip: false
    variance: 0.1
    variance: 0.1
    variance: 0.2
    variance: 0.2
    step: 300
    offset: 0.5
  }
}
layer {
  name: "mbox_loc"
  type: "Concat"
  bottom: "conv4_3_norm_mbox_loc_flat"
  bottom: "fc7_mbox_loc_flat"
  bottom: "conv6_2_mbox_loc_flat"
  bottom: "conv7_2_mbox_loc_flat"
  bottom: "conv8_2_mbox_loc_flat"
  bottom: "conv9_2_mbox_loc_flat"
  top: "mbox_loc"
  concat_param {
    axis: 1
  }
}
layer {
  name: "mbox_conf"
  type: "Concat"
  bottom: "conv4_3_norm_mbox_conf_flat"
  bottom: "fc7_mbox_conf_flat"
  bottom: "conv6_2_mbox_conf_flat"
  bottom: "conv7_2_mbox_conf_flat"
  bottom: "conv8_2_mbox_conf_flat"
  bottom: "conv9_2_mbox_conf_flat"
  top: "mbox_conf"
  concat_param {
    axis: 1
  }
}
layer {
  name: "mbox_priorbox"
  type: "Concat"
  bottom: "conv4_3_norm_mbox_priorbox"
  bottom: "fc7_mbox_priorbox"
  bottom: "conv6_2_mbox_priorbox"
  bottom: "conv7_2_mbox_priorbox"
  bottom: "conv8_2_mbox_priorbox"
  bottom: "conv9_2_mbox_priorbox"
  top: "mbox_priorbox"
  concat_param {
    axis: 2
  }
}
layer {
  name: "mbox_conf_reshape"
  type: "Reshape"
  bottom: "mbox_conf"
  top: "mbox_conf_reshape"
  reshape_param {
    shape {
      dim: 0
      dim: -1
      dim: 2
    }
  }
}
layer {
  name: "mbox_conf_softmax"
  type: "Softmax"
  bottom: "mbox_conf_reshape"
  top: "mbox_conf_softmax"
  softmax_param {
    axis: 2
  }
}
layer {
  name: "mbox_conf_flatten"
  type: "Flatten"
  bottom: "mbox_conf_softmax"
  top: "mbox_conf_flatten"
  flatten_param {
    axis: 1
  }
}
layer {
  name: "detection_out"
  type: "DetectionOutput"
  bottom: "mbox_loc"
  bottom: "mbox_conf_flatten"
  bottom: "mbox_priorbox"
  top: "detection_out"
  include {
    phase: TEST
  }
  detection_output_param {
    num_classes: 2
    share_location: true
    background_label_id: 0
    nms_param {
      nms_threshold: 0.45
      top_k: 400
    }
    save_output_param {
      output_directory: "/root/mount_out/work2018/cataract_recognition_train_test/detection/diffuse_train_test/training/results/"
      output_name_prefix: "comp4_det_test_"
      output_format: "VOC"
      label_map_file: "/root/mount_out/work2018/cataract_recognition_train_test/detection/diffuse_train_test/labelmap_pupil.prototxt"
      name_size_file: "/root/mount_out/work2018/cataract_recognition_train_test/detection/diffuse_train_test/test_name_size.txt"
      num_test_image: 116
    }
    code_type: CENTER_SIZE
    keep_top_k: 200
    confidence_threshold: 0.01
  }
}
layer {
  name: "detection_eval"
  type: "DetectionEvaluate"
  bottom: "detection_out"
  bottom: "label"
  top: "detection_eval"
  include {
    phase: TEST
  }
  detection_evaluate_param {
    num_classes: 2
    background_label_id: 0
    overlap_threshold: 0.5
    evaluate_difficult_gt: false
    name_size_file: "/root/mount_out/work2018/cataract_recognition_train_test/detection/diffuse_train_test/test_name_size.txt"
  }
}
I1217 03:18:03.383890 12597 layer_factory.hpp:77] Creating layer data
I1217 03:18:03.383976 12597 net.cpp:100] Creating Layer data
I1217 03:18:03.383985 12597 net.cpp:408] data -> data
I1217 03:18:03.384011 12597 net.cpp:408] data -> label
I1217 03:18:03.384889 12613 db_lmdb.cpp:35] Opened lmdb /root/workspace/cataract_detection_lmdb/diffuse_test_lmdb
I1217 03:18:03.458992 12597 annotated_data_layer.cpp:62] output data size: 1,3,500,500
I1217 03:18:03.465833 12597 net.cpp:150] Setting up data
I1217 03:18:03.465876 12597 net.cpp:157] Top shape: 1 3 500 500 (750000)
I1217 03:18:03.465894 12597 net.cpp:157] Top shape: 1 1 1 8 (8)
I1217 03:18:03.465909 12597 net.cpp:165] Memory required for data: 3000032
I1217 03:18:03.465927 12597 layer_factory.hpp:77] Creating layer data_data_0_split
I1217 03:18:03.465950 12597 net.cpp:100] Creating Layer data_data_0_split
I1217 03:18:03.465965 12597 net.cpp:434] data_data_0_split <- data
I1217 03:18:03.465983 12597 net.cpp:408] data_data_0_split -> data_data_0_split_0
I1217 03:18:03.466006 12597 net.cpp:408] data_data_0_split -> data_data_0_split_1
I1217 03:18:03.466024 12597 net.cpp:408] data_data_0_split -> data_data_0_split_2
I1217 03:18:03.466043 12597 net.cpp:408] data_data_0_split -> data_data_0_split_3
I1217 03:18:03.466080 12597 net.cpp:408] data_data_0_split -> data_data_0_split_4
I1217 03:18:03.466100 12597 net.cpp:408] data_data_0_split -> data_data_0_split_5
I1217 03:18:03.466118 12597 net.cpp:408] data_data_0_split -> data_data_0_split_6
I1217 03:18:03.466259 12597 net.cpp:150] Setting up data_data_0_split
I1217 03:18:03.466279 12597 net.cpp:157] Top shape: 1 3 500 500 (750000)
I1217 03:18:03.466293 12597 net.cpp:157] Top shape: 1 3 500 500 (750000)
I1217 03:18:03.466310 12597 net.cpp:157] Top shape: 1 3 500 500 (750000)
I1217 03:18:03.466325 12597 net.cpp:157] Top shape: 1 3 500 500 (750000)
I1217 03:18:03.466338 12597 net.cpp:157] Top shape: 1 3 500 500 (750000)
I1217 03:18:03.466353 12597 net.cpp:157] Top shape: 1 3 500 500 (750000)
I1217 03:18:03.466369 12597 net.cpp:157] Top shape: 1 3 500 500 (750000)
I1217 03:18:03.466383 12597 net.cpp:165] Memory required for data: 24000032
I1217 03:18:03.466398 12597 layer_factory.hpp:77] Creating layer conv1_1
I1217 03:18:03.466420 12597 net.cpp:100] Creating Layer conv1_1
I1217 03:18:03.466435 12597 net.cpp:434] conv1_1 <- data_data_0_split_0
I1217 03:18:03.466452 12597 net.cpp:408] conv1_1 -> conv1_1
I1217 03:18:03.468497 12597 net.cpp:150] Setting up conv1_1
I1217 03:18:03.468509 12597 net.cpp:157] Top shape: 1 64 500 500 (16000000)
I1217 03:18:03.468516 12597 net.cpp:165] Memory required for data: 88000032
I1217 03:18:03.468529 12597 layer_factory.hpp:77] Creating layer relu1_1
I1217 03:18:03.468540 12597 net.cpp:100] Creating Layer relu1_1
I1217 03:18:03.468547 12597 net.cpp:434] relu1_1 <- conv1_1
I1217 03:18:03.468565 12597 net.cpp:395] relu1_1 -> conv1_1 (in-place)
I1217 03:18:03.468739 12597 net.cpp:150] Setting up relu1_1
I1217 03:18:03.468747 12597 net.cpp:157] Top shape: 1 64 500 500 (16000000)
I1217 03:18:03.468752 12597 net.cpp:165] Memory required for data: 152000032
I1217 03:18:03.468758 12597 layer_factory.hpp:77] Creating layer conv1_2
I1217 03:18:03.468772 12597 net.cpp:100] Creating Layer conv1_2
I1217 03:18:03.468778 12597 net.cpp:434] conv1_2 <- conv1_1
I1217 03:18:03.468787 12597 net.cpp:408] conv1_2 -> conv1_2
I1217 03:18:03.470731 12597 net.cpp:150] Setting up conv1_2
I1217 03:18:03.470746 12597 net.cpp:157] Top shape: 1 64 500 500 (16000000)
I1217 03:18:03.470751 12597 net.cpp:165] Memory required for data: 216000032
I1217 03:18:03.470762 12597 layer_factory.hpp:77] Creating layer relu1_2
I1217 03:18:03.470773 12597 net.cpp:100] Creating Layer relu1_2
I1217 03:18:03.470780 12597 net.cpp:434] relu1_2 <- conv1_2
I1217 03:18:03.470789 12597 net.cpp:395] relu1_2 -> conv1_2 (in-place)
I1217 03:18:03.471647 12597 net.cpp:150] Setting up relu1_2
I1217 03:18:03.471669 12597 net.cpp:157] Top shape: 1 64 500 500 (16000000)
I1217 03:18:03.471674 12597 net.cpp:165] Memory required for data: 280000032
I1217 03:18:03.471683 12597 layer_factory.hpp:77] Creating layer pool1
I1217 03:18:03.471696 12597 net.cpp:100] Creating Layer pool1
I1217 03:18:03.471702 12597 net.cpp:434] pool1 <- conv1_2
I1217 03:18:03.471712 12597 net.cpp:408] pool1 -> pool1
I1217 03:18:03.471781 12597 net.cpp:150] Setting up pool1
I1217 03:18:03.471789 12597 net.cpp:157] Top shape: 1 64 250 250 (4000000)
I1217 03:18:03.471794 12597 net.cpp:165] Memory required for data: 296000032
I1217 03:18:03.471801 12597 layer_factory.hpp:77] Creating layer conv2_1
I1217 03:18:03.471815 12597 net.cpp:100] Creating Layer conv2_1
I1217 03:18:03.471822 12597 net.cpp:434] conv2_1 <- pool1
I1217 03:18:03.471829 12597 net.cpp:408] conv2_1 -> conv2_1
I1217 03:18:03.473922 12597 net.cpp:150] Setting up conv2_1
I1217 03:18:03.473948 12597 net.cpp:157] Top shape: 1 128 250 250 (8000000)
I1217 03:18:03.473953 12597 net.cpp:165] Memory required for data: 328000032
I1217 03:18:03.473973 12597 layer_factory.hpp:77] Creating layer relu2_1
I1217 03:18:03.473990 12597 net.cpp:100] Creating Layer relu2_1
I1217 03:18:03.473997 12597 net.cpp:434] relu2_1 <- conv2_1
I1217 03:18:03.474006 12597 net.cpp:395] relu2_1 -> conv2_1 (in-place)
I1217 03:18:03.474208 12597 net.cpp:150] Setting up relu2_1
I1217 03:18:03.474220 12597 net.cpp:157] Top shape: 1 128 250 250 (8000000)
I1217 03:18:03.474247 12597 net.cpp:165] Memory required for data: 360000032
I1217 03:18:03.474254 12597 layer_factory.hpp:77] Creating layer conv2_2
I1217 03:18:03.474269 12597 net.cpp:100] Creating Layer conv2_2
I1217 03:18:03.474277 12597 net.cpp:434] conv2_2 <- conv2_1
I1217 03:18:03.474287 12597 net.cpp:408] conv2_2 -> conv2_2
I1217 03:18:03.476518 12597 net.cpp:150] Setting up conv2_2
I1217 03:18:03.476539 12597 net.cpp:157] Top shape: 1 128 250 250 (8000000)
I1217 03:18:03.476546 12597 net.cpp:165] Memory required for data: 392000032
I1217 03:18:03.476574 12597 layer_factory.hpp:77] Creating layer relu2_2
I1217 03:18:03.476588 12597 net.cpp:100] Creating Layer relu2_2
I1217 03:18:03.476594 12597 net.cpp:434] relu2_2 <- conv2_2
I1217 03:18:03.476605 12597 net.cpp:395] relu2_2 -> conv2_2 (in-place)
I1217 03:18:03.476796 12597 net.cpp:150] Setting up relu2_2
I1217 03:18:03.476807 12597 net.cpp:157] Top shape: 1 128 250 250 (8000000)
I1217 03:18:03.476812 12597 net.cpp:165] Memory required for data: 424000032
I1217 03:18:03.476819 12597 layer_factory.hpp:77] Creating layer pool2
I1217 03:18:03.476830 12597 net.cpp:100] Creating Layer pool2
I1217 03:18:03.476836 12597 net.cpp:434] pool2 <- conv2_2
I1217 03:18:03.476845 12597 net.cpp:408] pool2 -> pool2
I1217 03:18:03.476917 12597 net.cpp:150] Setting up pool2
I1217 03:18:03.476925 12597 net.cpp:157] Top shape: 1 128 125 125 (2000000)
I1217 03:18:03.476932 12597 net.cpp:165] Memory required for data: 432000032
I1217 03:18:03.476938 12597 layer_factory.hpp:77] Creating layer conv3_1
I1217 03:18:03.476953 12597 net.cpp:100] Creating Layer conv3_1
I1217 03:18:03.476958 12597 net.cpp:434] conv3_1 <- pool2
I1217 03:18:03.476967 12597 net.cpp:408] conv3_1 -> conv3_1
I1217 03:18:03.480579 12597 net.cpp:150] Setting up conv3_1
I1217 03:18:03.480602 12597 net.cpp:157] Top shape: 1 256 125 125 (4000000)
I1217 03:18:03.480607 12597 net.cpp:165] Memory required for data: 448000032
I1217 03:18:03.480621 12597 layer_factory.hpp:77] Creating layer relu3_1
I1217 03:18:03.480633 12597 net.cpp:100] Creating Layer relu3_1
I1217 03:18:03.480640 12597 net.cpp:434] relu3_1 <- conv3_1
I1217 03:18:03.480649 12597 net.cpp:395] relu3_1 -> conv3_1 (in-place)
I1217 03:18:03.480814 12597 net.cpp:150] Setting up relu3_1
I1217 03:18:03.480824 12597 net.cpp:157] Top shape: 1 256 125 125 (4000000)
I1217 03:18:03.480831 12597 net.cpp:165] Memory required for data: 464000032
I1217 03:18:03.480839 12597 layer_factory.hpp:77] Creating layer conv3_2
I1217 03:18:03.480850 12597 net.cpp:100] Creating Layer conv3_2
I1217 03:18:03.480856 12597 net.cpp:434] conv3_2 <- conv3_1
I1217 03:18:03.480865 12597 net.cpp:408] conv3_2 -> conv3_2
I1217 03:18:03.485462 12597 net.cpp:150] Setting up conv3_2
I1217 03:18:03.485486 12597 net.cpp:157] Top shape: 1 256 125 125 (4000000)
I1217 03:18:03.485491 12597 net.cpp:165] Memory required for data: 480000032
I1217 03:18:03.485503 12597 layer_factory.hpp:77] Creating layer relu3_2
I1217 03:18:03.485514 12597 net.cpp:100] Creating Layer relu3_2
I1217 03:18:03.485522 12597 net.cpp:434] relu3_2 <- conv3_2
I1217 03:18:03.485532 12597 net.cpp:395] relu3_2 -> conv3_2 (in-place)
I1217 03:18:03.486078 12597 net.cpp:150] Setting up relu3_2
I1217 03:18:03.486093 12597 net.cpp:157] Top shape: 1 256 125 125 (4000000)
I1217 03:18:03.486097 12597 net.cpp:165] Memory required for data: 496000032
I1217 03:18:03.486104 12597 layer_factory.hpp:77] Creating layer conv3_3
I1217 03:18:03.486120 12597 net.cpp:100] Creating Layer conv3_3
I1217 03:18:03.486127 12597 net.cpp:434] conv3_3 <- conv3_2
I1217 03:18:03.486136 12597 net.cpp:408] conv3_3 -> conv3_3
I1217 03:18:03.490845 12597 net.cpp:150] Setting up conv3_3
I1217 03:18:03.490871 12597 net.cpp:157] Top shape: 1 256 125 125 (4000000)
I1217 03:18:03.490876 12597 net.cpp:165] Memory required for data: 512000032
I1217 03:18:03.490888 12597 layer_factory.hpp:77] Creating layer relu3_3
I1217 03:18:03.490900 12597 net.cpp:100] Creating Layer relu3_3
I1217 03:18:03.490908 12597 net.cpp:434] relu3_3 <- conv3_3
I1217 03:18:03.490939 12597 net.cpp:395] relu3_3 -> conv3_3 (in-place)
I1217 03:18:03.491118 12597 net.cpp:150] Setting up relu3_3
I1217 03:18:03.491127 12597 net.cpp:157] Top shape: 1 256 125 125 (4000000)
I1217 03:18:03.491133 12597 net.cpp:165] Memory required for data: 528000032
I1217 03:18:03.491140 12597 layer_factory.hpp:77] Creating layer pool3
I1217 03:18:03.491153 12597 net.cpp:100] Creating Layer pool3
I1217 03:18:03.491158 12597 net.cpp:434] pool3 <- conv3_3
I1217 03:18:03.491168 12597 net.cpp:408] pool3 -> pool3
I1217 03:18:03.491219 12597 net.cpp:150] Setting up pool3
I1217 03:18:03.491227 12597 net.cpp:157] Top shape: 1 256 63 63 (1016064)
I1217 03:18:03.491232 12597 net.cpp:165] Memory required for data: 532064288
I1217 03:18:03.491240 12597 layer_factory.hpp:77] Creating layer conv4_1
I1217 03:18:03.491252 12597 net.cpp:100] Creating Layer conv4_1
I1217 03:18:03.491258 12597 net.cpp:434] conv4_1 <- pool3
I1217 03:18:03.491268 12597 net.cpp:408] conv4_1 -> conv4_1
I1217 03:18:03.499482 12597 net.cpp:150] Setting up conv4_1
I1217 03:18:03.499505 12597 net.cpp:157] Top shape: 1 512 63 63 (2032128)
I1217 03:18:03.499509 12597 net.cpp:165] Memory required for data: 540192800
I1217 03:18:03.499521 12597 layer_factory.hpp:77] Creating layer relu4_1
I1217 03:18:03.499533 12597 net.cpp:100] Creating Layer relu4_1
I1217 03:18:03.499541 12597 net.cpp:434] relu4_1 <- conv4_1
I1217 03:18:03.499552 12597 net.cpp:395] relu4_1 -> conv4_1 (in-place)
I1217 03:18:03.499732 12597 net.cpp:150] Setting up relu4_1
I1217 03:18:03.499742 12597 net.cpp:157] Top shape: 1 512 63 63 (2032128)
I1217 03:18:03.499747 12597 net.cpp:165] Memory required for data: 548321312
I1217 03:18:03.499752 12597 layer_factory.hpp:77] Creating layer conv4_2
I1217 03:18:03.499768 12597 net.cpp:100] Creating Layer conv4_2
I1217 03:18:03.499773 12597 net.cpp:434] conv4_2 <- conv4_1
I1217 03:18:03.499783 12597 net.cpp:408] conv4_2 -> conv4_2
I1217 03:18:03.520022 12597 net.cpp:150] Setting up conv4_2
I1217 03:18:03.520071 12597 net.cpp:157] Top shape: 1 512 63 63 (2032128)
I1217 03:18:03.520087 12597 net.cpp:165] Memory required for data: 556449824
I1217 03:18:03.520112 12597 layer_factory.hpp:77] Creating layer relu4_2
I1217 03:18:03.520131 12597 net.cpp:100] Creating Layer relu4_2
I1217 03:18:03.520148 12597 net.cpp:434] relu4_2 <- conv4_2
I1217 03:18:03.520166 12597 net.cpp:395] relu4_2 -> conv4_2 (in-place)
I1217 03:18:03.520995 12597 net.cpp:150] Setting up relu4_2
I1217 03:18:03.521019 12597 net.cpp:157] Top shape: 1 512 63 63 (2032128)
I1217 03:18:03.521034 12597 net.cpp:165] Memory required for data: 564578336
I1217 03:18:03.521049 12597 layer_factory.hpp:77] Creating layer conv4_3
I1217 03:18:03.521070 12597 net.cpp:100] Creating Layer conv4_3
I1217 03:18:03.521085 12597 net.cpp:434] conv4_3 <- conv4_2
I1217 03:18:03.521104 12597 net.cpp:408] conv4_3 -> conv4_3
I1217 03:18:03.536725 12597 net.cpp:150] Setting up conv4_3
I1217 03:18:03.536754 12597 net.cpp:157] Top shape: 1 512 63 63 (2032128)
I1217 03:18:03.536759 12597 net.cpp:165] Memory required for data: 572706848
I1217 03:18:03.536773 12597 layer_factory.hpp:77] Creating layer relu4_3
I1217 03:18:03.536788 12597 net.cpp:100] Creating Layer relu4_3
I1217 03:18:03.536797 12597 net.cpp:434] relu4_3 <- conv4_3
I1217 03:18:03.536805 12597 net.cpp:395] relu4_3 -> conv4_3 (in-place)
I1217 03:18:03.536978 12597 net.cpp:150] Setting up relu4_3
I1217 03:18:03.536986 12597 net.cpp:157] Top shape: 1 512 63 63 (2032128)
I1217 03:18:03.536993 12597 net.cpp:165] Memory required for data: 580835360
I1217 03:18:03.536998 12597 layer_factory.hpp:77] Creating layer conv4_3_relu4_3_0_split
I1217 03:18:03.537009 12597 net.cpp:100] Creating Layer conv4_3_relu4_3_0_split
I1217 03:18:03.537014 12597 net.cpp:434] conv4_3_relu4_3_0_split <- conv4_3
I1217 03:18:03.537024 12597 net.cpp:408] conv4_3_relu4_3_0_split -> conv4_3_relu4_3_0_split_0
I1217 03:18:03.537034 12597 net.cpp:408] conv4_3_relu4_3_0_split -> conv4_3_relu4_3_0_split_1
I1217 03:18:03.537086 12597 net.cpp:150] Setting up conv4_3_relu4_3_0_split
I1217 03:18:03.537111 12597 net.cpp:157] Top shape: 1 512 63 63 (2032128)
I1217 03:18:03.537118 12597 net.cpp:157] Top shape: 1 512 63 63 (2032128)
I1217 03:18:03.537122 12597 net.cpp:165] Memory required for data: 597092384
I1217 03:18:03.537128 12597 layer_factory.hpp:77] Creating layer pool4
I1217 03:18:03.537139 12597 net.cpp:100] Creating Layer pool4
I1217 03:18:03.537147 12597 net.cpp:434] pool4 <- conv4_3_relu4_3_0_split_0
I1217 03:18:03.537154 12597 net.cpp:408] pool4 -> pool4
I1217 03:18:03.537196 12597 net.cpp:150] Setting up pool4
I1217 03:18:03.537204 12597 net.cpp:157] Top shape: 1 512 32 32 (524288)
I1217 03:18:03.537210 12597 net.cpp:165] Memory required for data: 599189536
I1217 03:18:03.537216 12597 layer_factory.hpp:77] Creating layer conv5_1
I1217 03:18:03.537230 12597 net.cpp:100] Creating Layer conv5_1
I1217 03:18:03.537235 12597 net.cpp:434] conv5_1 <- pool4
I1217 03:18:03.537246 12597 net.cpp:408] conv5_1 -> conv5_1
I1217 03:18:03.557768 12597 net.cpp:150] Setting up conv5_1
I1217 03:18:03.557813 12597 net.cpp:157] Top shape: 1 512 32 32 (524288)
I1217 03:18:03.557829 12597 net.cpp:165] Memory required for data: 601286688
I1217 03:18:03.557849 12597 layer_factory.hpp:77] Creating layer relu5_1
I1217 03:18:03.557870 12597 net.cpp:100] Creating Layer relu5_1
I1217 03:18:03.557886 12597 net.cpp:434] relu5_1 <- conv5_1
I1217 03:18:03.557904 12597 net.cpp:395] relu5_1 -> conv5_1 (in-place)
I1217 03:18:03.558127 12597 net.cpp:150] Setting up relu5_1
I1217 03:18:03.558148 12597 net.cpp:157] Top shape: 1 512 32 32 (524288)
I1217 03:18:03.558162 12597 net.cpp:165] Memory required for data: 603383840
I1217 03:18:03.558177 12597 layer_factory.hpp:77] Creating layer conv5_2
I1217 03:18:03.558199 12597 net.cpp:100] Creating Layer conv5_2
I1217 03:18:03.558215 12597 net.cpp:434] conv5_2 <- conv5_1
I1217 03:18:03.558233 12597 net.cpp:408] conv5_2 -> conv5_2
I1217 03:18:03.576988 12597 net.cpp:150] Setting up conv5_2
I1217 03:18:03.577015 12597 net.cpp:157] Top shape: 1 512 32 32 (524288)
I1217 03:18:03.577037 12597 net.cpp:165] Memory required for data: 605480992
I1217 03:18:03.577050 12597 layer_factory.hpp:77] Creating layer relu5_2
I1217 03:18:03.577064 12597 net.cpp:100] Creating Layer relu5_2
I1217 03:18:03.577085 12597 net.cpp:434] relu5_2 <- conv5_2
I1217 03:18:03.577108 12597 net.cpp:395] relu5_2 -> conv5_2 (in-place)
I1217 03:18:03.578267 12597 net.cpp:150] Setting up relu5_2
I1217 03:18:03.578294 12597 net.cpp:157] Top shape: 1 512 32 32 (524288)
I1217 03:18:03.578315 12597 net.cpp:165] Memory required for data: 607578144
I1217 03:18:03.578326 12597 layer_factory.hpp:77] Creating layer conv5_3
I1217 03:18:03.578361 12597 net.cpp:100] Creating Layer conv5_3
I1217 03:18:03.578369 12597 net.cpp:434] conv5_3 <- conv5_2
I1217 03:18:03.578382 12597 net.cpp:408] conv5_3 -> conv5_3
I1217 03:18:03.601203 12597 net.cpp:150] Setting up conv5_3
I1217 03:18:03.601227 12597 net.cpp:157] Top shape: 1 512 32 32 (524288)
I1217 03:18:03.601231 12597 net.cpp:165] Memory required for data: 609675296
I1217 03:18:03.601271 12597 layer_factory.hpp:77] Creating layer relu5_3
I1217 03:18:03.601290 12597 net.cpp:100] Creating Layer relu5_3
I1217 03:18:03.601299 12597 net.cpp:434] relu5_3 <- conv5_3
I1217 03:18:03.601307 12597 net.cpp:395] relu5_3 -> conv5_3 (in-place)
I1217 03:18:03.601606 12597 net.cpp:150] Setting up relu5_3
I1217 03:18:03.601620 12597 net.cpp:157] Top shape: 1 512 32 32 (524288)
I1217 03:18:03.601627 12597 net.cpp:165] Memory required for data: 611772448
I1217 03:18:03.601649 12597 layer_factory.hpp:77] Creating layer pool5
I1217 03:18:03.601660 12597 net.cpp:100] Creating Layer pool5
I1217 03:18:03.601670 12597 net.cpp:434] pool5 <- conv5_3
I1217 03:18:03.601691 12597 net.cpp:408] pool5 -> pool5
I1217 03:18:03.601781 12597 net.cpp:150] Setting up pool5
I1217 03:18:03.601790 12597 net.cpp:157] Top shape: 1 512 32 32 (524288)
I1217 03:18:03.601795 12597 net.cpp:165] Memory required for data: 613869600
I1217 03:18:03.601800 12597 layer_factory.hpp:77] Creating layer fc6
I1217 03:18:03.601833 12597 net.cpp:100] Creating Layer fc6
I1217 03:18:03.601877 12597 net.cpp:434] fc6 <- pool5
I1217 03:18:03.601904 12597 net.cpp:408] fc6 -> fc6
I1217 03:18:03.642029 12597 net.cpp:150] Setting up fc6
I1217 03:18:03.642050 12597 net.cpp:157] Top shape: 1 1024 32 32 (1048576)
I1217 03:18:03.642055 12597 net.cpp:165] Memory required for data: 618063904
I1217 03:18:03.642066 12597 layer_factory.hpp:77] Creating layer relu6
I1217 03:18:03.642078 12597 net.cpp:100] Creating Layer relu6
I1217 03:18:03.642086 12597 net.cpp:434] relu6 <- fc6
I1217 03:18:03.642094 12597 net.cpp:395] relu6 -> fc6 (in-place)
I1217 03:18:03.642313 12597 net.cpp:150] Setting up relu6
I1217 03:18:03.642323 12597 net.cpp:157] Top shape: 1 1024 32 32 (1048576)
I1217 03:18:03.642328 12597 net.cpp:165] Memory required for data: 622258208
I1217 03:18:03.642333 12597 layer_factory.hpp:77] Creating layer fc7
I1217 03:18:03.642349 12597 net.cpp:100] Creating Layer fc7
I1217 03:18:03.642354 12597 net.cpp:434] fc7 <- fc6
I1217 03:18:03.642362 12597 net.cpp:408] fc7 -> fc7
I1217 03:18:03.649128 12597 net.cpp:150] Setting up fc7
I1217 03:18:03.649147 12597 net.cpp:157] Top shape: 1 1024 32 32 (1048576)
I1217 03:18:03.649152 12597 net.cpp:165] Memory required for data: 626452512
I1217 03:18:03.649161 12597 layer_factory.hpp:77] Creating layer relu7
I1217 03:18:03.649174 12597 net.cpp:100] Creating Layer relu7
I1217 03:18:03.649183 12597 net.cpp:434] relu7 <- fc7
I1217 03:18:03.649193 12597 net.cpp:395] relu7 -> fc7 (in-place)
I1217 03:18:03.649363 12597 net.cpp:150] Setting up relu7
I1217 03:18:03.649372 12597 net.cpp:157] Top shape: 1 1024 32 32 (1048576)
I1217 03:18:03.649380 12597 net.cpp:165] Memory required for data: 630646816
I1217 03:18:03.649386 12597 layer_factory.hpp:77] Creating layer fc7_relu7_0_split
I1217 03:18:03.649396 12597 net.cpp:100] Creating Layer fc7_relu7_0_split
I1217 03:18:03.649402 12597 net.cpp:434] fc7_relu7_0_split <- fc7
I1217 03:18:03.649411 12597 net.cpp:408] fc7_relu7_0_split -> fc7_relu7_0_split_0
I1217 03:18:03.649422 12597 net.cpp:408] fc7_relu7_0_split -> fc7_relu7_0_split_1
I1217 03:18:03.649436 12597 net.cpp:408] fc7_relu7_0_split -> fc7_relu7_0_split_2
I1217 03:18:03.649444 12597 net.cpp:408] fc7_relu7_0_split -> fc7_relu7_0_split_3
I1217 03:18:03.649518 12597 net.cpp:150] Setting up fc7_relu7_0_split
I1217 03:18:03.649525 12597 net.cpp:157] Top shape: 1 1024 32 32 (1048576)
I1217 03:18:03.649533 12597 net.cpp:157] Top shape: 1 1024 32 32 (1048576)
I1217 03:18:03.649540 12597 net.cpp:157] Top shape: 1 1024 32 32 (1048576)
I1217 03:18:03.649547 12597 net.cpp:157] Top shape: 1 1024 32 32 (1048576)
I1217 03:18:03.649554 12597 net.cpp:165] Memory required for data: 647424032
I1217 03:18:03.649560 12597 layer_factory.hpp:77] Creating layer conv6_1
I1217 03:18:03.649574 12597 net.cpp:100] Creating Layer conv6_1
I1217 03:18:03.649579 12597 net.cpp:434] conv6_1 <- fc7_relu7_0_split_0
I1217 03:18:03.649590 12597 net.cpp:408] conv6_1 -> conv6_1
I1217 03:18:03.652437 12597 net.cpp:150] Setting up conv6_1
I1217 03:18:03.652452 12597 net.cpp:157] Top shape: 1 256 32 32 (262144)
I1217 03:18:03.652457 12597 net.cpp:165] Memory required for data: 648472608
I1217 03:18:03.652467 12597 layer_factory.hpp:77] Creating layer conv6_1_relu
I1217 03:18:03.652478 12597 net.cpp:100] Creating Layer conv6_1_relu
I1217 03:18:03.652485 12597 net.cpp:434] conv6_1_relu <- conv6_1
I1217 03:18:03.652495 12597 net.cpp:395] conv6_1_relu -> conv6_1 (in-place)
I1217 03:18:03.653072 12597 net.cpp:150] Setting up conv6_1_relu
I1217 03:18:03.653084 12597 net.cpp:157] Top shape: 1 256 32 32 (262144)
I1217 03:18:03.653090 12597 net.cpp:165] Memory required for data: 649521184
I1217 03:18:03.653097 12597 layer_factory.hpp:77] Creating layer conv6_2
I1217 03:18:03.653110 12597 net.cpp:100] Creating Layer conv6_2
I1217 03:18:03.653116 12597 net.cpp:434] conv6_2 <- conv6_1
I1217 03:18:03.653128 12597 net.cpp:408] conv6_2 -> conv6_2
I1217 03:18:03.660421 12597 net.cpp:150] Setting up conv6_2
I1217 03:18:03.660440 12597 net.cpp:157] Top shape: 1 512 16 16 (131072)
I1217 03:18:03.660446 12597 net.cpp:165] Memory required for data: 650045472
I1217 03:18:03.660480 12597 layer_factory.hpp:77] Creating layer conv6_2_relu
I1217 03:18:03.660493 12597 net.cpp:100] Creating Layer conv6_2_relu
I1217 03:18:03.660501 12597 net.cpp:434] conv6_2_relu <- conv6_2
I1217 03:18:03.660511 12597 net.cpp:395] conv6_2_relu -> conv6_2 (in-place)
I1217 03:18:03.660691 12597 net.cpp:150] Setting up conv6_2_relu
I1217 03:18:03.660701 12597 net.cpp:157] Top shape: 1 512 16 16 (131072)
I1217 03:18:03.660707 12597 net.cpp:165] Memory required for data: 650569760
I1217 03:18:03.660713 12597 layer_factory.hpp:77] Creating layer conv6_2_conv6_2_relu_0_split
I1217 03:18:03.660723 12597 net.cpp:100] Creating Layer conv6_2_conv6_2_relu_0_split
I1217 03:18:03.660729 12597 net.cpp:434] conv6_2_conv6_2_relu_0_split <- conv6_2
I1217 03:18:03.660739 12597 net.cpp:408] conv6_2_conv6_2_relu_0_split -> conv6_2_conv6_2_relu_0_split_0
I1217 03:18:03.660749 12597 net.cpp:408] conv6_2_conv6_2_relu_0_split -> conv6_2_conv6_2_relu_0_split_1
I1217 03:18:03.660759 12597 net.cpp:408] conv6_2_conv6_2_relu_0_split -> conv6_2_conv6_2_relu_0_split_2
I1217 03:18:03.660768 12597 net.cpp:408] conv6_2_conv6_2_relu_0_split -> conv6_2_conv6_2_relu_0_split_3
I1217 03:18:03.660837 12597 net.cpp:150] Setting up conv6_2_conv6_2_relu_0_split
I1217 03:18:03.660847 12597 net.cpp:157] Top shape: 1 512 16 16 (131072)
I1217 03:18:03.660856 12597 net.cpp:157] Top shape: 1 512 16 16 (131072)
I1217 03:18:03.660862 12597 net.cpp:157] Top shape: 1 512 16 16 (131072)
I1217 03:18:03.660869 12597 net.cpp:157] Top shape: 1 512 16 16 (131072)
I1217 03:18:03.660876 12597 net.cpp:165] Memory required for data: 652666912
I1217 03:18:03.660881 12597 layer_factory.hpp:77] Creating layer conv7_1
I1217 03:18:03.660893 12597 net.cpp:100] Creating Layer conv7_1
I1217 03:18:03.660900 12597 net.cpp:434] conv7_1 <- conv6_2_conv6_2_relu_0_split_0
I1217 03:18:03.660909 12597 net.cpp:408] conv7_1 -> conv7_1
I1217 03:18:03.662341 12597 net.cpp:150] Setting up conv7_1
I1217 03:18:03.662353 12597 net.cpp:157] Top shape: 1 128 16 16 (32768)
I1217 03:18:03.662358 12597 net.cpp:165] Memory required for data: 652797984
I1217 03:18:03.662369 12597 layer_factory.hpp:77] Creating layer conv7_1_relu
I1217 03:18:03.662379 12597 net.cpp:100] Creating Layer conv7_1_relu
I1217 03:18:03.662384 12597 net.cpp:434] conv7_1_relu <- conv7_1
I1217 03:18:03.662394 12597 net.cpp:395] conv7_1_relu -> conv7_1 (in-place)
I1217 03:18:03.662552 12597 net.cpp:150] Setting up conv7_1_relu
I1217 03:18:03.662560 12597 net.cpp:157] Top shape: 1 128 16 16 (32768)
I1217 03:18:03.662566 12597 net.cpp:165] Memory required for data: 652929056
I1217 03:18:03.662573 12597 layer_factory.hpp:77] Creating layer conv7_2
I1217 03:18:03.662586 12597 net.cpp:100] Creating Layer conv7_2
I1217 03:18:03.662592 12597 net.cpp:434] conv7_2 <- conv7_1
I1217 03:18:03.662601 12597 net.cpp:408] conv7_2 -> conv7_2
I1217 03:18:03.665618 12597 net.cpp:150] Setting up conv7_2
I1217 03:18:03.665632 12597 net.cpp:157] Top shape: 1 256 8 8 (16384)
I1217 03:18:03.665637 12597 net.cpp:165] Memory required for data: 652994592
I1217 03:18:03.665647 12597 layer_factory.hpp:77] Creating layer conv7_2_relu
I1217 03:18:03.665657 12597 net.cpp:100] Creating Layer conv7_2_relu
I1217 03:18:03.665664 12597 net.cpp:434] conv7_2_relu <- conv7_2
I1217 03:18:03.665673 12597 net.cpp:395] conv7_2_relu -> conv7_2 (in-place)
I1217 03:18:03.666249 12597 net.cpp:150] Setting up conv7_2_relu
I1217 03:18:03.666260 12597 net.cpp:157] Top shape: 1 256 8 8 (16384)
I1217 03:18:03.666265 12597 net.cpp:165] Memory required for data: 653060128
I1217 03:18:03.666272 12597 layer_factory.hpp:77] Creating layer conv7_2_conv7_2_relu_0_split
I1217 03:18:03.666283 12597 net.cpp:100] Creating Layer conv7_2_conv7_2_relu_0_split
I1217 03:18:03.666290 12597 net.cpp:434] conv7_2_conv7_2_relu_0_split <- conv7_2
I1217 03:18:03.666299 12597 net.cpp:408] conv7_2_conv7_2_relu_0_split -> conv7_2_conv7_2_relu_0_split_0
I1217 03:18:03.666311 12597 net.cpp:408] conv7_2_conv7_2_relu_0_split -> conv7_2_conv7_2_relu_0_split_1
I1217 03:18:03.666333 12597 net.cpp:408] conv7_2_conv7_2_relu_0_split -> conv7_2_conv7_2_relu_0_split_2
I1217 03:18:03.666342 12597 net.cpp:408] conv7_2_conv7_2_relu_0_split -> conv7_2_conv7_2_relu_0_split_3
I1217 03:18:03.666419 12597 net.cpp:150] Setting up conv7_2_conv7_2_relu_0_split
I1217 03:18:03.666427 12597 net.cpp:157] Top shape: 1 256 8 8 (16384)
I1217 03:18:03.666435 12597 net.cpp:157] Top shape: 1 256 8 8 (16384)
I1217 03:18:03.666442 12597 net.cpp:157] Top shape: 1 256 8 8 (16384)
I1217 03:18:03.666448 12597 net.cpp:157] Top shape: 1 256 8 8 (16384)
I1217 03:18:03.666455 12597 net.cpp:165] Memory required for data: 653322272
I1217 03:18:03.666461 12597 layer_factory.hpp:77] Creating layer conv8_1
I1217 03:18:03.666476 12597 net.cpp:100] Creating Layer conv8_1
I1217 03:18:03.666481 12597 net.cpp:434] conv8_1 <- conv7_2_conv7_2_relu_0_split_0
I1217 03:18:03.666491 12597 net.cpp:408] conv8_1 -> conv8_1
I1217 03:18:03.667765 12597 net.cpp:150] Setting up conv8_1
I1217 03:18:03.667776 12597 net.cpp:157] Top shape: 1 128 8 8 (8192)
I1217 03:18:03.667781 12597 net.cpp:165] Memory required for data: 653355040
I1217 03:18:03.667793 12597 layer_factory.hpp:77] Creating layer conv8_1_relu
I1217 03:18:03.667803 12597 net.cpp:100] Creating Layer conv8_1_relu
I1217 03:18:03.667809 12597 net.cpp:434] conv8_1_relu <- conv8_1
I1217 03:18:03.667817 12597 net.cpp:395] conv8_1_relu -> conv8_1 (in-place)
I1217 03:18:03.667979 12597 net.cpp:150] Setting up conv8_1_relu
I1217 03:18:03.667986 12597 net.cpp:157] Top shape: 1 128 8 8 (8192)
I1217 03:18:03.667991 12597 net.cpp:165] Memory required for data: 653387808
I1217 03:18:03.667997 12597 layer_factory.hpp:77] Creating layer conv8_2
I1217 03:18:03.668011 12597 net.cpp:100] Creating Layer conv8_2
I1217 03:18:03.668017 12597 net.cpp:434] conv8_2 <- conv8_1
I1217 03:18:03.668026 12597 net.cpp:408] conv8_2 -> conv8_2
I1217 03:18:03.671408 12597 net.cpp:150] Setting up conv8_2
I1217 03:18:03.671422 12597 net.cpp:157] Top shape: 1 256 6 6 (9216)
I1217 03:18:03.671428 12597 net.cpp:165] Memory required for data: 653424672
I1217 03:18:03.671437 12597 layer_factory.hpp:77] Creating layer conv8_2_relu
I1217 03:18:03.671447 12597 net.cpp:100] Creating Layer conv8_2_relu
I1217 03:18:03.671454 12597 net.cpp:434] conv8_2_relu <- conv8_2
I1217 03:18:03.671463 12597 net.cpp:395] conv8_2_relu -> conv8_2 (in-place)
I1217 03:18:03.671636 12597 net.cpp:150] Setting up conv8_2_relu
I1217 03:18:03.671645 12597 net.cpp:157] Top shape: 1 256 6 6 (9216)
I1217 03:18:03.671653 12597 net.cpp:165] Memory required for data: 653461536
I1217 03:18:03.671659 12597 layer_factory.hpp:77] Creating layer conv8_2_conv8_2_relu_0_split
I1217 03:18:03.671669 12597 net.cpp:100] Creating Layer conv8_2_conv8_2_relu_0_split
I1217 03:18:03.671675 12597 net.cpp:434] conv8_2_conv8_2_relu_0_split <- conv8_2
I1217 03:18:03.671685 12597 net.cpp:408] conv8_2_conv8_2_relu_0_split -> conv8_2_conv8_2_relu_0_split_0
I1217 03:18:03.671695 12597 net.cpp:408] conv8_2_conv8_2_relu_0_split -> conv8_2_conv8_2_relu_0_split_1
I1217 03:18:03.671705 12597 net.cpp:408] conv8_2_conv8_2_relu_0_split -> conv8_2_conv8_2_relu_0_split_2
I1217 03:18:03.671713 12597 net.cpp:408] conv8_2_conv8_2_relu_0_split -> conv8_2_conv8_2_relu_0_split_3
I1217 03:18:03.671789 12597 net.cpp:150] Setting up conv8_2_conv8_2_relu_0_split
I1217 03:18:03.671797 12597 net.cpp:157] Top shape: 1 256 6 6 (9216)
I1217 03:18:03.671805 12597 net.cpp:157] Top shape: 1 256 6 6 (9216)
I1217 03:18:03.671811 12597 net.cpp:157] Top shape: 1 256 6 6 (9216)
I1217 03:18:03.671819 12597 net.cpp:157] Top shape: 1 256 6 6 (9216)
I1217 03:18:03.671824 12597 net.cpp:165] Memory required for data: 653608992
I1217 03:18:03.671830 12597 layer_factory.hpp:77] Creating layer conv9_1
I1217 03:18:03.671842 12597 net.cpp:100] Creating Layer conv9_1
I1217 03:18:03.671849 12597 net.cpp:434] conv9_1 <- conv8_2_conv8_2_relu_0_split_0
I1217 03:18:03.671859 12597 net.cpp:408] conv9_1 -> conv9_1
I1217 03:18:03.673180 12597 net.cpp:150] Setting up conv9_1
I1217 03:18:03.673192 12597 net.cpp:157] Top shape: 1 128 6 6 (4608)
I1217 03:18:03.673210 12597 net.cpp:165] Memory required for data: 653627424
I1217 03:18:03.673220 12597 layer_factory.hpp:77] Creating layer conv9_1_relu
I1217 03:18:03.673230 12597 net.cpp:100] Creating Layer conv9_1_relu
I1217 03:18:03.673236 12597 net.cpp:434] conv9_1_relu <- conv9_1
I1217 03:18:03.673244 12597 net.cpp:395] conv9_1_relu -> conv9_1 (in-place)
I1217 03:18:03.673815 12597 net.cpp:150] Setting up conv9_1_relu
I1217 03:18:03.673825 12597 net.cpp:157] Top shape: 1 128 6 6 (4608)
I1217 03:18:03.673830 12597 net.cpp:165] Memory required for data: 653645856
I1217 03:18:03.673836 12597 layer_factory.hpp:77] Creating layer conv9_2
I1217 03:18:03.673851 12597 net.cpp:100] Creating Layer conv9_2
I1217 03:18:03.673857 12597 net.cpp:434] conv9_2 <- conv9_1
I1217 03:18:03.673867 12597 net.cpp:408] conv9_2 -> conv9_2
I1217 03:18:03.677266 12597 net.cpp:150] Setting up conv9_2
I1217 03:18:03.677279 12597 net.cpp:157] Top shape: 1 256 4 4 (4096)
I1217 03:18:03.677285 12597 net.cpp:165] Memory required for data: 653662240
I1217 03:18:03.677294 12597 layer_factory.hpp:77] Creating layer conv9_2_relu
I1217 03:18:03.677306 12597 net.cpp:100] Creating Layer conv9_2_relu
I1217 03:18:03.677312 12597 net.cpp:434] conv9_2_relu <- conv9_2
I1217 03:18:03.677321 12597 net.cpp:395] conv9_2_relu -> conv9_2 (in-place)
I1217 03:18:03.677496 12597 net.cpp:150] Setting up conv9_2_relu
I1217 03:18:03.677505 12597 net.cpp:157] Top shape: 1 256 4 4 (4096)
I1217 03:18:03.677511 12597 net.cpp:165] Memory required for data: 653678624
I1217 03:18:03.677517 12597 layer_factory.hpp:77] Creating layer conv9_2_conv9_2_relu_0_split
I1217 03:18:03.677527 12597 net.cpp:100] Creating Layer conv9_2_conv9_2_relu_0_split
I1217 03:18:03.677533 12597 net.cpp:434] conv9_2_conv9_2_relu_0_split <- conv9_2
I1217 03:18:03.677543 12597 net.cpp:408] conv9_2_conv9_2_relu_0_split -> conv9_2_conv9_2_relu_0_split_0
I1217 03:18:03.677553 12597 net.cpp:408] conv9_2_conv9_2_relu_0_split -> conv9_2_conv9_2_relu_0_split_1
I1217 03:18:03.677562 12597 net.cpp:408] conv9_2_conv9_2_relu_0_split -> conv9_2_conv9_2_relu_0_split_2
I1217 03:18:03.677624 12597 net.cpp:150] Setting up conv9_2_conv9_2_relu_0_split
I1217 03:18:03.677633 12597 net.cpp:157] Top shape: 1 256 4 4 (4096)
I1217 03:18:03.677639 12597 net.cpp:157] Top shape: 1 256 4 4 (4096)
I1217 03:18:03.677645 12597 net.cpp:157] Top shape: 1 256 4 4 (4096)
I1217 03:18:03.677651 12597 net.cpp:165] Memory required for data: 653727776
I1217 03:18:03.677657 12597 layer_factory.hpp:77] Creating layer conv4_3_norm
I1217 03:18:03.677669 12597 net.cpp:100] Creating Layer conv4_3_norm
I1217 03:18:03.677675 12597 net.cpp:434] conv4_3_norm <- conv4_3_relu4_3_0_split_1
I1217 03:18:03.677683 12597 net.cpp:408] conv4_3_norm -> conv4_3_norm
I1217 03:18:03.677850 12597 net.cpp:150] Setting up conv4_3_norm
I1217 03:18:03.677860 12597 net.cpp:157] Top shape: 1 512 63 63 (2032128)
I1217 03:18:03.677865 12597 net.cpp:165] Memory required for data: 661856288
I1217 03:18:03.677873 12597 layer_factory.hpp:77] Creating layer conv4_3_norm_conv4_3_norm_0_split
I1217 03:18:03.677881 12597 net.cpp:100] Creating Layer conv4_3_norm_conv4_3_norm_0_split
I1217 03:18:03.677888 12597 net.cpp:434] conv4_3_norm_conv4_3_norm_0_split <- conv4_3_norm
I1217 03:18:03.677896 12597 net.cpp:408] conv4_3_norm_conv4_3_norm_0_split -> conv4_3_norm_conv4_3_norm_0_split_0
I1217 03:18:03.677906 12597 net.cpp:408] conv4_3_norm_conv4_3_norm_0_split -> conv4_3_norm_conv4_3_norm_0_split_1
I1217 03:18:03.677915 12597 net.cpp:408] conv4_3_norm_conv4_3_norm_0_split -> conv4_3_norm_conv4_3_norm_0_split_2
I1217 03:18:03.677968 12597 net.cpp:150] Setting up conv4_3_norm_conv4_3_norm_0_split
I1217 03:18:03.677976 12597 net.cpp:157] Top shape: 1 512 63 63 (2032128)
I1217 03:18:03.677983 12597 net.cpp:157] Top shape: 1 512 63 63 (2032128)
I1217 03:18:03.677990 12597 net.cpp:157] Top shape: 1 512 63 63 (2032128)
I1217 03:18:03.677996 12597 net.cpp:165] Memory required for data: 686241824
I1217 03:18:03.678002 12597 layer_factory.hpp:77] Creating layer conv4_3_norm_mbox_loc
I1217 03:18:03.678025 12597 net.cpp:100] Creating Layer conv4_3_norm_mbox_loc
I1217 03:18:03.678031 12597 net.cpp:434] conv4_3_norm_mbox_loc <- conv4_3_norm_conv4_3_norm_0_split_0
I1217 03:18:03.678042 12597 net.cpp:408] conv4_3_norm_mbox_loc -> conv4_3_norm_mbox_loc
I1217 03:18:03.679883 12597 net.cpp:150] Setting up conv4_3_norm_mbox_loc
I1217 03:18:03.679893 12597 net.cpp:157] Top shape: 1 16 63 63 (63504)
I1217 03:18:03.679898 12597 net.cpp:165] Memory required for data: 686495840
I1217 03:18:03.679908 12597 layer_factory.hpp:77] Creating layer conv4_3_norm_mbox_loc_perm
I1217 03:18:03.679919 12597 net.cpp:100] Creating Layer conv4_3_norm_mbox_loc_perm
I1217 03:18:03.679925 12597 net.cpp:434] conv4_3_norm_mbox_loc_perm <- conv4_3_norm_mbox_loc
I1217 03:18:03.679934 12597 net.cpp:408] conv4_3_norm_mbox_loc_perm -> conv4_3_norm_mbox_loc_perm
I1217 03:18:03.680050 12597 net.cpp:150] Setting up conv4_3_norm_mbox_loc_perm
I1217 03:18:03.680059 12597 net.cpp:157] Top shape: 1 63 63 16 (63504)
I1217 03:18:03.680064 12597 net.cpp:165] Memory required for data: 686749856
I1217 03:18:03.680070 12597 layer_factory.hpp:77] Creating layer conv4_3_norm_mbox_loc_flat
I1217 03:18:03.680079 12597 net.cpp:100] Creating Layer conv4_3_norm_mbox_loc_flat
I1217 03:18:03.680086 12597 net.cpp:434] conv4_3_norm_mbox_loc_flat <- conv4_3_norm_mbox_loc_perm
I1217 03:18:03.680094 12597 net.cpp:408] conv4_3_norm_mbox_loc_flat -> conv4_3_norm_mbox_loc_flat
I1217 03:18:03.680130 12597 net.cpp:150] Setting up conv4_3_norm_mbox_loc_flat
I1217 03:18:03.680138 12597 net.cpp:157] Top shape: 1 63504 (63504)
I1217 03:18:03.680145 12597 net.cpp:165] Memory required for data: 687003872
I1217 03:18:03.680151 12597 layer_factory.hpp:77] Creating layer conv4_3_norm_mbox_conf
I1217 03:18:03.680167 12597 net.cpp:100] Creating Layer conv4_3_norm_mbox_conf
I1217 03:18:03.680173 12597 net.cpp:434] conv4_3_norm_mbox_conf <- conv4_3_norm_conv4_3_norm_0_split_1
I1217 03:18:03.680183 12597 net.cpp:408] conv4_3_norm_mbox_conf -> conv4_3_norm_mbox_conf
I1217 03:18:03.681895 12597 net.cpp:150] Setting up conv4_3_norm_mbox_conf
I1217 03:18:03.681905 12597 net.cpp:157] Top shape: 1 8 63 63 (31752)
I1217 03:18:03.681911 12597 net.cpp:165] Memory required for data: 687130880
I1217 03:18:03.681923 12597 layer_factory.hpp:77] Creating layer conv4_3_norm_mbox_conf_perm
I1217 03:18:03.681933 12597 net.cpp:100] Creating Layer conv4_3_norm_mbox_conf_perm
I1217 03:18:03.681939 12597 net.cpp:434] conv4_3_norm_mbox_conf_perm <- conv4_3_norm_mbox_conf
I1217 03:18:03.681948 12597 net.cpp:408] conv4_3_norm_mbox_conf_perm -> conv4_3_norm_mbox_conf_perm
I1217 03:18:03.682065 12597 net.cpp:150] Setting up conv4_3_norm_mbox_conf_perm
I1217 03:18:03.682073 12597 net.cpp:157] Top shape: 1 63 63 8 (31752)
I1217 03:18:03.682080 12597 net.cpp:165] Memory required for data: 687257888
I1217 03:18:03.682085 12597 layer_factory.hpp:77] Creating layer conv4_3_norm_mbox_conf_flat
I1217 03:18:03.682094 12597 net.cpp:100] Creating Layer conv4_3_norm_mbox_conf_flat
I1217 03:18:03.682101 12597 net.cpp:434] conv4_3_norm_mbox_conf_flat <- conv4_3_norm_mbox_conf_perm
I1217 03:18:03.682109 12597 net.cpp:408] conv4_3_norm_mbox_conf_flat -> conv4_3_norm_mbox_conf_flat
I1217 03:18:03.682138 12597 net.cpp:150] Setting up conv4_3_norm_mbox_conf_flat
I1217 03:18:03.682145 12597 net.cpp:157] Top shape: 1 31752 (31752)
I1217 03:18:03.682152 12597 net.cpp:165] Memory required for data: 687384896
I1217 03:18:03.682157 12597 layer_factory.hpp:77] Creating layer conv4_3_norm_mbox_priorbox
I1217 03:18:03.682168 12597 net.cpp:100] Creating Layer conv4_3_norm_mbox_priorbox
I1217 03:18:03.682174 12597 net.cpp:434] conv4_3_norm_mbox_priorbox <- conv4_3_norm_conv4_3_norm_0_split_2
I1217 03:18:03.682183 12597 net.cpp:434] conv4_3_norm_mbox_priorbox <- data_data_0_split_1
I1217 03:18:03.682193 12597 net.cpp:408] conv4_3_norm_mbox_priorbox -> conv4_3_norm_mbox_priorbox
I1217 03:18:03.682221 12597 net.cpp:150] Setting up conv4_3_norm_mbox_priorbox
I1217 03:18:03.682229 12597 net.cpp:157] Top shape: 1 2 63504 (127008)
I1217 03:18:03.682245 12597 net.cpp:165] Memory required for data: 687892928
I1217 03:18:03.682250 12597 layer_factory.hpp:77] Creating layer fc7_mbox_loc
I1217 03:18:03.682263 12597 net.cpp:100] Creating Layer fc7_mbox_loc
I1217 03:18:03.682269 12597 net.cpp:434] fc7_mbox_loc <- fc7_relu7_0_split_1
I1217 03:18:03.682279 12597 net.cpp:408] fc7_mbox_loc -> fc7_mbox_loc
I1217 03:18:03.684681 12597 net.cpp:150] Setting up fc7_mbox_loc
I1217 03:18:03.684693 12597 net.cpp:157] Top shape: 1 24 32 32 (24576)
I1217 03:18:03.684698 12597 net.cpp:165] Memory required for data: 687991232
I1217 03:18:03.684708 12597 layer_factory.hpp:77] Creating layer fc7_mbox_loc_perm
I1217 03:18:03.684717 12597 net.cpp:100] Creating Layer fc7_mbox_loc_perm
I1217 03:18:03.684725 12597 net.cpp:434] fc7_mbox_loc_perm <- fc7_mbox_loc
I1217 03:18:03.684734 12597 net.cpp:408] fc7_mbox_loc_perm -> fc7_mbox_loc_perm
I1217 03:18:03.684851 12597 net.cpp:150] Setting up fc7_mbox_loc_perm
I1217 03:18:03.684859 12597 net.cpp:157] Top shape: 1 32 32 24 (24576)
I1217 03:18:03.684864 12597 net.cpp:165] Memory required for data: 688089536
I1217 03:18:03.684870 12597 layer_factory.hpp:77] Creating layer fc7_mbox_loc_flat
I1217 03:18:03.684880 12597 net.cpp:100] Creating Layer fc7_mbox_loc_flat
I1217 03:18:03.684885 12597 net.cpp:434] fc7_mbox_loc_flat <- fc7_mbox_loc_perm
I1217 03:18:03.684895 12597 net.cpp:408] fc7_mbox_loc_flat -> fc7_mbox_loc_flat
I1217 03:18:03.684923 12597 net.cpp:150] Setting up fc7_mbox_loc_flat
I1217 03:18:03.684931 12597 net.cpp:157] Top shape: 1 24576 (24576)
I1217 03:18:03.684937 12597 net.cpp:165] Memory required for data: 688187840
I1217 03:18:03.684943 12597 layer_factory.hpp:77] Creating layer fc7_mbox_conf
I1217 03:18:03.684957 12597 net.cpp:100] Creating Layer fc7_mbox_conf
I1217 03:18:03.684962 12597 net.cpp:434] fc7_mbox_conf <- fc7_relu7_0_split_2
I1217 03:18:03.684973 12597 net.cpp:408] fc7_mbox_conf -> fc7_mbox_conf
I1217 03:18:03.686936 12597 net.cpp:150] Setting up fc7_mbox_conf
I1217 03:18:03.686947 12597 net.cpp:157] Top shape: 1 12 32 32 (12288)
I1217 03:18:03.686952 12597 net.cpp:165] Memory required for data: 688236992
I1217 03:18:03.686962 12597 layer_factory.hpp:77] Creating layer fc7_mbox_conf_perm
I1217 03:18:03.686972 12597 net.cpp:100] Creating Layer fc7_mbox_conf_perm
I1217 03:18:03.686980 12597 net.cpp:434] fc7_mbox_conf_perm <- fc7_mbox_conf
I1217 03:18:03.686988 12597 net.cpp:408] fc7_mbox_conf_perm -> fc7_mbox_conf_perm
I1217 03:18:03.687104 12597 net.cpp:150] Setting up fc7_mbox_conf_perm
I1217 03:18:03.687113 12597 net.cpp:157] Top shape: 1 32 32 12 (12288)
I1217 03:18:03.687119 12597 net.cpp:165] Memory required for data: 688286144
I1217 03:18:03.687125 12597 layer_factory.hpp:77] Creating layer fc7_mbox_conf_flat
I1217 03:18:03.687135 12597 net.cpp:100] Creating Layer fc7_mbox_conf_flat
I1217 03:18:03.687142 12597 net.cpp:434] fc7_mbox_conf_flat <- fc7_mbox_conf_perm
I1217 03:18:03.687150 12597 net.cpp:408] fc7_mbox_conf_flat -> fc7_mbox_conf_flat
I1217 03:18:03.687178 12597 net.cpp:150] Setting up fc7_mbox_conf_flat
I1217 03:18:03.687186 12597 net.cpp:157] Top shape: 1 12288 (12288)
I1217 03:18:03.687192 12597 net.cpp:165] Memory required for data: 688335296
I1217 03:18:03.687197 12597 layer_factory.hpp:77] Creating layer fc7_mbox_priorbox
I1217 03:18:03.687208 12597 net.cpp:100] Creating Layer fc7_mbox_priorbox
I1217 03:18:03.687214 12597 net.cpp:434] fc7_mbox_priorbox <- fc7_relu7_0_split_3
I1217 03:18:03.687222 12597 net.cpp:434] fc7_mbox_priorbox <- data_data_0_split_2
I1217 03:18:03.687232 12597 net.cpp:408] fc7_mbox_priorbox -> fc7_mbox_priorbox
I1217 03:18:03.687261 12597 net.cpp:150] Setting up fc7_mbox_priorbox
I1217 03:18:03.687268 12597 net.cpp:157] Top shape: 1 2 24576 (49152)
I1217 03:18:03.687275 12597 net.cpp:165] Memory required for data: 688531904
I1217 03:18:03.687281 12597 layer_factory.hpp:77] Creating layer conv6_2_mbox_loc
I1217 03:18:03.687294 12597 net.cpp:100] Creating Layer conv6_2_mbox_loc
I1217 03:18:03.687299 12597 net.cpp:434] conv6_2_mbox_loc <- conv6_2_conv6_2_relu_0_split_1
I1217 03:18:03.687320 12597 net.cpp:408] conv6_2_mbox_loc -> conv6_2_mbox_loc
I1217 03:18:03.689318 12597 net.cpp:150] Setting up conv6_2_mbox_loc
I1217 03:18:03.689329 12597 net.cpp:157] Top shape: 1 24 16 16 (6144)
I1217 03:18:03.689335 12597 net.cpp:165] Memory required for data: 688556480
I1217 03:18:03.689344 12597 layer_factory.hpp:77] Creating layer conv6_2_mbox_loc_perm
I1217 03:18:03.689355 12597 net.cpp:100] Creating Layer conv6_2_mbox_loc_perm
I1217 03:18:03.689363 12597 net.cpp:434] conv6_2_mbox_loc_perm <- conv6_2_mbox_loc
I1217 03:18:03.689371 12597 net.cpp:408] conv6_2_mbox_loc_perm -> conv6_2_mbox_loc_perm
I1217 03:18:03.689483 12597 net.cpp:150] Setting up conv6_2_mbox_loc_perm
I1217 03:18:03.689491 12597 net.cpp:157] Top shape: 1 16 16 24 (6144)
I1217 03:18:03.689498 12597 net.cpp:165] Memory required for data: 688581056
I1217 03:18:03.689504 12597 layer_factory.hpp:77] Creating layer conv6_2_mbox_loc_flat
I1217 03:18:03.689513 12597 net.cpp:100] Creating Layer conv6_2_mbox_loc_flat
I1217 03:18:03.689520 12597 net.cpp:434] conv6_2_mbox_loc_flat <- conv6_2_mbox_loc_perm
I1217 03:18:03.689529 12597 net.cpp:408] conv6_2_mbox_loc_flat -> conv6_2_mbox_loc_flat
I1217 03:18:03.689558 12597 net.cpp:150] Setting up conv6_2_mbox_loc_flat
I1217 03:18:03.689565 12597 net.cpp:157] Top shape: 1 6144 (6144)
I1217 03:18:03.689570 12597 net.cpp:165] Memory required for data: 688605632
I1217 03:18:03.689576 12597 layer_factory.hpp:77] Creating layer conv6_2_mbox_conf
I1217 03:18:03.689589 12597 net.cpp:100] Creating Layer conv6_2_mbox_conf
I1217 03:18:03.689595 12597 net.cpp:434] conv6_2_mbox_conf <- conv6_2_conv6_2_relu_0_split_2
I1217 03:18:03.689606 12597 net.cpp:408] conv6_2_mbox_conf -> conv6_2_mbox_conf
I1217 03:18:03.691385 12597 net.cpp:150] Setting up conv6_2_mbox_conf
I1217 03:18:03.691396 12597 net.cpp:157] Top shape: 1 12 16 16 (3072)
I1217 03:18:03.691402 12597 net.cpp:165] Memory required for data: 688617920
I1217 03:18:03.691413 12597 layer_factory.hpp:77] Creating layer conv6_2_mbox_conf_perm
I1217 03:18:03.691422 12597 net.cpp:100] Creating Layer conv6_2_mbox_conf_perm
I1217 03:18:03.691428 12597 net.cpp:434] conv6_2_mbox_conf_perm <- conv6_2_mbox_conf
I1217 03:18:03.691439 12597 net.cpp:408] conv6_2_mbox_conf_perm -> conv6_2_mbox_conf_perm
I1217 03:18:03.691555 12597 net.cpp:150] Setting up conv6_2_mbox_conf_perm
I1217 03:18:03.691562 12597 net.cpp:157] Top shape: 1 16 16 12 (3072)
I1217 03:18:03.691567 12597 net.cpp:165] Memory required for data: 688630208
I1217 03:18:03.691573 12597 layer_factory.hpp:77] Creating layer conv6_2_mbox_conf_flat
I1217 03:18:03.691583 12597 net.cpp:100] Creating Layer conv6_2_mbox_conf_flat
I1217 03:18:03.691589 12597 net.cpp:434] conv6_2_mbox_conf_flat <- conv6_2_mbox_conf_perm
I1217 03:18:03.691598 12597 net.cpp:408] conv6_2_mbox_conf_flat -> conv6_2_mbox_conf_flat
I1217 03:18:03.691625 12597 net.cpp:150] Setting up conv6_2_mbox_conf_flat
I1217 03:18:03.691633 12597 net.cpp:157] Top shape: 1 3072 (3072)
I1217 03:18:03.691639 12597 net.cpp:165] Memory required for data: 688642496
I1217 03:18:03.691645 12597 layer_factory.hpp:77] Creating layer conv6_2_mbox_priorbox
I1217 03:18:03.691656 12597 net.cpp:100] Creating Layer conv6_2_mbox_priorbox
I1217 03:18:03.691663 12597 net.cpp:434] conv6_2_mbox_priorbox <- conv6_2_conv6_2_relu_0_split_3
I1217 03:18:03.691670 12597 net.cpp:434] conv6_2_mbox_priorbox <- data_data_0_split_3
I1217 03:18:03.691682 12597 net.cpp:408] conv6_2_mbox_priorbox -> conv6_2_mbox_priorbox
I1217 03:18:03.691711 12597 net.cpp:150] Setting up conv6_2_mbox_priorbox
I1217 03:18:03.691720 12597 net.cpp:157] Top shape: 1 2 6144 (12288)
I1217 03:18:03.691725 12597 net.cpp:165] Memory required for data: 688691648
I1217 03:18:03.691731 12597 layer_factory.hpp:77] Creating layer conv7_2_mbox_loc
I1217 03:18:03.691745 12597 net.cpp:100] Creating Layer conv7_2_mbox_loc
I1217 03:18:03.691751 12597 net.cpp:434] conv7_2_mbox_loc <- conv7_2_conv7_2_relu_0_split_1
I1217 03:18:03.691761 12597 net.cpp:408] conv7_2_mbox_loc -> conv7_2_mbox_loc
I1217 03:18:03.693570 12597 net.cpp:150] Setting up conv7_2_mbox_loc
I1217 03:18:03.693593 12597 net.cpp:157] Top shape: 1 24 8 8 (1536)
I1217 03:18:03.693598 12597 net.cpp:165] Memory required for data: 688697792
I1217 03:18:03.693609 12597 layer_factory.hpp:77] Creating layer conv7_2_mbox_loc_perm
I1217 03:18:03.693619 12597 net.cpp:100] Creating Layer conv7_2_mbox_loc_perm
I1217 03:18:03.693626 12597 net.cpp:434] conv7_2_mbox_loc_perm <- conv7_2_mbox_loc
I1217 03:18:03.693636 12597 net.cpp:408] conv7_2_mbox_loc_perm -> conv7_2_mbox_loc_perm
I1217 03:18:03.693754 12597 net.cpp:150] Setting up conv7_2_mbox_loc_perm
I1217 03:18:03.693763 12597 net.cpp:157] Top shape: 1 8 8 24 (1536)
I1217 03:18:03.693768 12597 net.cpp:165] Memory required for data: 688703936
I1217 03:18:03.693775 12597 layer_factory.hpp:77] Creating layer conv7_2_mbox_loc_flat
I1217 03:18:03.693784 12597 net.cpp:100] Creating Layer conv7_2_mbox_loc_flat
I1217 03:18:03.693790 12597 net.cpp:434] conv7_2_mbox_loc_flat <- conv7_2_mbox_loc_perm
I1217 03:18:03.693799 12597 net.cpp:408] conv7_2_mbox_loc_flat -> conv7_2_mbox_loc_flat
I1217 03:18:03.693827 12597 net.cpp:150] Setting up conv7_2_mbox_loc_flat
I1217 03:18:03.693835 12597 net.cpp:157] Top shape: 1 1536 (1536)
I1217 03:18:03.693840 12597 net.cpp:165] Memory required for data: 688710080
I1217 03:18:03.693846 12597 layer_factory.hpp:77] Creating layer conv7_2_mbox_conf
I1217 03:18:03.693859 12597 net.cpp:100] Creating Layer conv7_2_mbox_conf
I1217 03:18:03.693866 12597 net.cpp:434] conv7_2_mbox_conf <- conv7_2_conv7_2_relu_0_split_2
I1217 03:18:03.693874 12597 net.cpp:408] conv7_2_mbox_conf -> conv7_2_mbox_conf
I1217 03:18:03.695567 12597 net.cpp:150] Setting up conv7_2_mbox_conf
I1217 03:18:03.695580 12597 net.cpp:157] Top shape: 1 12 8 8 (768)
I1217 03:18:03.695585 12597 net.cpp:165] Memory required for data: 688713152
I1217 03:18:03.695593 12597 layer_factory.hpp:77] Creating layer conv7_2_mbox_conf_perm
I1217 03:18:03.695603 12597 net.cpp:100] Creating Layer conv7_2_mbox_conf_perm
I1217 03:18:03.695611 12597 net.cpp:434] conv7_2_mbox_conf_perm <- conv7_2_mbox_conf
I1217 03:18:03.695619 12597 net.cpp:408] conv7_2_mbox_conf_perm -> conv7_2_mbox_conf_perm
I1217 03:18:03.695737 12597 net.cpp:150] Setting up conv7_2_mbox_conf_perm
I1217 03:18:03.695745 12597 net.cpp:157] Top shape: 1 8 8 12 (768)
I1217 03:18:03.695751 12597 net.cpp:165] Memory required for data: 688716224
I1217 03:18:03.695758 12597 layer_factory.hpp:77] Creating layer conv7_2_mbox_conf_flat
I1217 03:18:03.695767 12597 net.cpp:100] Creating Layer conv7_2_mbox_conf_flat
I1217 03:18:03.695773 12597 net.cpp:434] conv7_2_mbox_conf_flat <- conv7_2_mbox_conf_perm
I1217 03:18:03.695783 12597 net.cpp:408] conv7_2_mbox_conf_flat -> conv7_2_mbox_conf_flat
I1217 03:18:03.695811 12597 net.cpp:150] Setting up conv7_2_mbox_conf_flat
I1217 03:18:03.695818 12597 net.cpp:157] Top shape: 1 768 (768)
I1217 03:18:03.695824 12597 net.cpp:165] Memory required for data: 688719296
I1217 03:18:03.695830 12597 layer_factory.hpp:77] Creating layer conv7_2_mbox_priorbox
I1217 03:18:03.695840 12597 net.cpp:100] Creating Layer conv7_2_mbox_priorbox
I1217 03:18:03.695847 12597 net.cpp:434] conv7_2_mbox_priorbox <- conv7_2_conv7_2_relu_0_split_3
I1217 03:18:03.695854 12597 net.cpp:434] conv7_2_mbox_priorbox <- data_data_0_split_4
I1217 03:18:03.695864 12597 net.cpp:408] conv7_2_mbox_priorbox -> conv7_2_mbox_priorbox
I1217 03:18:03.695894 12597 net.cpp:150] Setting up conv7_2_mbox_priorbox
I1217 03:18:03.695900 12597 net.cpp:157] Top shape: 1 2 1536 (3072)
I1217 03:18:03.695905 12597 net.cpp:165] Memory required for data: 688731584
I1217 03:18:03.695911 12597 layer_factory.hpp:77] Creating layer conv8_2_mbox_loc
I1217 03:18:03.695925 12597 net.cpp:100] Creating Layer conv8_2_mbox_loc
I1217 03:18:03.695930 12597 net.cpp:434] conv8_2_mbox_loc <- conv8_2_conv8_2_relu_0_split_1
I1217 03:18:03.695940 12597 net.cpp:408] conv8_2_mbox_loc -> conv8_2_mbox_loc
I1217 03:18:03.698426 12597 net.cpp:150] Setting up conv8_2_mbox_loc
I1217 03:18:03.698441 12597 net.cpp:157] Top shape: 1 16 6 6 (576)
I1217 03:18:03.698459 12597 net.cpp:165] Memory required for data: 688733888
I1217 03:18:03.698477 12597 layer_factory.hpp:77] Creating layer conv8_2_mbox_loc_perm
I1217 03:18:03.698489 12597 net.cpp:100] Creating Layer conv8_2_mbox_loc_perm
I1217 03:18:03.698496 12597 net.cpp:434] conv8_2_mbox_loc_perm <- conv8_2_mbox_loc
I1217 03:18:03.698506 12597 net.cpp:408] conv8_2_mbox_loc_perm -> conv8_2_mbox_loc_perm
I1217 03:18:03.698622 12597 net.cpp:150] Setting up conv8_2_mbox_loc_perm
I1217 03:18:03.698629 12597 net.cpp:157] Top shape: 1 6 6 16 (576)
I1217 03:18:03.698637 12597 net.cpp:165] Memory required for data: 688736192
I1217 03:18:03.698642 12597 layer_factory.hpp:77] Creating layer conv8_2_mbox_loc_flat
I1217 03:18:03.698653 12597 net.cpp:100] Creating Layer conv8_2_mbox_loc_flat
I1217 03:18:03.698659 12597 net.cpp:434] conv8_2_mbox_loc_flat <- conv8_2_mbox_loc_perm
I1217 03:18:03.698668 12597 net.cpp:408] conv8_2_mbox_loc_flat -> conv8_2_mbox_loc_flat
I1217 03:18:03.698698 12597 net.cpp:150] Setting up conv8_2_mbox_loc_flat
I1217 03:18:03.698705 12597 net.cpp:157] Top shape: 1 576 (576)
I1217 03:18:03.698710 12597 net.cpp:165] Memory required for data: 688738496
I1217 03:18:03.698716 12597 layer_factory.hpp:77] Creating layer conv8_2_mbox_conf
I1217 03:18:03.698729 12597 net.cpp:100] Creating Layer conv8_2_mbox_conf
I1217 03:18:03.698735 12597 net.cpp:434] conv8_2_mbox_conf <- conv8_2_conv8_2_relu_0_split_2
I1217 03:18:03.698745 12597 net.cpp:408] conv8_2_mbox_conf -> conv8_2_mbox_conf
I1217 03:18:03.700028 12597 net.cpp:150] Setting up conv8_2_mbox_conf
I1217 03:18:03.700040 12597 net.cpp:157] Top shape: 1 8 6 6 (288)
I1217 03:18:03.700045 12597 net.cpp:165] Memory required for data: 688739648
I1217 03:18:03.700053 12597 layer_factory.hpp:77] Creating layer conv8_2_mbox_conf_perm
I1217 03:18:03.700063 12597 net.cpp:100] Creating Layer conv8_2_mbox_conf_perm
I1217 03:18:03.700070 12597 net.cpp:434] conv8_2_mbox_conf_perm <- conv8_2_mbox_conf
I1217 03:18:03.700079 12597 net.cpp:408] conv8_2_mbox_conf_perm -> conv8_2_mbox_conf_perm
I1217 03:18:03.700191 12597 net.cpp:150] Setting up conv8_2_mbox_conf_perm
I1217 03:18:03.700199 12597 net.cpp:157] Top shape: 1 6 6 8 (288)
I1217 03:18:03.700206 12597 net.cpp:165] Memory required for data: 688740800
I1217 03:18:03.700212 12597 layer_factory.hpp:77] Creating layer conv8_2_mbox_conf_flat
I1217 03:18:03.700220 12597 net.cpp:100] Creating Layer conv8_2_mbox_conf_flat
I1217 03:18:03.700227 12597 net.cpp:434] conv8_2_mbox_conf_flat <- conv8_2_mbox_conf_perm
I1217 03:18:03.700237 12597 net.cpp:408] conv8_2_mbox_conf_flat -> conv8_2_mbox_conf_flat
I1217 03:18:03.700265 12597 net.cpp:150] Setting up conv8_2_mbox_conf_flat
I1217 03:18:03.700273 12597 net.cpp:157] Top shape: 1 288 (288)
I1217 03:18:03.700279 12597 net.cpp:165] Memory required for data: 688741952
I1217 03:18:03.700285 12597 layer_factory.hpp:77] Creating layer conv8_2_mbox_priorbox
I1217 03:18:03.700294 12597 net.cpp:100] Creating Layer conv8_2_mbox_priorbox
I1217 03:18:03.700302 12597 net.cpp:434] conv8_2_mbox_priorbox <- conv8_2_conv8_2_relu_0_split_3
I1217 03:18:03.700310 12597 net.cpp:434] conv8_2_mbox_priorbox <- data_data_0_split_5
I1217 03:18:03.700320 12597 net.cpp:408] conv8_2_mbox_priorbox -> conv8_2_mbox_priorbox
I1217 03:18:03.700350 12597 net.cpp:150] Setting up conv8_2_mbox_priorbox
I1217 03:18:03.700357 12597 net.cpp:157] Top shape: 1 2 576 (1152)
I1217 03:18:03.700363 12597 net.cpp:165] Memory required for data: 688746560
I1217 03:18:03.700369 12597 layer_factory.hpp:77] Creating layer conv9_2_mbox_loc
I1217 03:18:03.700382 12597 net.cpp:100] Creating Layer conv9_2_mbox_loc
I1217 03:18:03.700388 12597 net.cpp:434] conv9_2_mbox_loc <- conv9_2_conv9_2_relu_0_split_0
I1217 03:18:03.700398 12597 net.cpp:408] conv9_2_mbox_loc -> conv9_2_mbox_loc
I1217 03:18:03.701723 12597 net.cpp:150] Setting up conv9_2_mbox_loc
I1217 03:18:03.701735 12597 net.cpp:157] Top shape: 1 16 4 4 (256)
I1217 03:18:03.701740 12597 net.cpp:165] Memory required for data: 688747584
I1217 03:18:03.701748 12597 layer_factory.hpp:77] Creating layer conv9_2_mbox_loc_perm
I1217 03:18:03.701767 12597 net.cpp:100] Creating Layer conv9_2_mbox_loc_perm
I1217 03:18:03.701774 12597 net.cpp:434] conv9_2_mbox_loc_perm <- conv9_2_mbox_loc
I1217 03:18:03.701786 12597 net.cpp:408] conv9_2_mbox_loc_perm -> conv9_2_mbox_loc_perm
I1217 03:18:03.701900 12597 net.cpp:150] Setting up conv9_2_mbox_loc_perm
I1217 03:18:03.701908 12597 net.cpp:157] Top shape: 1 4 4 16 (256)
I1217 03:18:03.701913 12597 net.cpp:165] Memory required for data: 688748608
I1217 03:18:03.701920 12597 layer_factory.hpp:77] Creating layer conv9_2_mbox_loc_flat
I1217 03:18:03.701930 12597 net.cpp:100] Creating Layer conv9_2_mbox_loc_flat
I1217 03:18:03.701936 12597 net.cpp:434] conv9_2_mbox_loc_flat <- conv9_2_mbox_loc_perm
I1217 03:18:03.701946 12597 net.cpp:408] conv9_2_mbox_loc_flat -> conv9_2_mbox_loc_flat
I1217 03:18:03.701973 12597 net.cpp:150] Setting up conv9_2_mbox_loc_flat
I1217 03:18:03.701980 12597 net.cpp:157] Top shape: 1 256 (256)
I1217 03:18:03.701985 12597 net.cpp:165] Memory required for data: 688749632
I1217 03:18:03.701992 12597 layer_factory.hpp:77] Creating layer conv9_2_mbox_conf
I1217 03:18:03.702005 12597 net.cpp:100] Creating Layer conv9_2_mbox_conf
I1217 03:18:03.702010 12597 net.cpp:434] conv9_2_mbox_conf <- conv9_2_conv9_2_relu_0_split_1
I1217 03:18:03.702021 12597 net.cpp:408] conv9_2_mbox_conf -> conv9_2_mbox_conf
I1217 03:18:03.703259 12597 net.cpp:150] Setting up conv9_2_mbox_conf
I1217 03:18:03.703270 12597 net.cpp:157] Top shape: 1 8 4 4 (128)
I1217 03:18:03.703276 12597 net.cpp:165] Memory required for data: 688750144
I1217 03:18:03.703286 12597 layer_factory.hpp:77] Creating layer conv9_2_mbox_conf_perm
I1217 03:18:03.703295 12597 net.cpp:100] Creating Layer conv9_2_mbox_conf_perm
I1217 03:18:03.703302 12597 net.cpp:434] conv9_2_mbox_conf_perm <- conv9_2_mbox_conf
I1217 03:18:03.703312 12597 net.cpp:408] conv9_2_mbox_conf_perm -> conv9_2_mbox_conf_perm
I1217 03:18:03.703425 12597 net.cpp:150] Setting up conv9_2_mbox_conf_perm
I1217 03:18:03.703433 12597 net.cpp:157] Top shape: 1 4 4 8 (128)
I1217 03:18:03.703438 12597 net.cpp:165] Memory required for data: 688750656
I1217 03:18:03.703444 12597 layer_factory.hpp:77] Creating layer conv9_2_mbox_conf_flat
I1217 03:18:03.703454 12597 net.cpp:100] Creating Layer conv9_2_mbox_conf_flat
I1217 03:18:03.703460 12597 net.cpp:434] conv9_2_mbox_conf_flat <- conv9_2_mbox_conf_perm
I1217 03:18:03.703470 12597 net.cpp:408] conv9_2_mbox_conf_flat -> conv9_2_mbox_conf_flat
I1217 03:18:03.703497 12597 net.cpp:150] Setting up conv9_2_mbox_conf_flat
I1217 03:18:03.703505 12597 net.cpp:157] Top shape: 1 128 (128)
I1217 03:18:03.703511 12597 net.cpp:165] Memory required for data: 688751168
I1217 03:18:03.703517 12597 layer_factory.hpp:77] Creating layer conv9_2_mbox_priorbox
I1217 03:18:03.703526 12597 net.cpp:100] Creating Layer conv9_2_mbox_priorbox
I1217 03:18:03.703533 12597 net.cpp:434] conv9_2_mbox_priorbox <- conv9_2_conv9_2_relu_0_split_2
I1217 03:18:03.703541 12597 net.cpp:434] conv9_2_mbox_priorbox <- data_data_0_split_6
I1217 03:18:03.703552 12597 net.cpp:408] conv9_2_mbox_priorbox -> conv9_2_mbox_priorbox
I1217 03:18:03.703579 12597 net.cpp:150] Setting up conv9_2_mbox_priorbox
I1217 03:18:03.703588 12597 net.cpp:157] Top shape: 1 2 256 (512)
I1217 03:18:03.703593 12597 net.cpp:165] Memory required for data: 688753216
I1217 03:18:03.703599 12597 layer_factory.hpp:77] Creating layer mbox_loc
I1217 03:18:03.703609 12597 net.cpp:100] Creating Layer mbox_loc
I1217 03:18:03.703615 12597 net.cpp:434] mbox_loc <- conv4_3_norm_mbox_loc_flat
I1217 03:18:03.703624 12597 net.cpp:434] mbox_loc <- fc7_mbox_loc_flat
I1217 03:18:03.703632 12597 net.cpp:434] mbox_loc <- conv6_2_mbox_loc_flat
I1217 03:18:03.703639 12597 net.cpp:434] mbox_loc <- conv7_2_mbox_loc_flat
I1217 03:18:03.703646 12597 net.cpp:434] mbox_loc <- conv8_2_mbox_loc_flat
I1217 03:18:03.703653 12597 net.cpp:434] mbox_loc <- conv9_2_mbox_loc_flat
I1217 03:18:03.703663 12597 net.cpp:408] mbox_loc -> mbox_loc
I1217 03:18:03.703692 12597 net.cpp:150] Setting up mbox_loc
I1217 03:18:03.703699 12597 net.cpp:157] Top shape: 1 96592 (96592)
I1217 03:18:03.703713 12597 net.cpp:165] Memory required for data: 689139584
I1217 03:18:03.703719 12597 layer_factory.hpp:77] Creating layer mbox_conf
I1217 03:18:03.703729 12597 net.cpp:100] Creating Layer mbox_conf
I1217 03:18:03.703735 12597 net.cpp:434] mbox_conf <- conv4_3_norm_mbox_conf_flat
I1217 03:18:03.703744 12597 net.cpp:434] mbox_conf <- fc7_mbox_conf_flat
I1217 03:18:03.703752 12597 net.cpp:434] mbox_conf <- conv6_2_mbox_conf_flat
I1217 03:18:03.703758 12597 net.cpp:434] mbox_conf <- conv7_2_mbox_conf_flat
I1217 03:18:03.703765 12597 net.cpp:434] mbox_conf <- conv8_2_mbox_conf_flat
I1217 03:18:03.703773 12597 net.cpp:434] mbox_conf <- conv9_2_mbox_conf_flat
I1217 03:18:03.703781 12597 net.cpp:408] mbox_conf -> mbox_conf
I1217 03:18:03.703809 12597 net.cpp:150] Setting up mbox_conf
I1217 03:18:03.703816 12597 net.cpp:157] Top shape: 1 48296 (48296)
I1217 03:18:03.703824 12597 net.cpp:165] Memory required for data: 689332768
I1217 03:18:03.703830 12597 layer_factory.hpp:77] Creating layer mbox_priorbox
I1217 03:18:03.703838 12597 net.cpp:100] Creating Layer mbox_priorbox
I1217 03:18:03.703845 12597 net.cpp:434] mbox_priorbox <- conv4_3_norm_mbox_priorbox
I1217 03:18:03.703852 12597 net.cpp:434] mbox_priorbox <- fc7_mbox_priorbox
I1217 03:18:03.703860 12597 net.cpp:434] mbox_priorbox <- conv6_2_mbox_priorbox
I1217 03:18:03.703866 12597 net.cpp:434] mbox_priorbox <- conv7_2_mbox_priorbox
I1217 03:18:03.703873 12597 net.cpp:434] mbox_priorbox <- conv8_2_mbox_priorbox
I1217 03:18:03.703881 12597 net.cpp:434] mbox_priorbox <- conv9_2_mbox_priorbox
I1217 03:18:03.703888 12597 net.cpp:408] mbox_priorbox -> mbox_priorbox
I1217 03:18:03.703917 12597 net.cpp:150] Setting up mbox_priorbox
I1217 03:18:03.703923 12597 net.cpp:157] Top shape: 1 2 96592 (193184)
I1217 03:18:03.703929 12597 net.cpp:165] Memory required for data: 690105504
I1217 03:18:03.703935 12597 layer_factory.hpp:77] Creating layer mbox_conf_reshape
I1217 03:18:03.703945 12597 net.cpp:100] Creating Layer mbox_conf_reshape
I1217 03:18:03.703950 12597 net.cpp:434] mbox_conf_reshape <- mbox_conf
I1217 03:18:03.703961 12597 net.cpp:408] mbox_conf_reshape -> mbox_conf_reshape
I1217 03:18:03.703995 12597 net.cpp:150] Setting up mbox_conf_reshape
I1217 03:18:03.704002 12597 net.cpp:157] Top shape: 1 24148 2 (48296)
I1217 03:18:03.704010 12597 net.cpp:165] Memory required for data: 690298688
I1217 03:18:03.704015 12597 layer_factory.hpp:77] Creating layer mbox_conf_softmax
I1217 03:18:03.704025 12597 net.cpp:100] Creating Layer mbox_conf_softmax
I1217 03:18:03.704030 12597 net.cpp:434] mbox_conf_softmax <- mbox_conf_reshape
I1217 03:18:03.704041 12597 net.cpp:408] mbox_conf_softmax -> mbox_conf_softmax
I1217 03:18:03.704262 12597 net.cpp:150] Setting up mbox_conf_softmax
I1217 03:18:03.704273 12597 net.cpp:157] Top shape: 1 24148 2 (48296)
I1217 03:18:03.704280 12597 net.cpp:165] Memory required for data: 690491872
I1217 03:18:03.704286 12597 layer_factory.hpp:77] Creating layer mbox_conf_flatten
I1217 03:18:03.704294 12597 net.cpp:100] Creating Layer mbox_conf_flatten
I1217 03:18:03.704300 12597 net.cpp:434] mbox_conf_flatten <- mbox_conf_softmax
I1217 03:18:03.704310 12597 net.cpp:408] mbox_conf_flatten -> mbox_conf_flatten
I1217 03:18:03.704337 12597 net.cpp:150] Setting up mbox_conf_flatten
I1217 03:18:03.704346 12597 net.cpp:157] Top shape: 1 48296 (48296)
I1217 03:18:03.704352 12597 net.cpp:165] Memory required for data: 690685056
I1217 03:18:03.704360 12597 layer_factory.hpp:77] Creating layer detection_out
I1217 03:18:03.704373 12597 net.cpp:100] Creating Layer detection_out
I1217 03:18:03.704380 12597 net.cpp:434] detection_out <- mbox_loc
I1217 03:18:03.704387 12597 net.cpp:434] detection_out <- mbox_conf_flatten
I1217 03:18:03.704394 12597 net.cpp:434] detection_out <- mbox_priorbox
I1217 03:18:03.704404 12597 net.cpp:408] detection_out -> detection_out
W1217 03:18:03.719578 12597 detection_output_layer.cpp:49] Failed to create directory: /root/mount_out/work2018/cataract_recognition_train_test/detection/diffuse_train_test/training/results/
I1217 03:18:03.747295 12597 net.cpp:150] Setting up detection_out
I1217 03:18:03.747316 12597 net.cpp:157] Top shape: 1 1 1 7 (7)
I1217 03:18:03.747321 12597 net.cpp:165] Memory required for data: 690685084
I1217 03:18:03.747328 12597 layer_factory.hpp:77] Creating layer detection_eval
I1217 03:18:03.747342 12597 net.cpp:100] Creating Layer detection_eval
I1217 03:18:03.747349 12597 net.cpp:434] detection_eval <- detection_out
I1217 03:18:03.747359 12597 net.cpp:434] detection_eval <- label
I1217 03:18:03.747366 12597 net.cpp:408] detection_eval -> detection_eval
I1217 03:18:03.750533 12597 net.cpp:150] Setting up detection_eval
I1217 03:18:03.750550 12597 net.cpp:157] Top shape: 1 1 2 5 (10)
I1217 03:18:03.750555 12597 net.cpp:165] Memory required for data: 690685124
I1217 03:18:03.750560 12597 net.cpp:228] detection_eval does not need backward computation.
I1217 03:18:03.750569 12597 net.cpp:228] detection_out does not need backward computation.
I1217 03:18:03.750577 12597 net.cpp:228] mbox_conf_flatten does not need backward computation.
I1217 03:18:03.750583 12597 net.cpp:228] mbox_conf_softmax does not need backward computation.
…
