…
        min_aspect_ratio: 0.5
        max_aspect_ratio: 2
      }
      sample_constraint {
        min_jaccard_overlap: 0.9
      }
      max_sample: 1
      max_trials: 50
    }
    batch_sampler {
      sampler {
        min_scale: 0.3
        max_scale: 1
        min_aspect_ratio: 0.5
        max_aspect_ratio: 2
      }
      sample_constraint {
        max_jaccard_overlap: 1
      }
      max_sample: 1
      max_trials: 50
    }
    label_map_file: "/root/mount_out/work2018/cataract_recognition_train_test/detection/slit_train_test/labelmap_pupil.prototxt"
  }
}
layer {
  name: "conv1_1"
  type: "Convolution"
  bottom: "data"
  top: "conv1_1"
  param {
    lr_mult: 1
    decay_mult: 1
  }
  param {
    lr_mult: 2
    decay_mult: 0
  }
  convolution_param {
    num_output: 64
    pad: 1
    kernel_size: 3
    weight_filler {
      type: "xavier"
    }
    bias_filler {
      type: "constant"
      value: 0
    }
  }
}
layer {
  name: "relu1_1"
  type: "ReLU"
  bottom: "conv1_1"
  top: "conv1_1"
}
layer {
  name: "conv1_2"
  type: "Convolution"
  bottom: "conv1_1"
  top: "conv1_2"
  param {
    lr_mult: 1
    decay_mult: 1
  }
  param {
    lr_mult: 2
    decay_mult: 0
  }
  convolution_param {
    num_output: 64
    pad: 1
    kernel_size: 3
    weight_filler {
      type: "xavier"
    }
    bias_filler {
      type: "constant"
      value: 0
    }
  }
}
layer {
  name: "relu1_2"
  type: "ReLU"
  bottom: "conv1_2"
  top: "conv1_2"
}
layer {
  name: "pool1"
  type: "Pooling"
  bottom: "conv1_2"
  top: "pool1"
  pooling_param {
    pool: MAX
    kernel_size: 2
    stride: 2
  }
}
layer {
  name: "conv2_1"
  type: "Convolution"
  bottom: "pool1"
  top: "conv2_1"
  param {
    lr_mult: 1
    decay_mult: 1
  }
  param {
    lr_mult: 2
    decay_mult: 0
  }
  convolution_param {
    num_output: 128
    pad: 1
    kernel_size: 3
    weight_filler {
      type: "xavier"
    }
    bias_filler {
      type: "constant"
      value: 0
    }
  }
}
layer {
  name: "relu2_1"
  type: "ReLU"
  bottom: "conv2_1"
  top: "conv2_1"
}
layer {
  name: "conv2_2"
  type: "Convolution"
  bottom: "conv2_1"
  top: "conv2_2"
  param {
    lr_mult: 1
    decay_mult: 1
  }
  param {
    lr_mult: 2
    decay_mult: 0
  }
  convolution_param {
    num_output: 128
    pad: 1
    kernel_size: 3
    weight_filler {
      type: "xavier"
    }
    bias_filler {
      type: "constant"
      value: 0
    }
  }
}
layer {
  name: "relu2_2"
  type: "ReLU"
  bottom: "conv2_2"
  top: "conv2_2"
}
layer {
  name: "pool2"
  type: "Pooling"
  bottom: "conv2_2"
  top: "pool2"
  pooling_param {
    pool: MAX
    kernel_size: 2
    stride: 2
  }
}
layer {
  name: "conv3_1"
  type: "Convolution"
  bottom: "pool2"
  top: "conv3_1"
  param {
    lr_mult: 1
    decay_mult: 1
  }
  param {
    lr_mult: 2
    decay_mult: 0
  }
  convolution_param {
    num_output: 256
    pad: 1
    kernel_size: 3
    weight_filler {
      type: "xavier"
    }
    bias_filler {
      type: "constant"
      value: 0
    }
  }
}
layer {
  name: "relu3_1"
  type: "ReLU"
  bottom: "conv3_1"
  top: "conv3_1"
}
layer {
  name: "conv3_2"
  type: "Convolution"
  bottom: "conv3_1"
  top: "conv3_2"
  param {
    lr_mult: 1
    decay_mult: 1
  }
  param {
    lr_mult: 2
    decay_mult: 0
  }
  convolution_param {
    num_output: 256
    pad: 1
    kernel_size: 3
    weight_filler {
      type: "xavier"
    }
    bias_filler {
      type: "constant"
      value: 0
    }
  }
}
layer {
  name: "relu3_2"
  type: "ReLU"
  bottom: "conv3_2"
  top: "conv3_2"
}
layer {
  name: "conv3_3"
  type: "Convolution"
  bottom: "conv3_2"
  top: "conv3_3"
  param {
    lr_mult: 1
    decay_mult: 1
  }
  param {
    lr_mult: 2
    decay_mult: 0
  }
  convolution_param {
    num_output: 256
    pad: 1
    kernel_size: 3
    weight_filler {
      type: "xavier"
    }
    bias_filler {
      type: "constant"
      value: 0
    }
  }
}
layer {
  name: "relu3_3"
  type: "ReLU"
  bottom: "conv3_3"
  top: "conv3_3"
}
layer {
  name: "pool3"
  type: "Pooling"
  bottom: "conv3_3"
  top: "pool3"
  pooling_param {
    pool: MAX
    kernel_size: 2
    stride: 2
  }
}
layer {
  name: "conv4_1"
  type: "Convolution"
  bottom: "pool3"
  top: "conv4_1"
  param {
    lr_mult: 1
    decay_mult: 1
  }
  param {
    lr_mult: 2
    decay_mult: 0
  }
  convolution_param {
    num_output: 512
    pad: 1
    kernel_size: 3
    weight_filler {
      type: "xavier"
    }
    bias_filler {
      type: "constant"
      value: 0
    }
  }
}
layer {
  name: "relu4_1"
  type: "ReLU"
  bottom: "conv4_1"
  top: "conv4_1"
}
layer {
  name: "conv4_2"
  type: "Convolution"
  bottom: "conv4_1"
  top: "conv4_2"
  param {
    lr_mult: 1
    decay_mult: 1
  }
  param {
    lr_mult: 2
    decay_mult: 0
  }
  convolution_param {
    num_output: 512
    pad: 1
    kernel_size: 3
    weight_filler {
      type: "xavier"
    }
    bias_filler {
      type: "constant"
      value: 0
    }
  }
}
layer {
  name: "relu4_2"
  type: "ReLU"
  bottom: "conv4_2"
  top: "conv4_2"
}
layer {
  name: "conv4_3"
  type: "Convolution"
  bottom: "conv4_2"
  top: "conv4_3"
  param {
    lr_mult: 1
    decay_mult: 1
  }
  param {
    lr_mult: 2
    decay_mult: 0
  }
  convolution_param {
    num_output: 512
    pad: 1
    kernel_size: 3
    weight_filler {
      type: "xavier"
    }
    bias_filler {
      type: "constant"
      value: 0
    }
  }
}
layer {
  name: "relu4_3"
  type: "ReLU"
  bottom: "conv4_3"
  top: "conv4_3"
}
layer {
  name: "pool4"
  type: "Pooling"
  bottom: "conv4_3"
  top: "pool4"
  pooling_param {
    pool: MAX
    kernel_size: 2
    stride: 2
  }
}
layer {
  name: "conv5_1"
  type: "Convolution"
  bottom: "pool4"
  top: "conv5_1"
  param {
    lr_mult: 1
    decay_mult: 1
  }
  param {
    lr_mult: 2
    decay_mult: 0
  }
  convolution_param {
    num_output: 512
    pad: 1
    kernel_size: 3
    weight_filler {
      type: "xavier"
    }
    bias_filler {
      type: "constant"
      value: 0
    }
    dilation: 1
  }
}
layer {
  name: "relu5_1"
  type: "ReLU"
  bottom: "conv5_1"
  top: "conv5_1"
}
layer {
  name: "conv5_2"
  type: "Convolution"
  bottom: "conv5_1"
  top: "conv5_2"
  param {
    lr_mult: 1
    decay_mult: 1
  }
  param {
    lr_mult: 2
    decay_mult: 0
  }
  convolution_param {
    num_output: 512
    pad: 1
    kernel_size: 3
    weight_filler {
      type: "xavier"
    }
    bias_filler {
      type: "constant"
      value: 0
    }
    dilation: 1
  }
}
layer {
  name: "relu5_2"
  type: "ReLU"
  bottom: "conv5_2"
  top: "conv5_2"
}
layer {
  name: "conv5_3"
  type: "Convolution"
  bottom: "conv5_2"
  top: "conv5_3"
  param {
    lr_mult: 1
    decay_mult: 1
  }
  param {
    lr_mult: 2
    decay_mult: 0
  }
  convolution_param {
    num_output: 512
    pad: 1
    kernel_size: 3
    weight_filler {
      type: "xavier"
    }
    bias_filler {
      type: "constant"
      value: 0
    }
    dilation: 1
  }
}
layer {
  name: "relu5_3"
  type: "ReLU"
  bottom: "conv5_3"
  top: "conv5_3"
}
layer {
  name: "pool5"
  type: "Pooling"
  bottom: "conv5_3"
  top: "pool5"
  pooling_param {
    pool: MAX
    kernel_size: 3
    stride: 1
    pad: 1
  }
}
layer {
  name: "fc6"
  type: "Convolution"
  bottom: "pool5"
  top: "fc6"
  param {
    lr_mult: 1
    decay_mult: 1
  }
  param {
    lr_mult: 2
    decay_mult: 0
  }
  convolution_param {
    num_output: 1024
    pad: 6
    kernel_size: 3
    weight_filler {
      type: "xavier"
    }
    bias_filler {
      type: "constant"
      value: 0
    }
    dilation: 6
  }
}
layer {
  name: "relu6"
  type: "ReLU"
  bottom: "fc6"
  top: "fc6"
}
layer {
  name: "fc7"
  type: "Convolution"
  bottom: "fc6"
  top: "fc7"
  param {
    lr_mult: 1
    decay_mult: 1
  }
  param {
    lr_mult: 2
    decay_mult: 0
  }
  convolution_param {
    num_output: 1024
    kernel_size: 1
    weight_filler {
      type: "xavier"
    }
    bias_filler {
      type: "constant"
      value: 0
    }
  }
}
layer {
  name: "relu7"
  type: "ReLU"
  bottom: "fc7"
  top: "fc7"
}
layer {
  name: "conv6_1"
  type: "Convolution"
  bottom: "fc7"
  top: "conv6_1"
  param {
    lr_mult: 1
    decay_mult: 1
  }
  param {
    lr_mult: 2
    decay_mult: 0
  }
  convolution_param {
    num_output: 256
    pad: 0
    kernel_size: 1
    stride: 1
    weight_filler {
      type: "xavier"
    }
    bias_filler {
      type: "constant"
      value: 0
    }
  }
}
layer {
  name: "conv6_1_relu"
  type: "ReLU"
  bottom: "conv6_1"
  top: "conv6_1"
}
layer {
  name: "conv6_2"
  type: "Convolution"
  bottom: "conv6_1"
  top: "conv6_2"
  param {
    lr_mult: 1
    decay_mult: 1
  }
  param {
    lr_mult: 2
    decay_mult: 0
  }
  convolution_param {
    num_output: 512
    pad: 1
    kernel_size: 3
    stride: 2
    weight_filler {
      type: "xavier"
    }
    bias_filler {
      type: "constant"
      value: 0
    }
  }
}
layer {
  name: "conv6_2_relu"
  type: "ReLU"
  bottom: "conv6_2"
  top: "conv6_2"
}
layer {
  name: "conv7_1"
  type: "Convolution"
  bottom: "conv6_2"
  top: "conv7_1"
  param {
    lr_mult: 1
    decay_mult: 1
  }
  param {
    lr_mult: 2
    decay_mult: 0
  }
  convolution_param {
    num_output: 128
    pad: 0
    kernel_size: 1
    stride: 1
    weight_filler {
      type: "xavier"
    }
    bias_filler {
      type: "constant"
      value: 0
    }
  }
}
layer {
  name: "conv7_1_relu"
  type: "ReLU"
  bottom: "conv7_1"
  top: "conv7_1"
}
layer {
  name: "conv7_2"
  type: "Convolution"
  bottom: "conv7_1"
  top: "conv7_2"
  param {
    lr_mult: 1
    decay_mult: 1
  }
  param {
    lr_mult: 2
    decay_mult: 0
  }
  convolution_param {
    num_output: 256
    pad: 1
    kernel_size: 3
    stride: 2
    weight_filler {
      type: "xavier"
    }
    bias_filler {
      type: "constant"
      value: 0
    }
  }
}
layer {
  name: "conv7_2_relu"
  type: "ReLU"
  bottom: "conv7_2"
  top: "conv7_2"
}
layer {
  name: "conv8_1"
  type: "Convolution"
  bottom: "conv7_2"
  top: "conv8_1"
  param {
    lr_mult: 1
    decay_mult: 1
  }
  param {
    lr_mult: 2
    decay_mult: 0
  }
  convolution_param {
    num_output: 128
    pad: 0
    kernel_size: 1
    stride: 1
    weight_filler {
      type: "xavier"
    }
    bias_filler {
      type: "constant"
      value: 0
    }
  }
}
layer {
  name: "conv8_1_relu"
  type: "ReLU"
  bottom: "conv8_1"
  top: "conv8_1"
}
layer {
  name: "conv8_2"
  type: "Convolution"
  bottom: "conv8_1"
  top: "conv8_2"
  param {
    lr_mult: 1
    decay_mult: 1
  }
  param {
    lr_mult: 2
    decay_mult: 0
  }
  convolution_param {
    num_output: 256
    pad: 0
    kernel_size: 3
    stride: 1
    weight_filler {
      type: "xavier"
    }
    bias_filler {
      type: "constant"
      value: 0
    }
  }
}
layer {
  name: "conv8_2_relu"
  type: "ReLU"
  bottom: "conv8_2"
  top: "conv8_2"
}
layer {
  name: "conv9_1"
  type: "Convolution"
  bottom: "conv8_2"
  top: "conv9_1"
  param {
    lr_mult: 1
    decay_mult: 1
  }
  param {
    lr_mult: 2
    decay_mult: 0
  }
  convolution_param {
    num_output: 128
    pad: 0
    kernel_size: 1
    stride: 1
    weight_filler {
      type: "xavier"
    }
    bias_filler {
      type: "constant"
      value: 0
    }
  }
}
layer {
  name: "conv9_1_relu"
  type: "ReLU"
  bottom: "conv9_1"
  top: "conv9_1"
}
layer {
  name: "conv9_2"
  type: "Convolution"
  bottom: "conv9_1"
  top: "conv9_2"
  param {
    lr_mult: 1
    decay_mult: 1
  }
  param {
    lr_mult: 2
    decay_mult: 0
  }
  convolution_param {
    num_output: 256
    pad: 0
    kernel_size: 3
    stride: 1
    weight_filler {
      type: "xavier"
    }
    bias_filler {
      type: "constant"
      value: 0
    }
  }
}
layer {
  name: "conv9_2_relu"
  type: "ReLU"
  bottom: "conv9_2"
  top: "conv9_2"
}
layer {
  name: "conv4_3_norm"
  type: "Normalize"
  bottom: "conv4_3"
  top: "conv4_3_norm"
  norm_param {
    across_spatial: false
    scale_filler {
      type: "constant"
      value: 20
    }
    channel_shared: false
  }
}
layer {
  name: "conv4_3_norm_mbox_loc"
  type: "Convolution"
  bottom: "conv4_3_norm"
  top: "conv4_3_norm_mbox_loc"
  param {
    lr_mult: 1
    decay_mult: 1
  }
  param {
    lr_mult: 2
    decay_mult: 0
  }
  convolution_param {
    num_output: 16
    pad: 1
    kernel_size: 3
    stride: 1
    weight_filler {
      type: "xavier"
    }
    bias_filler {
      type: "constant"
      value: 0
    }
  }
}
layer {
  name: "conv4_3_norm_mbox_loc_perm"
  type: "Permute"
  bottom: "conv4_3_norm_mbox_loc"
  top: "conv4_3_norm_mbox_loc_perm"
  permute_param {
    order: 0
    order: 2
    order: 3
    order: 1
  }
}
layer {
  name: "conv4_3_norm_mbox_loc_flat"
  type: "Flatten"
  bottom: "conv4_3_norm_mbox_loc_perm"
  top: "conv4_3_norm_mbox_loc_flat"
  flatten_param {
    axis: 1
  }
}
layer {
  name: "conv4_3_norm_mbox_conf"
  type: "Convolution"
  bottom: "conv4_3_norm"
  top: "conv4_3_norm_mbox_conf"
  param {
    lr_mult: 1
    decay_mult: 1
  }
  param {
    lr_mult: 2
    decay_mult: 0
  }
  convolution_param {
    num_output: 8
    pad: 1
    kernel_size: 3
    stride: 1
    weight_filler {
      type: "xavier"
    }
    bias_filler {
      type: "constant"
      value: 0
    }
  }
}
layer {
  name: "conv4_3_norm_mbox_conf_perm"
  type: "Permute"
  bottom: "conv4_3_norm_mbox_conf"
  top: "conv4_3_norm_mbox_conf_perm"
  permute_param {
    order: 0
    order: 2
    order: 3
    order: 1
  }
}
layer {
  name: "conv4_3_norm_mbox_conf_flat"
  type: "Flatten"
  bottom: "conv4_3_norm_mbox_conf_perm"
  top: "conv4_3_norm_mbox_conf_flat"
  flatten_param {
    axis: 1
  }
}
layer {
  name: "conv4_3_norm_mbox_priorbox"
  type: "PriorBox"
  bottom: "conv4_3_norm"
  bottom: "data"
  top: "conv4_3_norm_mbox_priorbox"
  prior_box_param {
    min_size: 50
    max_size: 100
    aspect_ratio: 2
    flip: true
    clip: false
    variance: 0.1
    variance: 0.1
    variance: 0.2
    variance: 0.2
    step: 8
    offset: 0.5
  }
}
layer {
  name: "fc7_mbox_loc"
  type: "Convolution"
  bottom: "fc7"
  top: "fc7_mbox_loc"
  param {
    lr_mult: 1
    decay_mult: 1
  }
  param {
    lr_mult: 2
    decay_mult: 0
  }
  convolution_param {
    num_output: 24
    pad: 1
    kernel_size: 3
    stride: 1
    weight_filler {
      type: "xavier"
    }
    bias_filler {
      type: "constant"
      value: 0
    }
  }
}
layer {
  name: "fc7_mbox_loc_perm"
  type: "Permute"
  bottom: "fc7_mbox_loc"
  top: "fc7_mbox_loc_perm"
  permute_param {
    order: 0
    order: 2
    order: 3
    order: 1
  }
}
layer {
  name: "fc7_mbox_loc_flat"
  type: "Flatten"
  bottom: "fc7_mbox_loc_perm"
  top: "fc7_mbox_loc_flat"
  flatten_param {
    axis: 1
  }
}
layer {
  name: "fc7_mbox_conf"
  type: "Convolution"
  bottom: "fc7"
  top: "fc7_mbox_conf"
  param {
    lr_mult: 1
    decay_mult: 1
  }
  param {
    lr_mult: 2
    decay_mult: 0
  }
  convolution_param {
    num_output: 12
    pad: 1
    kernel_size: 3
    stride: 1
    weight_filler {
      type: "xavier"
    }
    bias_filler {
      type: "constant"
      value: 0
    }
  }
}
layer {
  name: "fc7_mbox_conf_perm"
  type: "Permute"
  bottom: "fc7_mbox_conf"
  top: "fc7_mbox_conf_perm"
  permute_param {
    order: 0
    order: 2
    order: 3
    order: 1
  }
}
layer {
  name: "fc7_mbox_conf_flat"
  type: "Flatten"
  bottom: "fc7_mbox_conf_perm"
  top: "fc7_mbox_conf_flat"
  flatten_param {
    axis: 1
  }
}
layer {
  name: "fc7_mbox_priorbox"
  type: "PriorBox"
  bottom: "fc7"
  bottom: "data"
  top: "fc7_mbox_priorbox"
  prior_box_param {
    min_size: 100
    max_size: 185
    aspect_ratio: 2
    aspect_ratio: 3
    flip: true
    clip: false
    variance: 0.1
    variance: 0.1
    variance: 0.2
    variance: 0.2
    step: 16
    offset: 0.5
  }
}
layer {
  name: "conv6_2_mbox_loc"
  type: "Convolution"
  bottom: "conv6_2"
  top: "conv6_2_mbox_loc"
  param {
    lr_mult: 1
    decay_mult: 1
  }
  param {
    lr_mult: 2
    decay_mult: 0
  }
  convolution_param {
    num_output: 24
    pad: 1
    kernel_size: 3
    stride: 1
    weight_filler {
      type: "xavier"
    }
    bias_filler {
      type: "constant"
      value: 0
    }
  }
}
layer {
  name: "conv6_2_mbox_loc_perm"
  type: "Permute"
  bottom: "conv6_2_mbox_loc"
  top: "conv6_2_mbox_loc_perm"
  permute_param {
    order: 0
    order: 2
    order: 3
    order: 1
  }
}
layer {
  name: "conv6_2_mbox_loc_flat"
  type: "Flatten"
  bottom: "conv6_2_mbox_loc_perm"
  top: "conv6_2_mbox_loc_flat"
  flatten_param {
    axis: 1
  }
}
layer {
  name: "conv6_2_mbox_conf"
  type: "Convolution"
  bottom: "conv6_2"
  top: "conv6_2_mbox_conf"
  param {
    lr_mult: 1
    decay_mult: 1
  }
  param {
    lr_mult: 2
    decay_mult: 0
  }
  convolution_param {
    num_output: 12
    pad: 1
    kernel_size: 3
    stride: 1
    weight_filler {
      type: "xavier"
    }
    bias_filler {
      type: "constant"
      value: 0
    }
  }
}
layer {
  name: "conv6_2_mbox_conf_perm"
  type: "Permute"
  bottom: "conv6_2_mbox_conf"
  top: "conv6_2_mbox_conf_perm"
  permute_param {
    order: 0
    order: 2
    order: 3
    order: 1
  }
}
layer {
  name: "conv6_2_mbox_conf_flat"
  type: "Flatten"
  bottom: "conv6_2_mbox_conf_perm"
  top: "conv6_2_mbox_conf_flat"
  flatten_param {
    axis: 1
  }
}
layer {
  name: "conv6_2_mbox_priorbox"
  type: "PriorBox"
  bottom: "conv6_2"
  bottom: "data"
  top: "conv6_2_mbox_priorbox"
  prior_box_param {
    min_size: 185
    max_size: 270
    aspect_ratio: 2
    aspect_ratio: 3
    flip: true
    clip: false
    variance: 0.1
    variance: 0.1
    variance: 0.2
    variance: 0.2
    step: 32
    offset: 0.5
  }
}
layer {
  name: "conv7_2_mbox_loc"
  type: "Convolution"
  bottom: "conv7_2"
  top: "conv7_2_mbox_loc"
  param {
    lr_mult: 1
    decay_mult: 1
  }
  param {
    lr_mult: 2
    decay_mult: 0
  }
  convolution_param {
    num_output: 24
    pad: 1
    kernel_size: 3
    stride: 1
    weight_filler {
      type: "xavier"
    }
    bias_filler {
      type: "constant"
      value: 0
    }
  }
}
layer {
  name: "conv7_2_mbox_loc_perm"
  type: "Permute"
  bottom: "conv7_2_mbox_loc"
  top: "conv7_2_mbox_loc_perm"
  permute_param {
    order: 0
    order: 2
    order: 3
    order: 1
  }
}
layer {
  name: "conv7_2_mbox_loc_flat"
  type: "Flatten"
  bottom: "conv7_2_mbox_loc_perm"
  top: "conv7_2_mbox_loc_flat"
  flatten_param {
    axis: 1
  }
}
layer {
  name: "conv7_2_mbox_conf"
  type: "Convolution"
  bottom: "conv7_2"
  top: "conv7_2_mbox_conf"
  param {
    lr_mult: 1
    decay_mult: 1
  }
  param {
    lr_mult: 2
    decay_mult: 0
  }
  convolution_param {
    num_output: 12
    pad: 1
    kernel_size: 3
    stride: 1
    weight_filler {
      type: "xavier"
    }
    bias_filler {
      type: "constant"
      value: 0
    }
  }
}
layer {
  name: "conv7_2_mbox_conf_perm"
  type: "Permute"
  bottom: "conv7_2_mbox_conf"
  top: "conv7_2_mbox_conf_perm"
  permute_param {
    order: 0
    order: 2
    order: 3
    order: 1
  }
}
layer {
  name: "conv7_2_mbox_conf_flat"
  type: "Flatten"
  bottom: "conv7_2_mbox_conf_perm"
  top: "conv7_2_mbox_conf_flat"
  flatten_param {
    axis: 1
  }
}
layer {
  name: "conv7_2_mbox_priorbox"
  type: "PriorBox"
  bottom: "conv7_2"
  bottom: "data"
  top: "conv7_2_mbox_priorbox"
  prior_box_param {
    min_size: 270
    max_size: 355
    aspect_ratio: 2
    aspect_ratio: 3
    flip: true
    clip: false
    variance: 0.1
    variance: 0.1
    variance: 0.2
    variance: 0.2
    step: 64
    offset: 0.5
  }
}
layer {
  name: "conv8_2_mbox_loc"
  type: "Convolution"
  bottom: "conv8_2"
  top: "conv8_2_mbox_loc"
  param {
    lr_mult: 1
    decay_mult: 1
  }
  param {
    lr_mult: 2
    decay_mult: 0
  }
  convolution_param {
    num_output: 16
    pad: 1
    kernel_size: 3
    stride: 1
    weight_filler {
      type: "xavier"
    }
    bias_filler {
      type: "constant"
      value: 0
    }
  }
}
layer {
  name: "conv8_2_mbox_loc_perm"
  type: "Permute"
  bottom: "conv8_2_mbox_loc"
  top: "conv8_2_mbox_loc_perm"
  permute_param {
    order: 0
    order: 2
    order: 3
    order: 1
  }
}
layer {
  name: "conv8_2_mbox_loc_flat"
  type: "Flatten"
  bottom: "conv8_2_mbox_loc_perm"
  top: "conv8_2_mbox_loc_flat"
  flatten_param {
    axis: 1
  }
}
layer {
  name: "conv8_2_mbox_conf"
  type: "Convolution"
  bottom: "conv8_2"
  top: "conv8_2_mbox_conf"
  param {
    lr_mult: 1
    decay_mult: 1
  }
  param {
    lr_mult: 2
    decay_mult: 0
  }
  convolution_param {
    num_output: 8
    pad: 1
    kernel_size: 3
    stride: 1
    weight_filler {
      type: "xavier"
    }
    bias_filler {
      type: "constant"
      value: 0
    }
  }
}
layer {
  name: "conv8_2_mbox_conf_perm"
  type: "Permute"
  bottom: "conv8_2_mbox_conf"
  top: "conv8_2_mbox_conf_perm"
  permute_param {
    order: 0
    order: 2
    order: 3
    order: 1
  }
}
layer {
  name: "conv8_2_mbox_conf_flat"
  type: "Flatten"
  bottom: "conv8_2_mbox_conf_perm"
  top: "conv8_2_mbox_conf_flat"
  flatten_param {
    axis: 1
  }
}
layer {
  name: "conv8_2_mbox_priorbox"
  type: "PriorBox"
  bottom: "conv8_2"
  bottom: "data"
  top: "conv8_2_mbox_priorbox"
  prior_box_param {
    min_size: 355
    max_size: 440
    aspect_ratio: 2
    flip: true
    clip: false
    variance: 0.1
    variance: 0.1
    variance: 0.2
    variance: 0.2
    step: 100
    offset: 0.5
  }
}
layer {
  name: "conv9_2_mbox_loc"
  type: "Convolution"
  bottom: "conv9_2"
  top: "conv9_2_mbox_loc"
  param {
    lr_mult: 1
    decay_mult: 1
  }
  param {
    lr_mult: 2
    decay_mult: 0
  }
  convolution_param {
    num_output: 16
    pad: 1
    kernel_size: 3
    stride: 1
    weight_filler {
      type: "xavier"
    }
    bias_filler {
      type: "constant"
      value: 0
    }
  }
}
layer {
  name: "conv9_2_mbox_loc_perm"
  type: "Permute"
  bottom: "conv9_2_mbox_loc"
  top: "conv9_2_mbox_loc_perm"
  permute_param {
    order: 0
    order: 2
    order: 3
    order: 1
  }
}
layer {
  name: "conv9_2_mbox_loc_flat"
  type: "Flatten"
  bottom: "conv9_2_mbox_loc_perm"
  top: "conv9_2_mbox_loc_flat"
  flatten_param {
    axis: 1
  }
}
layer {
  name: "conv9_2_mbox_conf"
  type: "Convolution"
  bottom: "conv9_2"
  top: "conv9_2_mbox_conf"
  param {
    lr_mult: 1
    decay_mult: 1
  }
  param {
    lr_mult: 2
    decay_mult: 0
  }
  convolution_param {
    num_output: 8
    pad: 1
    kernel_size: 3
    stride: 1
    weight_filler {
      type: "xavier"
    }
    bias_filler {
      type: "constant"
      value: 0
    }
  }
}
layer {
  name: "conv9_2_mbox_conf_perm"
  type: "Permute"
  bottom: "conv9_2_mbox_conf"
  top: "conv9_2_mbox_conf_perm"
  permute_param {
    order: 0
    order: 2
    order: 3
    order: 1
  }
}
layer {
  name: "conv9_2_mbox_conf_flat"
  type: "Flatten"
  bottom: "conv9_2_mbox_conf_perm"
  top: "conv9_2_mbox_conf_flat"
  flatten_param {
    axis: 1
  }
}
layer {
  name: "conv9_2_mbox_priorbox"
  type: "PriorBox"
  bottom: "conv9_2"
  bottom: "data"
  top: "conv9_2_mbox_priorbox"
  prior_box_param {
    min_size: 440
    max_size: 525
    aspect_ratio: 2
    flip: true
    clip: false
    variance: 0.1
    variance: 0.1
    variance: 0.2
    variance: 0.2
    step: 300
    offset: 0.5
  }
}
layer {
  name: "mbox_loc"
  type: "Concat"
  bottom: "conv4_3_norm_mbox_loc_flat"
  bottom: "fc7_mbox_loc_flat"
  bottom: "conv6_2_mbox_loc_flat"
  bottom: "conv7_2_mbox_loc_flat"
  bottom: "conv8_2_mbox_loc_flat"
  bottom: "conv9_2_mbox_loc_flat"
  top: "mbox_loc"
  concat_param {
    axis: 1
  }
}
layer {
  name: "mbox_conf"
  type: "Concat"
  bottom: "conv4_3_norm_mbox_conf_flat"
  bottom: "fc7_mbox_conf_flat"
  bottom: "conv6_2_mbox_conf_flat"
  bottom: "conv7_2_mbox_conf_flat"
  bottom: "conv8_2_mbox_conf_flat"
  bottom: "conv9_2_mbox_conf_flat"
  top: "mbox_conf"
  concat_param {
    axis: 1
  }
}
layer {
  name: "mbox_priorbox"
  type: "Concat"
  bottom: "conv4_3_norm_mbox_priorbox"
  bottom: "fc7_mbox_priorbox"
  bottom: "conv6_2_mbox_priorbox"
  bottom: "conv7_2_mbox_priorbox"
  bottom: "conv8_2_mbox_priorbox"
  bottom: "conv9_2_mbox_priorbox"
  top: "mbox_priorbox"
  concat_param {
    axis: 2
  }
}
layer {
  name: "mbox_loss"
  type: "MultiBoxLoss"
  bottom: "mbox_loc"
  bottom: "mbox_conf"
  bottom: "mbox_priorbox"
  bottom: "label"
  top: "mbox_loss"
  include {
    phase: TRAIN
  }
  propagate_down: true
  propagate_down: true
  propagate_down: false
  propagate_down: false
  loss_param {
    normalization: VALID
  }
  multibox_loss_param {
    loc_loss_type: SMOOTH_L1
    conf_loss_type: SOFTMAX
    loc_weight: 1
    num_classes: 2
    share_location: true
    match_type: PER_PREDICTION
    overlap_threshold: 0.5
    use_prior_for_matching: true
    background_label_id: 0
    use_difficult_gt: true
    neg_pos_ratio: 3
    neg_overlap: 0.5
    code_type: CENTER_SIZE
    ignore_cross_boundary_bbox: false
    mining_type: MAX_NEGATIVE
  }
}
I1218 02:23:54.679561 11857 layer_factory.hpp:77] Creating layer data
I1218 02:23:54.679937 11857 net.cpp:100] Creating Layer data
I1218 02:23:54.679963 11857 net.cpp:408] data -> data
I1218 02:23:54.680035 11857 net.cpp:408] data -> label
I1218 02:23:54.689656 11884 db_lmdb.cpp:35] Opened lmdb /root/mount_out/work2018/cataract_recognition_train_test/detection/slit_train_test/slit_train_lmdb
I1218 02:23:54.709096 11857 annotated_data_layer.cpp:62] output data size: 8,3,500,500
I1218 02:23:54.776049 11857 net.cpp:150] Setting up data
I1218 02:23:54.776080 11857 net.cpp:157] Top shape: 8 3 500 500 (6000000)
I1218 02:23:54.776087 11857 net.cpp:157] Top shape: 1 1 1 8 (8)
I1218 02:23:54.776104 11857 net.cpp:165] Memory required for data: 24000032
I1218 02:23:54.776127 11857 layer_factory.hpp:77] Creating layer data_data_0_split
I1218 02:23:54.776139 11857 net.cpp:100] Creating Layer data_data_0_split
I1218 02:23:54.776145 11857 net.cpp:434] data_data_0_split <- data
I1218 02:23:54.776157 11857 net.cpp:408] data_data_0_split -> data_data_0_split_0
I1218 02:23:54.776167 11857 net.cpp:408] data_data_0_split -> data_data_0_split_1
I1218 02:23:54.776173 11857 net.cpp:408] data_data_0_split -> data_data_0_split_2
I1218 02:23:54.776196 11857 net.cpp:408] data_data_0_split -> data_data_0_split_3
I1218 02:23:54.776202 11857 net.cpp:408] data_data_0_split -> data_data_0_split_4
I1218 02:23:54.776207 11857 net.cpp:408] data_data_0_split -> data_data_0_split_5
I1218 02:23:54.776216 11857 net.cpp:408] data_data_0_split -> data_data_0_split_6
I1218 02:23:54.776311 11857 net.cpp:150] Setting up data_data_0_split
I1218 02:23:54.776319 11857 net.cpp:157] Top shape: 8 3 500 500 (6000000)
I1218 02:23:54.776324 11857 net.cpp:157] Top shape: 8 3 500 500 (6000000)
I1218 02:23:54.776341 11857 net.cpp:157] Top shape: 8 3 500 500 (6000000)
I1218 02:23:54.776347 11857 net.cpp:157] Top shape: 8 3 500 500 (6000000)
I1218 02:23:54.776352 11857 net.cpp:157] Top shape: 8 3 500 500 (6000000)
I1218 02:23:54.776357 11857 net.cpp:157] Top shape: 8 3 500 500 (6000000)
I1218 02:23:54.776363 11857 net.cpp:157] Top shape: 8 3 500 500 (6000000)
I1218 02:23:54.776368 11857 net.cpp:165] Memory required for data: 192000032
I1218 02:23:54.776372 11857 layer_factory.hpp:77] Creating layer conv1_1
I1218 02:23:54.776386 11857 net.cpp:100] Creating Layer conv1_1
I1218 02:23:54.776391 11857 net.cpp:434] conv1_1 <- data_data_0_split_0
I1218 02:23:54.776399 11857 net.cpp:408] conv1_1 -> conv1_1
I1218 02:23:55.239493 11857 net.cpp:150] Setting up conv1_1
I1218 02:23:55.239511 11857 net.cpp:157] Top shape: 8 64 500 500 (128000000)
I1218 02:23:55.239516 11857 net.cpp:165] Memory required for data: 704000032
I1218 02:23:55.239531 11857 layer_factory.hpp:77] Creating layer relu1_1
I1218 02:23:55.239539 11857 net.cpp:100] Creating Layer relu1_1
I1218 02:23:55.239545 11857 net.cpp:434] relu1_1 <- conv1_1
I1218 02:23:55.239550 11857 net.cpp:395] relu1_1 -> conv1_1 (in-place)
I1218 02:23:55.239698 11857 net.cpp:150] Setting up relu1_1
I1218 02:23:55.239706 11857 net.cpp:157] Top shape: 8 64 500 500 (128000000)
I1218 02:23:55.239711 11857 net.cpp:165] Memory required for data: 1216000032
I1218 02:23:55.239714 11857 layer_factory.hpp:77] Creating layer conv1_2
I1218 02:23:55.239724 11857 net.cpp:100] Creating Layer conv1_2
I1218 02:23:55.239729 11857 net.cpp:434] conv1_2 <- conv1_1
I1218 02:23:55.239735 11857 net.cpp:408] conv1_2 -> conv1_2
I1218 02:23:55.241523 11857 net.cpp:150] Setting up conv1_2
I1218 02:23:55.241535 11857 net.cpp:157] Top shape: 8 64 500 500 (128000000)
I1218 02:23:55.241539 11857 net.cpp:165] Memory required for data: 1728000032
I1218 02:23:55.241562 11857 layer_factory.hpp:77] Creating layer relu1_2
I1218 02:23:55.241569 11857 net.cpp:100] Creating Layer relu1_2
I1218 02:23:55.241587 11857 net.cpp:434] relu1_2 <- conv1_2
I1218 02:23:55.241592 11857 net.cpp:395] relu1_2 -> conv1_2 (in-place)
I1218 02:23:55.241741 11857 net.cpp:150] Setting up relu1_2
I1218 02:23:55.241750 11857 net.cpp:157] Top shape: 8 64 500 500 (128000000)
I1218 02:23:55.241753 11857 net.cpp:165] Memory required for data: 2240000032
I1218 02:23:55.241757 11857 layer_factory.hpp:77] Creating layer pool1
I1218 02:23:55.241777 11857 net.cpp:100] Creating Layer pool1
I1218 02:23:55.241782 11857 net.cpp:434] pool1 <- conv1_2
I1218 02:23:55.241801 11857 net.cpp:408] pool1 -> pool1
I1218 02:23:55.241873 11857 net.cpp:150] Setting up pool1
I1218 02:23:55.241880 11857 net.cpp:157] Top shape: 8 64 250 250 (32000000)
I1218 02:23:55.241883 11857 net.cpp:165] Memory required for data: 2368000032
I1218 02:23:55.241888 11857 layer_factory.hpp:77] Creating layer conv2_1
I1218 02:23:55.241897 11857 net.cpp:100] Creating Layer conv2_1
I1218 02:23:55.241902 11857 net.cpp:434] conv2_1 <- pool1
I1218 02:23:55.241909 11857 net.cpp:408] conv2_1 -> conv2_1
I1218 02:23:55.244319 11857 net.cpp:150] Setting up conv2_1
I1218 02:23:55.244333 11857 net.cpp:157] Top shape: 8 128 250 250 (64000000)
I1218 02:23:55.244336 11857 net.cpp:165] Memory required for data: 2624000032
I1218 02:23:55.244346 11857 layer_factory.hpp:77] Creating layer relu2_1
I1218 02:23:55.244356 11857 net.cpp:100] Creating Layer relu2_1
I1218 02:23:55.244362 11857 net.cpp:434] relu2_1 <- conv2_1
I1218 02:23:55.244369 11857 net.cpp:395] relu2_1 -> conv2_1 (in-place)
I1218 02:23:55.244851 11857 net.cpp:150] Setting up relu2_1
I1218 02:23:55.244863 11857 net.cpp:157] Top shape: 8 128 250 250 (64000000)
I1218 02:23:55.244868 11857 net.cpp:165] Memory required for data: 2880000032
I1218 02:23:55.244871 11857 layer_factory.hpp:77] Creating layer conv2_2
I1218 02:23:55.244880 11857 net.cpp:100] Creating Layer conv2_2
I1218 02:23:55.244886 11857 net.cpp:434] conv2_2 <- conv2_1
I1218 02:23:55.244892 11857 net.cpp:408] conv2_2 -> conv2_2
I1218 02:23:55.246815 11857 net.cpp:150] Setting up conv2_2
I1218 02:23:55.246827 11857 net.cpp:157] Top shape: 8 128 250 250 (64000000)
I1218 02:23:55.246832 11857 net.cpp:165] Memory required for data: 3136000032
I1218 02:23:55.246840 11857 layer_factory.hpp:77] Creating layer relu2_2
I1218 02:23:55.246846 11857 net.cpp:100] Creating Layer relu2_2
I1218 02:23:55.246850 11857 net.cpp:434] relu2_2 <- conv2_2
I1218 02:23:55.246858 11857 net.cpp:395] relu2_2 -> conv2_2 (in-place)
I1218 02:23:55.247010 11857 net.cpp:150] Setting up relu2_2
I1218 02:23:55.247018 11857 net.cpp:157] Top shape: 8 128 250 250 (64000000)
I1218 02:23:55.247022 11857 net.cpp:165] Memory required for data: 3392000032
I1218 02:23:55.247026 11857 layer_factory.hpp:77] Creating layer pool2
I1218 02:23:55.247033 11857 net.cpp:100] Creating Layer pool2
I1218 02:23:55.247038 11857 net.cpp:434] pool2 <- conv2_2
I1218 02:23:55.247045 11857 net.cpp:408] pool2 -> pool2
I1218 02:23:55.247077 11857 net.cpp:150] Setting up pool2
I1218 02:23:55.247083 11857 net.cpp:157] Top shape: 8 128 125 125 (16000000)
I1218 02:23:55.247087 11857 net.cpp:165] Memory required for data: 3456000032
I1218 02:23:55.247092 11857 layer_factory.hpp:77] Creating layer conv3_1
I1218 02:23:55.247100 11857 net.cpp:100] Creating Layer conv3_1
I1218 02:23:55.247105 11857 net.cpp:434] conv3_1 <- pool2
I1218 02:23:55.247112 11857 net.cpp:408] conv3_1 -> conv3_1
I1218 02:23:55.250061 11857 net.cpp:150] Setting up conv3_1
I1218 02:23:55.250074 11857 net.cpp:157] Top shape: 8 256 125 125 (32000000)
I1218 02:23:55.250078 11857 net.cpp:165] Memory required for data: 3584000032
I1218 02:23:55.250087 11857 layer_factory.hpp:77] Creating layer relu3_1
I1218 02:23:55.250095 11857 net.cpp:100] Creating Layer relu3_1
I1218 02:23:55.250100 11857 net.cpp:434] relu3_1 <- conv3_1
I1218 02:23:55.250106 11857 net.cpp:395] relu3_1 -> conv3_1 (in-place)
I1218 02:23:55.250260 11857 net.cpp:150] Setting up relu3_1
I1218 02:23:55.250267 11857 net.cpp:157] Top shape: 8 256 125 125 (32000000)
I1218 02:23:55.250272 11857 net.cpp:165] Memory required for data: 3712000032
I1218 02:23:55.250277 11857 layer_factory.hpp:77] Creating layer conv3_2
I1218 02:23:55.250285 11857 net.cpp:100] Creating Layer conv3_2
I1218 02:23:55.250291 11857 net.cpp:434] conv3_2 <- conv3_1
I1218 02:23:55.250298 11857 net.cpp:408] conv3_2 -> conv3_2
I1218 02:23:55.254360 11857 net.cpp:150] Setting up conv3_2
I1218 02:23:55.254372 11857 net.cpp:157] Top shape: 8 256 125 125 (32000000)
I1218 02:23:55.254376 11857 net.cpp:165] Memory required for data: 3840000032
I1218 02:23:55.254384 11857 layer_factory.hpp:77] Creating layer relu3_2
I1218 02:23:55.254405 11857 net.cpp:100] Creating Layer relu3_2
I1218 02:23:55.254411 11857 net.cpp:434] relu3_2 <- conv3_2
I1218 02:23:55.254417 11857 net.cpp:395] relu3_2 -> conv3_2 (in-place)
I1218 02:23:55.254835 11857 net.cpp:150] Setting up relu3_2
I1218 02:23:55.254844 11857 net.cpp:157] Top shape: 8 256 125 125 (32000000)
I1218 02:23:55.254848 11857 net.cpp:165] Memory required for data: 3968000032
I1218 02:23:55.254853 11857 layer_factory.hpp:77] Creating layer conv3_3
I1218 02:23:55.254864 11857 net.cpp:100] Creating Layer conv3_3
I1218 02:23:55.254869 11857 net.cpp:434] conv3_3 <- conv3_2
I1218 02:23:55.254875 11857 net.cpp:408] conv3_3 -> conv3_3
I1218 02:23:55.258975 11857 net.cpp:150] Setting up conv3_3
I1218 02:23:55.258989 11857 net.cpp:157] Top shape: 8 256 125 125 (32000000)
I1218 02:23:55.258993 11857 net.cpp:165] Memory required for data: 4096000032
I1218 02:23:55.259001 11857 layer_factory.hpp:77] Creating layer relu3_3
I1218 02:23:55.259008 11857 net.cpp:100] Creating Layer relu3_3
I1218 02:23:55.259014 11857 net.cpp:434] relu3_3 <- conv3_3
I1218 02:23:55.259021 11857 net.cpp:395] relu3_3 -> conv3_3 (in-place)
I1218 02:23:55.259171 11857 net.cpp:150] Setting up relu3_3
I1218 02:23:55.259179 11857 net.cpp:157] Top shape: 8 256 125 125 (32000000)
I1218 02:23:55.259184 11857 net.cpp:165] Memory required for data: 4224000032
I1218 02:23:55.259188 11857 layer_factory.hpp:77] Creating layer pool3
I1218 02:23:55.259194 11857 net.cpp:100] Creating Layer pool3
I1218 02:23:55.259199 11857 net.cpp:434] pool3 <- conv3_3
I1218 02:23:55.259205 11857 net.cpp:408] pool3 -> pool3
I1218 02:23:55.259238 11857 net.cpp:150] Setting up pool3
I1218 02:23:55.259245 11857 net.cpp:157] Top shape: 8 256 63 63 (8128512)
I1218 02:23:55.259248 11857 net.cpp:165] Memory required for data: 4256514080
I1218 02:23:55.259253 11857 layer_factory.hpp:77] Creating layer conv4_1
I1218 02:23:55.259263 11857 net.cpp:100] Creating Layer conv4_1
I1218 02:23:55.259268 11857 net.cpp:434] conv4_1 <- pool3
I1218 02:23:55.259274 11857 net.cpp:408] conv4_1 -> conv4_1
I1218 02:23:55.267048 11857 net.cpp:150] Setting up conv4_1
I1218 02:23:55.267066 11857 net.cpp:157] Top shape: 8 512 63 63 (16257024)
I1218 02:23:55.267071 11857 net.cpp:165] Memory required for data: 4321542176
I1218 02:23:55.267077 11857 layer_factory.hpp:77] Creating layer relu4_1
I1218 02:23:55.267086 11857 net.cpp:100] Creating Layer relu4_1
I1218 02:23:55.267092 11857 net.cpp:434] relu4_1 <- conv4_1
I1218 02:23:55.267099 11857 net.cpp:395] relu4_1 -> conv4_1 (in-place)
I1218 02:23:55.267256 11857 net.cpp:150] Setting up relu4_1
I1218 02:23:55.267264 11857 net.cpp:157] Top shape: 8 512 63 63 (16257024)
I1218 02:23:55.267268 11857 net.cpp:165] Memory required for data: 4386570272
I1218 02:23:55.267272 11857 layer_factory.hpp:77] Creating layer conv4_2
I1218 02:23:55.267282 11857 net.cpp:100] Creating Layer conv4_2
I1218 02:23:55.267288 11857 net.cpp:434] conv4_2 <- conv4_1
I1218 02:23:55.267294 11857 net.cpp:408] conv4_2 -> conv4_2
I1218 02:23:55.279939 11857 net.cpp:150] Setting up conv4_2
I1218 02:23:55.279969 11857 net.cpp:157] Top shape: 8 512 63 63 (16257024)
I1218 02:23:55.279974 11857 net.cpp:165] Memory required for data: 4451598368
I1218 02:23:55.280014 11857 layer_factory.hpp:77] Creating layer relu4_2
I1218 02:23:55.280023 11857 net.cpp:100] Creating Layer relu4_2
I1218 02:23:55.280041 11857 net.cpp:434] relu4_2 <- conv4_2
I1218 02:23:55.280061 11857 net.cpp:395] relu4_2 -> conv4_2 (in-place)
I1218 02:23:55.280251 11857 net.cpp:150] Setting up relu4_2
I1218 02:23:55.280259 11857 net.cpp:157] Top shape: 8 512 63 63 (16257024)
I1218 02:23:55.280263 11857 net.cpp:165] Memory required for data: 4516626464
I1218 02:23:55.280267 11857 layer_factory.hpp:77] Creating layer conv4_3
I1218 02:23:55.280292 11857 net.cpp:100] Creating Layer conv4_3
I1218 02:23:55.280295 11857 net.cpp:434] conv4_3 <- conv4_2
I1218 02:23:55.280315 11857 net.cpp:408] conv4_3 -> conv4_3
I1218 02:23:55.292716 11857 net.cpp:150] Setting up conv4_3
I1218 02:23:55.292735 11857 net.cpp:157] Top shape: 8 512 63 63 (16257024)
I1218 02:23:55.292768 11857 net.cpp:165] Memory required for data: 4581654560
I1218 02:23:55.292776 11857 layer_factory.hpp:77] Creating layer relu4_3
I1218 02:23:55.292784 11857 net.cpp:100] Creating Layer relu4_3
I1218 02:23:55.292807 11857 net.cpp:434] relu4_3 <- conv4_3
I1218 02:23:55.292814 11857 net.cpp:395] relu4_3 -> conv4_3 (in-place)
I1218 02:23:55.293294 11857 net.cpp:150] Setting up relu4_3
I1218 02:23:55.293305 11857 net.cpp:157] Top shape: 8 512 63 63 (16257024)
I1218 02:23:55.293309 11857 net.cpp:165] Memory required for data: 4646682656
I1218 02:23:55.293313 11857 layer_factory.hpp:77] Creating layer conv4_3_relu4_3_0_split
I1218 02:23:55.293334 11857 net.cpp:100] Creating Layer conv4_3_relu4_3_0_split
I1218 02:23:55.293339 11857 net.cpp:434] conv4_3_relu4_3_0_split <- conv4_3
I1218 02:23:55.293359 11857 net.cpp:408] conv4_3_relu4_3_0_split -> conv4_3_relu4_3_0_split_0
I1218 02:23:55.293366 11857 net.cpp:408] conv4_3_relu4_3_0_split -> conv4_3_relu4_3_0_split_1
I1218 02:23:55.293401 11857 net.cpp:150] Setting up conv4_3_relu4_3_0_split
I1218 02:23:55.293408 11857 net.cpp:157] Top shape: 8 512 63 63 (16257024)
I1218 02:23:55.293412 11857 net.cpp:157] Top shape: 8 512 63 63 (16257024)
I1218 02:23:55.293428 11857 net.cpp:165] Memory required for data: 4776738848
I1218 02:23:55.293432 11857 layer_factory.hpp:77] Creating layer pool4
I1218 02:23:55.293452 11857 net.cpp:100] Creating Layer pool4
I1218 02:23:55.293457 11857 net.cpp:434] pool4 <- conv4_3_relu4_3_0_split_0
I1218 02:23:55.293475 11857 net.cpp:408] pool4 -> pool4
I1218 02:23:55.293505 11857 net.cpp:150] Setting up pool4
I1218 02:23:55.293512 11857 net.cpp:157] Top shape: 8 512 32 32 (4194304)
I1218 02:23:55.293515 11857 net.cpp:165] Memory required for data: 4793516064
I1218 02:23:55.293519 11857 layer_factory.hpp:77] Creating layer conv5_1
I1218 02:23:55.293529 11857 net.cpp:100] Creating Layer conv5_1
I1218 02:23:55.293534 11857 net.cpp:434] conv5_1 <- pool4
I1218 02:23:55.293540 11857 net.cpp:408] conv5_1 -> conv5_1
I1218 02:23:55.305534 11857 net.cpp:150] Setting up conv5_1
I1218 02:23:55.305552 11857 net.cpp:157] Top shape: 8 512 32 32 (4194304)
I1218 02:23:55.305557 11857 net.cpp:165] Memory required for data: 4810293280
I1218 02:23:55.305578 11857 layer_factory.hpp:77] Creating layer relu5_1
I1218 02:23:55.305585 11857 net.cpp:100] Creating Layer relu5_1
I1218 02:23:55.305590 11857 net.cpp:434] relu5_1 <- conv5_1
I1218 02:23:55.305598 11857 net.cpp:395] relu5_1 -> conv5_1 (in-place)
I1218 02:23:55.305757 11857 net.cpp:150] Setting up relu5_1
I1218 02:23:55.305764 11857 net.cpp:157] Top shape: 8 512 32 32 (4194304)
I1218 02:23:55.305768 11857 net.cpp:165] Memory required for data: 4827070496
I1218 02:23:55.305773 11857 layer_factory.hpp:77] Creating layer conv5_2
I1218 02:23:55.305797 11857 net.cpp:100] Creating Layer conv5_2
I1218 02:23:55.305801 11857 net.cpp:434] conv5_2 <- conv5_1
I1218 02:23:55.305807 11857 net.cpp:408] conv5_2 -> conv5_2
I1218 02:23:55.317369 11857 net.cpp:150] Setting up conv5_2
I1218 02:23:55.317387 11857 net.cpp:157] Top shape: 8 512 32 32 (4194304)
I1218 02:23:55.317391 11857 net.cpp:165] Memory required for data: 4843847712
I1218 02:23:55.317414 11857 layer_factory.hpp:77] Creating layer relu5_2
I1218 02:23:55.317435 11857 net.cpp:100] Creating Layer relu5_2
I1218 02:23:55.317440 11857 net.cpp:434] relu5_2 <- conv5_2
I1218 02:23:55.317447 11857 net.cpp:395] relu5_2 -> conv5_2 (in-place)
I1218 02:23:55.317602 11857 net.cpp:150] Setting up relu5_2
I1218 02:23:55.317610 11857 net.cpp:157] Top shape: 8 512 32 32 (4194304)
I1218 02:23:55.317613 11857 net.cpp:165] Memory required for data: 4860624928
I1218 02:23:55.317617 11857 layer_factory.hpp:77] Creating layer conv5_3
I1218 02:23:55.317642 11857 net.cpp:100] Creating Layer conv5_3
I1218 02:23:55.317646 11857 net.cpp:434] conv5_3 <- conv5_2
I1218 02:23:55.317653 11857 net.cpp:408] conv5_3 -> conv5_3
I1218 02:23:55.329254 11857 net.cpp:150] Setting up conv5_3
I1218 02:23:55.329273 11857 net.cpp:157] Top shape: 8 512 32 32 (4194304)
I1218 02:23:55.329308 11857 net.cpp:165] Memory required for data: 4877402144
I1218 02:23:55.329315 11857 layer_factory.hpp:77] Creating layer relu5_3
I1218 02:23:55.329329 11857 net.cpp:100] Creating Layer relu5_3
I1218 02:23:55.329347 11857 net.cpp:434] relu5_3 <- conv5_3
I1218 02:23:55.329355 11857 net.cpp:395] relu5_3 -> conv5_3 (in-place)
I1218 02:23:55.329826 11857 net.cpp:150] Setting up relu5_3
I1218 02:23:55.329836 11857 net.cpp:157] Top shape: 8 512 32 32 (4194304)
I1218 02:23:55.329840 11857 net.cpp:165] Memory required for data: 4894179360
I1218 02:23:55.329844 11857 layer_factory.hpp:77] Creating layer pool5
I1218 02:23:55.329865 11857 net.cpp:100] Creating Layer pool5
I1218 02:23:55.329870 11857 net.cpp:434] pool5 <- conv5_3
I1218 02:23:55.329876 11857 net.cpp:408] pool5 -> pool5
I1218 02:23:55.329927 11857 net.cpp:150] Setting up pool5
I1218 02:23:55.329933 11857 net.cpp:157] Top shape: 8 512 32 32 (4194304)
I1218 02:23:55.329937 11857 net.cpp:165] Memory required for data: 4910956576
I1218 02:23:55.329941 11857 layer_factory.hpp:77] Creating layer fc6
I1218 02:23:55.329951 11857 net.cpp:100] Creating Layer fc6
I1218 02:23:55.329955 11857 net.cpp:434] fc6 <- pool5
I1218 02:23:55.329960 11857 net.cpp:408] fc6 -> fc6
I1218 02:23:55.350971 11857 net.cpp:150] Setting up fc6
I1218 02:23:55.350992 11857 net.cpp:157] Top shape: 8 1024 32 32 (8388608)
I1218 02:23:55.350996 11857 net.cpp:165] Memory required for data: 4944511008
I1218 02:23:55.351004 11857 layer_factory.hpp:77] Creating layer relu6
I1218 02:23:55.351011 11857 net.cpp:100] Creating Layer relu6
I1218 02:23:55.351022 11857 net.cpp:434] relu6 <- fc6
I1218 02:23:55.351030 11857 net.cpp:395] relu6 -> fc6 (in-place)
I1218 02:23:55.351227 11857 net.cpp:150] Setting up relu6
I1218 02:23:55.351234 11857 net.cpp:157] Top shape: 8 1024 32 32 (8388608)
I1218 02:23:55.351239 11857 net.cpp:165] Memory required for data: 4978065440
I1218 02:23:55.351243 11857 layer_factory.hpp:77] Creating layer fc7
I1218 02:23:55.351253 11857 net.cpp:100] Creating Layer fc7
I1218 02:23:55.351258 11857 net.cpp:434] fc7 <- fc6
I1218 02:23:55.351266 11857 net.cpp:408] fc7 -> fc7
I1218 02:23:55.358003 11857 net.cpp:150] Setting up fc7
I1218 02:23:55.358032 11857 net.cpp:157] Top shape: 8 1024 32 32 (8388608)
I1218 02:23:55.358036 11857 net.cpp:165] Memory required for data: 5011619872
I1218 02:23:55.358057 11857 layer_factory.hpp:77] Creating layer relu7
I1218 02:23:55.358065 11857 net.cpp:100] Creating Layer relu7
I1218 02:23:55.358083 11857 net.cpp:434] relu7 <- fc7
I1218 02:23:55.358089 11857 net.cpp:395] relu7 -> fc7 (in-place)
I1218 02:23:55.358294 11857 net.cpp:150] Setting up relu7
I1218 02:23:55.358300 11857 net.cpp:157] Top shape: 8 1024 32 32 (8388608)
I1218 02:23:55.358304 11857 net.cpp:165] Memory required for data: 5045174304
I1218 02:23:55.358309 11857 layer_factory.hpp:77] Creating layer fc7_relu7_0_split
I1218 02:23:55.358330 11857 net.cpp:100] Creating Layer fc7_relu7_0_split
I1218 02:23:55.358333 11857 net.cpp:434] fc7_relu7_0_split <- fc7
I1218 02:23:55.358340 11857 net.cpp:408] fc7_relu7_0_split -> fc7_relu7_0_split_0
I1218 02:23:55.358361 11857 net.cpp:408] fc7_relu7_0_split -> fc7_relu7_0_split_1
I1218 02:23:55.358386 11857 net.cpp:408] fc7_relu7_0_split -> fc7_relu7_0_split_2
I1218 02:23:55.358407 11857 net.cpp:408] fc7_relu7_0_split -> fc7_relu7_0_split_3
I1218 02:23:55.358485 11857 net.cpp:150] Setting up fc7_relu7_0_split
I1218 02:23:55.358491 11857 net.cpp:157] Top shape: 8 1024 32 32 (8388608)
I1218 02:23:55.358497 11857 net.cpp:157] Top shape: 8 1024 32 32 (8388608)
I1218 02:23:55.358502 11857 net.cpp:157] Top shape: 8 1024 32 32 (8388608)
I1218 02:23:55.358520 11857 net.cpp:157] Top shape: 8 1024 32 32 (8388608)
I1218 02:23:55.358525 11857 net.cpp:165] Memory required for data: 5179392032
I1218 02:23:55.358528 11857 layer_factory.hpp:77] Creating layer conv6_1
I1218 02:23:55.358537 11857 net.cpp:100] Creating Layer conv6_1
I1218 02:23:55.358543 11857 net.cpp:434] conv6_1 <- fc7_relu7_0_split_0
I1218 02:23:55.358549 11857 net.cpp:408] conv6_1 -> conv6_1
I1218 02:23:55.361740 11857 net.cpp:150] Setting up conv6_1
I1218 02:23:55.361754 11857 net.cpp:157] Top shape: 8 256 32 32 (2097152)
I1218 02:23:55.361758 11857 net.cpp:165] Memory required for data: 5187780640
I1218 02:23:55.361764 11857 layer_factory.hpp:77] Creating layer conv6_1_relu
I1218 02:23:55.361788 11857 net.cpp:100] Creating Layer conv6_1_relu
I1218 02:23:55.361791 11857 net.cpp:434] conv6_1_relu <- conv6_1
I1218 02:23:55.361799 11857 net.cpp:395] conv6_1_relu -> conv6_1 (in-place)
I1218 02:23:55.362278 11857 net.cpp:150] Setting up conv6_1_relu
I1218 02:23:55.362289 11857 net.cpp:157] Top shape: 8 256 32 32 (2097152)
I1218 02:23:55.362293 11857 net.cpp:165] Memory required for data: 5196169248
I1218 02:23:55.362296 11857 layer_factory.hpp:77] Creating layer conv6_2
I1218 02:23:55.362321 11857 net.cpp:100] Creating Layer conv6_2
I1218 02:23:55.362326 11857 net.cpp:434] conv6_2 <- conv6_1
I1218 02:23:55.362346 11857 net.cpp:408] conv6_2 -> conv6_2
I1218 02:23:55.369164 11857 net.cpp:150] Setting up conv6_2
I1218 02:23:55.369180 11857 net.cpp:157] Top shape: 8 512 16 16 (1048576)
I1218 02:23:55.369185 11857 net.cpp:165] Memory required for data: 5200363552
I1218 02:23:55.369213 11857 layer_factory.hpp:77] Creating layer conv6_2_relu
I1218 02:23:55.369222 11857 net.cpp:100] Creating Layer conv6_2_relu
I1218 02:23:55.369226 11857 net.cpp:434] conv6_2_relu <- conv6_2
I1218 02:23:55.369235 11857 net.cpp:395] conv6_2_relu -> conv6_2 (in-place)
I1218 02:23:55.369412 11857 net.cpp:150] Setting up conv6_2_relu
I1218 02:23:55.369421 11857 net.cpp:157] Top shape: 8 512 16 16 (1048576)
I1218 02:23:55.369423 11857 net.cpp:165] Memory required for data: 5204557856
I1218 02:23:55.369428 11857 layer_factory.hpp:77] Creating layer conv6_2_conv6_2_relu_0_split
I1218 02:23:55.369449 11857 net.cpp:100] Creating Layer conv6_2_conv6_2_relu_0_split
I1218 02:23:55.369453 11857 net.cpp:434] conv6_2_conv6_2_relu_0_split <- conv6_2
I1218 02:23:55.369472 11857 net.cpp:408] conv6_2_conv6_2_relu_0_split -> conv6_2_conv6_2_relu_0_split_0
I1218 02:23:55.369480 11857 net.cpp:408] conv6_2_conv6_2_relu_0_split -> conv6_2_conv6_2_relu_0_split_1
I1218 02:23:55.369488 11857 net.cpp:408] conv6_2_conv6_2_relu_0_split -> conv6_2_conv6_2_relu_0_split_2
I1218 02:23:55.369494 11857 net.cpp:408] conv6_2_conv6_2_relu_0_split -> conv6_2_conv6_2_relu_0_split_3
I1218 02:23:55.369545 11857 net.cpp:150] Setting up conv6_2_conv6_2_relu_0_split
I1218 02:23:55.369552 11857 net.cpp:157] Top shape: 8 512 16 16 (1048576)
I1218 02:23:55.369556 11857 net.cpp:157] Top shape: 8 512 16 16 (1048576)
I1218 02:23:55.369561 11857 net.cpp:157] Top shape: 8 512 16 16 (1048576)
I1218 02:23:55.369565 11857 net.cpp:157] Top shape: 8 512 16 16 (1048576)
I1218 02:23:55.369570 11857 net.cpp:165] Memory required for data: 5221335072
I1218 02:23:55.369573 11857 layer_factory.hpp:77] Creating layer conv7_1
I1218 02:23:55.369598 11857 net.cpp:100] Creating Layer conv7_1
I1218 02:23:55.369603 11857 net.cpp:434] conv7_1 <- conv6_2_conv6_2_relu_0_split_0
I1218 02:23:55.369611 11857 net.cpp:408] conv7_1 -> conv7_1
I1218 02:23:55.370827 11857 net.cpp:150] Setting up conv7_1
I1218 02:23:55.370837 11857 net.cpp:157] Top shape: 8 128 16 16 (262144)
I1218 02:23:55.370842 11857 net.cpp:165] Memory required for data: 5222383648
I1218 02:23:55.370848 11857 layer_factory.hpp:77] Creating layer conv7_1_relu
I1218 02:23:55.370854 11857 net.cpp:100] Creating Layer conv7_1_relu
I1218 02:23:55.370872 11857 net.cpp:434] conv7_1_relu <- conv7_1
I1218 02:23:55.370879 11857 net.cpp:395] conv7_1_relu -> conv7_1 (in-place)
I1218 02:23:55.371035 11857 net.cpp:150] Setting up conv7_1_relu
I1218 02:23:55.371042 11857 net.cpp:157] Top shape: 8 128 16 16 (262144)
I1218 02:23:55.371047 11857 net.cpp:165] Memory required for data: 5223432224
I1218 02:23:55.371052 11857 layer_factory.hpp:77] Creating layer conv7_2
I1218 02:23:55.371060 11857 net.cpp:100] Creating Layer conv7_2
I1218 02:23:55.371078 11857 net.cpp:434] conv7_2 <- conv7_1
I1218 02:23:55.371098 11857 net.cpp:408] conv7_2 -> conv7_2
I1218 02:23:55.374131 11857 net.cpp:150] Setting up conv7_2
I1218 02:23:55.374156 11857 net.cpp:157] Top shape: 8 256 8 8 (131072)
I1218 02:23:55.374161 11857 net.cpp:165] Memory required for data: 5223956512
I1218 02:23:55.374168 11857 layer_factory.hpp:77] Creating layer conv7_2_relu
I1218 02:23:55.374173 11857 net.cpp:100] Creating Layer conv7_2_relu
I1218 02:23:55.374179 11857 net.cpp:434] conv7_2_relu <- conv7_2
I1218 02:23:55.374186 11857 net.cpp:395] conv7_2_relu -> conv7_2 (in-place)
I1218 02:23:55.374332 11857 net.cpp:150] Setting up conv7_2_relu
I1218 02:23:55.374341 11857 net.cpp:157] Top shape: 8 256 8 8 (131072)
I1218 02:23:55.374346 11857 net.cpp:165] Memory required for data: 5224480800
I1218 02:23:55.374349 11857 layer_factory.hpp:77] Creating layer conv7_2_conv7_2_relu_0_split
I1218 02:23:55.374356 11857 net.cpp:100] Creating Layer conv7_2_conv7_2_relu_0_split
I1218 02:23:55.374373 11857 net.cpp:434] conv7_2_conv7_2_relu_0_split <- conv7_2
I1218 02:23:55.374382 11857 net.cpp:408] conv7_2_conv7_2_relu_0_split -> conv7_2_conv7_2_relu_0_split_0
I1218 02:23:55.374402 11857 net.cpp:408] conv7_2_conv7_2_relu_0_split -> conv7_2_conv7_2_relu_0_split_1
I1218 02:23:55.374408 11857 net.cpp:408] conv7_2_conv7_2_relu_0_split -> conv7_2_conv7_2_relu_0_split_2
I1218 02:23:55.374414 11857 net.cpp:408] conv7_2_conv7_2_relu_0_split -> conv7_2_conv7_2_relu_0_split_3
I1218 02:23:55.374495 11857 net.cpp:150] Setting up conv7_2_conv7_2_relu_0_split
I1218 02:23:55.374502 11857 net.cpp:157] Top shape: 8 256 8 8 (131072)
I1218 02:23:55.374507 11857 net.cpp:157] Top shape: 8 256 8 8 (131072)
I1218 02:23:55.374511 11857 net.cpp:157] Top shape: 8 256 8 8 (131072)
I1218 02:23:55.374517 11857 net.cpp:157] Top shape: 8 256 8 8 (131072)
I1218 02:23:55.374521 11857 net.cpp:165] Memory required for data: 5226577952
I1218 02:23:55.374526 11857 layer_factory.hpp:77] Creating layer conv8_1
I1218 02:23:55.374534 11857 net.cpp:100] Creating Layer conv8_1
I1218 02:23:55.374539 11857 net.cpp:434] conv8_1 <- conv7_2_conv7_2_relu_0_split_0
I1218 02:23:55.374547 11857 net.cpp:408] conv8_1 -> conv8_1
I1218 02:23:55.375607 11857 net.cpp:150] Setting up conv8_1
I1218 02:23:55.375617 11857 net.cpp:157] Top shape: 8 128 8 8 (65536)
I1218 02:23:55.375622 11857 net.cpp:165] Memory required for data: 5226840096
I1218 02:23:55.375628 11857 layer_factory.hpp:77] Creating layer conv8_1_relu
I1218 02:23:55.375634 11857 net.cpp:100] Creating Layer conv8_1_relu
I1218 02:23:55.375639 11857 net.cpp:434] conv8_1_relu <- conv8_1
I1218 02:23:55.375646 11857 net.cpp:395] conv8_1_relu -> conv8_1 (in-place)
I1218 02:23:55.376098 11857 net.cpp:150] Setting up conv8_1_relu
I1218 02:23:55.376108 11857 net.cpp:157] Top shape: 8 128 8 8 (65536)
I1218 02:23:55.376113 11857 net.cpp:165] Memory required for data: 5227102240
I1218 02:23:55.376118 11857 layer_factory.hpp:77] Creating layer conv8_2
I1218 02:23:55.376128 11857 net.cpp:100] Creating Layer conv8_2
I1218 02:23:55.376133 11857 net.cpp:434] conv8_2 <- conv8_1
I1218 02:23:55.376142 11857 net.cpp:408] conv8_2 -> conv8_2
I1218 02:23:55.379200 11857 net.cpp:150] Setting up conv8_2
I1218 02:23:55.379212 11857 net.cpp:157] Top shape: 8 256 6 6 (73728)
I1218 02:23:55.379217 11857 net.cpp:165] Memory required for data: 5227397152
I1218 02:23:55.379225 11857 layer_factory.hpp:77] Creating layer conv8_2_relu
I1218 02:23:55.379231 11857 net.cpp:100] Creating Layer conv8_2_relu
I1218 02:23:55.379236 11857 net.cpp:434] conv8_2_relu <- conv8_2
I1218 02:23:55.379243 11857 net.cpp:395] conv8_2_relu -> conv8_2 (in-place)
I1218 02:23:55.379395 11857 net.cpp:150] Setting up conv8_2_relu
I1218 02:23:55.379405 11857 net.cpp:157] Top shape: 8 256 6 6 (73728)
I1218 02:23:55.379408 11857 net.cpp:165] Memory required for data: 5227692064
I1218 02:23:55.379412 11857 layer_factory.hpp:77] Creating layer conv8_2_conv8_2_relu_0_split
I1218 02:23:55.379420 11857 net.cpp:100] Creating Layer conv8_2_conv8_2_relu_0_split
I1218 02:23:55.379426 11857 net.cpp:434] conv8_2_conv8_2_relu_0_split <- conv8_2
I1218 02:23:55.379431 11857 net.cpp:408] conv8_2_conv8_2_relu_0_split -> conv8_2_conv8_2_relu_0_split_0
I1218 02:23:55.379449 11857 net.cpp:408] conv8_2_conv8_2_relu_0_split -> conv8_2_conv8_2_relu_0_split_1
I1218 02:23:55.379458 11857 net.cpp:408] conv8_2_conv8_2_relu_0_split -> conv8_2_conv8_2_relu_0_split_2
I1218 02:23:55.379467 11857 net.cpp:408] conv8_2_conv8_2_relu_0_split -> conv8_2_conv8_2_relu_0_split_3
I1218 02:23:55.379521 11857 net.cpp:150] Setting up conv8_2_conv8_2_relu_0_split
I1218 02:23:55.379528 11857 net.cpp:157] Top shape: 8 256 6 6 (73728)
I1218 02:23:55.379534 11857 net.cpp:157] Top shape: 8 256 6 6 (73728)
I1218 02:23:55.379539 11857 net.cpp:157] Top shape: 8 256 6 6 (73728)
I1218 02:23:55.379544 11857 net.cpp:157] Top shape: 8 256 6 6 (73728)
I1218 02:23:55.379549 11857 net.cpp:165] Memory required for data: 5228871712
I1218 02:23:55.379552 11857 layer_factory.hpp:77] Creating layer conv9_1
I1218 02:23:55.379562 11857 net.cpp:100] Creating Layer conv9_1
I1218 02:23:55.379568 11857 net.cpp:434] conv9_1 <- conv8_2_conv8_2_relu_0_split_0
I1218 02:23:55.379575 11857 net.cpp:408] conv9_1 -> conv9_1
I1218 02:23:55.380686 11857 net.cpp:150] Setting up conv9_1
I1218 02:23:55.380697 11857 net.cpp:157] Top shape: 8 128 6 6 (36864)
I1218 02:23:55.380702 11857 net.cpp:165] Memory required for data: 5229019168
I1218 02:23:55.380707 11857 layer_factory.hpp:77] Creating layer conv9_1_relu
I1218 02:23:55.380713 11857 net.cpp:100] Creating Layer conv9_1_relu
I1218 02:23:55.380718 11857 net.cpp:434] conv9_1_relu <- conv9_1
I1218 02:23:55.380726 11857 net.cpp:395] conv9_1_relu -> conv9_1 (in-place)
I1218 02:23:55.380867 11857 net.cpp:150] Setting up conv9_1_relu
I1218 02:23:55.380874 11857 net.cpp:157] Top shape: 8 128 6 6 (36864)
I1218 02:23:55.380880 11857 net.cpp:165] Memory required for data: 5229166624
I1218 02:23:55.380884 11857 layer_factory.hpp:77] Creating layer conv9_2
I1218 02:23:55.380893 11857 net.cpp:100] Creating Layer conv9_2
I1218 02:23:55.380898 11857 net.cpp:434] conv9_2 <- conv9_1
I1218 02:23:55.380906 11857 net.cpp:408] conv9_2 -> conv9_2
I1218 02:23:55.384043 11857 net.cpp:150] Setting up conv9_2
I1218 02:23:55.384055 11857 net.cpp:157] Top shape: 8 256 4 4 (32768)
I1218 02:23:55.384060 11857 net.cpp:165] Memory required for data: 5229297696
I1218 02:23:55.384068 11857 layer_factory.hpp:77] Creating layer conv9_2_relu
I1218 02:23:55.384074 11857 net.cpp:100] Creating Layer conv9_2_relu
I1218 02:23:55.384080 11857 net.cpp:434] conv9_2_relu <- conv9_2
I1218 02:23:55.384088 11857 net.cpp:395] conv9_2_relu -> conv9_2 (in-place)
I1218 02:23:55.384541 11857 net.cpp:150] Setting up conv9_2_relu
I1218 02:23:55.384557 11857 net.cpp:157] Top shape: 8 256 4 4 (32768)
I1218 02:23:55.384563 11857 net.cpp:165] Memory required for data: 5229428768
I1218 02:23:55.384582 11857 layer_factory.hpp:77] Creating layer conv9_2_conv9_2_relu_0_split
I1218 02:23:55.384590 11857 net.cpp:100] Creating Layer conv9_2_conv9_2_relu_0_split
I1218 02:23:55.384609 11857 net.cpp:434] conv9_2_conv9_2_relu_0_split <- conv9_2
I1218 02:23:55.384630 11857 net.cpp:408] conv9_2_conv9_2_relu_0_split -> conv9_2_conv9_2_relu_0_split_0
I1218 02:23:55.384637 11857 net.cpp:408] conv9_2_conv9_2_relu_0_split -> conv9_2_conv9_2_relu_0_split_1
I1218 02:23:55.384645 11857 net.cpp:408] conv9_2_conv9_2_relu_0_split -> conv9_2_conv9_2_relu_0_split_2
I1218 02:23:55.384692 11857 net.cpp:150] Setting up conv9_2_conv9_2_relu_0_split
I1218 02:23:55.384699 11857 net.cpp:157] Top shape: 8 256 4 4 (32768)
I1218 02:23:55.384704 11857 net.cpp:157] Top shape: 8 256 4 4 (32768)
I1218 02:23:55.384711 11857 net.cpp:157] Top shape: 8 256 4 4 (32768)
I1218 02:23:55.384714 11857 net.cpp:165] Memory required for data: 5229821984
I1218 02:23:55.384718 11857 layer_factory.hpp:77] Creating layer conv4_3_norm
I1218 02:23:55.384727 11857 net.cpp:100] Creating Layer conv4_3_norm
I1218 02:23:55.384732 11857 net.cpp:434] conv4_3_norm <- conv4_3_relu4_3_0_split_1
I1218 02:23:55.384738 11857 net.cpp:408] conv4_3_norm -> conv4_3_norm
I1218 02:23:55.384865 11857 net.cpp:150] Setting up conv4_3_norm
I1218 02:23:55.384871 11857 net.cpp:157] Top shape: 8 512 63 63 (16257024)
I1218 02:23:55.384887 11857 net.cpp:165] Memory required for data: 5294850080
I1218 02:23:55.384894 11857 layer_factory.hpp:77] Creating layer conv4_3_norm_conv4_3_norm_0_split
I1218 02:23:55.384901 11857 net.cpp:100] Creating Layer conv4_3_norm_conv4_3_norm_0_split
I1218 02:23:55.384905 11857 net.cpp:434] conv4_3_norm_conv4_3_norm_0_split <- conv4_3_norm
I1218 02:23:55.384912 11857 net.cpp:408] conv4_3_norm_conv4_3_norm_0_split -> conv4_3_norm_conv4_3_norm_0_split_0
I1218 02:23:55.384919 11857 net.cpp:408] conv4_3_norm_conv4_3_norm_0_split -> conv4_3_norm_conv4_3_norm_0_split_1
I1218 02:23:55.384927 11857 net.cpp:408] conv4_3_norm_conv4_3_norm_0_split -> conv4_3_norm_conv4_3_norm_0_split_2
I1218 02:23:55.384965 11857 net.cpp:150] Setting up conv4_3_norm_conv4_3_norm_0_split
I1218 02:23:55.384973 11857 net.cpp:157] Top shape: 8 512 63 63 (16257024)
I1218 02:23:55.384977 11857 net.cpp:157] Top shape: 8 512 63 63 (16257024)
I1218 02:23:55.384982 11857 net.cpp:157] Top shape: 8 512 63 63 (16257024)
I1218 02:23:55.384987 11857 net.cpp:165] Memory required for data: 5489934368
I1218 02:23:55.384992 11857 layer_factory.hpp:77] Creating layer conv4_3_norm_mbox_loc
I1218 02:23:55.385000 11857 net.cpp:100] Creating Layer conv4_3_norm_mbox_loc
I1218 02:23:55.385005 11857 net.cpp:434] conv4_3_norm_mbox_loc <- conv4_3_norm_conv4_3_norm_0_split_0
I1218 02:23:55.385013 11857 net.cpp:408] conv4_3_norm_mbox_loc -> conv4_3_norm_mbox_loc
I1218 02:23:55.386540 11857 net.cpp:150] Setting up conv4_3_norm_mbox_loc
I1218 02:23:55.386551 11857 net.cpp:157] Top shape: 8 16 63 63 (508032)
I1218 02:23:55.386556 11857 net.cpp:165] Memory required for data: 5491966496
I1218 02:23:55.386562 11857 layer_factory.hpp:77] Creating layer conv4_3_norm_mbox_loc_perm
I1218 02:23:55.386570 11857 net.cpp:100] Creating Layer conv4_3_norm_mbox_loc_perm
I1218 02:23:55.386575 11857 net.cpp:434] conv4_3_norm_mbox_loc_perm <- conv4_3_norm_mbox_loc
I1218 02:23:55.386584 11857 net.cpp:408] conv4_3_norm_mbox_loc_perm -> conv4_3_norm_mbox_loc_perm
I1218 02:23:55.386672 11857 net.cpp:150] Setting up conv4_3_norm_mbox_loc_perm
I1218 02:23:55.386678 11857 net.cpp:157] Top shape: 8 63 63 16 (508032)
I1218 02:23:55.386683 11857 net.cpp:165] Memory required for data: 5493998624
I1218 02:23:55.386687 11857 layer_factory.hpp:77] Creating layer conv4_3_norm_mbox_loc_flat
I1218 02:23:55.386695 11857 net.cpp:100] Creating Layer conv4_3_norm_mbox_loc_flat
I1218 02:23:55.386700 11857 net.cpp:434] conv4_3_norm_mbox_loc_flat <- conv4_3_norm_mbox_loc_perm
I1218 02:23:55.386708 11857 net.cpp:408] conv4_3_norm_mbox_loc_flat -> conv4_3_norm_mbox_loc_flat
I1218 02:23:55.386736 11857 net.cpp:150] Setting up conv4_3_norm_mbox_loc_flat
I1218 02:23:55.386744 11857 net.cpp:157] Top shape: 8 63504 (508032)
I1218 02:23:55.386749 11857 net.cpp:165] Memory required for data: 5496030752
I1218 02:23:55.386752 11857 layer_factory.hpp:77] Creating layer conv4_3_norm_mbox_conf
I1218 02:23:55.386766 11857 net.cpp:100] Creating Layer conv4_3_norm_mbox_conf
I1218 02:23:55.386771 11857 net.cpp:434] conv4_3_norm_mbox_conf <- conv4_3_norm_conv4_3_norm_0_split_1
I1218 02:23:55.386780 11857 net.cpp:408] conv4_3_norm_mbox_conf -> conv4_3_norm_mbox_conf
I1218 02:23:55.388177 11857 net.cpp:150] Setting up conv4_3_norm_mbox_conf
I1218 02:23:55.388187 11857 net.cpp:157] Top shape: 8 8 63 63 (254016)
I1218 02:23:55.388192 11857 net.cpp:165] Memory required for data: 5497046816
I1218 02:23:55.388200 11857 layer_factory.hpp:77] Creating layer conv4_3_norm_mbox_conf_perm
I1218 02:23:55.388206 11857 net.cpp:100] Creating Layer conv4_3_norm_mbox_conf_perm
I1218 02:23:55.388212 11857 net.cpp:434] conv4_3_norm_mbox_conf_perm <- conv4_3_norm_mbox_conf
I1218 02:23:55.388219 11857 net.cpp:408] conv4_3_norm_mbox_conf_perm -> conv4_3_norm_mbox_conf_perm
I1218 02:23:55.388308 11857 net.cpp:150] Setting up conv4_3_norm_mbox_conf_perm
I1218 02:23:55.388314 11857 net.cpp:157] Top shape: 8 63 63 8 (254016)
I1218 02:23:55.388319 11857 net.cpp:165] Memory required for data: 5498062880
I1218 02:23:55.388324 11857 layer_factory.hpp:77] Creating layer conv4_3_norm_mbox_conf_flat
I1218 02:23:55.388337 11857 net.cpp:100] Creating Layer conv4_3_norm_mbox_conf_flat
I1218 02:23:55.388343 11857 net.cpp:434] conv4_3_norm_mbox_conf_flat <- conv4_3_norm_mbox_conf_perm
I1218 02:23:55.388350 11857 net.cpp:408] conv4_3_norm_mbox_conf_flat -> conv4_3_norm_mbox_conf_flat
I1218 02:23:55.388372 11857 net.cpp:150] Setting up conv4_3_norm_mbox_conf_flat
I1218 02:23:55.388379 11857 net.cpp:157] Top shape: 8 31752 (254016)
I1218 02:23:55.388383 11857 net.cpp:165] Memory required for data: 5499078944
I1218 02:23:55.388387 11857 layer_factory.hpp:77] Creating layer conv4_3_norm_mbox_priorbox
I1218 02:23:55.388394 11857 net.cpp:100] Creating Layer conv4_3_norm_mbox_priorbox
I1218 02:23:55.388399 11857 net.cpp:434] conv4_3_norm_mbox_priorbox <- conv4_3_norm_conv4_3_norm_0_split_2
I1218 02:23:55.388406 11857 net.cpp:434] conv4_3_norm_mbox_priorbox <- data_data_0_split_1
I1218 02:23:55.388412 11857 net.cpp:408] conv4_3_norm_mbox_priorbox -> conv4_3_norm_mbox_priorbox
I1218 02:23:55.388437 11857 net.cpp:150] Setting up conv4_3_norm_mbox_priorbox
I1218 02:23:55.388444 11857 net.cpp:157] Top shape: 1 2 63504 (127008)
I1218 02:23:55.388448 11857 net.cpp:165] Memory required for data: 5499586976
I1218 02:23:55.388453 11857 layer_factory.hpp:77] Creating layer fc7_mbox_loc
I1218 02:23:55.388461 11857 net.cpp:100] Creating Layer fc7_mbox_loc
I1218 02:23:55.388468 11857 net.cpp:434] fc7_mbox_loc <- fc7_relu7_0_split_1
I1218 02:23:55.388475 11857 net.cpp:408] fc7_mbox_loc -> fc7_mbox_loc
I1218 02:23:55.390663 11857 net.cpp:150] Setting up fc7_mbox_loc
I1218 02:23:55.390676 11857 net.cpp:157] Top shape: 8 24 32 32 (196608)
I1218 02:23:55.390679 11857 net.cpp:165] Memory required for data: 5500373408
I1218 02:23:55.390687 11857 layer_factory.hpp:77] Creating layer fc7_mbox_loc_perm
I1218 02:23:55.390696 11857 net.cpp:100] Creating Layer fc7_mbox_loc_perm
I1218 02:23:55.390702 11857 net.cpp:434] fc7_mbox_loc_perm <- fc7_mbox_loc
I1218 02:23:55.390709 11857 net.cpp:408] fc7_mbox_loc_perm -> fc7_mbox_loc_perm
I1218 02:23:55.390796 11857 net.cpp:150] Setting up fc7_mbox_loc_perm
I1218 02:23:55.390805 11857 net.cpp:157] Top shape: 8 32 32 24 (196608)
I1218 02:23:55.390808 11857 net.cpp:165] Memory required for data: 5501159840
I1218 02:23:55.390813 11857 layer_factory.hpp:77] Creating layer fc7_mbox_loc_flat
I1218 02:23:55.390818 11857 net.cpp:100] Creating Layer fc7_mbox_loc_flat
I1218 02:23:55.390822 11857 net.cpp:434] fc7_mbox_loc_flat <- fc7_mbox_loc_perm
I1218 02:23:55.390828 11857 net.cpp:408] fc7_mbox_loc_flat -> fc7_mbox_loc_flat
I1218 02:23:55.390849 11857 net.cpp:150] Setting up fc7_mbox_loc_flat
I1218 02:23:55.390856 11857 net.cpp:157] Top shape: 8 24576 (196608)
I1218 02:23:55.390861 11857 net.cpp:165] Memory required for data: 5501946272
I1218 02:23:55.390866 11857 layer_factory.hpp:77] Creating layer fc7_mbox_conf
I1218 02:23:55.390874 11857 net.cpp:100] Creating Layer fc7_mbox_conf
I1218 02:23:55.390879 11857 net.cpp:434] fc7_mbox_conf <- fc7_relu7_0_split_2
I1218 02:23:55.390887 11857 net.cpp:408] fc7_mbox_conf -> fc7_mbox_conf
I1218 02:23:55.392614 11857 net.cpp:150] Setting up fc7_mbox_conf
I1218 02:23:55.392627 11857 net.cpp:157] Top shape: 8 12 32 32 (98304)
I1218 02:23:55.392632 11857 net.cpp:165] Memory required for data: 5502339488
I1218 02:23:55.392637 11857 layer_factory.hpp:77] Creating layer fc7_mbox_conf_perm
I1218 02:23:55.392644 11857 net.cpp:100] Creating Layer fc7_mbox_conf_perm
I1218 02:23:55.392650 11857 net.cpp:434] fc7_mbox_conf_perm <- fc7_mbox_conf
I1218 02:23:55.392657 11857 net.cpp:408] fc7_mbox_conf_perm -> fc7_mbox_conf_perm
I1218 02:23:55.392747 11857 net.cpp:150] Setting up fc7_mbox_conf_perm
I1218 02:23:55.392753 11857 net.cpp:157] Top shape: 8 32 32 12 (98304)
I1218 02:23:55.392758 11857 net.cpp:165] Memory required for data: 5502732704
I1218 02:23:55.392762 11857 layer_factory.hpp:77] Creating layer fc7_mbox_conf_flat
I1218 02:23:55.392767 11857 net.cpp:100] Creating Layer fc7_mbox_conf_flat
I1218 02:23:55.392772 11857 net.cpp:434] fc7_mbox_conf_flat <- fc7_mbox_conf_perm
I1218 02:23:55.392791 11857 net.cpp:408] fc7_mbox_conf_flat -> fc7_mbox_conf_flat
I1218 02:23:55.392813 11857 net.cpp:150] Setting up fc7_mbox_conf_flat
I1218 02:23:55.392819 11857 net.cpp:157] Top shape: 8 12288 (98304)
I1218 02:23:55.392823 11857 net.cpp:165] Memory required for data: 5503125920
I1218 02:23:55.392828 11857 layer_factory.hpp:77] Creating layer fc7_mbox_priorbox
I1218 02:23:55.392834 11857 net.cpp:100] Creating Layer fc7_mbox_priorbox
I1218 02:23:55.392840 11857 net.cpp:434] fc7_mbox_priorbox <- fc7_relu7_0_split_3
I1218 02:23:55.392846 11857 net.cpp:434] fc7_mbox_priorbox <- data_data_0_split_2
I1218 02:23:55.392854 11857 net.cpp:408] fc7_mbox_priorbox -> fc7_mbox_priorbox
I1218 02:23:55.392877 11857 net.cpp:150] Setting up fc7_mbox_priorbox
I1218 02:23:55.392884 11857 net.cpp:157] Top shape: 1 2 24576 (49152)
I1218 02:23:55.392889 11857 net.cpp:165] Memory required for data: 5503322528
I1218 02:23:55.392892 11857 layer_factory.hpp:77] Creating layer conv6_2_mbox_loc
I1218 02:23:55.392901 11857 net.cpp:100] Creating Layer conv6_2_mbox_loc
I1218 02:23:55.392907 11857 net.cpp:434] conv6_2_mbox_loc <- conv6_2_conv6_2_relu_0_split_1
I1218 02:23:55.392915 11857 net.cpp:408] conv6_2_mbox_loc -> conv6_2_mbox_loc
I1218 02:23:55.394615 11857 net.cpp:150] Setting up conv6_2_mbox_loc
I1218 02:23:55.394625 11857 net.cpp:157] Top shape: 8 24 16 16 (49152)
I1218 02:23:55.394630 11857 net.cpp:165] Memory required for data: 5503519136
I1218 02:23:55.394637 11857 layer_factory.hpp:77] Creating layer conv6_2_mbox_loc_perm
I1218 02:23:55.394644 11857 net.cpp:100] Creating Layer conv6_2_mbox_loc_perm
I1218 02:23:55.394649 11857 net.cpp:434] conv6_2_mbox_loc_perm <- conv6_2_mbox_loc
I1218 02:23:55.394656 11857 net.cpp:408] conv6_2_mbox_loc_perm -> conv6_2_mbox_loc_perm
I1218 02:23:55.394742 11857 net.cpp:150] Setting up conv6_2_mbox_loc_perm
I1218 02:23:55.394749 11857 net.cpp:157] Top shape: 8 16 16 24 (49152)
I1218 02:23:55.394753 11857 net.cpp:165] Memory required for data: 5503715744
I1218 02:23:55.394757 11857 layer_factory.hpp:77] Creating layer conv6_2_mbox_loc_flat
I1218 02:23:55.394764 11857 net.cpp:100] Creating Layer conv6_2_mbox_loc_flat
I1218 02:23:55.394770 11857 net.cpp:434] conv6_2_mbox_loc_flat <- conv6_2_mbox_loc_perm
I1218 02:23:55.394776 11857 net.cpp:408] conv6_2_mbox_loc_flat -> conv6_2_mbox_loc_flat
I1218 02:23:55.394798 11857 net.cpp:150] Setting up conv6_2_mbox_loc_flat
I1218 02:23:55.394804 11857 net.cpp:157] Top shape: 8 6144 (49152)
I1218 02:23:55.394809 11857 net.cpp:165] Memory required for data: 5503912352
I1218 02:23:55.394812 11857 layer_factory.hpp:77] Creating layer conv6_2_mbox_conf
I1218 02:23:55.394820 11857 net.cpp:100] Creating Layer conv6_2_mbox_conf
I1218 02:23:55.394826 11857 net.cpp:434] conv6_2_mbox_conf <- conv6_2_conv6_2_relu_0_split_2
I1218 02:23:55.394834 11857 net.cpp:408] conv6_2_mbox_conf -> conv6_2_mbox_conf
I1218 02:23:55.396318 11857 net.cpp:150] Setting up conv6_2_mbox_conf
I1218 02:23:55.396328 11857 net.cpp:157] Top shape: 8 12 16 16 (24576)
I1218 02:23:55.396334 11857 net.cpp:165] Memory required for data: 5504010656
I1218 02:23:55.396342 11857 layer_factory.hpp:77] Creating layer conv6_2_mbox_conf_perm
I1218 02:23:55.396351 11857 net.cpp:100] Creating Layer conv6_2_mbox_conf_perm
I1218 02:23:55.396358 11857 net.cpp:434] conv6_2_mbox_conf_perm <- conv6_2_mbox_conf
I1218 02:23:55.396363 11857 net.cpp:408] conv6_2_mbox_conf_perm -> conv6_2_mbox_conf_perm
I1218 02:23:55.396450 11857 net.cpp:150] Setting up conv6_2_mbox_conf_perm
I1218 02:23:55.396456 11857 net.cpp:157] Top shape: 8 16 16 12 (24576)
I1218 02:23:55.396462 11857 net.cpp:165] Memory required for data: 5504108960
I1218 02:23:55.396466 11857 layer_factory.hpp:77] Creating layer conv6_2_mbox_conf_flat
I1218 02:23:55.396472 11857 net.cpp:100] Creating Layer conv6_2_mbox_conf_flat
I1218 02:23:55.396478 11857 net.cpp:434] conv6_2_mbox_conf_flat <- conv6_2_mbox_conf_perm
I1218 02:23:55.396484 11857 net.cpp:408] conv6_2_mbox_conf_flat -> conv6_2_mbox_conf_flat
I1218 02:23:55.396514 11857 net.cpp:150] Setting up conv6_2_mbox_conf_flat
I1218 02:23:55.396522 11857 net.cpp:157] Top shape: 8 3072 (24576)
I1218 02:23:55.396526 11857 net.cpp:165] Memory required for data: 5504207264
I1218 02:23:55.396530 11857 layer_factory.hpp:77] Creating layer conv6_2_mbox_priorbox
I1218 02:23:55.396538 11857 net.cpp:100] Creating Layer conv6_2_mbox_priorbox
I1218 02:23:55.396543 11857 net.cpp:434] conv6_2_mbox_priorbox <- conv6_2_conv6_2_relu_0_split_3
I1218 02:23:55.396587 11857 net.cpp:434] conv6_2_mbox_priorbox <- data_data_0_split_3
I1218 02:23:55.396596 11857 net.cpp:408] conv6_2_mbox_priorbox -> conv6_2_mbox_priorbox
I1218 02:23:55.396648 11857 net.cpp:150] Setting up conv6_2_mbox_priorbox
I1218 02:23:55.396656 11857 net.cpp:157] Top shape: 1 2 6144 (12288)
I1218 02:23:55.396661 11857 net.cpp:165] Memory required for data: 5504256416
I1218 02:23:55.396664 11857 layer_factory.hpp:77] Creating layer conv7_2_mbox_loc
I1218 02:23:55.396687 11857 net.cpp:100] Creating Layer conv7_2_mbox_loc
I1218 02:23:55.396692 11857 net.cpp:434] conv7_2_mbox_loc <- conv7_2_conv7_2_relu_0_split_1
I1218 02:23:55.396700 11857 net.cpp:408] conv7_2_mbox_loc -> conv7_2_mbox_loc
I1218 02:23:55.398195 11857 net.cpp:150] Setting up conv7_2_mbox_loc
I1218 02:23:55.398205 11857 net.cpp:157] Top shape: 8 24 8 8 (12288)
I1218 02:23:55.398210 11857 net.cpp:165] Memory required for data: 5504305568
I1218 02:23:55.398216 11857 layer_factory.hpp:77] Creating layer conv7_2_mbox_loc_perm
I1218 02:23:55.398222 11857 net.cpp:100] Creating Layer conv7_2_mbox_loc_perm
I1218 02:23:55.398228 11857 net.cpp:434] conv7_2_mbox_loc_perm <- conv7_2_mbox_loc
I1218 02:23:55.398236 11857 net.cpp:408] conv7_2_mbox_loc_perm -> conv7_2_mbox_loc_perm
I1218 02:23:55.398324 11857 net.cpp:150] Setting up conv7_2_mbox_loc_perm
I1218 02:23:55.398330 11857 net.cpp:157] Top shape: 8 8 8 24 (12288)
I1218 02:23:55.398335 11857 net.cpp:165] Memory required for data: 5504354720
I1218 02:23:55.398339 11857 layer_factory.hpp:77] Creating layer conv7_2_mbox_loc_flat
I1218 02:23:55.398346 11857 net.cpp:100] Creating Layer conv7_2_mbox_loc_flat
I1218 02:23:55.398351 11857 net.cpp:434] conv7_2_mbox_loc_flat <- conv7_2_mbox_loc_perm
I1218 02:23:55.398358 11857 net.cpp:408] conv7_2_mbox_loc_flat -> conv7_2_mbox_loc_flat
I1218 02:23:55.398380 11857 net.cpp:150] Setting up conv7_2_mbox_loc_flat
I1218 02:23:55.398386 11857 net.cpp:157] Top shape: 8 1536 (12288)
I1218 02:23:55.398391 11857 net.cpp:165] Memory required for data: 5504403872
I1218 02:23:55.398394 11857 layer_factory.hpp:77] Creating layer conv7_2_mbox_conf
I1218 02:23:55.398404 11857 net.cpp:100] Creating Layer conv7_2_mbox_conf
I1218 02:23:55.398409 11857 net.cpp:434] conv7_2_mbox_conf <- conv7_2_conv7_2_relu_0_split_2
I1218 02:23:55.398416 11857 net.cpp:408] conv7_2_mbox_conf -> conv7_2_mbox_conf
I1218 02:23:55.399793 11857 net.cpp:150] Setting up conv7_2_mbox_conf
I1218 02:23:55.399804 11857 net.cpp:157] Top shape: 8 12 8 8 (6144)
I1218 02:23:55.399808 11857 net.cpp:165] Memory required for data: 5504428448
I1218 02:23:55.399816 11857 layer_factory.hpp:77] Creating layer conv7_2_mbox_conf_perm
I1218 02:23:55.399821 11857 net.cpp:100] Creating Layer conv7_2_mbox_conf_perm
I1218 02:23:55.399827 11857 net.cpp:434] conv7_2_mbox_conf_perm <- conv7_2_mbox_conf
I1218 02:23:55.399835 11857 net.cpp:408] conv7_2_mbox_conf_perm -> conv7_2_mbox_conf_perm
I1218 02:23:55.399925 11857 net.cpp:150] Setting up conv7_2_mbox_conf_perm
I1218 02:23:55.399932 11857 net.cpp:157] Top shape: 8 8 8 12 (6144)
I1218 02:23:55.399937 11857 net.cpp:165] Memory required for data: 5504453024
I1218 02:23:55.399940 11857 layer_factory.hpp:77] Creating layer conv7_2_mbox_conf_flat
I1218 02:23:55.399946 11857 net.cpp:100] Creating Layer conv7_2_mbox_conf_flat
I1218 02:23:55.399952 11857 net.cpp:434] conv7_2_mbox_conf_flat <- conv7_2_mbox_conf_perm
I1218 02:23:55.399960 11857 net.cpp:408] conv7_2_mbox_conf_flat -> conv7_2_mbox_conf_flat
I1218 02:23:55.399981 11857 net.cpp:150] Setting up conv7_2_mbox_conf_flat
I1218 02:23:55.399986 11857 net.cpp:157] Top shape: 8 768 (6144)
I1218 02:23:55.399998 11857 net.cpp:165] Memory required for data: 5504477600
I1218 02:23:55.400004 11857 layer_factory.hpp:77] Creating layer conv7_2_mbox_priorbox
I1218 02:23:55.400010 11857 net.cpp:100] Creating Layer conv7_2_mbox_priorbox
I1218 02:23:55.400015 11857 net.cpp:434] conv7_2_mbox_priorbox <- conv7_2_conv7_2_relu_0_split_3
I1218 02:23:55.400022 11857 net.cpp:434] conv7_2_mbox_priorbox <- data_data_0_split_4
I1218 02:23:55.400029 11857 net.cpp:408] conv7_2_mbox_priorbox -> conv7_2_mbox_priorbox
I1218 02:23:55.400051 11857 net.cpp:150] Setting up conv7_2_mbox_priorbox
I1218 02:23:55.400058 11857 net.cpp:157] Top shape: 1 2 1536 (3072)
I1218 02:23:55.400063 11857 net.cpp:165] Memory required for data: 5504489888
I1218 02:23:55.400066 11857 layer_factory.hpp:77] Creating layer conv8_2_mbox_loc
I1218 02:23:55.400075 11857 net.cpp:100] Creating Layer conv8_2_mbox_loc
I1218 02:23:55.400080 11857 net.cpp:434] conv8_2_mbox_loc <- conv8_2_conv8_2_relu_0_split_1
I1218 02:23:55.400089 11857 net.cpp:408] conv8_2_mbox_loc -> conv8_2_mbox_loc
I1218 02:23:55.401541 11857 net.cpp:150] Setting up conv8_2_mbox_loc
I1218 02:23:55.401553 11857 net.cpp:157] Top shape: 8 16 6 6 (4608)
I1218 02:23:55.401559 11857 net.cpp:165] Memory required for data: 5504508320
I1218 02:23:55.401576 11857 layer_factory.hpp:77] Creating layer conv8_2_mbox_loc_perm
I1218 02:23:55.401583 11857 net.cpp:100] Creating Layer conv8_2_mbox_loc_perm
I1218 02:23:55.401588 11857 net.cpp:434] conv8_2_mbox_loc_perm <- conv8_2_mbox_loc
I1218 02:23:55.401597 11857 net.cpp:408] conv8_2_mbox_loc_perm -> conv8_2_mbox_loc_perm
I1218 02:23:55.401688 11857 net.cpp:150] Setting up conv8_2_mbox_loc_perm
I1218 02:23:55.401695 11857 net.cpp:157] Top shape: 8 6 6 16 (4608)
I1218 02:23:55.401700 11857 net.cpp:165] Memory required for data: 5504526752
I1218 02:23:55.401703 11857 layer_factory.hpp:77] Creating layer conv8_2_mbox_loc_flat
I1218 02:23:55.401710 11857 net.cpp:100] Creating Layer conv8_2_mbox_loc_flat
I1218 02:23:55.401716 11857 net.cpp:434] conv8_2_mbox_loc_flat <- conv8_2_mbox_loc_perm
I1218 02:23:55.401722 11857 net.cpp:408] conv8_2_mbox_loc_flat -> conv8_2_mbox_loc_flat
I1218 02:23:55.401743 11857 net.cpp:150] Setting up conv8_2_mbox_loc_flat
I1218 02:23:55.401751 11857 net.cpp:157] Top shape: 8 576 (4608)
I1218 02:23:55.401754 11857 net.cpp:165] Memory required for data: 5504545184
I1218 02:23:55.401758 11857 layer_factory.hpp:77] Creating layer conv8_2_mbox_conf
I1218 02:23:55.401767 11857 net.cpp:100] Creating Layer conv8_2_mbox_conf
I1218 02:23:55.401772 11857 net.cpp:434] conv8_2_mbox_conf <- conv8_2_conv8_2_relu_0_split_2
I1218 02:23:55.401779 11857 net.cpp:408] conv8_2_mbox_conf -> conv8_2_mbox_conf
I1218 02:23:55.403131 11857 net.cpp:150] Setting up conv8_2_mbox_conf
I1218 02:23:55.403141 11857 net.cpp:157] Top shape: 8 8 6 6 (2304)
I1218 02:23:55.403146 11857 net.cpp:165] Memory required for data: 5504554400
I1218 02:23:55.403153 11857 layer_factory.hpp:77] Creating layer conv8_2_mbox_conf_perm
I1218 02:23:55.403162 11857 net.cpp:100] Creating Layer conv8_2_mbox_conf_perm
I1218 02:23:55.403167 11857 net.cpp:434] conv8_2_mbox_conf_perm <- conv8_2_mbox_conf
I1218 02:23:55.403173 11857 net.cpp:408] conv8_2_mbox_conf_perm -> conv8_2_mbox_conf_perm
I1218 02:23:55.403264 11857 net.cpp:150] Setting up conv8_2_mbox_conf_perm
I1218 02:23:55.403271 11857 net.cpp:157] Top shape: 8 6 6 8 (2304)
I1218 02:23:55.403275 11857 net.cpp:165] Memory required for data: 5504563616
I1218 02:23:55.403280 11857 layer_factory.hpp:77] Creating layer conv8_2_mbox_conf_flat
I1218 02:23:55.403287 11857 net.cpp:100] Creating Layer conv8_2_mbox_conf_flat
I1218 02:23:55.403292 11857 net.cpp:434] conv8_2_mbox_conf_flat <- conv8_2_mbox_conf_perm
I1218 02:23:55.403298 11857 net.cpp:408] conv8_2_mbox_conf_flat -> conv8_2_mbox_conf_flat
I1218 02:23:55.403321 11857 net.cpp:150] Setting up conv8_2_mbox_conf_flat
I1218 02:23:55.403326 11857 net.cpp:157] Top shape: 8 288 (2304)
I1218 02:23:55.403331 11857 net.cpp:165] Memory required for data: 5504572832
I1218 02:23:55.403343 11857 layer_factory.hpp:77] Creating layer conv8_2_mbox_priorbox
I1218 02:23:55.403350 11857 net.cpp:100] Creating Layer conv8_2_mbox_priorbox
I1218 02:23:55.403357 11857 net.cpp:434] conv8_2_mbox_priorbox <- conv8_2_conv8_2_relu_0_split_3
I1218 02:23:55.403362 11857 net.cpp:434] conv8_2_mbox_priorbox <- data_data_0_split_5
I1218 02:23:55.403368 11857 net.cpp:408] conv8_2_mbox_priorbox -> conv8_2_mbox_priorbox
I1218 02:23:55.403391 11857 net.cpp:150] Setting up conv8_2_mbox_priorbox
I1218 02:23:55.403399 11857 net.cpp:157] Top shape: 1 2 576 (1152)
I1218 02:23:55.403404 11857 net.cpp:165] Memory required for data: 5504577440
I1218 02:23:55.403409 11857 layer_factory.hpp:77] Creating layer conv9_2_mbox_loc
I1218 02:23:55.403416 11857 net.cpp:100] Creating Layer conv9_2_mbox_loc
I1218 02:23:55.403422 11857 net.cpp:434] conv9_2_mbox_loc <- conv9_2_conv9_2_relu_0_split_0
I1218 02:23:55.403429 11857 net.cpp:408] conv9_2_mbox_loc -> conv9_2_mbox_loc
I1218 02:23:55.405561 11857 net.cpp:150] Setting up conv9_2_mbox_loc
I1218 02:23:55.405573 11857 net.cpp:157] Top shape: 8 16 4 4 (2048)
I1218 02:23:55.405577 11857 net.cpp:165] Memory required for data: 5504585632
I1218 02:23:55.405586 11857 layer_factory.hpp:77] Creating layer conv9_2_mbox_loc_perm
I1218 02:23:55.405592 11857 net.cpp:100] Creating Layer conv9_2_mbox_loc_perm
I1218 02:23:55.405598 11857 net.cpp:434] conv9_2_mbox_loc_perm <- conv9_2_mbox_loc
I1218 02:23:55.405606 11857 net.cpp:408] conv9_2_mbox_loc_perm -> conv9_2_mbox_loc_perm
I1218 02:23:55.405692 11857 net.cpp:150] Setting up conv9_2_mbox_loc_perm
I1218 02:23:55.405700 11857 net.cpp:157] Top shape: 8 4 4 16 (2048)
I1218 02:23:55.405704 11857 net.cpp:165] Memory required for data: 5504593824
I1218 02:23:55.405709 11857 layer_factory.hpp:77] Creating layer conv9_2_mbox_loc_flat
I1218 02:23:55.405715 11857 net.cpp:100] Creating Layer conv9_2_mbox_loc_flat
I1218 02:23:55.405720 11857 net.cpp:434] conv9_2_mbox_loc_flat <- conv9_2_mbox_loc_perm
I1218 02:23:55.405727 11857 net.cpp:408] conv9_2_mbox_loc_flat -> conv9_2_mbox_loc_flat
I1218 02:23:55.405748 11857 net.cpp:150] Setting up conv9_2_mbox_loc_flat
I1218 02:23:55.405755 11857 net.cpp:157] Top shape: 8 256 (2048)
I1218 02:23:55.405759 11857 net.cpp:165] Memory required for data: 5504602016
I1218 02:23:55.405763 11857 layer_factory.hpp:77] Creating layer conv9_2_mbox_conf
I1218 02:23:55.405772 11857 net.cpp:100] Creating Layer conv9_2_mbox_conf
I1218 02:23:55.405778 11857 net.cpp:434] conv9_2_mbox_conf <- conv9_2_conv9_2_relu_0_split_1
I1218 02:23:55.405786 11857 net.cpp:408] conv9_2_mbox_conf -> conv9_2_mbox_conf
I1218 02:23:55.406821 11857 net.cpp:150] Setting up conv9_2_mbox_conf
I1218 02:23:55.406832 11857 net.cpp:157] Top shape: 8 8 4 4 (1024)
I1218 02:23:55.406837 11857 net.cpp:165] Memory required for data: 5504606112
I1218 02:23:55.406843 11857 layer_factory.hpp:77] Creating layer conv9_2_mbox_conf_perm
I1218 02:23:55.406850 11857 net.cpp:100] Creating Layer conv9_2_mbox_conf_perm
I1218 02:23:55.406857 11857 net.cpp:434] conv9_2_mbox_conf_perm <- conv9_2_mbox_conf
I1218 02:23:55.406863 11857 net.cpp:408] conv9_2_mbox_conf_perm -> conv9_2_mbox_conf_perm
I1218 02:23:55.406949 11857 net.cpp:150] Setting up conv9_2_mbox_conf_perm
I1218 02:23:55.406955 11857 net.cpp:157] Top shape: 8 4 4 8 (1024)
I1218 02:23:55.406960 11857 net.cpp:165] Memory required for data: 5504610208
I1218 02:23:55.406965 11857 layer_factory.hpp:77] Creating layer conv9_2_mbox_conf_flat
I1218 02:23:55.406971 11857 net.cpp:100] Creating Layer conv9_2_mbox_conf_flat
I1218 02:23:55.406976 11857 net.cpp:434] conv9_2_mbox_conf_flat <- conv9_2_mbox_conf_perm
I1218 02:23:55.406982 11857 net.cpp:408] conv9_2_mbox_conf_flat -> conv9_2_mbox_conf_flat
I1218 02:23:55.407004 11857 net.cpp:150] Setting up conv9_2_mbox_conf_flat
I1218 02:23:55.407011 11857 net.cpp:157] Top shape: 8 128 (1024)
I1218 02:23:55.407014 11857 net.cpp:165] Memory required for data: 5504614304
I1218 02:23:55.407018 11857 layer_factory.hpp:77] Creating layer conv9_2_mbox_priorbox
I1218 02:23:55.407027 11857 net.cpp:100] Creating Layer conv9_2_mbox_priorbox
I1218 02:23:55.407040 11857 net.cpp:434] conv9_2_mbox_priorbox <- conv9_2_conv9_2_relu_0_split_2
I1218 02:23:55.407047 11857 net.cpp:434] conv9_2_mbox_priorbox <- data_data_0_split_6
I1218 02:23:55.407052 11857 net.cpp:408] conv9_2_mbox_priorbox -> conv9_2_mbox_priorbox
I1218 02:23:55.407078 11857 net.cpp:150] Setting up conv9_2_mbox_priorbox
I1218 02:23:55.407085 11857 net.cpp:157] Top shape: 1 2 256 (512)
I1218 02:23:55.407089 11857 net.cpp:165] Memory required for data: 5504616352
I1218 02:23:55.407094 11857 layer_factory.hpp:77] Creating layer mbox_loc
I1218 02:23:55.407100 11857 net.cpp:100] Creating Layer mbox_loc
I1218 02:23:55.407106 11857 net.cpp:434] mbox_loc <- conv4_3_norm_mbox_loc_flat
I1218 02:23:55.407112 11857 net.cpp:434] mbox_loc <- fc7_mbox_loc_flat
I1218 02:23:55.407119 11857 net.cpp:434] mbox_loc <- conv6_2_mbox_loc_flat
I1218 02:23:55.407124 11857 net.cpp:434] mbox_loc <- conv7_2_mbox_loc_flat
I1218 02:23:55.407130 11857 net.cpp:434] mbox_loc <- conv8_2_mbox_loc_flat
I1218 02:23:55.407135 11857 net.cpp:434] mbox_loc <- conv9_2_mbox_loc_flat
I1218 02:23:55.407140 11857 net.cpp:408] mbox_loc -> mbox_loc
I1218 02:23:55.407166 11857 net.cpp:150] Setting up mbox_loc
I1218 02:23:55.407172 11857 net.cpp:157] Top shape: 8 96592 (772736)
I1218 02:23:55.407177 11857 net.cpp:165] Memory required for data: 5507707296
I1218 02:23:55.407181 11857 layer_factory.hpp:77] Creating layer mbox_conf
I1218 02:23:55.407187 11857 net.cpp:100] Creating Layer mbox_conf
I1218 02:23:55.407193 11857 net.cpp:434] mbox_conf <- conv4_3_norm_mbox_conf_flat
I1218 02:23:55.407199 11857 net.cpp:434] mbox_conf <- fc7_mbox_conf_flat
I1218 02:23:55.407204 11857 net.cpp:434] mbox_conf <- conv6_2_mbox_conf_flat
I1218 02:23:55.407210 11857 net.cpp:434] mbox_conf <- conv7_2_mbox_conf_flat
I1218 02:23:55.407215 11857 net.cpp:434] mbox_conf <- conv8_2_mbox_conf_flat
I1218 02:23:55.407220 11857 net.cpp:434] mbox_conf <- conv9_2_mbox_conf_flat
I1218 02:23:55.407227 11857 net.cpp:408] mbox_conf -> mbox_conf
I1218 02:23:55.407248 11857 net.cpp:150] Setting up mbox_conf
I1218 02:23:55.407254 11857 net.cpp:157] Top shape: 8 48296 (386368)
I1218 02:23:55.407259 11857 net.cpp:165] Memory required for data: 5509252768
I1218 02:23:55.407263 11857 layer_factory.hpp:77] Creating layer mbox_priorbox
I1218 02:23:55.407269 11857 net.cpp:100] Creating Layer mbox_priorbox
I1218 02:23:55.407274 11857 net.cpp:434] mbox_priorbox <- conv4_3_norm_mbox_priorbox
I1218 02:23:55.407280 11857 net.cpp:434] mbox_priorbox <- fc7_mbox_priorbox
I1218 02:23:55.407285 11857 net.cpp:434] mbox_priorbox <- conv6_2_mbox_priorbox
I1218 02:23:55.407291 11857 net.cpp:434] mbox_priorbox <- conv7_2_mbox_priorbox
I1218 02:23:55.407296 11857 net.cpp:434] mbox_priorbox <- conv8_2_mbox_priorbox
I1218 02:23:55.407300 11857 net.cpp:434] mbox_priorbox <- conv9_2_mbox_priorbox
I1218 02:23:55.407306 11857 net.cpp:408] mbox_priorbox -> mbox_priorbox
I1218 02:23:55.407328 11857 net.cpp:150] Setting up mbox_priorbox
I1218 02:23:55.407335 11857 net.cpp:157] Top shape: 1 2 96592 (193184)
I1218 02:23:55.407338 11857 net.cpp:165] Memory required for data: 5510025504
I1218 02:23:55.407342 11857 layer_factory.hpp:77] Creating layer mbox_loss
I1218 02:23:55.407352 11857 net.cpp:100] Creating Layer mbox_loss
I1218 02:23:55.407357 11857 net.cpp:434] mbox_loss <- mbox_loc
I1218 02:23:55.407363 11857 net.cpp:434] mbox_loss <- mbox_conf
I1218 02:23:55.407368 11857 net.cpp:434] mbox_loss <- mbox_priorbox
…
  transform_param {
    mean_value: 128
    mean_value: 128
    mean_value: 128
    resize_param {
      prob: 1
      resize_mode: WARP
      height: 500
      width: 500
      interp_mode: LINEAR
    }
  }
  data_param {
    source: "/root/mount_out/work2018/cataract_recognition_train_test/detection/slit_train_test/slit_test_lmdb"
    batch_size: 1
    backend: LMDB
  }
  annotated_data_param {
    batch_sampler {
    }
    label_map_file: "/root/mount_out/work2018/cataract_recognition_train_test/detection/slit_train_test/labelmap_pupil.prototxt"
  }
}
layer {
  name: "conv1_1"
  type: "Convolution"
  bottom: "data"
  top: "conv1_1"
  param {
    lr_mult: 1
    decay_mult: 1
  }
  param {
    lr_mult: 2
    decay_mult: 0
  }
  convolution_param {
    num_output: 64
    pad: 1
    kernel_size: 3
    weight_filler {
      type: "xavier"
    }
    bias_filler {
      type: "constant"
      value: 0
    }
  }
}
layer {
  name: "relu1_1"
  type: "ReLU"
  bottom: "conv1_1"
  top: "conv1_1"
}
layer {
  name: "conv1_2"
  type: "Convolution"
  bottom: "conv1_1"
  top: "conv1_2"
  param {
    lr_mult: 1
    decay_mult: 1
  }
  param {
    lr_mult: 2
    decay_mult: 0
  }
  convolution_param {
    num_output: 64
    pad: 1
    kernel_size: 3
    weight_filler {
      type: "xavier"
    }
    bias_filler {
      type: "constant"
      value: 0
    }
  }
}
layer {
  name: "relu1_2"
  type: "ReLU"
  bottom: "conv1_2"
  top: "conv1_2"
}
layer {
  name: "pool1"
  type: "Pooling"
  bottom: "conv1_2"
  top: "pool1"
  pooling_param {
    pool: MAX
    kernel_size: 2
    stride: 2
  }
}
layer {
  name: "conv2_1"
  type: "Convolution"
  bottom: "pool1"
  top: "conv2_1"
  param {
    lr_mult: 1
    decay_mult: 1
  }
  param {
    lr_mult: 2
    decay_mult: 0
  }
  convolution_param {
    num_output: 128
    pad: 1
    kernel_size: 3
    weight_filler {
      type: "xavier"
    }
    bias_filler {
      type: "constant"
      value: 0
    }
  }
}
layer {
  name: "relu2_1"
  type: "ReLU"
  bottom: "conv2_1"
  top: "conv2_1"
}
layer {
  name: "conv2_2"
  type: "Convolution"
  bottom: "conv2_1"
  top: "conv2_2"
  param {
    lr_mult: 1
    decay_mult: 1
  }
  param {
    lr_mult: 2
    decay_mult: 0
  }
  convolution_param {
    num_output: 128
    pad: 1
    kernel_size: 3
    weight_filler {
      type: "xavier"
    }
    bias_filler {
      type: "constant"
      value: 0
    }
  }
}
layer {
  name: "relu2_2"
  type: "ReLU"
  bottom: "conv2_2"
  top: "conv2_2"
}
layer {
  name: "pool2"
  type: "Pooling"
  bottom: "conv2_2"
  top: "pool2"
  pooling_param {
    pool: MAX
    kernel_size: 2
    stride: 2
  }
}
layer {
  name: "conv3_1"
  type: "Convolution"
  bottom: "pool2"
  top: "conv3_1"
  param {
    lr_mult: 1
    decay_mult: 1
  }
  param {
    lr_mult: 2
    decay_mult: 0
  }
  convolution_param {
    num_output: 256
    pad: 1
    kernel_size: 3
    weight_filler {
      type: "xavier"
    }
    bias_filler {
      type: "constant"
      value: 0
    }
  }
}
layer {
  name: "relu3_1"
  type: "ReLU"
  bottom: "conv3_1"
  top: "conv3_1"
}
layer {
  name: "conv3_2"
  type: "Convolution"
  bottom: "conv3_1"
  top: "conv3_2"
  param {
    lr_mult: 1
    decay_mult: 1
  }
  param {
    lr_mult: 2
    decay_mult: 0
  }
  convolution_param {
    num_output: 256
    pad: 1
    kernel_size: 3
    weight_filler {
      type: "xavier"
    }
    bias_filler {
      type: "constant"
      value: 0
    }
  }
}
layer {
  name: "relu3_2"
  type: "ReLU"
  bottom: "conv3_2"
  top: "conv3_2"
}
layer {
  name: "conv3_3"
  type: "Convolution"
  bottom: "conv3_2"
  top: "conv3_3"
  param {
    lr_mult: 1
    decay_mult: 1
  }
  param {
    lr_mult: 2
    decay_mult: 0
  }
  convolution_param {
    num_output: 256
    pad: 1
    kernel_size: 3
    weight_filler {
      type: "xavier"
    }
    bias_filler {
      type: "constant"
      value: 0
    }
  }
}
layer {
  name: "relu3_3"
  type: "ReLU"
  bottom: "conv3_3"
  top: "conv3_3"
}
layer {
  name: "pool3"
  type: "Pooling"
  bottom: "conv3_3"
  top: "pool3"
  pooling_param {
    pool: MAX
    kernel_size: 2
    stride: 2
  }
}
layer {
  name: "conv4_1"
  type: "Convolution"
  bottom: "pool3"
  top: "conv4_1"
  param {
    lr_mult: 1
    decay_mult: 1
  }
  param {
    lr_mult: 2
    decay_mult: 0
  }
  convolution_param {
    num_output: 512
    pad: 1
    kernel_size: 3
    weight_filler {
      type: "xavier"
    }
    bias_filler {
      type: "constant"
      value: 0
    }
  }
}
layer {
  name: "relu4_1"
  type: "ReLU"
  bottom: "conv4_1"
  top: "conv4_1"
}
layer {
  name: "conv4_2"
  type: "Convolution"
  bottom: "conv4_1"
  top: "conv4_2"
  param {
    lr_mult: 1
    decay_mult: 1
  }
  param {
    lr_mult: 2
    decay_mult: 0
  }
  convolution_param {
    num_output: 512
    pad: 1
    kernel_size: 3
    weight_filler {
      type: "xavier"
    }
    bias_filler {
      type: "constant"
      value: 0
    }
  }
}
layer {
  name: "relu4_2"
  type: "ReLU"
  bottom: "conv4_2"
  top: "conv4_2"
}
layer {
  name: "conv4_3"
  type: "Convolution"
  bottom: "conv4_2"
  top: "conv4_3"
  param {
    lr_mult: 1
    decay_mult: 1
  }
  param {
    lr_mult: 2
    decay_mult: 0
  }
  convolution_param {
    num_output: 512
    pad: 1
    kernel_size: 3
    weight_filler {
      type: "xavier"
    }
    bias_filler {
      type: "constant"
      value: 0
    }
  }
}
layer {
  name: "relu4_3"
  type: "ReLU"
  bottom: "conv4_3"
  top: "conv4_3"
}
layer {
  name: "pool4"
  type: "Pooling"
  bottom: "conv4_3"
  top: "pool4"
  pooling_param {
    pool: MAX
    kernel_size: 2
    stride: 2
  }
}
layer {
  name: "conv5_1"
  type: "Convolution"
  bottom: "pool4"
  top: "conv5_1"
  param {
    lr_mult: 1
    decay_mult: 1
  }
  param {
    lr_mult: 2
    decay_mult: 0
  }
  convolution_param {
    num_output: 512
    pad: 1
    kernel_size: 3
    weight_filler {
      type: "xavier"
    }
    bias_filler {
      type: "constant"
      value: 0
    }
    dilation: 1
  }
}
layer {
  name: "relu5_1"
  type: "ReLU"
  bottom: "conv5_1"
  top: "conv5_1"
}
layer {
  name: "conv5_2"
  type: "Convolution"
  bottom: "conv5_1"
  top: "conv5_2"
  param {
    lr_mult: 1
    decay_mult: 1
  }
  param {
    lr_mult: 2
    decay_mult: 0
  }
  convolution_param {
    num_output: 512
    pad: 1
    kernel_size: 3
    weight_filler {
      type: "xavier"
    }
    bias_filler {
      type: "constant"
      value: 0
    }
    dilation: 1
  }
}
layer {
  name: "relu5_2"
  type: "ReLU"
  bottom: "conv5_2"
  top: "conv5_2"
}
layer {
  name: "conv5_3"
  type: "Convolution"
  bottom: "conv5_2"
  top: "conv5_3"
  param {
    lr_mult: 1
    decay_mult: 1
  }
  param {
    lr_mult: 2
    decay_mult: 0
  }
  convolution_param {
    num_output: 512
    pad: 1
    kernel_size: 3
    weight_filler {
      type: "xavier"
    }
    bias_filler {
      type: "constant"
      value: 0
    }
    dilation: 1
  }
}
layer {
  name: "relu5_3"
  type: "ReLU"
  bottom: "conv5_3"
  top: "conv5_3"
}
layer {
  name: "pool5"
  type: "Pooling"
  bottom: "conv5_3"
  top: "pool5"
  pooling_param {
    pool: MAX
    kernel_size: 3
    stride: 1
    pad: 1
  }
}
layer {
  name: "fc6"
  type: "Convolution"
  bottom: "pool5"
  top: "fc6"
  param {
    lr_mult: 1
    decay_mult: 1
  }
  param {
    lr_mult: 2
    decay_mult: 0
  }
  convolution_param {
    num_output: 1024
    pad: 6
    kernel_size: 3
    weight_filler {
      type: "xavier"
    }
    bias_filler {
      type: "constant"
      value: 0
    }
    dilation: 6
  }
}
layer {
  name: "relu6"
  type: "ReLU"
  bottom: "fc6"
  top: "fc6"
}
layer {
  name: "fc7"
  type: "Convolution"
  bottom: "fc6"
  top: "fc7"
  param {
    lr_mult: 1
    decay_mult: 1
  }
  param {
    lr_mult: 2
    decay_mult: 0
  }
  convolution_param {
    num_output: 1024
    kernel_size: 1
    weight_filler {
      type: "xavier"
    }
    bias_filler {
      type: "constant"
      value: 0
    }
  }
}
layer {
  name: "relu7"
  type: "ReLU"
  bottom: "fc7"
  top: "fc7"
}
layer {
  name: "conv6_1"
  type: "Convolution"
  bottom: "fc7"
  top: "conv6_1"
  param {
    lr_mult: 1
    decay_mult: 1
  }
  param {
    lr_mult: 2
    decay_mult: 0
  }
  convolution_param {
    num_output: 256
    pad: 0
    kernel_size: 1
    stride: 1
    weight_filler {
      type: "xavier"
    }
    bias_filler {
      type: "constant"
      value: 0
    }
  }
}
layer {
  name: "conv6_1_relu"
  type: "ReLU"
  bottom: "conv6_1"
  top: "conv6_1"
}
layer {
  name: "conv6_2"
  type: "Convolution"
  bottom: "conv6_1"
  top: "conv6_2"
  param {
    lr_mult: 1
    decay_mult: 1
  }
  param {
    lr_mult: 2
    decay_mult: 0
  }
  convolution_param {
    num_output: 512
    pad: 1
    kernel_size: 3
    stride: 2
    weight_filler {
      type: "xavier"
    }
    bias_filler {
      type: "constant"
      value: 0
    }
  }
}
layer {
  name: "conv6_2_relu"
  type: "ReLU"
  bottom: "conv6_2"
  top: "conv6_2"
}
layer {
  name: "conv7_1"
  type: "Convolution"
  bottom: "conv6_2"
  top: "conv7_1"
  param {
    lr_mult: 1
    decay_mult: 1
  }
  param {
    lr_mult: 2
    decay_mult: 0
  }
  convolution_param {
    num_output: 128
    pad: 0
    kernel_size: 1
    stride: 1
    weight_filler {
      type: "xavier"
    }
    bias_filler {
      type: "constant"
      value: 0
    }
  }
}
layer {
  name: "conv7_1_relu"
  type: "ReLU"
  bottom: "conv7_1"
  top: "conv7_1"
}
layer {
  name: "conv7_2"
  type: "Convolution"
  bottom: "conv7_1"
  top: "conv7_2"
  param {
    lr_mult: 1
    decay_mult: 1
  }
  param {
    lr_mult: 2
    decay_mult: 0
  }
  convolution_param {
    num_output: 256
    pad: 1
    kernel_size: 3
    stride: 2
    weight_filler {
      type: "xavier"
    }
    bias_filler {
      type: "constant"
      value: 0
    }
  }
}
layer {
  name: "conv7_2_relu"
  type: "ReLU"
  bottom: "conv7_2"
  top: "conv7_2"
}
layer {
  name: "conv8_1"
  type: "Convolution"
  bottom: "conv7_2"
  top: "conv8_1"
  param {
    lr_mult: 1
    decay_mult: 1
  }
  param {
    lr_mult: 2
    decay_mult: 0
  }
  convolution_param {
    num_output: 128
    pad: 0
    kernel_size: 1
    stride: 1
    weight_filler {
      type: "xavier"
    }
    bias_filler {
      type: "constant"
      value: 0
    }
  }
}
layer {
  name: "conv8_1_relu"
  type: "ReLU"
  bottom: "conv8_1"
  top: "conv8_1"
}
layer {
  name: "conv8_2"
  type: "Convolution"
  bottom: "conv8_1"
  top: "conv8_2"
  param {
    lr_mult: 1
    decay_mult: 1
  }
  param {
    lr_mult: 2
    decay_mult: 0
  }
  convolution_param {
    num_output: 256
    pad: 0
    kernel_size: 3
    stride: 1
    weight_filler {
      type: "xavier"
    }
    bias_filler {
      type: "constant"
      value: 0
    }
  }
}
layer {
  name: "conv8_2_relu"
  type: "ReLU"
  bottom: "conv8_2"
  top: "conv8_2"
}
layer {
  name: "conv9_1"
  type: "Convolution"
  bottom: "conv8_2"
  top: "conv9_1"
  param {
    lr_mult: 1
    decay_mult: 1
  }
  param {
    lr_mult: 2
    decay_mult: 0
  }
  convolution_param {
    num_output: 128
    pad: 0
    kernel_size: 1
    stride: 1
    weight_filler {
      type: "xavier"
    }
    bias_filler {
      type: "constant"
      value: 0
    }
  }
}
layer {
  name: "conv9_1_relu"
  type: "ReLU"
  bottom: "conv9_1"
  top: "conv9_1"
}
layer {
  name: "conv9_2"
  type: "Convolution"
  bottom: "conv9_1"
  top: "conv9_2"
  param {
    lr_mult: 1
    decay_mult: 1
  }
  param {
    lr_mult: 2
    decay_mult: 0
  }
  convolution_param {
    num_output: 256
    pad: 0
    kernel_size: 3
    stride: 1
    weight_filler {
      type: "xavier"
    }
    bias_filler {
      type: "constant"
      value: 0
    }
  }
}
layer {
  name: "conv9_2_relu"
  type: "ReLU"
  bottom: "conv9_2"
  top: "conv9_2"
}
layer {
  name: "conv4_3_norm"
  type: "Normalize"
  bottom: "conv4_3"
  top: "conv4_3_norm"
  norm_param {
    across_spatial: false
    scale_filler {
      type: "constant"
      value: 20
    }
    channel_shared: false
  }
}
layer {
  name: "conv4_3_norm_mbox_loc"
  type: "Convolution"
  bottom: "conv4_3_norm"
  top: "conv4_3_norm_mbox_loc"
  param {
    lr_mult: 1
    decay_mult: 1
  }
  param {
    lr_mult: 2
    decay_mult: 0
  }
  convolution_param {
    num_output: 16
    pad: 1
    kernel_size: 3
    stride: 1
    weight_filler {
      type: "xavier"
    }
    bias_filler {
      type: "constant"
      value: 0
    }
  }
}
layer {
  name: "conv4_3_norm_mbox_loc_perm"
  type: "Permute"
  bottom: "conv4_3_norm_mbox_loc"
  top: "conv4_3_norm_mbox_loc_perm"
  permute_param {
    order: 0
    order: 2
    order: 3
    order: 1
  }
}
layer {
  name: "conv4_3_norm_mbox_loc_flat"
  type: "Flatten"
  bottom: "conv4_3_norm_mbox_loc_perm"
  top: "conv4_3_norm_mbox_loc_flat"
  flatten_param {
    axis: 1
  }
}
layer {
  name: "conv4_3_norm_mbox_conf"
  type: "Convolution"
  bottom: "conv4_3_norm"
  top: "conv4_3_norm_mbox_conf"
  param {
    lr_mult: 1
    decay_mult: 1
  }
  param {
    lr_mult: 2
    decay_mult: 0
  }
  convolution_param {
    num_output: 8
    pad: 1
    kernel_size: 3
    stride: 1
    weight_filler {
      type: "xavier"
    }
    bias_filler {
      type: "constant"
      value: 0
    }
  }
}
layer {
  name: "conv4_3_norm_mbox_conf_perm"
  type: "Permute"
  bottom: "conv4_3_norm_mbox_conf"
  top: "conv4_3_norm_mbox_conf_perm"
  permute_param {
    order: 0
    order: 2
    order: 3
    order: 1
  }
}
layer {
  name: "conv4_3_norm_mbox_conf_flat"
  type: "Flatten"
  bottom: "conv4_3_norm_mbox_conf_perm"
  top: "conv4_3_norm_mbox_conf_flat"
  flatten_param {
    axis: 1
  }
}
layer {
  name: "conv4_3_norm_mbox_priorbox"
  type: "PriorBox"
  bottom: "conv4_3_norm"
  bottom: "data"
  top: "conv4_3_norm_mbox_priorbox"
  prior_box_param {
    min_size: 50
    max_size: 100
    aspect_ratio: 2
    flip: true
    clip: false
    variance: 0.1
    variance: 0.1
    variance: 0.2
    variance: 0.2
    step: 8
    offset: 0.5
  }
}
layer {
  name: "fc7_mbox_loc"
  type: "Convolution"
  bottom: "fc7"
  top: "fc7_mbox_loc"
  param {
    lr_mult: 1
    decay_mult: 1
  }
  param {
    lr_mult: 2
    decay_mult: 0
  }
  convolution_param {
    num_output: 24
    pad: 1
    kernel_size: 3
    stride: 1
    weight_filler {
      type: "xavier"
    }
    bias_filler {
      type: "constant"
      value: 0
    }
  }
}
layer {
  name: "fc7_mbox_loc_perm"
  type: "Permute"
  bottom: "fc7_mbox_loc"
  top: "fc7_mbox_loc_perm"
  permute_param {
    order: 0
    order: 2
    order: 3
    order: 1
  }
}
layer {
  name: "fc7_mbox_loc_flat"
  type: "Flatten"
  bottom: "fc7_mbox_loc_perm"
  top: "fc7_mbox_loc_flat"
  flatten_param {
    axis: 1
  }
}
layer {
  name: "fc7_mbox_conf"
  type: "Convolution"
  bottom: "fc7"
  top: "fc7_mbox_conf"
  param {
    lr_mult: 1
    decay_mult: 1
  }
  param {
    lr_mult: 2
    decay_mult: 0
  }
  convolution_param {
    num_output: 12
    pad: 1
    kernel_size: 3
    stride: 1
    weight_filler {
      type: "xavier"
    }
    bias_filler {
      type: "constant"
      value: 0
    }
  }
}
layer {
  name: "fc7_mbox_conf_perm"
  type: "Permute"
  bottom: "fc7_mbox_conf"
  top: "fc7_mbox_conf_perm"
  permute_param {
    order: 0
    order: 2
    order: 3
    order: 1
  }
}
layer {
  name: "fc7_mbox_conf_flat"
  type: "Flatten"
  bottom: "fc7_mbox_conf_perm"
  top: "fc7_mbox_conf_flat"
  flatten_param {
    axis: 1
  }
}
layer {
  name: "fc7_mbox_priorbox"
  type: "PriorBox"
  bottom: "fc7"
  bottom: "data"
  top: "fc7_mbox_priorbox"
  prior_box_param {
    min_size: 100
    max_size: 185
    aspect_ratio: 2
    aspect_ratio: 3
    flip: true
    clip: false
    variance: 0.1
    variance: 0.1
    variance: 0.2
    variance: 0.2
    step: 16
    offset: 0.5
  }
}
layer {
  name: "conv6_2_mbox_loc"
  type: "Convolution"
  bottom: "conv6_2"
  top: "conv6_2_mbox_loc"
  param {
    lr_mult: 1
    decay_mult: 1
  }
  param {
    lr_mult: 2
    decay_mult: 0
  }
  convolution_param {
    num_output: 24
    pad: 1
    kernel_size: 3
    stride: 1
    weight_filler {
      type: "xavier"
    }
    bias_filler {
      type: "constant"
      value: 0
    }
  }
}
layer {
  name: "conv6_2_mbox_loc_perm"
  type: "Permute"
  bottom: "conv6_2_mbox_loc"
  top: "conv6_2_mbox_loc_perm"
  permute_param {
    order: 0
    order: 2
    order: 3
    order: 1
  }
}
layer {
  name: "conv6_2_mbox_loc_flat"
  type: "Flatten"
  bottom: "conv6_2_mbox_loc_perm"
  top: "conv6_2_mbox_loc_flat"
  flatten_param {
    axis: 1
  }
}
layer {
  name: "conv6_2_mbox_conf"
  type: "Convolution"
  bottom: "conv6_2"
  top: "conv6_2_mbox_conf"
  param {
    lr_mult: 1
    decay_mult: 1
  }
  param {
    lr_mult: 2
    decay_mult: 0
  }
  convolution_param {
    num_output: 12
    pad: 1
    kernel_size: 3
    stride: 1
    weight_filler {
      type: "xavier"
    }
    bias_filler {
      type: "constant"
      value: 0
    }
  }
}
layer {
  name: "conv6_2_mbox_conf_perm"
  type: "Permute"
  bottom: "conv6_2_mbox_conf"
  top: "conv6_2_mbox_conf_perm"
  permute_param {
    order: 0
    order: 2
    order: 3
    order: 1
  }
}
layer {
  name: "conv6_2_mbox_conf_flat"
  type: "Flatten"
  bottom: "conv6_2_mbox_conf_perm"
  top: "conv6_2_mbox_conf_flat"
  flatten_param {
    axis: 1
  }
}
layer {
  name: "conv6_2_mbox_priorbox"
  type: "PriorBox"
  bottom: "conv6_2"
  bottom: "data"
  top: "conv6_2_mbox_priorbox"
  prior_box_param {
    min_size: 185
    max_size: 270
    aspect_ratio: 2
    aspect_ratio: 3
    flip: true
    clip: false
    variance: 0.1
    variance: 0.1
    variance: 0.2
    variance: 0.2
    step: 32
    offset: 0.5
  }
}
layer {
  name: "conv7_2_mbox_loc"
  type: "Convolution"
  bottom: "conv7_2"
  top: "conv7_2_mbox_loc"
  param {
    lr_mult: 1
    decay_mult: 1
  }
  param {
    lr_mult: 2
    decay_mult: 0
  }
  convolution_param {
    num_output: 24
    pad: 1
    kernel_size: 3
    stride: 1
    weight_filler {
      type: "xavier"
    }
    bias_filler {
      type: "constant"
      value: 0
    }
  }
}
layer {
  name: "conv7_2_mbox_loc_perm"
  type: "Permute"
  bottom: "conv7_2_mbox_loc"
  top: "conv7_2_mbox_loc_perm"
  permute_param {
    order: 0
    order: 2
    order: 3
    order: 1
  }
}
layer {
  name: "conv7_2_mbox_loc_flat"
  type: "Flatten"
  bottom: "conv7_2_mbox_loc_perm"
  top: "conv7_2_mbox_loc_flat"
  flatten_param {
    axis: 1
  }
}
layer {
  name: "conv7_2_mbox_conf"
  type: "Convolution"
  bottom: "conv7_2"
  top: "conv7_2_mbox_conf"
  param {
    lr_mult: 1
    decay_mult: 1
  }
  param {
    lr_mult: 2
    decay_mult: 0
  }
  convolution_param {
    num_output: 12
    pad: 1
    kernel_size: 3
    stride: 1
    weight_filler {
      type: "xavier"
    }
    bias_filler {
      type: "constant"
      value: 0
    }
  }
}
layer {
  name: "conv7_2_mbox_conf_perm"
  type: "Permute"
  bottom: "conv7_2_mbox_conf"
  top: "conv7_2_mbox_conf_perm"
  permute_param {
    order: 0
    order: 2
    order: 3
    order: 1
  }
}
layer {
  name: "conv7_2_mbox_conf_flat"
  type: "Flatten"
  bottom: "conv7_2_mbox_conf_perm"
  top: "conv7_2_mbox_conf_flat"
  flatten_param {
    axis: 1
  }
}
layer {
  name: "conv7_2_mbox_priorbox"
  type: "PriorBox"
  bottom: "conv7_2"
  bottom: "data"
  top: "conv7_2_mbox_priorbox"
  prior_box_param {
    min_size: 270
    max_size: 355
    aspect_ratio: 2
    aspect_ratio: 3
    flip: true
    clip: false
    variance: 0.1
    variance: 0.1
    variance: 0.2
    variance: 0.2
    step: 64
    offset: 0.5
  }
}
layer {
  name: "conv8_2_mbox_loc"
  type: "Convolution"
  bottom: "conv8_2"
  top: "conv8_2_mbox_loc"
  param {
    lr_mult: 1
    decay_mult: 1
  }
  param {
    lr_mult: 2
    decay_mult: 0
  }
  convolution_param {
    num_output: 16
    pad: 1
    kernel_size: 3
    stride: 1
    weight_filler {
      type: "xavier"
    }
    bias_filler {
      type: "constant"
      value: 0
    }
  }
}
layer {
  name: "conv8_2_mbox_loc_perm"
  type: "Permute"
  bottom: "conv8_2_mbox_loc"
  top: "conv8_2_mbox_loc_perm"
  permute_param {
    order: 0
    order: 2
    order: 3
    order: 1
  }
}
layer {
  name: "conv8_2_mbox_loc_flat"
  type: "Flatten"
  bottom: "conv8_2_mbox_loc_perm"
  top: "conv8_2_mbox_loc_flat"
  flatten_param {
    axis: 1
  }
}
layer {
  name: "conv8_2_mbox_conf"
  type: "Convolution"
  bottom: "conv8_2"
  top: "conv8_2_mbox_conf"
  param {
    lr_mult: 1
    decay_mult: 1
  }
  param {
    lr_mult: 2
    decay_mult: 0
  }
  convolution_param {
    num_output: 8
    pad: 1
    kernel_size: 3
    stride: 1
    weight_filler {
      type: "xavier"
    }
    bias_filler {
      type: "constant"
      value: 0
    }
  }
}
layer {
  name: "conv8_2_mbox_conf_perm"
  type: "Permute"
  bottom: "conv8_2_mbox_conf"
  top: "conv8_2_mbox_conf_perm"
  permute_param {
    order: 0
    order: 2
    order: 3
    order: 1
  }
}
layer {
  name: "conv8_2_mbox_conf_flat"
  type: "Flatten"
  bottom: "conv8_2_mbox_conf_perm"
  top: "conv8_2_mbox_conf_flat"
  flatten_param {
    axis: 1
  }
}
layer {
  name: "conv8_2_mbox_priorbox"
  type: "PriorBox"
  bottom: "conv8_2"
  bottom: "data"
  top: "conv8_2_mbox_priorbox"
  prior_box_param {
    min_size: 355
    max_size: 440
    aspect_ratio: 2
    flip: true
    clip: false
    variance: 0.1
    variance: 0.1
    variance: 0.2
    variance: 0.2
    step: 100
    offset: 0.5
  }
}
layer {
  name: "conv9_2_mbox_loc"
  type: "Convolution"
  bottom: "conv9_2"
  top: "conv9_2_mbox_loc"
  param {
    lr_mult: 1
    decay_mult: 1
  }
  param {
    lr_mult: 2
    decay_mult: 0
  }
  convolution_param {
    num_output: 16
    pad: 1
    kernel_size: 3
    stride: 1
    weight_filler {
      type: "xavier"
    }
    bias_filler {
      type: "constant"
      value: 0
    }
  }
}
layer {
  name: "conv9_2_mbox_loc_perm"
  type: "Permute"
  bottom: "conv9_2_mbox_loc"
  top: "conv9_2_mbox_loc_perm"
  permute_param {
    order: 0
    order: 2
    order: 3
    order: 1
  }
}
layer {
  name: "conv9_2_mbox_loc_flat"
  type: "Flatten"
  bottom: "conv9_2_mbox_loc_perm"
  top: "conv9_2_mbox_loc_flat"
  flatten_param {
    axis: 1
  }
}
layer {
  name: "conv9_2_mbox_conf"
  type: "Convolution"
  bottom: "conv9_2"
  top: "conv9_2_mbox_conf"
  param {
    lr_mult: 1
    decay_mult: 1
  }
  param {
    lr_mult: 2
    decay_mult: 0
  }
  convolution_param {
    num_output: 8
    pad: 1
    kernel_size: 3
    stride: 1
    weight_filler {
      type: "xavier"
    }
    bias_filler {
      type: "constant"
      value: 0
    }
  }
}
layer {
  name: "conv9_2_mbox_conf_perm"
  type: "Permute"
  bottom: "conv9_2_mbox_conf"
  top: "conv9_2_mbox_conf_perm"
  permute_param {
    order: 0
    order: 2
    order: 3
    order: 1
  }
}
layer {
  name: "conv9_2_mbox_conf_flat"
  type: "Flatten"
  bottom: "conv9_2_mbox_conf_perm"
  top: "conv9_2_mbox_conf_flat"
  flatten_param {
    axis: 1
  }
}
layer {
  name: "conv9_2_mbox_priorbox"
  type: "PriorBox"
  bottom: "conv9_2"
  bottom: "data"
  top: "conv9_2_mbox_priorbox"
  prior_box_param {
    min_size: 440
    max_size: 525
    aspect_ratio: 2
    flip: true
    clip: false
    variance: 0.1
    variance: 0.1
    variance: 0.2
    variance: 0.2
    step: 300
    offset: 0.5
  }
}
layer {
  name: "mbox_loc"
  type: "Concat"
  bottom: "conv4_3_norm_mbox_loc_flat"
  bottom: "fc7_mbox_loc_flat"
  bottom: "conv6_2_mbox_loc_flat"
  bottom: "conv7_2_mbox_loc_flat"
  bottom: "conv8_2_mbox_loc_flat"
  bottom: "conv9_2_mbox_loc_flat"
  top: "mbox_loc"
  concat_param {
    axis: 1
  }
}
layer {
  name: "mbox_conf"
  type: "Concat"
  bottom: "conv4_3_norm_mbox_conf_flat"
  bottom: "fc7_mbox_conf_flat"
  bottom: "conv6_2_mbox_conf_flat"
  bottom: "conv7_2_mbox_conf_flat"
  bottom: "conv8_2_mbox_conf_flat"
  bottom: "conv9_2_mbox_conf_flat"
  top: "mbox_conf"
  concat_param {
    axis: 1
  }
}
layer {
  name: "mbox_priorbox"
  type: "Concat"
  bottom: "conv4_3_norm_mbox_priorbox"
  bottom: "fc7_mbox_priorbox"
  bottom: "conv6_2_mbox_priorbox"
  bottom: "conv7_2_mbox_priorbox"
  bottom: "conv8_2_mbox_priorbox"
  bottom: "conv9_2_mbox_priorbox"
  top: "mbox_priorbox"
  concat_param {
    axis: 2
  }
}
layer {
  name: "mbox_conf_reshape"
  type: "Reshape"
  bottom: "mbox_conf"
  top: "mbox_conf_reshape"
  reshape_param {
    shape {
      dim: 0
      dim: -1
      dim: 2
    }
  }
}
layer {
  name: "mbox_conf_softmax"
  type: "Softmax"
  bottom: "mbox_conf_reshape"
  top: "mbox_conf_softmax"
  softmax_param {
    axis: 2
  }
}
layer {
  name: "mbox_conf_flatten"
  type: "Flatten"
  bottom: "mbox_conf_softmax"
  top: "mbox_conf_flatten"
  flatten_param {
    axis: 1
  }
}
layer {
  name: "detection_out"
  type: "DetectionOutput"
  bottom: "mbox_loc"
  bottom: "mbox_conf_flatten"
  bottom: "mbox_priorbox"
  top: "detection_out"
  include {
    phase: TEST
  }
  detection_output_param {
    num_classes: 2
    share_location: true
    background_label_id: 0
    nms_param {
      nms_threshold: 0.5
      top_k: 20
    }
    save_output_param {
      output_directory: "/root/mount_out/work2018/cataract_recognition_train_test/detection/slit_train_test/training/results/"
      output_name_prefix: "comp4_det_test_"
      output_format: "pupil"
      label_map_file: "/root/mount_out/work2018/cataract_recognition_train_test/detection/slit_train_test/labelmap_pupil.prototxt"
      name_size_file: "/root/mount_out/work2018/cataract_recognition_train_test/detection/slit_train_test/test_name_size.txt"
      num_test_image: 116
    }
    code_type: CENTER_SIZE
    keep_top_k: 10
    confidence_threshold: 0.01
  }
}
layer {
  name: "detection_eval"
  type: "DetectionEvaluate"
  bottom: "detection_out"
  bottom: "label"
  top: "detection_eval"
  include {
    phase: TEST
  }
  detection_evaluate_param {
    num_classes: 2
    background_label_id: 0
    overlap_threshold: 0.5
    evaluate_difficult_gt: false
    name_size_file: "/root/mount_out/work2018/cataract_recognition_train_test/detection/slit_train_test/test_name_size.txt"
  }
}
I1218 02:23:55.412736 11857 layer_factory.hpp:77] Creating layer data
I1218 02:23:55.412787 11857 net.cpp:100] Creating Layer data
I1218 02:23:55.412807 11857 net.cpp:408] data -> data
I1218 02:23:55.412830 11857 net.cpp:408] data -> label
I1218 02:23:55.419646 11906 db_lmdb.cpp:35] Opened lmdb /root/mount_out/work2018/cataract_recognition_train_test/detection/slit_train_test/slit_test_lmdb
I1218 02:23:55.423646 11857 annotated_data_layer.cpp:62] output data size: 1,3,500,500
I1218 02:23:55.433591 11857 net.cpp:150] Setting up data
I1218 02:23:55.433624 11857 net.cpp:157] Top shape: 1 3 500 500 (750000)
I1218 02:23:55.433643 11857 net.cpp:157] Top shape: 1 1 1 8 (8)
I1218 02:23:55.433647 11857 net.cpp:165] Memory required for data: 3000032
I1218 02:23:55.433653 11857 layer_factory.hpp:77] Creating layer data_data_0_split
I1218 02:23:55.433667 11857 net.cpp:100] Creating Layer data_data_0_split
I1218 02:23:55.433673 11857 net.cpp:434] data_data_0_split <- data
I1218 02:23:55.433681 11857 net.cpp:408] data_data_0_split -> data_data_0_split_0
I1218 02:23:55.433689 11857 net.cpp:408] data_data_0_split -> data_data_0_split_1
I1218 02:23:55.433696 11857 net.cpp:408] data_data_0_split -> data_data_0_split_2
I1218 02:23:55.433703 11857 net.cpp:408] data_data_0_split -> data_data_0_split_3
I1218 02:23:55.433724 11857 net.cpp:408] data_data_0_split -> data_data_0_split_4
I1218 02:23:55.433732 11857 net.cpp:408] data_data_0_split -> data_data_0_split_5
I1218 02:23:55.433737 11857 net.cpp:408] data_data_0_split -> data_data_0_split_6
I1218 02:23:55.433838 11857 net.cpp:150] Setting up data_data_0_split
I1218 02:23:55.433845 11857 net.cpp:157] Top shape: 1 3 500 500 (750000)
I1218 02:23:55.433851 11857 net.cpp:157] Top shape: 1 3 500 500 (750000)
I1218 02:23:55.433854 11857 net.cpp:157] Top shape: 1 3 500 500 (750000)
I1218 02:23:55.433861 11857 net.cpp:157] Top shape: 1 3 500 500 (750000)
I1218 02:23:55.433866 11857 net.cpp:157] Top shape: 1 3 500 500 (750000)
I1218 02:23:55.433871 11857 net.cpp:157] Top shape: 1 3 500 500 (750000)
I1218 02:23:55.433876 11857 net.cpp:157] Top shape: 1 3 500 500 (750000)
I1218 02:23:55.433881 11857 net.cpp:165] Memory required for data: 24000032
I1218 02:23:55.433884 11857 layer_factory.hpp:77] Creating layer conv1_1
I1218 02:23:55.433894 11857 net.cpp:100] Creating Layer conv1_1
I1218 02:23:55.433899 11857 net.cpp:434] conv1_1 <- data_data_0_split_0
I1218 02:23:55.433907 11857 net.cpp:408] conv1_1 -> conv1_1
I1218 02:23:55.435509 11857 net.cpp:150] Setting up conv1_1
I1218 02:23:55.435521 11857 net.cpp:157] Top shape: 1 64 500 500 (16000000)
I1218 02:23:55.435525 11857 net.cpp:165] Memory required for data: 88000032
I1218 02:23:55.435535 11857 layer_factory.hpp:77] Creating layer relu1_1
I1218 02:23:55.435544 11857 net.cpp:100] Creating Layer relu1_1
I1218 02:23:55.435549 11857 net.cpp:434] relu1_1 <- conv1_1
I1218 02:23:55.435554 11857 net.cpp:395] relu1_1 -> conv1_1 (in-place)
I1218 02:23:55.435710 11857 net.cpp:150] Setting up relu1_1
I1218 02:23:55.435717 11857 net.cpp:157] Top shape: 1 64 500 500 (16000000)
I1218 02:23:55.435721 11857 net.cpp:165] Memory required for data: 152000032
I1218 02:23:55.435725 11857 layer_factory.hpp:77] Creating layer conv1_2
I1218 02:23:55.435735 11857 net.cpp:100] Creating Layer conv1_2
I1218 02:23:55.435740 11857 net.cpp:434] conv1_2 <- conv1_1
I1218 02:23:55.435747 11857 net.cpp:408] conv1_2 -> conv1_2
I1218 02:23:55.439625 11857 net.cpp:150] Setting up conv1_2
I1218 02:23:55.439640 11857 net.cpp:157] Top shape: 1 64 500 500 (16000000)
I1218 02:23:55.439643 11857 net.cpp:165] Memory required for data: 216000032
I1218 02:23:55.439666 11857 layer_factory.hpp:77] Creating layer relu1_2
I1218 02:23:55.439673 11857 net.cpp:100] Creating Layer relu1_2
I1218 02:23:55.439678 11857 net.cpp:434] relu1_2 <- conv1_2
I1218 02:23:55.439684 11857 net.cpp:395] relu1_2 -> conv1_2 (in-place)
I1218 02:23:55.440191 11857 net.cpp:150] Setting up relu1_2
I1218 02:23:55.440199 11857 net.cpp:157] Top shape: 1 64 500 500 (16000000)
I1218 02:23:55.440204 11857 net.cpp:165] Memory required for data: 280000032
I1218 02:23:55.440208 11857 layer_factory.hpp:77] Creating layer pool1
I1218 02:23:55.440229 11857 net.cpp:100] Creating Layer pool1
I1218 02:23:55.440234 11857 net.cpp:434] pool1 <- conv1_2
I1218 02:23:55.440240 11857 net.cpp:408] pool1 -> pool1
I1218 02:23:55.440301 11857 net.cpp:150] Setting up pool1
I1218 02:23:55.440307 11857 net.cpp:157] Top shape: 1 64 250 250 (4000000)
I1218 02:23:55.440311 11857 net.cpp:165] Memory required for data: 296000032
I1218 02:23:55.440315 11857 layer_factory.hpp:77] Creating layer conv2_1
I1218 02:23:55.440338 11857 net.cpp:100] Creating Layer conv2_1
I1218 02:23:55.440342 11857 net.cpp:434] conv2_1 <- pool1
I1218 02:23:55.440348 11857 net.cpp:408] conv2_1 -> conv2_1
I1218 02:23:55.442036 11857 net.cpp:150] Setting up conv2_1
I1218 02:23:55.442047 11857 net.cpp:157] Top shape: 1 128 250 250 (8000000)
I1218 02:23:55.442052 11857 net.cpp:165] Memory required for data: 328000032
I1218 02:23:55.442061 11857 layer_factory.hpp:77] Creating layer relu2_1
I1218 02:23:55.442070 11857 net.cpp:100] Creating Layer relu2_1
I1218 02:23:55.442075 11857 net.cpp:434] relu2_1 <- conv2_1
I1218 02:23:55.442081 11857 net.cpp:395] relu2_1 -> conv2_1 (in-place)
I1218 02:23:55.442239 11857 net.cpp:150] Setting up relu2_1
I1218 02:23:55.442261 11857 net.cpp:157] Top shape: 1 128 250 250 (8000000)
I1218 02:23:55.442266 11857 net.cpp:165] Memory required for data: 360000032
I1218 02:23:55.442270 11857 layer_factory.hpp:77] Creating layer conv2_2
I1218 02:23:55.442278 11857 net.cpp:100] Creating Layer conv2_2
I1218 02:23:55.442283 11857 net.cpp:434] conv2_2 <- conv2_1
I1218 02:23:55.442291 11857 net.cpp:408] conv2_2 -> conv2_2
I1218 02:23:55.444504 11857 net.cpp:150] Setting up conv2_2
I1218 02:23:55.444532 11857 net.cpp:157] Top shape: 1 128 250 250 (8000000)
I1218 02:23:55.444548 11857 net.cpp:165] Memory required for data: 392000032
I1218 02:23:55.444573 11857 layer_factory.hpp:77] Creating layer relu2_2
I1218 02:23:55.444591 11857 net.cpp:100] Creating Layer relu2_2
I1218 02:23:55.444604 11857 net.cpp:434] relu2_2 <- conv2_2
I1218 02:23:55.444620 11857 net.cpp:395] relu2_2 -> conv2_2 (in-place)
I1218 02:23:55.444861 11857 net.cpp:150] Setting up relu2_2
I1218 02:23:55.444871 11857 net.cpp:157] Top shape: 1 128 250 250 (8000000)
I1218 02:23:55.444876 11857 net.cpp:165] Memory required for data: 424000032
I1218 02:23:55.444881 11857 layer_factory.hpp:77] Creating layer pool2
I1218 02:23:55.444903 11857 net.cpp:100] Creating Layer pool2
I1218 02:23:55.444908 11857 net.cpp:434] pool2 <- conv2_2
I1218 02:23:55.444916 11857 net.cpp:408] pool2 -> pool2
I1218 02:23:55.444993 11857 net.cpp:150] Setting up pool2
I1218 02:23:55.445001 11857 net.cpp:157] Top shape: 1 128 125 125 (2000000)
I1218 02:23:55.445005 11857 net.cpp:165] Memory required for data: 432000032
I1218 02:23:55.445010 11857 layer_factory.hpp:77] Creating layer conv3_1
I1218 02:23:55.445036 11857 net.cpp:100] Creating Layer conv3_1
I1218 02:23:55.445042 11857 net.cpp:434] conv3_1 <- pool2
I1218 02:23:55.445047 11857 net.cpp:408] conv3_1 -> conv3_1
I1218 02:23:55.449972 11857 net.cpp:150] Setting up conv3_1
I1218 02:23:55.449987 11857 net.cpp:157] Top shape: 1 256 125 125 (4000000)
I1218 02:23:55.449991 11857 net.cpp:165] Memory required for data: 448000032
I1218 02:23:55.450002 11857 layer_factory.hpp:77] Creating layer relu3_1
I1218 02:23:55.450016 11857 net.cpp:100] Creating Layer relu3_1
I1218 02:23:55.450022 11857 net.cpp:434] relu3_1 <- conv3_1
I1218 02:23:55.450028 11857 net.cpp:395] relu3_1 -> conv3_1 (in-place)
I1218 02:23:55.450192 11857 net.cpp:150] Setting up relu3_1
I1218 02:23:55.450199 11857 net.cpp:157] Top shape: 1 256 125 125 (4000000)
I1218 02:23:55.450203 11857 net.cpp:165] Memory required for data: 464000032
I1218 02:23:55.450208 11857 layer_factory.hpp:77] Creating layer conv3_2
I1218 02:23:55.450217 11857 net.cpp:100] Creating Layer conv3_2
I1218 02:23:55.450222 11857 net.cpp:434] conv3_2 <- conv3_1
I1218 02:23:55.450229 11857 net.cpp:408] conv3_2 -> conv3_2
I1218 02:23:55.455029 11857 net.cpp:150] Setting up conv3_2
I1218 02:23:55.455058 11857 net.cpp:157] Top shape: 1 256 125 125 (4000000)
I1218 02:23:55.455062 11857 net.cpp:165] Memory required for data: 480000032
I1218 02:23:55.455070 11857 layer_factory.hpp:77] Creating layer relu3_2
I1218 02:23:55.455077 11857 net.cpp:100] Creating Layer relu3_2
I1218 02:23:55.455082 11857 net.cpp:434] relu3_2 <- conv3_2
I1218 02:23:55.455106 11857 net.cpp:395] relu3_2 -> conv3_2 (in-place)
I1218 02:23:55.455602 11857 net.cpp:150] Setting up relu3_2
I1218 02:23:55.455612 11857 net.cpp:157] Top shape: 1 256 125 125 (4000000)
I1218 02:23:55.455631 11857 net.cpp:165] Memory required for data: 496000032
I1218 02:23:55.455636 11857 layer_factory.hpp:77] Creating layer conv3_3
I1218 02:23:55.455648 11857 net.cpp:100] Creating Layer conv3_3
I1218 02:23:55.455654 11857 net.cpp:434] conv3_3 <- conv3_2
I1218 02:23:55.455660 11857 net.cpp:408] conv3_3 -> conv3_3
I1218 02:23:55.463346 11857 net.cpp:150] Setting up conv3_3
I1218 02:23:55.463361 11857 net.cpp:157] Top shape: 1 256 125 125 (4000000)
I1218 02:23:55.463366 11857 net.cpp:165] Memory required for data: 512000032
I1218 02:23:55.463374 11857 layer_factory.hpp:77] Creating layer relu3_3
I1218 02:23:55.463382 11857 net.cpp:100] Creating Layer relu3_3
I1218 02:23:55.463402 11857 net.cpp:434] relu3_3 <- conv3_3
I1218 02:23:55.463410 11857 net.cpp:395] relu3_3 -> conv3_3 (in-place)
I1218 02:23:55.463582 11857 net.cpp:150] Setting up relu3_3
I1218 02:23:55.463590 11857 net.cpp:157] Top shape: 1 256 125 125 (4000000)
I1218 02:23:55.463594 11857 net.cpp:165] Memory required for data: 528000032
I1218 02:23:55.463598 11857 layer_factory.hpp:77] Creating layer pool3
I1218 02:23:55.463606 11857 net.cpp:100] Creating Layer pool3
I1218 02:23:55.463611 11857 net.cpp:434] pool3 <- conv3_3
I1218 02:23:55.463618 11857 net.cpp:408] pool3 -> pool3
I1218 02:23:55.463660 11857 net.cpp:150] Setting up pool3
I1218 02:23:55.463667 11857 net.cpp:157] Top shape: 1 256 63 63 (1016064)
I1218 02:23:55.463671 11857 net.cpp:165] Memory required for data: 532064288
I1218 02:23:55.463675 11857 layer_factory.hpp:77] Creating layer conv4_1
I1218 02:23:55.463685 11857 net.cpp:100] Creating Layer conv4_1
I1218 02:23:55.463690 11857 net.cpp:434] conv4_1 <- pool3
I1218 02:23:55.463697 11857 net.cpp:408] conv4_1 -> conv4_1
I1218 02:23:55.474141 11857 net.cpp:150] Setting up conv4_1
I1218 02:23:55.474171 11857 net.cpp:157] Top shape: 1 512 63 63 (2032128)
I1218 02:23:55.474176 11857 net.cpp:165] Memory required for data: 540192800
I1218 02:23:55.474184 11857 layer_factory.hpp:77] Creating layer relu4_1
I1218 02:23:55.474192 11857 net.cpp:100] Creating Layer relu4_1
I1218 02:23:55.474198 11857 net.cpp:434] relu4_1 <- conv4_1
I1218 02:23:55.474205 11857 net.cpp:395] relu4_1 -> conv4_1 (in-place)
I1218 02:23:55.474467 11857 net.cpp:150] Setting up relu4_1
I1218 02:23:55.474474 11857 net.cpp:157] Top shape: 1 512 63 63 (2032128)
I1218 02:23:55.474478 11857 net.cpp:165] Memory required for data: 548321312
I1218 02:23:55.474484 11857 layer_factory.hpp:77] Creating layer conv4_2
I1218 02:23:55.474509 11857 net.cpp:100] Creating Layer conv4_2
I1218 02:23:55.474514 11857 net.cpp:434] conv4_2 <- conv4_1
I1218 02:23:55.474520 11857 net.cpp:408] conv4_2 -> conv4_2
I1218 02:23:55.488651 11857 net.cpp:150] Setting up conv4_2
I1218 02:23:55.488669 11857 net.cpp:157] Top shape: 1 512 63 63 (2032128)
I1218 02:23:55.488673 11857 net.cpp:165] Memory required for data: 556449824
I1218 02:23:55.488700 11857 layer_factory.hpp:77] Creating layer relu4_2
I1218 02:23:55.488723 11857 net.cpp:100] Creating Layer relu4_2
I1218 02:23:55.488728 11857 net.cpp:434] relu4_2 <- conv4_2
I1218 02:23:55.488734 11857 net.cpp:395] relu4_2 -> conv4_2 (in-place)
I1218 02:23:55.489255 11857 net.cpp:150] Setting up relu4_2
I1218 02:23:55.489265 11857 net.cpp:157] Top shape: 1 512 63 63 (2032128)
I1218 02:23:55.489269 11857 net.cpp:165] Memory required for data: 564578336
I1218 02:23:55.489274 11857 layer_factory.hpp:77] Creating layer conv4_3
I1218 02:23:55.489297 11857 net.cpp:100] Creating Layer conv4_3
I1218 02:23:55.489302 11857 net.cpp:434] conv4_3 <- conv4_2
I1218 02:23:55.489310 11857 net.cpp:408] conv4_3 -> conv4_3
I1218 02:23:55.501310 11857 net.cpp:150] Setting up conv4_3
I1218 02:23:55.501327 11857 net.cpp:157] Top shape: 1 512 63 63 (2032128)
I1218 02:23:55.501332 11857 net.cpp:165] Memory required for data: 572706848
I1218 02:23:55.501339 11857 layer_factory.hpp:77] Creating layer relu4_3
I1218 02:23:55.501348 11857 net.cpp:100] Creating Layer relu4_3
I1218 02:23:55.501353 11857 net.cpp:434] relu4_3 <- conv4_3
I1218 02:23:55.501374 11857 net.cpp:395] relu4_3 -> conv4_3 (in-place)
I1218 02:23:55.501564 11857 net.cpp:150] Setting up relu4_3
I1218 02:23:55.501571 11857 net.cpp:157] Top shape: 1 512 63 63 (2032128)
I1218 02:23:55.501575 11857 net.cpp:165] Memory required for data: 580835360
I1218 02:23:55.501579 11857 layer_factory.hpp:77] Creating layer conv4_3_relu4_3_0_split
I1218 02:23:55.501600 11857 net.cpp:100] Creating Layer conv4_3_relu4_3_0_split
I1218 02:23:55.501605 11857 net.cpp:434] conv4_3_relu4_3_0_split <- conv4_3
I1218 02:23:55.501610 11857 net.cpp:408] conv4_3_relu4_3_0_split -> conv4_3_relu4_3_0_split_0
I1218 02:23:55.501631 11857 net.cpp:408] conv4_3_relu4_3_0_split -> conv4_3_relu4_3_0_split_1
I1218 02:23:55.501672 11857 net.cpp:150] Setting up conv4_3_relu4_3_0_split
I1218 02:23:55.501691 11857 net.cpp:157] Top shape: 1 512 63 63 (2032128)
I1218 02:23:55.501696 11857 net.cpp:157] Top shape: 1 512 63 63 (2032128)
I1218 02:23:55.501700 11857 net.cpp:165] Memory required for data: 597092384
I1218 02:23:55.501704 11857 layer_factory.hpp:77] Creating layer pool4
I1218 02:23:55.501710 11857 net.cpp:100] Creating Layer pool4
I1218 02:23:55.501714 11857 net.cpp:434] pool4 <- conv4_3_relu4_3_0_split_0
I1218 02:23:55.501735 11857 net.cpp:408] pool4 -> pool4
I1218 02:23:55.501785 11857 net.cpp:150] Setting up pool4
I1218 02:23:55.501791 11857 net.cpp:157] Top shape: 1 512 32 32 (524288)
I1218 02:23:55.501794 11857 net.cpp:165] Memory required for data: 599189536
I1218 02:23:55.501798 11857 layer_factory.hpp:77] Creating layer conv5_1
I1218 02:23:55.501822 11857 net.cpp:100] Creating Layer conv5_1
I1218 02:23:55.501827 11857 net.cpp:434] conv5_1 <- pool4
I1218 02:23:55.501833 11857 net.cpp:408] conv5_1 -> conv5_1
I1218 02:23:55.513816 11857 net.cpp:150] Setting up conv5_1
I1218 02:23:55.513833 11857 net.cpp:157] Top shape: 1 512 32 32 (524288)
I1218 02:23:55.513839 11857 net.cpp:165] Memory required for data: 601286688
I1218 02:23:55.513860 11857 layer_factory.hpp:77] Creating layer relu5_1
I1218 02:23:55.513881 11857 net.cpp:100] Creating Layer relu5_1
I1218 02:23:55.513886 11857 net.cpp:434] relu5_1 <- conv5_1
I1218 02:23:55.513895 11857 net.cpp:395] relu5_1 -> conv5_1 (in-place)
I1218 02:23:55.514060 11857 net.cpp:150] Setting up relu5_1
I1218 02:23:55.514067 11857 net.cpp:157] Top shape: 1 512 32 32 (524288)
I1218 02:23:55.514070 11857 net.cpp:165] Memory required for data: 603383840
I1218 02:23:55.514075 11857 layer_factory.hpp:77] Creating layer conv5_2
I1218 02:23:55.514099 11857 net.cpp:100] Creating Layer conv5_2
I1218 02:23:55.514104 11857 net.cpp:434] conv5_2 <- conv5_1
I1218 02:23:55.514111 11857 net.cpp:408] conv5_2 -> conv5_2
I1218 02:23:55.526062 11857 net.cpp:150] Setting up conv5_2
I1218 02:23:55.526079 11857 net.cpp:157] Top shape: 1 512 32 32 (524288)
I1218 02:23:55.526083 11857 net.cpp:165] Memory required for data: 605480992
I1218 02:23:55.526105 11857 layer_factory.hpp:77] Creating layer relu5_2
I1218 02:23:55.526114 11857 net.cpp:100] Creating Layer relu5_2
I1218 02:23:55.526119 11857 net.cpp:434] relu5_2 <- conv5_2
I1218 02:23:55.526127 11857 net.cpp:395] relu5_2 -> conv5_2 (in-place)
I1218 02:23:55.526661 11857 net.cpp:150] Setting up relu5_2
I1218 02:23:55.526670 11857 net.cpp:157] Top shape: 1 512 32 32 (524288)
I1218 02:23:55.526674 11857 net.cpp:165] Memory required for data: 607578144
I1218 02:23:55.526679 11857 layer_factory.hpp:77] Creating layer conv5_3
I1218 02:23:55.526703 11857 net.cpp:100] Creating Layer conv5_3
I1218 02:23:55.526708 11857 net.cpp:434] conv5_3 <- conv5_2
I1218 02:23:55.526715 11857 net.cpp:408] conv5_3 -> conv5_3
I1218 02:23:55.538751 11857 net.cpp:150] Setting up conv5_3
I1218 02:23:55.538769 11857 net.cpp:157] Top shape: 1 512 32 32 (524288)
I1218 02:23:55.538774 11857 net.cpp:165] Memory required for data: 609675296
I1218 02:23:55.538795 11857 layer_factory.hpp:77] Creating layer relu5_3
I1218 02:23:55.538822 11857 net.cpp:100] Creating Layer relu5_3
I1218 02:23:55.538828 11857 net.cpp:434] relu5_3 <- conv5_3
I1218 02:23:55.538836 11857 net.cpp:395] relu5_3 -> conv5_3 (in-place)
I1218 02:23:55.539006 11857 net.cpp:150] Setting up relu5_3
I1218 02:23:55.539014 11857 net.cpp:157] Top shape: 1 512 32 32 (524288)
I1218 02:23:55.539017 11857 net.cpp:165] Memory required for data: 611772448
I1218 02:23:55.539021 11857 layer_factory.hpp:77] Creating layer pool5
I1218 02:23:55.539042 11857 net.cpp:100] Creating Layer pool5
I1218 02:23:55.539047 11857 net.cpp:434] pool5 <- conv5_3
I1218 02:23:55.539053 11857 net.cpp:408] pool5 -> pool5
I1218 02:23:55.539108 11857 net.cpp:150] Setting up pool5
I1218 02:23:55.539113 11857 net.cpp:157] Top shape: 1 512 32 32 (524288)
I1218 02:23:55.539117 11857 net.cpp:165] Memory required for data: 613869600
I1218 02:23:55.539121 11857 layer_factory.hpp:77] Creating layer fc6
I1218 02:23:55.539160 11857 net.cpp:100] Creating Layer fc6
I1218 02:23:55.539165 11857 net.cpp:434] fc6 <- pool5
I1218 02:23:55.539171 11857 net.cpp:408] fc6 -> fc6
I1218 02:23:55.560195 11857 net.cpp:150] Setting up fc6
I1218 02:23:55.560212 11857 net.cpp:157] Top shape: 1 1024 32 32 (1048576)
I1218 02:23:55.560216 11857 net.cpp:165] Memory required for data: 618063904
I1218 02:23:55.560238 11857 layer_factory.hpp:77] Creating layer relu6
I1218 02:23:55.560246 11857 net.cpp:100] Creating Layer relu6
I1218 02:23:55.560252 11857 net.cpp:434] relu6 <- fc6
I1218 02:23:55.560258 11857 net.cpp:395] relu6 -> fc6 (in-place)
I1218 02:23:55.560492 11857 net.cpp:150] Setting up relu6
I1218 02:23:55.560499 11857 net.cpp:157] Top shape: 1 1024 32 32 (1048576)
I1218 02:23:55.560503 11857 net.cpp:165] Memory required for data: 622258208
I1218 02:23:55.560508 11857 layer_factory.hpp:77] Creating layer fc7
I1218 02:23:55.560531 11857 net.cpp:100] Creating Layer fc7
I1218 02:23:55.560549 11857 net.cpp:434] fc7 <- fc6
I1218 02:23:55.560572 11857 net.cpp:408] fc7 -> fc7
I1218 02:23:55.567606 11857 net.cpp:150] Setting up fc7
I1218 02:23:55.567621 11857 net.cpp:157] Top shape: 1 1024 32 32 (1048576)
I1218 02:23:55.567625 11857 net.cpp:165] Memory required for data: 626452512
I1218 02:23:55.567632 11857 layer_factory.hpp:77] Creating layer relu7
I1218 02:23:55.567656 11857 net.cpp:100] Creating Layer relu7
I1218 02:23:55.567661 11857 net.cpp:434] relu7 <- fc7
I1218 02:23:55.567667 11857 net.cpp:395] relu7 -> fc7 (in-place)
I1218 02:23:55.567832 11857 net.cpp:150] Setting up relu7
I1218 02:23:55.567840 11857 net.cpp:157] Top shape: 1 1024 32 32 (1048576)
I1218 02:23:55.567844 11857 net.cpp:165] Memory required for data: 630646816
I1218 02:23:55.567848 11857 layer_factory.hpp:77] Creating layer fc7_relu7_0_split
I1218 02:23:55.567869 11857 net.cpp:100] Creating Layer fc7_relu7_0_split
I1218 02:23:55.567873 11857 net.cpp:434] fc7_relu7_0_split <- fc7
I1218 02:23:55.567879 11857 net.cpp:408] fc7_relu7_0_split -> fc7_relu7_0_split_0
I1218 02:23:55.567888 11857 net.cpp:408] fc7_relu7_0_split -> fc7_relu7_0_split_1
I1218 02:23:55.567912 11857 net.cpp:408] fc7_relu7_0_split -> fc7_relu7_0_split_2
I1218 02:23:55.567919 11857 net.cpp:408] fc7_relu7_0_split -> fc7_relu7_0_split_3
I1218 02:23:55.567993 11857 net.cpp:150] Setting up fc7_relu7_0_split
I1218 02:23:55.568012 11857 net.cpp:157] Top shape: 1 1024 32 32 (1048576)
I1218 02:23:55.568018 11857 net.cpp:157] Top shape: 1 1024 32 32 (1048576)
I1218 02:23:55.568022 11857 net.cpp:157] Top shape: 1 1024 32 32 (1048576)
I1218 02:23:55.568042 11857 net.cpp:157] Top shape: 1 1024 32 32 (1048576)
I1218 02:23:55.568045 11857 net.cpp:165] Memory required for data: 647424032
I1218 02:23:55.568049 11857 layer_factory.hpp:77] Creating layer conv6_1
I1218 02:23:55.568058 11857 net.cpp:100] Creating Layer conv6_1
I1218 02:23:55.568063 11857 net.cpp:434] conv6_1 <- fc7_relu7_0_split_0
I1218 02:23:55.568069 11857 net.cpp:408] conv6_1 -> conv6_1
I1218 02:23:55.570816 11857 net.cpp:150] Setting up conv6_1
I1218 02:23:55.570828 11857 net.cpp:157] Top shape: 1 256 32 32 (262144)
I1218 02:23:55.570833 11857 net.cpp:165] Memory required for data: 648472608
I1218 02:23:55.570839 11857 layer_factory.hpp:77] Creating layer conv6_1_relu
I1218 02:23:55.570847 11857 net.cpp:100] Creating Layer conv6_1_relu
I1218 02:23:55.570852 11857 net.cpp:434] conv6_1_relu <- conv6_1
I1218 02:23:55.570859 11857 net.cpp:395] conv6_1_relu -> conv6_1 (in-place)
I1218 02:23:55.571360 11857 net.cpp:150] Setting up conv6_1_relu
I1218 02:23:55.571370 11857 net.cpp:157] Top shape: 1 256 32 32 (262144)
I1218 02:23:55.571375 11857 net.cpp:165] Memory required for data: 649521184
I1218 02:23:55.571380 11857 layer_factory.hpp:77] Creating layer conv6_2
I1218 02:23:55.571388 11857 net.cpp:100] Creating Layer conv6_2
I1218 02:23:55.571393 11857 net.cpp:434] conv6_2 <- conv6_1
I1218 02:23:55.571401 11857 net.cpp:408] conv6_2 -> conv6_2
I1218 02:23:55.578408 11857 net.cpp:150] Setting up conv6_2
I1218 02:23:55.578421 11857 net.cpp:157] Top shape: 1 512 16 16 (131072)
I1218 02:23:55.578454 11857 net.cpp:165] Memory required for data: 650045472
I1218 02:23:55.578469 11857 layer_factory.hpp:77] Creating layer conv6_2_relu
I1218 02:23:55.578477 11857 net.cpp:100] Creating Layer conv6_2_relu
I1218 02:23:55.578482 11857 net.cpp:434] conv6_2_relu <- conv6_2
I1218 02:23:55.578488 11857 net.cpp:395] conv6_2_relu -> conv6_2 (in-place)
I1218 02:23:55.578671 11857 net.cpp:150] Setting up conv6_2_relu
I1218 02:23:55.578680 11857 net.cpp:157] Top shape: 1 512 16 16 (131072)
I1218 02:23:55.578683 11857 net.cpp:165] Memory required for data: 650569760
I1218 02:23:55.578686 11857 layer_factory.hpp:77] Creating layer conv6_2_conv6_2_relu_0_split
I1218 02:23:55.578707 11857 net.cpp:100] Creating Layer conv6_2_conv6_2_relu_0_split
I1218 02:23:55.578712 11857 net.cpp:434] conv6_2_conv6_2_relu_0_split <- conv6_2
I1218 02:23:55.578718 11857 net.cpp:408] conv6_2_conv6_2_relu_0_split -> conv6_2_conv6_2_relu_0_split_0
I1218 02:23:55.578725 11857 net.cpp:408] conv6_2_conv6_2_relu_0_split -> conv6_2_conv6_2_relu_0_split_1
I1218 02:23:55.578733 11857 net.cpp:408] conv6_2_conv6_2_relu_0_split -> conv6_2_conv6_2_relu_0_split_2
I1218 02:23:55.578740 11857 net.cpp:408] conv6_2_conv6_2_relu_0_split -> conv6_2_conv6_2_relu_0_split_3
I1218 02:23:55.578826 11857 net.cpp:150] Setting up conv6_2_conv6_2_relu_0_split
I1218 02:23:55.578832 11857 net.cpp:157] Top shape: 1 512 16 16 (131072)
I1218 02:23:55.578837 11857 net.cpp:157] Top shape: 1 512 16 16 (131072)
I1218 02:23:55.578841 11857 net.cpp:157] Top shape: 1 512 16 16 (131072)
I1218 02:23:55.578860 11857 net.cpp:157] Top shape: 1 512 16 16 (131072)
I1218 02:23:55.578863 11857 net.cpp:165] Memory required for data: 652666912
I1218 02:23:55.578867 11857 layer_factory.hpp:77] Creating layer conv7_1
I1218 02:23:55.578876 11857 net.cpp:100] Creating Layer conv7_1
I1218 02:23:55.578881 11857 net.cpp:434] conv7_1 <- conv6_2_conv6_2_relu_0_split_0
I1218 02:23:55.578887 11857 net.cpp:408] conv7_1 -> conv7_1
I1218 02:23:55.580209 11857 net.cpp:150] Setting up conv7_1
I1218 02:23:55.580219 11857 net.cpp:157] Top shape: 1 128 16 16 (32768)
I1218 02:23:55.580224 11857 net.cpp:165] Memory required for data: 652797984
I1218 02:23:55.580230 11857 layer_factory.hpp:77] Creating layer conv7_1_relu
I1218 02:23:55.580236 11857 net.cpp:100] Creating Layer conv7_1_relu
I1218 02:23:55.580241 11857 net.cpp:434] conv7_1_relu <- conv7_1
I1218 02:23:55.580248 11857 net.cpp:395] conv7_1_relu -> conv7_1 (in-place)
I1218 02:23:55.580394 11857 net.cpp:150] Setting up conv7_1_relu
I1218 02:23:55.580401 11857 net.cpp:157] Top shape: 1 128 16 16 (32768)
I1218 02:23:55.580406 11857 net.cpp:165] Memory required for data: 652929056
I1218 02:23:55.580410 11857 layer_factory.hpp:77] Creating layer conv7_2
I1218 02:23:55.580420 11857 net.cpp:100] Creating Layer conv7_2
I1218 02:23:55.580425 11857 net.cpp:434] conv7_2 <- conv7_1
I1218 02:23:55.580431 11857 net.cpp:408] conv7_2 -> conv7_2
I1218 02:23:55.583315 11857 net.cpp:150] Setting up conv7_2
I1218 02:23:55.583328 11857 net.cpp:157] Top shape: 1 256 8 8 (16384)
I1218 02:23:55.583333 11857 net.cpp:165] Memory required for data: 652994592
I1218 02:23:55.583338 11857 layer_factory.hpp:77] Creating layer conv7_2_relu
I1218 02:23:55.583345 11857 net.cpp:100] Creating Layer conv7_2_relu
I1218 02:23:55.583350 11857 net.cpp:434] conv7_2_relu <- conv7_2
I1218 02:23:55.583356 11857 net.cpp:395] conv7_2_relu -> conv7_2 (in-place)
I1218 02:23:55.583858 11857 net.cpp:150] Setting up conv7_2_relu
I1218 02:23:55.583868 11857 net.cpp:157] Top shape: 1 256 8 8 (16384)
I1218 02:23:55.583873 11857 net.cpp:165] Memory required for data: 653060128
I1218 02:23:55.583878 11857 layer_factory.hpp:77] Creating layer conv7_2_conv7_2_relu_0_split
I1218 02:23:55.583884 11857 net.cpp:100] Creating Layer conv7_2_conv7_2_relu_0_split
I1218 02:23:55.583887 11857 net.cpp:434] conv7_2_conv7_2_relu_0_split <- conv7_2
I1218 02:23:55.583894 11857 net.cpp:408] conv7_2_conv7_2_relu_0_split -> conv7_2_conv7_2_relu_0_split_0
I1218 02:23:55.583900 11857 net.cpp:408] conv7_2_conv7_2_relu_0_split -> conv7_2_conv7_2_relu_0_split_1
I1218 02:23:55.583932 11857 net.cpp:408] conv7_2_conv7_2_relu_0_split -> conv7_2_conv7_2_relu_0_split_2
I1218 02:23:55.583952 11857 net.cpp:408] conv7_2_conv7_2_relu_0_split -> conv7_2_conv7_2_relu_0_split_3
I1218 02:23:55.584018 11857 net.cpp:150] Setting up conv7_2_conv7_2_relu_0_split
I1218 02:23:55.584025 11857 net.cpp:157] Top shape: 1 256 8 8 (16384)
I1218 02:23:55.584030 11857 net.cpp:157] Top shape: 1 256 8 8 (16384)
I1218 02:23:55.584035 11857 net.cpp:157] Top shape: 1 256 8 8 (16384)
I1218 02:23:55.584040 11857 net.cpp:157] Top shape: 1 256 8 8 (16384)
I1218 02:23:55.584044 11857 net.cpp:165] Memory required for data: 653322272
I1218 02:23:55.584050 11857 layer_factory.hpp:77] Creating layer conv8_1
I1218 02:23:55.584059 11857 net.cpp:100] Creating Layer conv8_1
I1218 02:23:55.584064 11857 net.cpp:434] conv8_1 <- conv7_2_conv7_2_relu_0_split_0
I1218 02:23:55.584071 11857 net.cpp:408] conv8_1 -> conv8_1
I1218 02:23:55.585289 11857 net.cpp:150] Setting up conv8_1
I1218 02:23:55.585299 11857 net.cpp:157] Top shape: 1 128 8 8 (8192)
I1218 02:23:55.585304 11857 net.cpp:165] Memory required for data: 653355040
I1218 02:23:55.585309 11857 layer_factory.hpp:77] Creating layer conv8_1_relu
I1218 02:23:55.585317 11857 net.cpp:100] Creating Layer conv8_1_relu
I1218 02:23:55.585322 11857 net.cpp:434] conv8_1_relu <- conv8_1
I1218 02:23:55.585330 11857 net.cpp:395] conv8_1_relu -> conv8_1 (in-place)
I1218 02:23:55.585484 11857 net.cpp:150] Setting up conv8_1_relu
I1218 02:23:55.585492 11857 net.cpp:157] Top shape: 1 128 8 8 (8192)
I1218 02:23:55.585496 11857 net.cpp:165] Memory required for data: 653387808
I1218 02:23:55.585500 11857 layer_factory.hpp:77] Creating layer conv8_2
I1218 02:23:55.585508 11857 net.cpp:100] Creating Layer conv8_2
I1218 02:23:55.585513 11857 net.cpp:434] conv8_2 <- conv8_1
I1218 02:23:55.585533 11857 net.cpp:408] conv8_2 -> conv8_2
I1218 02:23:55.588775 11857 net.cpp:150] Setting up conv8_2
I1218 02:23:55.588786 11857 net.cpp:157] Top shape: 1 256 6 6 (9216)
I1218 02:23:55.588793 11857 net.cpp:165] Memory required for data: 653424672
I1218 02:23:55.588798 11857 layer_factory.hpp:77] Creating layer conv8_2_relu
I1218 02:23:55.588804 11857 net.cpp:100] Creating Layer conv8_2_relu
I1218 02:23:55.588809 11857 net.cpp:434] conv8_2_relu <- conv8_2
I1218 02:23:55.588817 11857 net.cpp:395] conv8_2_relu -> conv8_2 (in-place)
I1218 02:23:55.588977 11857 net.cpp:150] Setting up conv8_2_relu
I1218 02:23:55.588984 11857 net.cpp:157] Top shape: 1 256 6 6 (9216)
I1218 02:23:55.588989 11857 net.cpp:165] Memory required for data: 653461536
I1218 02:23:55.588994 11857 layer_factory.hpp:77] Creating layer conv8_2_conv8_2_relu_0_split
I1218 02:23:55.589000 11857 net.cpp:100] Creating Layer conv8_2_conv8_2_relu_0_split
I1218 02:23:55.589005 11857 net.cpp:434] conv8_2_conv8_2_relu_0_split <- conv8_2
I1218 02:23:55.589011 11857 net.cpp:408] conv8_2_conv8_2_relu_0_split -> conv8_2_conv8_2_relu_0_split_0
I1218 02:23:55.589020 11857 net.cpp:408] conv8_2_conv8_2_relu_0_split -> conv8_2_conv8_2_relu_0_split_1
I1218 02:23:55.589027 11857 net.cpp:408] conv8_2_conv8_2_relu_0_split -> conv8_2_conv8_2_relu_0_split_2
I1218 02:23:55.589033 11857 net.cpp:408] conv8_2_conv8_2_relu_0_split -> conv8_2_conv8_2_relu_0_split_3
I1218 02:23:55.589100 11857 net.cpp:150] Setting up conv8_2_conv8_2_relu_0_split
I1218 02:23:55.589107 11857 net.cpp:157] Top shape: 1 256 6 6 (9216)
I1218 02:23:55.589112 11857 net.cpp:157] Top shape: 1 256 6 6 (9216)
I1218 02:23:55.589118 11857 net.cpp:157] Top shape: 1 256 6 6 (9216)
I1218 02:23:55.589121 11857 net.cpp:157] Top shape: 1 256 6 6 (9216)
I1218 02:23:55.589126 11857 net.cpp:165] Memory required for data: 653608992
I1218 02:23:55.589130 11857 layer_factory.hpp:77] Creating layer conv9_1
I1218 02:23:55.589139 11857 net.cpp:100] Creating Layer conv9_1
I1218 02:23:55.589144 11857 net.cpp:434] conv9_1 <- conv8_2_conv8_2_relu_0_split_0
I1218 02:23:55.589151 11857 net.cpp:408] conv9_1 -> conv9_1
I1218 02:23:55.590358 11857 net.cpp:150] Setting up conv9_1
I1218 02:23:55.590378 11857 net.cpp:157] Top shape: 1 128 6 6 (4608)
I1218 02:23:55.590382 11857 net.cpp:165] Memory required for data: 653627424
I1218 02:23:55.590389 11857 layer_factory.hpp:77] Creating layer conv9_1_relu
I1218 02:23:55.590395 11857 net.cpp:100] Creating Layer conv9_1_relu
I1218 02:23:55.590400 11857 net.cpp:434] conv9_1_relu <- conv9_1
I1218 02:23:55.590407 11857 net.cpp:395] conv9_1_relu -> conv9_1 (in-place)
I1218 02:23:55.590911 11857 net.cpp:150] Setting up conv9_1_relu
I1218 02:23:55.590921 11857 net.cpp:157] Top shape: 1 128 6 6 (4608)
I1218 02:23:55.590925 11857 net.cpp:165] Memory required for data: 653645856
I1218 02:23:55.590930 11857 layer_factory.hpp:77] Creating layer conv9_2
I1218 02:23:55.590940 11857 net.cpp:100] Creating Layer conv9_2
I1218 02:23:55.590945 11857 net.cpp:434] conv9_2 <- conv9_1
I1218 02:23:55.590953 11857 net.cpp:408] conv9_2 -> conv9_2
I1218 02:23:55.594246 11857 net.cpp:150] Setting up conv9_2
I1218 02:23:55.594257 11857 net.cpp:157] Top shape: 1 256 4 4 (4096)
I1218 02:23:55.594261 11857 net.cpp:165] Memory required for data: 653662240
I1218 02:23:55.594269 11857 layer_factory.hpp:77] Creating layer conv9_2_relu
I1218 02:23:55.594274 11857 net.cpp:100] Creating Layer conv9_2_relu
I1218 02:23:55.594280 11857 net.cpp:434] conv9_2_relu <- conv9_2
I1218 02:23:55.594287 11857 net.cpp:395] conv9_2_relu -> conv9_2 (in-place)
I1218 02:23:55.594447 11857 net.cpp:150] Setting up conv9_2_relu
I1218 02:23:55.594455 11857 net.cpp:157] Top shape: 1 256 4 4 (4096)
I1218 02:23:55.594460 11857 net.cpp:165] Memory required for data: 653678624
I1218 02:23:55.594465 11857 layer_factory.hpp:77] Creating layer conv9_2_conv9_2_relu_0_split
I1218 02:23:55.594470 11857 net.cpp:100] Creating Layer conv9_2_conv9_2_relu_0_split
I1218 02:23:55.594473 11857 net.cpp:434] conv9_2_conv9_2_relu_0_split <- conv9_2
I1218 02:23:55.594481 11857 net.cpp:408] conv9_2_conv9_2_relu_0_split -> conv9_2_conv9_2_relu_0_split_0
I1218 02:23:55.594488 11857 net.cpp:408] conv9_2_conv9_2_relu_0_split -> conv9_2_conv9_2_relu_0_split_1
I1218 02:23:55.594508 11857 net.cpp:408] conv9_2_conv9_2_relu_0_split -> conv9_2_conv9_2_relu_0_split_2
I1218 02:23:55.594576 11857 net.cpp:150] Setting up conv9_2_conv9_2_relu_0_split
I1218 02:23:55.594583 11857 net.cpp:157] Top shape: 1 256 4 4 (4096)
I1218 02:23:55.594588 11857 net.cpp:157] Top shape: 1 256 4 4 (4096)
I1218 02:23:55.594591 11857 net.cpp:157] Top shape: 1 256 4 4 (4096)
I1218 02:23:55.594596 11857 net.cpp:165] Memory required for data: 653727776
I1218 02:23:55.594600 11857 layer_factory.hpp:77] Creating layer conv4_3_norm
I1218 02:23:55.594609 11857 net.cpp:100] Creating Layer conv4_3_norm
I1218 02:23:55.594614 11857 net.cpp:434] conv4_3_norm <- conv4_3_relu4_3_0_split_1
I1218 02:23:55.594620 11857 net.cpp:408] conv4_3_norm -> conv4_3_norm
I1218 02:23:55.594770 11857 net.cpp:150] Setting up conv4_3_norm
I1218 02:23:55.594777 11857 net.cpp:157] Top shape: 1 512 63 63 (2032128)
I1218 02:23:55.594782 11857 net.cpp:165] Memory required for data: 661856288
I1218 02:23:55.594787 11857 layer_factory.hpp:77] Creating layer conv4_3_norm_conv4_3_norm_0_split
I1218 02:23:55.594794 11857 net.cpp:100] Creating Layer conv4_3_norm_conv4_3_norm_0_split
I1218 02:23:55.594799 11857 net.cpp:434] conv4_3_norm_conv4_3_norm_0_split <- conv4_3_norm
I1218 02:23:55.594805 11857 net.cpp:408] conv4_3_norm_conv4_3_norm_0_split -> conv4_3_norm_conv4_3_norm_0_split_0
I1218 02:23:55.594810 11857 net.cpp:408] conv4_3_norm_conv4_3_norm_0_split -> conv4_3_norm_conv4_3_norm_0_split_1
I1218 02:23:55.594817 11857 net.cpp:408] conv4_3_norm_conv4_3_norm_0_split -> conv4_3_norm_conv4_3_norm_0_split_2
I1218 02:23:55.594862 11857 net.cpp:150] Setting up conv4_3_norm_conv4_3_norm_0_split
I1218 02:23:55.594868 11857 net.cpp:157] Top shape: 1 512 63 63 (2032128)
I1218 02:23:55.594873 11857 net.cpp:157] Top shape: 1 512 63 63 (2032128)
I1218 02:23:55.594879 11857 net.cpp:157] Top shape: 1 512 63 63 (2032128)
I1218 02:23:55.594882 11857 net.cpp:165] Memory required for data: 686241824
I1218 02:23:55.594887 11857 layer_factory.hpp:77] Creating layer conv4_3_norm_mbox_loc
I1218 02:23:55.594904 11857 net.cpp:100] Creating Layer conv4_3_norm_mbox_loc
I1218 02:23:55.594910 11857 net.cpp:434] conv4_3_norm_mbox_loc <- conv4_3_norm_conv4_3_norm_0_split_0
I1218 02:23:55.594916 11857 net.cpp:408] conv4_3_norm_mbox_loc -> conv4_3_norm_mbox_loc
I1218 02:23:55.596653 11857 net.cpp:150] Setting up conv4_3_norm_mbox_loc
I1218 02:23:55.596662 11857 net.cpp:157] Top shape: 1 16 63 63 (63504)
I1218 02:23:55.596668 11857 net.cpp:165] Memory required for data: 686495840
I1218 02:23:55.596674 11857 layer_factory.hpp:77] Creating layer conv4_3_norm_mbox_loc_perm
I1218 02:23:55.596683 11857 net.cpp:100] Creating Layer conv4_3_norm_mbox_loc_perm
I1218 02:23:55.596688 11857 net.cpp:434] conv4_3_norm_mbox_loc_perm <- conv4_3_norm_mbox_loc
I1218 02:23:55.596694 11857 net.cpp:408] conv4_3_norm_mbox_loc_perm -> conv4_3_norm_mbox_loc_perm
I1218 02:23:55.596797 11857 net.cpp:150] Setting up conv4_3_norm_mbox_loc_perm
I1218 02:23:55.596804 11857 net.cpp:157] Top shape: 1 63 63 16 (63504)
I1218 02:23:55.596808 11857 net.cpp:165] Memory required for data: 686749856
I1218 02:23:55.596813 11857 layer_factory.hpp:77] Creating layer conv4_3_norm_mbox_loc_flat
I1218 02:23:55.596819 11857 net.cpp:100] Creating Layer conv4_3_norm_mbox_loc_flat
I1218 02:23:55.596823 11857 net.cpp:434] conv4_3_norm_mbox_loc_flat <- conv4_3_norm_mbox_loc_perm
I1218 02:23:55.596829 11857 net.cpp:408] conv4_3_norm_mbox_loc_flat -> conv4_3_norm_mbox_loc_flat
I1218 02:23:55.596863 11857 net.cpp:150] Setting up conv4_3_norm_mbox_loc_flat
I1218 02:23:55.596869 11857 net.cpp:157] Top shape: 1 63504 (63504)
I1218 02:23:55.596874 11857 net.cpp:165] Memory required for data: 687003872
I1218 02:23:55.596879 11857 layer_factory.hpp:77] Creating layer conv4_3_norm_mbox_conf
I1218 02:23:55.596891 11857 net.cpp:100] Creating Layer conv4_3_norm_mbox_conf
I1218 02:23:55.596896 11857 net.cpp:434] conv4_3_norm_mbox_conf <- conv4_3_norm_conv4_3_norm_0_split_1
I1218 02:23:55.596902 11857 net.cpp:408] conv4_3_norm_mbox_conf -> conv4_3_norm_mbox_conf
I1218 02:23:55.598459 11857 net.cpp:150] Setting up conv4_3_norm_mbox_conf
I1218 02:23:55.598470 11857 net.cpp:157] Top shape: 1 8 63 63 (31752)
I1218 02:23:55.598475 11857 net.cpp:165] Memory required for data: 687130880
I1218 02:23:55.598481 11857 layer_factory.hpp:77] Creating layer conv4_3_norm_mbox_conf_perm
I1218 02:23:55.598489 11857 net.cpp:100] Creating Layer conv4_3_norm_mbox_conf_perm
I1218 02:23:55.598493 11857 net.cpp:434] conv4_3_norm_mbox_conf_perm <- conv4_3_norm_mbox_conf
I1218 02:23:55.598501 11857 net.cpp:408] conv4_3_norm_mbox_conf_perm -> conv4_3_norm_mbox_conf_perm
I1218 02:23:55.598605 11857 net.cpp:150] Setting up conv4_3_norm_mbox_conf_perm
I1218 02:23:55.598611 11857 net.cpp:157] Top shape: 1 63 63 8 (31752)
I1218 02:23:55.598616 11857 net.cpp:165] Memory required for data: 687257888
I1218 02:23:55.598620 11857 layer_factory.hpp:77] Creating layer conv4_3_norm_mbox_conf_flat
I1218 02:23:55.598626 11857 net.cpp:100] Creating Layer conv4_3_norm_mbox_conf_flat
I1218 02:23:55.598631 11857 net.cpp:434] conv4_3_norm_mbox_conf_flat <- conv4_3_norm_mbox_conf_perm
I1218 02:23:55.598639 11857 net.cpp:408] conv4_3_norm_mbox_conf_flat -> conv4_3_norm_mbox_conf_flat
I1218 02:23:55.598661 11857 net.cpp:150] Setting up conv4_3_norm_mbox_conf_flat
I1218 02:23:55.598667 11857 net.cpp:157] Top shape: 1 31752 (31752)
I1218 02:23:55.598671 11857 net.cpp:165] Memory required for data: 687384896
I1218 02:23:55.598676 11857 layer_factory.hpp:77] Creating layer conv4_3_norm_mbox_priorbox
I1218 02:23:55.598682 11857 net.cpp:100] Creating Layer conv4_3_norm_mbox_priorbox
I1218 02:23:55.598687 11857 net.cpp:434] conv4_3_norm_mbox_priorbox <- conv4_3_norm_conv4_3_norm_0_split_2
I1218 02:23:55.598692 11857 net.cpp:434] conv4_3_norm_mbox_priorbox <- data_data_0_split_1
I1218 02:23:55.598701 11857 net.cpp:408] conv4_3_norm_mbox_priorbox -> conv4_3_norm_mbox_priorbox
I1218 02:23:55.598726 11857 net.cpp:150] Setting up conv4_3_norm_mbox_priorbox
I1218 02:23:55.598731 11857 net.cpp:157] Top shape: 1 2 63504 (127008)
I1218 02:23:55.598742 11857 net.cpp:165] Memory required for data: 687892928
I1218 02:23:55.598748 11857 layer_factory.hpp:77] Creating layer fc7_mbox_loc
I1218 02:23:55.598757 11857 net.cpp:100] Creating Layer fc7_mbox_loc
I1218 02:23:55.598762 11857 net.cpp:434] fc7_mbox_loc <- fc7_relu7_0_split_1
I1218 02:23:55.598768 11857 net.cpp:408] fc7_mbox_loc -> fc7_mbox_loc
I1218 02:23:55.601055 11857 net.cpp:150] Setting up fc7_mbox_loc
I1218 02:23:55.601065 11857 net.cpp:157] Top shape: 1 24 32 32 (24576)
I1218 02:23:55.601069 11857 net.cpp:165] Memory required for data: 687991232
I1218 02:23:55.601075 11857 layer_factory.hpp:77] Creating layer fc7_mbox_loc_perm
I1218 02:23:55.601083 11857 net.cpp:100] Creating Layer fc7_mbox_loc_perm
I1218 02:23:55.601089 11857 net.cpp:434] fc7_mbox_loc_perm <- fc7_mbox_loc
I1218 02:23:55.601095 11857 net.cpp:408] fc7_mbox_loc_perm -> fc7_mbox_loc_perm
I1218 02:23:55.601200 11857 net.cpp:150] Setting up fc7_mbox_loc_perm
I1218 02:23:55.601207 11857 net.cpp:157] Top shape: 1 32 32 24 (24576)
I1218 02:23:55.601212 11857 net.cpp:165] Memory required for data: 688089536
I1218 02:23:55.601215 11857 layer_factory.hpp:77] Creating layer fc7_mbox_loc_flat
I1218 02:23:55.601222 11857 net.cpp:100] Creating Layer fc7_mbox_loc_flat
I1218 02:23:55.601227 11857 net.cpp:434] fc7_mbox_loc_flat <- fc7_mbox_loc_perm
I1218 02:23:55.601233 11857 net.cpp:408] fc7_mbox_loc_flat -> fc7_mbox_loc_flat
I1218 02:23:55.601256 11857 net.cpp:150] Setting up fc7_mbox_loc_flat
I1218 02:23:55.601263 11857 net.cpp:157] Top shape: 1 24576 (24576)
I1218 02:23:55.601266 11857 net.cpp:165] Memory required for data: 688187840
I1218 02:23:55.601270 11857 layer_factory.hpp:77] Creating layer fc7_mbox_conf
I1218 02:23:55.601280 11857 net.cpp:100] Creating Layer fc7_mbox_conf
I1218 02:23:55.601285 11857 net.cpp:434] fc7_mbox_conf <- fc7_relu7_0_split_2
I1218 02:23:55.601292 11857 net.cpp:408] fc7_mbox_conf -> fc7_mbox_conf
I1218 02:23:55.603113 11857 net.cpp:150] Setting up fc7_mbox_conf
I1218 02:23:55.603123 11857 net.cpp:157] Top shape: 1 12 32 32 (12288)
I1218 02:23:55.603128 11857 net.cpp:165] Memory required for data: 688236992
I1218 02:23:55.603135 11857 layer_factory.hpp:77] Creating layer fc7_mbox_conf_perm
I1218 02:23:55.603142 11857 net.cpp:100] Creating Layer fc7_mbox_conf_perm
I1218 02:23:55.603147 11857 net.cpp:434] fc7_mbox_conf_perm <- fc7_mbox_conf
I1218 02:23:55.603154 11857 net.cpp:408] fc7_mbox_conf_perm -> fc7_mbox_conf_perm
I1218 02:23:55.603261 11857 net.cpp:150] Setting up fc7_mbox_conf_perm
I1218 02:23:55.603268 11857 net.cpp:157] Top shape: 1 32 32 12 (12288)
I1218 02:23:55.603272 11857 net.cpp:165] Memory required for data: 688286144
I1218 02:23:55.603276 11857 layer_factory.hpp:77] Creating layer fc7_mbox_conf_flat
I1218 02:23:55.603283 11857 net.cpp:100] Creating Layer fc7_mbox_conf_flat
I1218 02:23:55.603288 11857 net.cpp:434] fc7_mbox_conf_flat <- fc7_mbox_conf_perm
I1218 02:23:55.603296 11857 net.cpp:408] fc7_mbox_conf_flat -> fc7_mbox_conf_flat
I1218 02:23:55.603317 11857 net.cpp:150] Setting up fc7_mbox_conf_flat
I1218 02:23:55.603324 11857 net.cpp:157] Top shape: 1 12288 (12288)
I1218 02:23:55.603328 11857 net.cpp:165] Memory required for data: 688335296
I1218 02:23:55.603332 11857 layer_factory.hpp:77] Creating layer fc7_mbox_priorbox
I1218 02:23:55.603339 11857 net.cpp:100] Creating Layer fc7_mbox_priorbox
I1218 02:23:55.603345 11857 net.cpp:434] fc7_mbox_priorbox <- fc7_relu7_0_split_3
I1218 02:23:55.603349 11857 net.cpp:434] fc7_mbox_priorbox <- data_data_0_split_2
I1218 02:23:55.603356 11857 net.cpp:408] fc7_mbox_priorbox -> fc7_mbox_priorbox
I1218 02:23:55.603381 11857 net.cpp:150] Setting up fc7_mbox_priorbox
I1218 02:23:55.603387 11857 net.cpp:157] Top shape: 1 2 24576 (49152)
I1218 02:23:55.603392 11857 net.cpp:165] Memory required for data: 688531904
I1218 02:23:55.603396 11857 layer_factory.hpp:77] Creating layer conv6_2_mbox_loc
I1218 02:23:55.603404 11857 net.cpp:100] Creating Layer conv6_2_mbox_loc
I1218 02:23:55.603410 11857 net.cpp:434] conv6_2_mbox_loc <- conv6_2_conv6_2_relu_0_split_1
I1218 02:23:55.603425 11857 net.cpp:408] conv6_2_mbox_loc -> conv6_2_mbox_loc
I1218 02:23:55.605304 11857 net.cpp:150] Setting up conv6_2_mbox_loc
I1218 02:23:55.605314 11857 net.cpp:157] Top shape: 1 24 16 16 (6144)
I1218 02:23:55.605319 11857 net.cpp:165] Memory required for data: 688556480
I1218 02:23:55.605324 11857 layer_factory.hpp:77] Creating layer conv6_2_mbox_loc_perm
I1218 02:23:55.605334 11857 net.cpp:100] Creating Layer conv6_2_mbox_loc_perm
I1218 02:23:55.605338 11857 net.cpp:434] conv6_2_mbox_loc_perm <- conv6_2_mbox_loc
I1218 02:23:55.605346 11857 net.cpp:408] conv6_2_mbox_loc_perm -> conv6_2_mbox_loc_perm
I1218 02:23:55.605448 11857 net.cpp:150] Setting up conv6_2_mbox_loc_perm
I1218 02:23:55.605454 11857 net.cpp:157] Top shape: 1 16 16 24 (6144)
I1218 02:23:55.605458 11857 net.cpp:165] Memory required for data: 688581056
I1218 02:23:55.605463 11857 layer_factory.hpp:77] Creating layer conv6_2_mbox_loc_flat
I1218 02:23:55.605470 11857 net.cpp:100] Creating Layer conv6_2_mbox_loc_flat
I1218 02:23:55.605475 11857 net.cpp:434] conv6_2_mbox_loc_flat <- conv6_2_mbox_loc_perm
I1218 02:23:55.605482 11857 net.cpp:408] conv6_2_mbox_loc_flat -> conv6_2_mbox_loc_flat
I1218 02:23:55.605505 11857 net.cpp:150] Setting up conv6_2_mbox_loc_flat
I1218 02:23:55.605511 11857 net.cpp:157] Top shape: 1 6144 (6144)
I1218 02:23:55.605516 11857 net.cpp:165] Memory required for data: 688605632
I1218 02:23:55.605520 11857 layer_factory.hpp:77] Creating layer conv6_2_mbox_conf
I1218 02:23:55.605530 11857 net.cpp:100] Creating Layer conv6_2_mbox_conf
I1218 02:23:55.605535 11857 net.cpp:434] conv6_2_mbox_conf <- conv6_2_conv6_2_relu_0_split_2
I1218 02:23:55.605541 11857 net.cpp:408] conv6_2_mbox_conf -> conv6_2_mbox_conf
I1218 02:23:55.607172 11857 net.cpp:150] Setting up conv6_2_mbox_conf
I1218 02:23:55.607182 11857 net.cpp:157] Top shape: 1 12 16 16 (3072)
I1218 02:23:55.607187 11857 net.cpp:165] Memory required for data: 688617920
I1218 02:23:55.607193 11857 layer_factory.hpp:77] Creating layer conv6_2_mbox_conf_perm
I1218 02:23:55.607200 11857 net.cpp:100] Creating Layer conv6_2_mbox_conf_perm
I1218 02:23:55.607206 11857 net.cpp:434] conv6_2_mbox_conf_perm <- conv6_2_mbox_conf
I1218 02:23:55.607213 11857 net.cpp:408] conv6_2_mbox_conf_perm -> conv6_2_mbox_conf_perm
I1218 02:23:55.607316 11857 net.cpp:150] Setting up conv6_2_mbox_conf_perm
I1218 02:23:55.607321 11857 net.cpp:157] Top shape: 1 16 16 12 (3072)
I1218 02:23:55.607326 11857 net.cpp:165] Memory required for data: 688630208
I1218 02:23:55.607331 11857 layer_factory.hpp:77] Creating layer conv6_2_mbox_conf_flat
I1218 02:23:55.607336 11857 net.cpp:100] Creating Layer conv6_2_mbox_conf_flat
I1218 02:23:55.607342 11857 net.cpp:434] conv6_2_mbox_conf_flat <- conv6_2_mbox_conf_perm
I1218 02:23:55.607348 11857 net.cpp:408] conv6_2_mbox_conf_flat -> conv6_2_mbox_conf_flat
I1218 02:23:55.607372 11857 net.cpp:150] Setting up conv6_2_mbox_conf_flat
I1218 02:23:55.607378 11857 net.cpp:157] Top shape: 1 3072 (3072)
I1218 02:23:55.607381 11857 net.cpp:165] Memory required for data: 688642496
I1218 02:23:55.607386 11857 layer_factory.hpp:77] Creating layer conv6_2_mbox_priorbox
I1218 02:23:55.607393 11857 net.cpp:100] Creating Layer conv6_2_mbox_priorbox
I1218 02:23:55.607398 11857 net.cpp:434] conv6_2_mbox_priorbox <- conv6_2_conv6_2_relu_0_split_3
I1218 02:23:55.607403 11857 net.cpp:434] conv6_2_mbox_priorbox <- data_data_0_split_3
I1218 02:23:55.607410 11857 net.cpp:408] conv6_2_mbox_priorbox -> conv6_2_mbox_priorbox
I1218 02:23:55.607435 11857 net.cpp:150] Setting up conv6_2_mbox_priorbox
I1218 02:23:55.607441 11857 net.cpp:157] Top shape: 1 2 6144 (12288)
I1218 02:23:55.607446 11857 net.cpp:165] Memory required for data: 688691648
I1218 02:23:55.607450 11857 layer_factory.hpp:77] Creating layer conv7_2_mbox_loc
I1218 02:23:55.607460 11857 net.cpp:100] Creating Layer conv7_2_mbox_loc
I1218 02:23:55.607465 11857 net.cpp:434] conv7_2_mbox_loc <- conv7_2_conv7_2_relu_0_split_1
I1218 02:23:55.607471 11857 net.cpp:408] conv7_2_mbox_loc -> conv7_2_mbox_loc
I1218 02:23:55.609174 11857 net.cpp:150] Setting up conv7_2_mbox_loc
I1218 02:23:55.609184 11857 net.cpp:157] Top shape: 1 24 8 8 (1536)
I1218 02:23:55.609189 11857 net.cpp:165] Memory required for data: 688697792
I1218 02:23:55.609195 11857 layer_factory.hpp:77] Creating layer conv7_2_mbox_loc_perm
I1218 02:23:55.609202 11857 net.cpp:100] Creating Layer conv7_2_mbox_loc_perm
I1218 02:23:55.609207 11857 net.cpp:434] conv7_2_mbox_loc_perm <- conv7_2_mbox_loc
I1218 02:23:55.609215 11857 net.cpp:408] conv7_2_mbox_loc_perm -> conv7_2_mbox_loc_perm
I1218 02:23:55.609323 11857 net.cpp:150] Setting up conv7_2_mbox_loc_perm
I1218 02:23:55.609329 11857 net.cpp:157] Top shape: 1 8 8 24 (1536)
I1218 02:23:55.609334 11857 net.cpp:165] Memory required for data: 688703936
I1218 02:23:55.609338 11857 layer_factory.hpp:77] Creating layer conv7_2_mbox_loc_flat
I1218 02:23:55.609344 11857 net.cpp:100] Creating Layer conv7_2_mbox_loc_flat
I1218 02:23:55.609349 11857 net.cpp:434] conv7_2_mbox_loc_flat <- conv7_2_mbox_loc_perm
I1218 02:23:55.609355 11857 net.cpp:408] conv7_2_mbox_loc_flat -> conv7_2_mbox_loc_flat
I1218 02:23:55.609377 11857 net.cpp:150] Setting up conv7_2_mbox_loc_flat
I1218 02:23:55.609383 11857 net.cpp:157] Top shape: 1 1536 (1536)
I1218 02:23:55.609388 11857 net.cpp:165] Memory required for data: 688710080
I1218 02:23:55.609392 11857 layer_factory.hpp:77] Creating layer conv7_2_mbox_conf
I1218 02:23:55.609400 11857 net.cpp:100] Creating Layer conv7_2_mbox_conf
I1218 02:23:55.609405 11857 net.cpp:434] conv7_2_mbox_conf <- conv7_2_conv7_2_relu_0_split_2
I1218 02:23:55.609413 11857 net.cpp:408] conv7_2_mbox_conf -> conv7_2_mbox_conf
I1218 02:23:55.610944 11857 net.cpp:150] Setting up conv7_2_mbox_conf
I1218 02:23:55.610954 11857 net.cpp:157] Top shape: 1 12 8 8 (768)
I1218 02:23:55.610958 11857 net.cpp:165] Memory required for data: 688713152
I1218 02:23:55.610965 11857 layer_factory.hpp:77] Creating layer conv7_2_mbox_conf_perm
I1218 02:23:55.610971 11857 net.cpp:100] Creating Layer conv7_2_mbox_conf_perm
I1218 02:23:55.610976 11857 net.cpp:434] conv7_2_mbox_conf_perm <- conv7_2_mbox_conf
I1218 02:23:55.610985 11857 net.cpp:408] conv7_2_mbox_conf_perm -> conv7_2_mbox_conf_perm
I1218 02:23:55.611091 11857 net.cpp:150] Setting up conv7_2_mbox_conf_perm
I1218 02:23:55.611099 11857 net.cpp:157] Top shape: 1 8 8 12 (768)
I1218 02:23:55.611102 11857 net.cpp:165] Memory required for data: 688716224
I1218 02:23:55.611106 11857 layer_factory.hpp:77] Creating layer conv7_2_mbox_conf_flat
I1218 02:23:55.611112 11857 net.cpp:100] Creating Layer conv7_2_mbox_conf_flat
I1218 02:23:55.611117 11857 net.cpp:434] conv7_2_mbox_conf_flat <- conv7_2_mbox_conf_perm
I1218 02:23:55.611124 11857 net.cpp:408] conv7_2_mbox_conf_flat -> conv7_2_mbox_conf_flat
I1218 02:23:55.611148 11857 net.cpp:150] Setting up conv7_2_mbox_conf_flat
I1218 02:23:55.611155 11857 net.cpp:157] Top shape: 1 768 (768)
I1218 02:23:55.611160 11857 net.cpp:165] Memory required for data: 688719296
I1218 02:23:55.611162 11857 layer_factory.hpp:77] Creating layer conv7_2_mbox_priorbox
I1218 02:23:55.611169 11857 net.cpp:100] Creating Layer conv7_2_mbox_priorbox
I1218 02:23:55.611174 11857 net.cpp:434] conv7_2_mbox_priorbox <- conv7_2_conv7_2_relu_0_split_3
I1218 02:23:55.611181 11857 net.cpp:434] conv7_2_mbox_priorbox <- data_data_0_split_4
I1218 02:23:55.611187 11857 net.cpp:408] conv7_2_mbox_priorbox -> conv7_2_mbox_priorbox
I1218 02:23:55.611212 11857 net.cpp:150] Setting up conv7_2_mbox_priorbox
I1218 02:23:55.611219 11857 net.cpp:157] Top shape: 1 2 1536 (3072)
I1218 02:23:55.611223 11857 net.cpp:165] Memory required for data: 688731584
I1218 02:23:55.611227 11857 layer_factory.hpp:77] Creating layer conv8_2_mbox_loc
I1218 02:23:55.611235 11857 net.cpp:100] Creating Layer conv8_2_mbox_loc
I1218 02:23:55.611241 11857 net.cpp:434] conv8_2_mbox_loc <- conv8_2_conv8_2_relu_0_split_1
I1218 02:23:55.611248 11857 net.cpp:408] conv8_2_mbox_loc -> conv8_2_mbox_loc
I1218 02:23:55.613595 11857 net.cpp:150] Setting up conv8_2_mbox_loc
I1218 02:23:55.613605 11857 net.cpp:157] Top shape: 1 16 6 6 (576)
I1218 02:23:55.613618 11857 net.cpp:165] Memory required for data: 688733888
I1218 02:23:55.613631 11857 layer_factory.hpp:77] Creating layer conv8_2_mbox_loc_perm
I1218 02:23:55.613638 11857 net.cpp:100] Creating Layer conv8_2_mbox_loc_perm
I1218 02:23:55.613644 11857 net.cpp:434] conv8_2_mbox_loc_perm <- conv8_2_mbox_loc
I1218 02:23:55.613652 11857 net.cpp:408] conv8_2_mbox_loc_perm -> conv8_2_mbox_loc_perm
I1218 02:23:55.613757 11857 net.cpp:150] Setting up conv8_2_mbox_loc_perm
I1218 02:23:55.613764 11857 net.cpp:157] Top shape: 1 6 6 16 (576)
I1218 02:23:55.613768 11857 net.cpp:165] Memory required for data: 688736192
I1218 02:23:55.613772 11857 layer_factory.hpp:77] Creating layer conv8_2_mbox_loc_flat
I1218 02:23:55.613780 11857 net.cpp:100] Creating Layer conv8_2_mbox_loc_flat
I1218 02:23:55.613785 11857 net.cpp:434] conv8_2_mbox_loc_flat <- conv8_2_mbox_loc_perm
I1218 02:23:55.613791 11857 net.cpp:408] conv8_2_mbox_loc_flat -> conv8_2_mbox_loc_flat
I1218 02:23:55.613814 11857 net.cpp:150] Setting up conv8_2_mbox_loc_flat
I1218 02:23:55.613821 11857 net.cpp:157] Top shape: 1 576 (576)
I1218 02:23:55.613824 11857 net.cpp:165] Memory required for data: 688738496
I1218 02:23:55.613828 11857 layer_factory.hpp:77] Creating layer conv8_2_mbox_conf
I1218 02:23:55.613838 11857 net.cpp:100] Creating Layer conv8_2_mbox_conf
I1218 02:23:55.613843 11857 net.cpp:434] conv8_2_mbox_conf <- conv8_2_conv8_2_relu_0_split_2
I1218 02:23:55.613852 11857 net.cpp:408] conv8_2_mbox_conf -> conv8_2_mbox_conf
I1218 02:23:55.615010 11857 net.cpp:150] Setting up conv8_2_mbox_conf
I1218 02:23:55.615020 11857 net.cpp:157] Top shape: 1 8 6 6 (288)
I1218 02:23:55.615025 11857 net.cpp:165] Memory required for data: 688739648
I1218 02:23:55.615031 11857 layer_factory.hpp:77] Creating layer conv8_2_mbox_conf_perm
I1218 02:23:55.615038 11857 net.cpp:100] Creating Layer conv8_2_mbox_conf_perm
I1218 02:23:55.615044 11857 net.cpp:434] conv8_2_mbox_conf_perm <- conv8_2_mbox_conf
I1218 02:23:55.615051 11857 net.cpp:408] conv8_2_mbox_conf_perm -> conv8_2_mbox_conf_perm
I1218 02:23:55.615155 11857 net.cpp:150] Setting up conv8_2_mbox_conf_perm
I1218 02:23:55.615162 11857 net.cpp:157] Top shape: 1 6 6 8 (288)
I1218 02:23:55.615166 11857 net.cpp:165] Memory required for data: 688740800
I1218 02:23:55.615170 11857 layer_factory.hpp:77] Creating layer conv8_2_mbox_conf_flat
I1218 02:23:55.615177 11857 net.cpp:100] Creating Layer conv8_2_mbox_conf_flat
I1218 02:23:55.615182 11857 net.cpp:434] conv8_2_mbox_conf_flat <- conv8_2_mbox_conf_perm
I1218 02:23:55.615190 11857 net.cpp:408] conv8_2_mbox_conf_flat -> conv8_2_mbox_conf_flat
I1218 02:23:55.615212 11857 net.cpp:150] Setting up conv8_2_mbox_conf_flat
I1218 02:23:55.615218 11857 net.cpp:157] Top shape: 1 288 (288)
I1218 02:23:55.615222 11857 net.cpp:165] Memory required for data: 688741952
I1218 02:23:55.615226 11857 layer_factory.hpp:77] Creating layer conv8_2_mbox_priorbox
I1218 02:23:55.615236 11857 net.cpp:100] Creating Layer conv8_2_mbox_priorbox
I1218 02:23:55.615240 11857 net.cpp:434] conv8_2_mbox_priorbox <- conv8_2_conv8_2_relu_0_split_3
I1218 02:23:55.615247 11857 net.cpp:434] conv8_2_mbox_priorbox <- data_data_0_split_5
I1218 02:23:55.615253 11857 net.cpp:408] conv8_2_mbox_priorbox -> conv8_2_mbox_priorbox
I1218 02:23:55.615278 11857 net.cpp:150] Setting up conv8_2_mbox_priorbox
I1218 02:23:55.615283 11857 net.cpp:157] Top shape: 1 2 576 (1152)
I1218 02:23:55.615288 11857 net.cpp:165] Memory required for data: 688746560
I1218 02:23:55.615293 11857 layer_factory.hpp:77] Creating layer conv9_2_mbox_loc
I1218 02:23:55.615301 11857 net.cpp:100] Creating Layer conv9_2_mbox_loc
I1218 02:23:55.615306 11857 net.cpp:434] conv9_2_mbox_loc <- conv9_2_conv9_2_relu_0_split_0
I1218 02:23:55.615314 11857 net.cpp:408] conv9_2_mbox_loc -> conv9_2_mbox_loc
I1218 02:23:55.616519 11857 net.cpp:150] Setting up conv9_2_mbox_loc
I1218 02:23:55.616529 11857 net.cpp:157] Top shape: 1 16 4 4 (256)
I1218 02:23:55.616533 11857 net.cpp:165] Memory required for data: 688747584
I1218 02:23:55.616547 11857 layer_factory.hpp:77] Creating layer conv9_2_mbox_loc_perm
I1218 02:23:55.616559 11857 net.cpp:100] Creating Layer conv9_2_mbox_loc_perm
I1218 02:23:55.616564 11857 net.cpp:434] conv9_2_mbox_loc_perm <- conv9_2_mbox_loc
I1218 02:23:55.616585 11857 net.cpp:408] conv9_2_mbox_loc_perm -> conv9_2_mbox_loc_perm
I1218 02:23:55.616704 11857 net.cpp:150] Setting up conv9_2_mbox_loc_perm
I1218 02:23:55.616711 11857 net.cpp:157] Top shape: 1 4 4 16 (256)
I1218 02:23:55.616715 11857 net.cpp:165] Memory required for data: 688748608
I1218 02:23:55.616719 11857 layer_factory.hpp:77] Creating layer conv9_2_mbox_loc_flat
I1218 02:23:55.616726 11857 net.cpp:100] Creating Layer conv9_2_mbox_loc_flat
I1218 02:23:55.616731 11857 net.cpp:434] conv9_2_mbox_loc_flat <- conv9_2_mbox_loc_perm
I1218 02:23:55.616737 11857 net.cpp:408] conv9_2_mbox_loc_flat -> conv9_2_mbox_loc_flat
I1218 02:23:55.616761 11857 net.cpp:150] Setting up conv9_2_mbox_loc_flat
I1218 02:23:55.616767 11857 net.cpp:157] Top shape: 1 256 (256)
I1218 02:23:55.616771 11857 net.cpp:165] Memory required for data: 688749632
I1218 02:23:55.616775 11857 layer_factory.hpp:77] Creating layer conv9_2_mbox_conf
I1218 02:23:55.616784 11857 net.cpp:100] Creating Layer conv9_2_mbox_conf
I1218 02:23:55.616791 11857 net.cpp:434] conv9_2_mbox_conf <- conv9_2_conv9_2_relu_0_split_1
I1218 02:23:55.616797 11857 net.cpp:408] conv9_2_mbox_conf -> conv9_2_mbox_conf
I1218 02:23:55.617930 11857 net.cpp:150] Setting up conv9_2_mbox_conf
I1218 02:23:55.617940 11857 net.cpp:157] Top shape: 1 8 4 4 (128)
I1218 02:23:55.617944 11857 net.cpp:165] Memory required for data: 688750144
I1218 02:23:55.617951 11857 layer_factory.hpp:77] Creating layer conv9_2_mbox_conf_perm
I1218 02:23:55.617959 11857 net.cpp:100] Creating Layer conv9_2_mbox_conf_perm
I1218 02:23:55.617964 11857 net.cpp:434] conv9_2_mbox_conf_perm <- conv9_2_mbox_conf
I1218 02:23:55.617970 11857 net.cpp:408] conv9_2_mbox_conf_perm -> conv9_2_mbox_conf_perm
I1218 02:23:55.618074 11857 net.cpp:150] Setting up conv9_2_mbox_conf_perm
I1218 02:23:55.618080 11857 net.cpp:157] Top shape: 1 4 4 8 (128)
I1218 02:23:55.618085 11857 net.cpp:165] Memory required for data: 688750656
I1218 02:23:55.618088 11857 layer_factory.hpp:77] Creating layer conv9_2_mbox_conf_flat
I1218 02:23:55.618094 11857 net.cpp:100] Creating Layer conv9_2_mbox_conf_flat
I1218 02:23:55.618099 11857 net.cpp:434] conv9_2_mbox_conf_flat <- conv9_2_mbox_conf_perm
I1218 02:23:55.618105 11857 net.cpp:408] conv9_2_mbox_conf_flat -> conv9_2_mbox_conf_flat
I1218 02:23:55.618130 11857 net.cpp:150] Setting up conv9_2_mbox_conf_flat
I1218 02:23:55.618136 11857 net.cpp:157] Top shape: 1 128 (128)
I1218 02:23:55.618140 11857 net.cpp:165] Memory required for data: 688751168
I1218 02:23:55.618144 11857 layer_factory.hpp:77] Creating layer conv9_2_mbox_priorbox
I1218 02:23:55.618151 11857 net.cpp:100] Creating Layer conv9_2_mbox_priorbox
I1218 02:23:55.618157 11857 net.cpp:434] conv9_2_mbox_priorbox <- conv9_2_conv9_2_relu_0_split_2
I1218 02:23:55.618162 11857 net.cpp:434] conv9_2_mbox_priorbox <- data_data_0_split_6
I1218 02:23:55.618168 11857 net.cpp:408] conv9_2_mbox_priorbox -> conv9_2_mbox_priorbox
I1218 02:23:55.618193 11857 net.cpp:150] Setting up conv9_2_mbox_priorbox
I1218 02:23:55.618199 11857 net.cpp:157] Top shape: 1 2 256 (512)
I1218 02:23:55.618204 11857 net.cpp:165] Memory required for data: 688753216
I1218 02:23:55.618207 11857 layer_factory.hpp:77] Creating layer mbox_loc
I1218 02:23:55.618216 11857 net.cpp:100] Creating Layer mbox_loc
I1218 02:23:55.618221 11857 net.cpp:434] mbox_loc <- conv4_3_norm_mbox_loc_flat
I1218 02:23:55.618227 11857 net.cpp:434] mbox_loc <- fc7_mbox_loc_flat
I1218 02:23:55.618232 11857 net.cpp:434] mbox_loc <- conv6_2_mbox_loc_flat
I1218 02:23:55.618237 11857 net.cpp:434] mbox_loc <- conv7_2_mbox_loc_flat
I1218 02:23:55.618242 11857 net.cpp:434] mbox_loc <- conv8_2_mbox_loc_flat
I1218 02:23:55.618247 11857 net.cpp:434] mbox_loc <- conv9_2_mbox_loc_flat
I1218 02:23:55.618254 11857 net.cpp:408] mbox_loc -> mbox_loc
I1218 02:23:55.618278 11857 net.cpp:150] Setting up mbox_loc
I1218 02:23:55.618291 11857 net.cpp:157] Top shape: 1 96592 (96592)
I1218 02:23:55.618296 11857 net.cpp:165] Memory required for data: 689139584
I1218 02:23:55.618300 11857 layer_factory.hpp:77] Creating layer mbox_conf
I1218 02:23:55.618305 11857 net.cpp:100] Creating Layer mbox_conf
I1218 02:23:55.618311 11857 net.cpp:434] mbox_conf <- conv4_3_norm_mbox_conf_flat
I1218 02:23:55.618317 11857 net.cpp:434] mbox_conf <- fc7_mbox_conf_flat
I1218 02:23:55.618322 11857 net.cpp:434] mbox_conf <- conv6_2_mbox_conf_flat
I1218 02:23:55.618327 11857 net.cpp:434] mbox_conf <- conv7_2_mbox_conf_flat
I1218 02:23:55.618332 11857 net.cpp:434] mbox_conf <- conv8_2_mbox_conf_flat
I1218 02:23:55.618337 11857 net.cpp:434] mbox_conf <- conv9_2_mbox_conf_flat
I1218 02:23:55.618345 11857 net.cpp:408] mbox_conf -> mbox_conf
I1218 02:23:55.618367 11857 net.cpp:150] Setting up mbox_conf
I1218 02:23:55.618374 11857 net.cpp:157] Top shape: 1 48296 (48296)
I1218 02:23:55.618378 11857 net.cpp:165] Memory required for data: 689332768
I1218 02:23:55.618382 11857 layer_factory.hpp:77] Creating layer mbox_priorbox
I1218 02:23:55.618387 11857 net.cpp:100] Creating Layer mbox_priorbox
I1218 02:23:55.618393 11857 net.cpp:434] mbox_priorbox <- conv4_3_norm_mbox_priorbox
I1218 02:23:55.618397 11857 net.cpp:434] mbox_priorbox <- fc7_mbox_priorbox
I1218 02:23:55.618402 11857 net.cpp:434] mbox_priorbox <- conv6_2_mbox_priorbox
I1218 02:23:55.618407 11857 net.cpp:434] mbox_priorbox <- conv7_2_mbox_priorbox
I1218 02:23:55.618412 11857 net.cpp:434] mbox_priorbox <- conv8_2_mbox_priorbox
I1218 02:23:55.618417 11857 net.cpp:434] mbox_priorbox <- conv9_2_mbox_priorbox
I1218 02:23:55.618423 11857 net.cpp:408] mbox_priorbox -> mbox_priorbox
I1218 02:23:55.618445 11857 net.cpp:150] Setting up mbox_priorbox
I1218 02:23:55.618453 11857 net.cpp:157] Top shape: 1 2 96592 (193184)
I1218 02:23:55.618458 11857 net.cpp:165] Memory required for data: 690105504
I1218 02:23:55.618461 11857 layer_factory.hpp:77] Creating layer mbox_conf_reshape
I1218 02:23:55.618468 11857 net.cpp:100] Creating Layer mbox_conf_reshape
I1218 02:23:55.618474 11857 net.cpp:434] mbox_conf_reshape <- mbox_conf
I1218 02:23:55.618479 11857 net.cpp:408] mbox_conf_reshape -> mbox_conf_reshape
I1218 02:23:55.618507 11857 net.cpp:150] Setting up mbox_conf_reshape
I1218 02:23:55.618513 11857 net.cpp:157] Top shape: 1 24148 2 (48296)
I1218 02:23:55.618518 11857 net.cpp:165] Memory required for data: 690298688
I1218 02:23:55.618522 11857 layer_factory.hpp:77] Creating layer mbox_conf_softmax
I1218 02:23:55.618530 11857 net.cpp:100] Creating Layer mbox_conf_softmax
I1218 02:23:55.618535 11857 net.cpp:434] mbox_conf_softmax <- mbox_conf_reshape
I1218 02:23:55.618541 11857 net.cpp:408] mbox_conf_softmax -> mbox_conf_softmax
I1218 02:23:55.618752 11857 net.cpp:150] Setting up mbox_conf_softmax
I1218 02:23:55.618760 11857 net.cpp:157] Top shape: 1 24148 2 (48296)
I1218 02:23:55.618765 11857 net.cpp:165] Memory required for data: 690491872
I1218 02:23:55.618769 11857 layer_factory.hpp:77] Creating layer mbox_conf_flatten
I1218 02:23:55.618777 11857 net.cpp:100] Creating Layer mbox_conf_flatten
I1218 02:23:55.618782 11857 net.cpp:434] mbox_conf_flatten <- mbox_conf_softmax
I1218 02:23:55.618786 11857 net.cpp:408] mbox_conf_flatten -> mbox_conf_flatten
I1218 02:23:55.618810 11857 net.cpp:150] Setting up mbox_conf_flatten
I1218 02:23:55.618816 11857 net.cpp:157] Top shape: 1 48296 (48296)
I1218 02:23:55.618820 11857 net.cpp:165] Memory required for data: 690685056
I1218 02:23:55.618824 11857 layer_factory.hpp:77] Creating layer detection_out
I1218 02:23:55.618835 11857 net.cpp:100] Creating Layer detection_out
I1218 02:23:55.618841 11857 net.cpp:434] detection_out <- mbox_loc
I1218 02:23:55.618847 11857 net.cpp:434] detection_out <- mbox_conf_flatten
I1218 02:23:55.618852 11857 net.cpp:434] detection_out <- mbox_priorbox
I1218 02:23:55.618858 11857 net.cpp:408] detection_out -> detection_out
W1218 02:23:55.620003 11857 detection_output_layer.cpp:49] Failed to create directory: /root/mount_out/work2018/cataract_recognition_train_test/detection/slit_train_test/training/results/
I1218 02:23:55.624577 11857 net.cpp:150] Setting up detection_out
I1218 02:23:55.624588 11857 net.cpp:157] Top shape: 1 1 1 7 (7)
I1218 02:23:55.624594 11857 net.cpp:165] Memory required for data: 690685084
I1218 02:23:55.624598 11857 layer_factory.hpp:77] Creating layer detection_eval
I1218 02:23:55.624606 11857 net.cpp:100] Creating Layer detection_eval
I1218 02:23:55.624611 11857 net.cpp:434] detection_eval <- detection_out
I1218 02:23:55.624617 11857 net.cpp:434] detection_eval <- label
I1218 02:23:55.624624 11857 net.cpp:408] detection_eval -> detection_eval
I1218 02:23:55.625885 11857 net.cpp:150] Setting up detection_eval
I1218 02:23:55.625895 11857 net.cpp:157] Top shape: 1 1 2 5 (10)
I1218 02:23:55.625900 11857 net.cpp:165] Memory required for data: 690685124
I1218 02:23:55.625905 11857 net.cpp:228] detection_eval does not need backward computation.
I1218 02:23:55.625911 11857 net.cpp:228] detection_out does not need backward computation.
I1218 02:23:55.625916 11857 net.cpp:228] mbox_conf_flatten does not need backward computation.
I1218 02:23:55.625921 11857 net.cpp:228] mbox_conf_softmax does not need backward computation.
…
