…
I1206 06:54:18.801543    66 solver.cpp:106] Creating training net from net file: ../../resnet-protofiles-master-new/ResNet50_illness3_train_val_split_diff.prototxt
I1206 06:54:18.806778    66 net.cpp:58] Initializing net from parameters: 
name: "ResNet-50-ill3-diffuse"
state {
  phase: TRAIN
  level: 0
  stage: ""
}
layer {
  name: "data"
  type: "Data"
  top: "data"
  top: "label"
  include {
    phase: TRAIN
  }
  transform_param {
    mirror: true
    crop_size: 224
    mean_file: "../../../data/lmdbs/illness3_mean_diffuse.binaryproto"
  }
  data_param {
    source: "../../../data/lmdbs/illness3_diffuse_train_val"
    batch_size: 16
    backend: LMDB
  }
}
layer {
  name: "conv1"
  type: "Convolution"
  bottom: "data"
  top: "conv1"
  convolution_param {
    num_output: 64
    bias_term: true
    pad: 3
    kernel_size: 7
    stride: 2
    weight_filler {
      type: "msra"
    }
  }
}
layer {
  name: "bn_conv1"
  type: "BatchNorm"
  bottom: "conv1"
  top: "conv1"
  batch_norm_param {
    use_global_stats: false
  }
}
layer {
  name: "scale_conv1"
  type: "Scale"
  bottom: "conv1"
  top: "conv1"
  scale_param {
    bias_term: true
  }
}
layer {
  name: "conv1_relu"
  type: "ReLU"
  bottom: "conv1"
  top: "conv1"
}
layer {
  name: "pool1"
  type: "Pooling"
  bottom: "conv1"
  top: "pool1"
  pooling_param {
    pool: MAX
    kernel_size: 3
    stride: 2
  }
}
layer {
  name: "res2a_branch1"
  type: "Convolution"
  bottom: "pool1"
  top: "res2a_branch1"
  convolution_param {
    num_output: 256
    bias_term: false
    pad: 0
    kernel_size: 1
    stride: 1
    weight_filler {
      type: "msra"
    }
  }
}
layer {
  name: "bn2a_branch1"
  type: "BatchNorm"
  bottom: "res2a_branch1"
  top: "res2a_branch1"
  batch_norm_param {
    use_global_stats: false
  }
}
layer {
  name: "scale2a_branch1"
  type: "Scale"
  bottom: "res2a_branch1"
  top: "res2a_branch1"
  scale_param {
    bias_term: true
  }
}
layer {
  name: "res2a_branch2a"
  type: "Convolution"
  bottom: "pool1"
  top: "res2a_branch2a"
  convolution_param {
    num_output: 64
    bias_term: false
    pad: 0
    kernel_size: 1
    stride: 1
    weight_filler {
      type: "msra"
    }
  }
}
layer {
  name: "bn2a_branch2a"
  type: "BatchNorm"
  bottom: "res2a_branch2a"
  top: "res2a_branch2a"
  batch_norm_param {
    use_global_stats: false
  }
}
layer {
  name: "scale2a_branch2a"
  type: "Scale"
  bottom: "res2a_branch2a"
  top: "res2a_branch2a"
  scale_param {
    bias_term: true
  }
}
layer {
  name: "res2a_branch2a_relu"
  type: "ReLU"
  bottom: "res2a_branch2a"
  top: "res2a_branch2a"
}
layer {
  name: "res2a_branch2b"
  type: "Convolution"
  bottom: "res2a_branch2a"
  top: "res2a_branch2b"
  convolution_param {
    num_output: 64
    bias_term: false
    pad: 1
    kernel_size: 3
    stride: 1
    weight_filler {
      type: "msra"
    }
  }
}
layer {
  name: "bn2a_branch2b"
  type: "BatchNorm"
  bottom: "res2a_branch2b"
  top: "res2a_branch2b"
  batch_norm_param {
    use_global_stats: false
  }
}
layer {
  name: "scale2a_branch2b"
  type: "Scale"
  bottom: "res2a_branch2b"
  top: "res2a_branch2b"
  scale_param {
    bias_term: true
  }
}
layer {
  name: "res2a_branch2b_relu"
  type: "ReLU"
  bottom: "res2a_branch2b"
  top: "res2a_branch2b"
}
layer {
  name: "res2a_branch2c"
  type: "Convolution"
  bottom: "res2a_branch2b"
  top: "res2a_branch2c"
  convolution_param {
    num_output: 256
    bias_term: false
    pad: 0
    kernel_size: 1
    stride: 1
    weight_filler {
      type: "msra"
    }
  }
}
layer {
  name: "bn2a_branch2c"
  type: "BatchNorm"
  bottom: "res2a_branch2c"
  top: "res2a_branch2c"
  batch_norm_param {
    use_global_stats: false
  }
}
layer {
  name: "scale2a_branch2c"
  type: "Scale"
  bottom: "res2a_branch2c"
  top: "res2a_branch2c"
  scale_param {
    bias_term: true
  }
}
layer {
  name: "res2a"
  type: "Eltwise"
  bottom: "res2a_branch1"
  bottom: "res2a_branch2c"
  top: "res2a"
  eltwise_param {
    operation: SUM
  }
}
layer {
  name: "res2a_relu"
  type: "ReLU"
  bottom: "res2a"
  top: "res2a"
}
layer {
  name: "res2b_branch2a"
  type: "Convolution"
  bottom: "res2a"
  top: "res2b_branch2a"
  convolution_param {
    num_output: 64
    bias_term: false
    pad: 0
    kernel_size: 1
    stride: 1
    weight_filler {
      type: "msra"
    }
  }
}
layer {
  name: "bn2b_branch2a"
  type: "BatchNorm"
  bottom: "res2b_branch2a"
  top: "res2b_branch2a"
  batch_norm_param {
    use_global_stats: false
  }
}
layer {
  name: "scale2b_branch2a"
  type: "Scale"
  bottom: "res2b_branch2a"
  top: "res2b_branch2a"
  scale_param {
    bias_term: true
  }
}
layer {
  name: "res2b_branch2a_relu"
  type: "ReLU"
  bottom: "res2b_branch2a"
  top: "res2b_branch2a"
}
layer {
  name: "res2b_branch2b"
  type: "Convolution"
  bottom: "res2b_branch2a"
  top: "res2b_branch2b"
  convolution_param {
    num_output: 64
    bias_term: false
    pad: 1
    kernel_size: 3
    stride: 1
    weight_filler {
      type: "msra"
    }
  }
}
layer {
  name: "bn2b_branch2b"
  type: "BatchNorm"
  bottom: "res2b_branch2b"
  top: "res2b_branch2b"
  batch_norm_param {
    use_global_stats: false
  }
}
layer {
  name: "scale2b_branch2b"
  type: "Scale"
  bottom: "res2b_branch2b"
  top: "res2b_branch2b"
  scale_param {
    bias_term: true
  }
}
layer {
  name: "res2b_branch2b_relu"
  type: "ReLU"
  bottom: "res2b_branch2b"
  top: "res2b_branch2b"
}
layer {
  name: "res2b_branch2c"
  type: "Convolution"
  bottom: "res2b_branch2b"
  top: "res2b_branch2c"
  convolution_param {
    num_output: 256
    bias_term: false
    pad: 0
    kernel_size: 1
    stride: 1
    weight_filler {
      type: "msra"
    }
  }
}
layer {
  name: "bn2b_branch2c"
  type: "BatchNorm"
  bottom: "res2b_branch2c"
  top: "res2b_branch2c"
  batch_norm_param {
    use_global_stats: false
  }
}
layer {
  name: "scale2b_branch2c"
  type: "Scale"
  bottom: "res2b_branch2c"
  top: "res2b_branch2c"
  scale_param {
    bias_term: true
  }
}
layer {
  name: "res2b"
  type: "Eltwise"
  bottom: "res2a"
  bottom: "res2b_branch2c"
  top: "res2b"
  eltwise_param {
    operation: SUM
  }
}
layer {
  name: "res2b_relu"
  type: "ReLU"
  bottom: "res2b"
  top: "res2b"
}
layer {
  name: "res2c_branch2a"
  type: "Convolution"
  bottom: "res2b"
  top: "res2c_branch2a"
  convolution_param {
    num_output: 64
    bias_term: false
    pad: 0
    kernel_size: 1
    stride: 1
    weight_filler {
      type: "msra"
    }
  }
}
layer {
  name: "bn2c_branch2a"
  type: "BatchNorm"
  bottom: "res2c_branch2a"
  top: "res2c_branch2a"
  batch_norm_param {
    use_global_stats: false
  }
}
layer {
  name: "scale2c_branch2a"
  type: "Scale"
  bottom: "res2c_branch2a"
  top: "res2c_branch2a"
  scale_param {
    bias_term: true
  }
}
layer {
  name: "res2c_branch2a_relu"
  type: "ReLU"
  bottom: "res2c_branch2a"
  top: "res2c_branch2a"
}
layer {
  name: "res2c_branch2b"
  type: "Convolution"
  bottom: "res2c_branch2a"
  top: "res2c_branch2b"
  convolution_param {
    num_output: 64
    bias_term: false
    pad: 1
    kernel_size: 3
    stride: 1
    weight_filler {
      type: "msra"
    }
  }
}
layer {
  name: "bn2c_branch2b"
  type: "BatchNorm"
  bottom: "res2c_branch2b"
  top: "res2c_branch2b"
  batch_norm_param {
    use_global_stats: false
  }
}
layer {
  name: "scale2c_branch2b"
  type: "Scale"
  bottom: "res2c_branch2b"
  top: "res2c_branch2b"
  scale_param {
    bias_term: true
  }
}
layer {
  name: "res2c_branch2b_relu"
  type: "ReLU"
  bottom: "res2c_branch2b"
  top: "res2c_branch2b"
}
layer {
  name: "res2c_branch2c"
  type: "Convolution"
  bottom: "res2c_branch2b"
  top: "res2c_branch2c"
  convolution_param {
    num_output: 256
    bias_term: false
    pad: 0
    kernel_size: 1
    stride: 1
    weight_filler {
      type: "msra"
    }
  }
}
layer {
  name: "bn2c_branch2c"
  type: "BatchNorm"
  bottom: "res2c_branch2c"
  top: "res2c_branch2c"
  batch_norm_param {
    use_global_stats: false
  }
}
layer {
  name: "scale2c_branch2c"
  type: "Scale"
  bottom: "res2c_branch2c"
  top: "res2c_branch2c"
  scale_param {
    bias_term: true
  }
}
layer {
  name: "res2c"
  type: "Eltwise"
  bottom: "res2b"
  bottom: "res2c_branch2c"
  top: "res2c"
  eltwise_param {
    operation: SUM
  }
}
layer {
  name: "res2c_relu"
  type: "ReLU"
  bottom: "res2c"
  top: "res2c"
}
layer {
  name: "res3a_branch1"
  type: "Convolution"
  bottom: "res2c"
  top: "res3a_branch1"
  convolution_param {
    num_output: 512
    bias_term: false
    pad: 0
    kernel_size: 1
    stride: 2
    weight_filler {
      type: "msra"
    }
  }
}
layer {
  name: "bn3a_branch1"
  type: "BatchNorm"
  bottom: "res3a_branch1"
  top: "res3a_branch1"
  batch_norm_param {
    use_global_stats: false
  }
}
layer {
  name: "scale3a_branch1"
  type: "Scale"
  bottom: "res3a_branch1"
  top: "res3a_branch1"
  scale_param {
    bias_term: true
  }
}
layer {
  name: "res3a_branch2a"
  type: "Convolution"
  bottom: "res2c"
  top: "res3a_branch2a"
  convolution_param {
    num_output: 128
    bias_term: false
    pad: 0
    kernel_size: 1
    stride: 2
    weight_filler {
      type: "msra"
    }
  }
}
layer {
  name: "bn3a_branch2a"
  type: "BatchNorm"
  bottom: "res3a_branch2a"
  top: "res3a_branch2a"
  batch_norm_param {
    use_global_stats: false
  }
}
layer {
  name: "scale3a_branch2a"
  type: "Scale"
  bottom: "res3a_branch2a"
  top: "res3a_branch2a"
  scale_param {
    bias_term: true
  }
}
layer {
  name: "res3a_branch2a_relu"
  type: "ReLU"
  bottom: "res3a_branch2a"
  top: "res3a_branch2a"
}
layer {
  name: "res3a_branch2b"
  type: "Convolution"
  bottom: "res3a_branch2a"
  top: "res3a_branch2b"
  convolution_param {
    num_output: 128
    bias_term: false
    pad: 1
    kernel_size: 3
    stride: 1
    weight_filler {
      type: "msra"
    }
  }
}
layer {
  name: "bn3a_branch2b"
  type: "BatchNorm"
  bottom: "res3a_branch2b"
  top: "res3a_branch2b"
  batch_norm_param {
    use_global_stats: false
  }
}
layer {
  name: "scale3a_branch2b"
  type: "Scale"
  bottom: "res3a_branch2b"
  top: "res3a_branch2b"
  scale_param {
    bias_term: true
  }
}
layer {
  name: "res3a_branch2b_relu"
  type: "ReLU"
  bottom: "res3a_branch2b"
  top: "res3a_branch2b"
}
layer {
  name: "res3a_branch2c"
  type: "Convolution"
  bottom: "res3a_branch2b"
  top: "res3a_branch2c"
  convolution_param {
    num_output: 512
    bias_term: false
    pad: 0
    kernel_size: 1
    stride: 1
    weight_filler {
      type: "msra"
    }
  }
}
layer {
  name: "bn3a_branch2c"
  type: "BatchNorm"
  bottom: "res3a_branch2c"
  top: "res3a_branch2c"
  batch_norm_param {
    use_global_stats: false
  }
}
layer {
  name: "scale3a_branch2c"
  type: "Scale"
  bottom: "res3a_branch2c"
  top: "res3a_branch2c"
  scale_param {
    bias_term: true
  }
}
layer {
  name: "res3a"
  type: "Eltwise"
  bottom: "res3a_branch1"
  bottom: "res3a_branch2c"
  top: "res3a"
  eltwise_param {
    operation: SUM
  }
}
layer {
  name: "res3a_relu"
  type: "ReLU"
  bottom: "res3a"
  top: "res3a"
}
layer {
  name: "res3b_branch2a"
  type: "Convolution"
  bottom: "res3a"
  top: "res3b_branch2a"
  convolution_param {
    num_output: 128
    bias_term: false
    pad: 0
    kernel_size: 1
    stride: 1
    weight_filler {
      type: "msra"
    }
  }
}
layer {
  name: "bn3b_branch2a"
  type: "BatchNorm"
  bottom: "res3b_branch2a"
  top: "res3b_branch2a"
  batch_norm_param {
    use_global_stats: false
  }
}
layer {
  name: "scale3b_branch2a"
  type: "Scale"
  bottom: "res3b_branch2a"
  top: "res3b_branch2a"
  scale_param {
    bias_term: true
  }
}
layer {
  name: "res3b_branch2a_relu"
  type: "ReLU"
  bottom: "res3b_branch2a"
  top: "res3b_branch2a"
}
layer {
  name: "res3b_branch2b"
  type: "Convolution"
  bottom: "res3b_branch2a"
  top: "res3b_branch2b"
  convolution_param {
    num_output: 128
    bias_term: false
    pad: 1
    kernel_size: 3
    stride: 1
    weight_filler {
      type: "msra"
    }
  }
}
layer {
  name: "bn3b_branch2b"
  type: "BatchNorm"
  bottom: "res3b_branch2b"
  top: "res3b_branch2b"
  batch_norm_param {
    use_global_stats: false
  }
}
layer {
  name: "scale3b_branch2b"
  type: "Scale"
  bottom: "res3b_branch2b"
  top: "res3b_branch2b"
  scale_param {
    bias_term: true
  }
}
layer {
  name: "res3b_branch2b_relu"
  type: "ReLU"
  bottom: "res3b_branch2b"
  top: "res3b_branch2b"
}
layer {
  name: "res3b_branch2c"
  type: "Convolution"
  bottom: "res3b_branch2b"
  top: "res3b_branch2c"
  convolution_param {
    num_output: 512
    bias_term: false
    pad: 0
    kernel_size: 1
    stride: 1
    weight_filler {
      type: "msra"
    }
  }
}
layer {
  name: "bn3b_branch2c"
  type: "BatchNorm"
  bottom: "res3b_branch2c"
  top: "res3b_branch2c"
  batch_norm_param {
    use_global_stats: false
  }
}
layer {
  name: "scale3b_branch2c"
  type: "Scale"
  bottom: "res3b_branch2c"
  top: "res3b_branch2c"
  scale_param {
    bias_term: true
  }
}
layer {
  name: "res3b"
  type: "Eltwise"
  bottom: "res3a"
  bottom: "res3b_branch2c"
  top: "res3b"
  eltwise_param {
    operation: SUM
  }
}
layer {
  name: "res3b_relu"
  type: "ReLU"
  bottom: "res3b"
  top: "res3b"
}
layer {
  name: "res3c_branch2a"
  type: "Convolution"
  bottom: "res3b"
  top: "res3c_branch2a"
  convolution_param {
    num_output: 128
    bias_term: false
    pad: 0
    kernel_size: 1
    stride: 1
    weight_filler {
      type: "msra"
    }
  }
}
layer {
  name: "bn3c_branch2a"
  type: "BatchNorm"
  bottom: "res3c_branch2a"
  top: "res3c_branch2a"
  batch_norm_param {
    use_global_stats: false
  }
}
layer {
  name: "scale3c_branch2a"
  type: "Scale"
  bottom: "res3c_branch2a"
  top: "res3c_branch2a"
  scale_param {
    bias_term: true
  }
}
layer {
  name: "res3c_branch2a_relu"
  type: "ReLU"
  bottom: "res3c_branch2a"
  top: "res3c_branch2a"
}
layer {
  name: "res3c_branch2b"
  type: "Convolution"
  bottom: "res3c_branch2a"
  top: "res3c_branch2b"
  convolution_param {
    num_output: 128
    bias_term: false
    pad: 1
    kernel_size: 3
    stride: 1
    weight_filler {
      type: "msra"
    }
  }
}
layer {
  name: "bn3c_branch2b"
  type: "BatchNorm"
  bottom: "res3c_branch2b"
  top: "res3c_branch2b"
  batch_norm_param {
    use_global_stats: false
  }
}
layer {
  name: "scale3c_branch2b"
  type: "Scale"
  bottom: "res3c_branch2b"
  top: "res3c_branch2b"
  scale_param {
    bias_term: true
  }
}
layer {
  name: "res3c_branch2b_relu"
  type: "ReLU"
  bottom: "res3c_branch2b"
  top: "res3c_branch2b"
}
layer {
  name: "res3c_branch2c"
  type: "Convolution"
  bottom: "res3c_branch2b"
  top: "res3c_branch2c"
  convolution_param {
    num_output: 512
    bias_term: false
    pad: 0
    kernel_size: 1
    stride: 1
    weight_filler {
      type: "msra"
    }
  }
}
layer {
  name: "bn3c_branch2c"
  type: "BatchNorm"
  bottom: "res3c_branch2c"
  top: "res3c_branch2c"
  batch_norm_param {
    use_global_stats: false
  }
}
layer {
  name: "scale3c_branch2c"
  type: "Scale"
  bottom: "res3c_branch2c"
  top: "res3c_branch2c"
  scale_param {
    bias_term: true
  }
}
layer {
  name: "res3c"
  type: "Eltwise"
  bottom: "res3b"
  bottom: "res3c_branch2c"
  top: "res3c"
  eltwise_param {
    operation: SUM
  }
}
layer {
  name: "res3c_relu"
  type: "ReLU"
  bottom: "res3c"
  top: "res3c"
}
layer {
  name: "res3d_branch2a"
  type: "Convolution"
  bottom: "res3c"
  top: "res3d_branch2a"
  convolution_param {
    num_output: 128
    bias_term: false
    pad: 0
    kernel_size: 1
    stride: 1
    weight_filler {
      type: "msra"
    }
  }
}
layer {
  name: "bn3d_branch2a"
  type: "BatchNorm"
  bottom: "res3d_branch2a"
  top: "res3d_branch2a"
  batch_norm_param {
    use_global_stats: false
  }
}
layer {
  name: "scale3d_branch2a"
  type: "Scale"
  bottom: "res3d_branch2a"
  top: "res3d_branch2a"
  scale_param {
    bias_term: true
  }
}
layer {
  name: "res3d_branch2a_relu"
  type: "ReLU"
  bottom: "res3d_branch2a"
  top: "res3d_branch2a"
}
layer {
  name: "res3d_branch2b"
  type: "Convolution"
  bottom: "res3d_branch2a"
  top: "res3d_branch2b"
  convolution_param {
    num_output: 128
    bias_term: false
    pad: 1
    kernel_size: 3
    stride: 1
    weight_filler {
      type: "msra"
    }
  }
}
layer {
  name: "bn3d_branch2b"
  type: "BatchNorm"
  bottom: "res3d_branch2b"
  top: "res3d_branch2b"
  batch_norm_param {
    use_global_stats: false
  }
}
layer {
  name: "scale3d_branch2b"
  type: "Scale"
  bottom: "res3d_branch2b"
  top: "res3d_branch2b"
  scale_param {
    bias_term: true
  }
}
layer {
  name: "res3d_branch2b_relu"
  type: "ReLU"
  bottom: "res3d_branch2b"
  top: "res3d_branch2b"
}
layer {
  name: "res3d_branch2c"
  type: "Convolution"
  bottom: "res3d_branch2b"
  top: "res3d_branch2c"
  convolution_param {
    num_output: 512
    bias_term: false
    pad: 0
    kernel_size: 1
    stride: 1
    weight_filler {
      type: "msra"
    }
  }
}
layer {
  name: "bn3d_branch2c"
  type: "BatchNorm"
  bottom: "res3d_branch2c"
  top: "res3d_branch2c"
  batch_norm_param {
    use_global_stats: false
  }
}
layer {
  name: "scale3d_branch2c"
  type: "Scale"
  bottom: "res3d_branch2c"
  top: "res3d_branch2c"
  scale_param {
    bias_term: true
  }
}
layer {
  name: "res3d"
  type: "Eltwise"
  bottom: "res3c"
  bottom: "res3d_branch2c"
  top: "res3d"
  eltwise_param {
    operation: SUM
  }
}
layer {
  name: "res3d_relu"
  type: "ReLU"
  bottom: "res3d"
  top: "res3d"
}
layer {
  name: "res4a_branch1"
  type: "Convolution"
  bottom: "res3d"
  top: "res4a_branch1"
  convolution_param {
    num_output: 1024
    bias_term: false
    pad: 0
    kernel_size: 1
    stride: 2
    weight_filler {
      type: "msra"
    }
  }
}
layer {
  name: "bn4a_branch1"
  type: "BatchNorm"
  bottom: "res4a_branch1"
  top: "res4a_branch1"
  batch_norm_param {
    use_global_stats: false
  }
}
layer {
  name: "scale4a_branch1"
  type: "Scale"
  bottom: "res4a_branch1"
  top: "res4a_branch1"
  scale_param {
    bias_term: true
  }
}
layer {
  name: "res4a_branch2a"
  type: "Convolution"
  bottom: "res3d"
  top: "res4a_branch2a"
  convolution_param {
    num_output: 256
    bias_term: false
    pad: 0
    kernel_size: 1
    stride: 2
    weight_filler {
      type: "msra"
    }
  }
}
layer {
  name: "bn4a_branch2a"
  type: "BatchNorm"
  bottom: "res4a_branch2a"
  top: "res4a_branch2a"
  batch_norm_param {
    use_global_stats: false
  }
}
layer {
  name: "scale4a_branch2a"
  type: "Scale"
  bottom: "res4a_branch2a"
  top: "res4a_branch2a"
  scale_param {
    bias_term: true
  }
}
layer {
  name: "res4a_branch2a_relu"
  type: "ReLU"
  bottom: "res4a_branch2a"
  top: "res4a_branch2a"
}
layer {
  name: "res4a_branch2b"
  type: "Convolution"
  bottom: "res4a_branch2a"
  top: "res4a_branch2b"
  convolution_param {
    num_output: 256
    bias_term: false
    pad: 1
    kernel_size: 3
    stride: 1
    weight_filler {
      type: "msra"
    }
  }
}
layer {
  name: "bn4a_branch2b"
  type: "BatchNorm"
  bottom: "res4a_branch2b"
  top: "res4a_branch2b"
  batch_norm_param {
    use_global_stats: false
  }
}
layer {
  name: "scale4a_branch2b"
  type: "Scale"
  bottom: "res4a_branch2b"
  top: "res4a_branch2b"
  scale_param {
    bias_term: true
  }
}
layer {
  name: "res4a_branch2b_relu"
  type: "ReLU"
  bottom: "res4a_branch2b"
  top: "res4a_branch2b"
}
layer {
  name: "res4a_branch2c"
  type: "Convolution"
  bottom: "res4a_branch2b"
  top: "res4a_branch2c"
  convolution_param {
    num_output: 1024
    bias_term: false
    pad: 0
    kernel_size: 1
    stride: 1
    weight_filler {
      type: "msra"
    }
  }
}
layer {
  name: "bn4a_branch2c"
  type: "BatchNorm"
  bottom: "res4a_branch2c"
  top: "res4a_branch2c"
  batch_norm_param {
    use_global_stats: false
  }
}
layer {
  name: "scale4a_branch2c"
  type: "Scale"
  bottom: "res4a_branch2c"
  top: "res4a_branch2c"
  scale_param {
    bias_term: true
  }
}
layer {
  name: "res4a"
  type: "Eltwise"
  bottom: "res4a_branch1"
  bottom: "res4a_branch2c"
  top: "res4a"
  eltwise_param {
    operation: SUM
  }
}
layer {
  name: "res4a_relu"
  type: "ReLU"
  bottom: "res4a"
  top: "res4a"
}
layer {
  name: "res4b_branch2a"
  type: "Convolution"
  bottom: "res4a"
  top: "res4b_branch2a"
  convolution_param {
    num_output: 256
    bias_term: false
    pad: 0
    kernel_size: 1
    stride: 1
    weight_filler {
      type: "msra"
    }
  }
}
layer {
  name: "bn4b_branch2a"
  type: "BatchNorm"
  bottom: "res4b_branch2a"
  top: "res4b_branch2a"
  batch_norm_param {
    use_global_stats: false
  }
}
layer {
  name: "scale4b_branch2a"
  type: "Scale"
  bottom: "res4b_branch2a"
  top: "res4b_branch2a"
  scale_param {
    bias_term: true
  }
}
layer {
  name: "res4b_branch2a_relu"
  type: "ReLU"
  bottom: "res4b_branch2a"
  top: "res4b_branch2a"
}
layer {
  name: "res4b_branch2b"
  type: "Convolution"
  bottom: "res4b_branch2a"
  top: "res4b_branch2b"
  convolution_param {
    num_output: 256
    bias_term: false
    pad: 1
    kernel_size: 3
    stride: 1
    weight_filler {
      type: "msra"
    }
  }
}
layer {
  name: "bn4b_branch2b"
  type: "BatchNorm"
  bottom: "res4b_branch2b"
  top: "res4b_branch2b"
  batch_norm_param {
    use_global_stats: false
  }
}
layer {
  name: "scale4b_branch2b"
  type: "Scale"
  bottom: "res4b_branch2b"
  top: "res4b_branch2b"
  scale_param {
    bias_term: true
  }
}
layer {
  name: "res4b_branch2b_relu"
  type: "ReLU"
  bottom: "res4b_branch2b"
  top: "res4b_branch2b"
}
layer {
  name: "res4b_branch2c"
  type: "Convolution"
  bottom: "res4b_branch2b"
  top: "res4b_branch2c"
  convolution_param {
    num_output: 1024
    bias_term: false
    pad: 0
    kernel_size: 1
    stride: 1
    weight_filler {
      type: "msra"
    }
  }
}
layer {
  name: "bn4b_branch2c"
  type: "BatchNorm"
  bottom: "res4b_branch2c"
  top: "res4b_branch2c"
  batch_norm_param {
    use_global_stats: false
  }
}
layer {
  name: "scale4b_branch2c"
  type: "Scale"
  bottom: "res4b_branch2c"
  top: "res4b_branch2c"
  scale_param {
    bias_term: true
  }
}
layer {
  name: "res4b"
  type: "Eltwise"
  bottom: "res4a"
  bottom: "res4b_branch2c"
  top: "res4b"
  eltwise_param {
    operation: SUM
  }
}
layer {
  name: "res4b_relu"
  type: "ReLU"
  bottom: "res4b"
  top: "res4b"
}
layer {
  name: "res4c_branch2a"
  type: "Convolution"
  bottom: "res4b"
  top: "res4c_branch2a"
  convolution_param {
    num_output: 256
    bias_term: false
    pad: 0
    kernel_size: 1
    stride: 1
    weight_filler {
      type: "msra"
    }
  }
}
layer {
  name: "bn4c_branch2a"
  type: "BatchNorm"
  bottom: "res4c_branch2a"
  top: "res4c_branch2a"
  batch_norm_param {
    use_global_stats: false
  }
}
layer {
  name: "scale4c_branch2a"
  type: "Scale"
  bottom: "res4c_branch2a"
  top: "res4c_branch2a"
  scale_param {
    bias_term: true
  }
}
layer {
  name: "res4c_branch2a_relu"
  type: "ReLU"
  bottom: "res4c_branch2a"
  top: "res4c_branch2a"
}
layer {
  name: "res4c_branch2b"
  type: "Convolution"
  bottom: "res4c_branch2a"
  top: "res4c_branch2b"
  convolution_param {
    num_output: 256
    bias_term: false
    pad: 1
    kernel_size: 3
    stride: 1
    weight_filler {
      type: "msra"
    }
  }
}
layer {
  name: "bn4c_branch2b"
  type: "BatchNorm"
  bottom: "res4c_branch2b"
  top: "res4c_branch2b"
  batch_norm_param {
    use_global_stats: false
  }
}
layer {
  name: "scale4c_branch2b"
  type: "Scale"
  bottom: "res4c_branch2b"
  top: "res4c_branch2b"
  scale_param {
    bias_term: true
  }
}
layer {
  name: "res4c_branch2b_relu"
  type: "ReLU"
  bottom: "res4c_branch2b"
  top: "res4c_branch2b"
}
layer {
  name: "res4c_branch2c"
  type: "Convolution"
  bottom: "res4c_branch2b"
  top: "res4c_branch2c"
  convolution_param {
    num_output: 1024
    bias_term: false
    pad: 0
    kernel_size: 1
    stride: 1
    weight_filler {
      type: "msra"
    }
  }
}
layer {
  name: "bn4c_branch2c"
  type: "BatchNorm"
  bottom: "res4c_branch2c"
  top: "res4c_branch2c"
  batch_norm_param {
    use_global_stats: false
  }
}
layer {
  name: "scale4c_branch2c"
  type: "Scale"
  bottom: "res4c_branch2c"
  top: "res4c_branch2c"
  scale_param {
    bias_term: true
  }
}
layer {
  name: "res4c"
  type: "Eltwise"
  bottom: "res4b"
  bottom: "res4c_branch2c"
  top: "res4c"
  eltwise_param {
    operation: SUM
  }
}
layer {
  name: "res4c_relu"
  type: "ReLU"
  bottom: "res4c"
  top: "res4c"
}
layer {
  name: "res4d_branch2a"
  type: "Convolution"
  bottom: "res4c"
  top: "res4d_branch2a"
  convolution_param {
    num_output: 256
    bias_term: false
    pad: 0
    kernel_size: 1
    stride: 1
    weight_filler {
      type: "msra"
    }
  }
}
layer {
  name: "bn4d_branch2a"
  type: "BatchNorm"
  bottom: "res4d_branch2a"
  top: "res4d_branch2a"
  batch_norm_param {
    use_global_stats: false
  }
}
layer {
  name: "scale4d_branch2a"
  type: "Scale"
  bottom: "res4d_branch2a"
  top: "res4d_branch2a"
  scale_param {
    bias_term: true
  }
}
layer {
  name: "res4d_branch2a_relu"
  type: "ReLU"
  bottom: "res4d_branch2a"
  top: "res4d_branch2a"
}
layer {
  name: "res4d_branch2b"
  type: "Convolution"
  bottom: "res4d_branch2a"
  top: "res4d_branch2b"
  convolution_param {
    num_output: 256
    bias_term: false
    pad: 1
    kernel_size: 3
    stride: 1
    weight_filler {
      type: "msra"
    }
  }
}
layer {
  name: "bn4d_branch2b"
  type: "BatchNorm"
  bottom: "res4d_branch2b"
  top: "res4d_branch2b"
  batch_norm_param {
    use_global_stats: false
  }
}
layer {
  name: "scale4d_branch2b"
  type: "Scale"
  bottom: "res4d_branch2b"
  top: "res4d_branch2b"
  scale_param {
    bias_term: true
  }
}
layer {
  name: "res4d_branch2b_relu"
  type: "ReLU"
  bottom: "res4d_branch2b"
  top: "res4d_branch2b"
}
layer {
  name: "res4d_branch2c"
  type: "Convolution"
  bottom: "res4d_branch2b"
  top: "res4d_branch2c"
  convolution_param {
    num_output: 1024
    bias_term: false
    pad: 0
    kernel_size: 1
    stride: 1
    weight_filler {
      type: "msra"
    }
  }
}
layer {
  name: "bn4d_branch2c"
  type: "BatchNorm"
  bottom: "res4d_branch2c"
  top: "res4d_branch2c"
  batch_norm_param {
    use_global_stats: false
  }
}
layer {
  name: "scale4d_branch2c"
  type: "Scale"
  bottom: "res4d_branch2c"
  top: "res4d_branch2c"
  scale_param {
    bias_term: true
  }
}
layer {
  name: "res4d"
  type: "Eltwise"
  bottom: "res4c"
  bottom: "res4d_branch2c"
  top: "res4d"
  eltwise_param {
    operation: SUM
  }
}
layer {
  name: "res4d_relu"
  type: "ReLU"
  bottom: "res4d"
  top: "res4d"
}
layer {
  name: "res4e_branch2a"
  type: "Convolution"
  bottom: "res4d"
  top: "res4e_branch2a"
  convolution_param {
    num_output: 256
    bias_term: false
    pad: 0
    kernel_size: 1
    stride: 1
    weight_filler {
      type: "msra"
    }
  }
}
layer {
  name: "bn4e_branch2a"
  type: "BatchNorm"
  bottom: "res4e_branch2a"
  top: "res4e_branch2a"
  batch_norm_param {
    use_global_stats: false
  }
}
layer {
  name: "scale4e_branch2a"
  type: "Scale"
  bottom: "res4e_branch2a"
  top: "res4e_branch2a"
  scale_param {
    bias_term: true
  }
}
layer {
  name: "res4e_branch2a_relu"
  type: "ReLU"
  bottom: "res4e_branch2a"
  top: "res4e_branch2a"
}
layer {
  name: "res4e_branch2b"
  type: "Convolution"
  bottom: "res4e_branch2a"
  top: "res4e_branch2b"
  convolution_param {
    num_output: 256
    bias_term: false
    pad: 1
    kernel_size: 3
    stride: 1
    weight_filler {
      type: "msra"
    }
  }
}
layer {
  name: "bn4e_branch2b"
  type: "BatchNorm"
  bottom: "res4e_branch2b"
  top: "res4e_branch2b"
  batch_norm_param {
    use_global_stats: false
  }
}
layer {
  name: "scale4e_branch2b"
  type: "Scale"
  bottom: "res4e_branch2b"
  top: "res4e_branch2b"
  scale_param {
    bias_term: true
  }
}
layer {
  name: "res4e_branch2b_relu"
  type: "ReLU"
  bottom: "res4e_branch2b"
  top: "res4e_branch2b"
}
layer {
  name: "res4e_branch2c"
  type: "Convolution"
  bottom: "res4e_branch2b"
  top: "res4e_branch2c"
  convolution_param {
    num_output: 1024
    bias_term: false
    pad: 0
    kernel_size: 1
    stride: 1
    weight_filler {
      type: "msra"
    }
  }
}
layer {
  name: "bn4e_branch2c"
  type: "BatchNorm"
  bottom: "res4e_branch2c"
  top: "res4e_branch2c"
  batch_norm_param {
    use_global_stats: false
  }
}
layer {
  name: "scale4e_branch2c"
  type: "Scale"
  bottom: "res4e_branch2c"
  top: "res4e_branch2c"
  scale_param {
    bias_term: true
  }
}
layer {
  name: "res4e"
  type: "Eltwise"
  bottom: "res4d"
  bottom: "res4e_branch2c"
  top: "res4e"
  eltwise_param {
    operation: SUM
  }
}
layer {
  name: "res4e_relu"
  type: "ReLU"
  bottom: "res4e"
  top: "res4e"
}
layer {
  name: "res4f_branch2a"
  type: "Convolution"
  bottom: "res4e"
  top: "res4f_branch2a"
  convolution_param {
    num_output: 256
    bias_term: false
    pad: 0
    kernel_size: 1
    stride: 1
    weight_filler {
      type: "msra"
    }
  }
}
layer {
  name: "bn4f_branch2a"
  type: "BatchNorm"
  bottom: "res4f_branch2a"
  top: "res4f_branch2a"
  batch_norm_param {
    use_global_stats: false
  }
}
layer {
  name: "scale4f_branch2a"
  type: "Scale"
  bottom: "res4f_branch2a"
  top: "res4f_branch2a"
  scale_param {
    bias_term: true
  }
}
layer {
  name: "res4f_branch2a_relu"
  type: "ReLU"
  bottom: "res4f_branch2a"
  top: "res4f_branch2a"
}
layer {
  name: "res4f_branch2b"
  type: "Convolution"
  bottom: "res4f_branch2a"
  top: "res4f_branch2b"
  convolution_param {
    num_output: 256
    bias_term: false
    pad: 1
    kernel_size: 3
    stride: 1
    weight_filler {
      type: "msra"
    }
  }
}
layer {
  name: "bn4f_branch2b"
  type: "BatchNorm"
  bottom: "res4f_branch2b"
  top: "res4f_branch2b"
  batch_norm_param {
    use_global_stats: false
  }
}
layer {
  name: "scale4f_branch2b"
  type: "Scale"
  bottom: "res4f_branch2b"
  top: "res4f_branch2b"
  scale_param {
    bias_term: true
  }
}
layer {
  name: "res4f_branch2b_relu"
  type: "ReLU"
  bottom: "res4f_branch2b"
  top: "res4f_branch2b"
}
layer {
  name: "res4f_branch2c"
  type: "Convolution"
  bottom: "res4f_branch2b"
  top: "res4f_branch2c"
  convolution_param {
    num_output: 1024
    bias_term: false
    pad: 0
    kernel_size: 1
    stride: 1
    weight_filler {
      type: "msra"
    }
  }
}
layer {
I1206 06:54:18.807255    66 layer_factory.hpp:77] Creating layer data
I1206 06:54:18.807638    66 net.cpp:100] Creating Layer data
I1206 06:54:18.807648    66 net.cpp:408] data -> data
I1206 06:54:18.807699    66 net.cpp:408] data -> label
I1206 06:54:18.807715    66 data_transformer.cpp:27] Loading mean file from: ../../../data/lmdbs/illness3_mean_diffuse.binaryproto
I1206 06:54:18.823993    71 db_lmdb.cpp:35] Opened lmdb ../../../data/lmdbs/illness3_diffuse_train_val
I1206 06:54:18.830935    66 data_layer.cpp:41] output data size: 16,3,224,224
I1206 06:54:18.845896    66 net.cpp:150] Setting up data
I1206 06:54:18.845916    66 net.cpp:157] Top shape: 16 3 224 224 (2408448)
I1206 06:54:18.845922    66 net.cpp:157] Top shape: 16 (16)
I1206 06:54:18.845927    66 net.cpp:165] Memory required for data: 9633856
I1206 06:54:18.845938    66 layer_factory.hpp:77] Creating layer conv1
I1206 06:54:18.845955    66 net.cpp:100] Creating Layer conv1
I1206 06:54:18.845963    66 net.cpp:434] conv1 <- data
I1206 06:54:18.845973    66 net.cpp:408] conv1 -> conv1
I1206 06:54:18.870247    72 blocking_queue.cpp:50] Waiting for data
I1206 06:54:19.204268    66 net.cpp:150] Setting up conv1
I1206 06:54:19.204290    66 net.cpp:157] Top shape: 16 64 112 112 (12845056)
I1206 06:54:19.204295    66 net.cpp:165] Memory required for data: 61014080
I1206 06:54:19.204313    66 layer_factory.hpp:77] Creating layer bn_conv1
I1206 06:54:19.204324    66 net.cpp:100] Creating Layer bn_conv1
I1206 06:54:19.204329    66 net.cpp:434] bn_conv1 <- conv1
I1206 06:54:19.204335    66 net.cpp:395] bn_conv1 -> conv1 (in-place)
I1206 06:54:19.204468    66 net.cpp:150] Setting up bn_conv1
I1206 06:54:19.204474    66 net.cpp:157] Top shape: 16 64 112 112 (12845056)
I1206 06:54:19.204479    66 net.cpp:165] Memory required for data: 112394304
I1206 06:54:19.204488    66 layer_factory.hpp:77] Creating layer scale_conv1
I1206 06:54:19.204495    66 net.cpp:100] Creating Layer scale_conv1
I1206 06:54:19.204499    66 net.cpp:434] scale_conv1 <- conv1
I1206 06:54:19.204507    66 net.cpp:395] scale_conv1 -> conv1 (in-place)
I1206 06:54:19.204552    66 layer_factory.hpp:77] Creating layer scale_conv1
I1206 06:54:19.204628    66 net.cpp:150] Setting up scale_conv1
I1206 06:54:19.204635    66 net.cpp:157] Top shape: 16 64 112 112 (12845056)
I1206 06:54:19.204639    66 net.cpp:165] Memory required for data: 163774528
I1206 06:54:19.204646    66 layer_factory.hpp:77] Creating layer conv1_relu
I1206 06:54:19.204653    66 net.cpp:100] Creating Layer conv1_relu
I1206 06:54:19.204658    66 net.cpp:434] conv1_relu <- conv1
I1206 06:54:19.204663    66 net.cpp:395] conv1_relu -> conv1 (in-place)
I1206 06:54:19.204798    66 net.cpp:150] Setting up conv1_relu
I1206 06:54:19.204805    66 net.cpp:157] Top shape: 16 64 112 112 (12845056)
I1206 06:54:19.204810    66 net.cpp:165] Memory required for data: 215154752
I1206 06:54:19.204815    66 layer_factory.hpp:77] Creating layer pool1
I1206 06:54:19.204821    66 net.cpp:100] Creating Layer pool1
I1206 06:54:19.204825    66 net.cpp:434] pool1 <- conv1
I1206 06:54:19.204831    66 net.cpp:408] pool1 -> pool1
I1206 06:54:19.204871    66 net.cpp:150] Setting up pool1
I1206 06:54:19.204877    66 net.cpp:157] Top shape: 16 64 56 56 (3211264)
I1206 06:54:19.204881    66 net.cpp:165] Memory required for data: 227999808
I1206 06:54:19.204886    66 layer_factory.hpp:77] Creating layer pool1_pool1_0_split
I1206 06:54:19.204892    66 net.cpp:100] Creating Layer pool1_pool1_0_split
I1206 06:54:19.204896    66 net.cpp:434] pool1_pool1_0_split <- pool1
I1206 06:54:19.204902    66 net.cpp:408] pool1_pool1_0_split -> pool1_pool1_0_split_0
I1206 06:54:19.204910    66 net.cpp:408] pool1_pool1_0_split -> pool1_pool1_0_split_1
I1206 06:54:19.204932    66 net.cpp:150] Setting up pool1_pool1_0_split
I1206 06:54:19.204938    66 net.cpp:157] Top shape: 16 64 56 56 (3211264)
I1206 06:54:19.204943    66 net.cpp:157] Top shape: 16 64 56 56 (3211264)
I1206 06:54:19.204947    66 net.cpp:165] Memory required for data: 253689920
I1206 06:54:19.204952    66 layer_factory.hpp:77] Creating layer res2a_branch1
I1206 06:54:19.204960    66 net.cpp:100] Creating Layer res2a_branch1
I1206 06:54:19.204965    66 net.cpp:434] res2a_branch1 <- pool1_pool1_0_split_0
I1206 06:54:19.204970    66 net.cpp:408] res2a_branch1 -> res2a_branch1
I1206 06:54:19.205812    66 net.cpp:150] Setting up res2a_branch1
I1206 06:54:19.205822    66 net.cpp:157] Top shape: 16 256 56 56 (12845056)
I1206 06:54:19.205827    66 net.cpp:165] Memory required for data: 305070144
I1206 06:54:19.205833    66 layer_factory.hpp:77] Creating layer bn2a_branch1
I1206 06:54:19.205842    66 net.cpp:100] Creating Layer bn2a_branch1
I1206 06:54:19.205845    66 net.cpp:434] bn2a_branch1 <- res2a_branch1
I1206 06:54:19.205852    66 net.cpp:395] bn2a_branch1 -> res2a_branch1 (in-place)
I1206 06:54:19.206598    66 net.cpp:150] Setting up bn2a_branch1
I1206 06:54:19.206609    66 net.cpp:157] Top shape: 16 256 56 56 (12845056)
I1206 06:54:19.206614    66 net.cpp:165] Memory required for data: 356450368
I1206 06:54:19.206622    66 layer_factory.hpp:77] Creating layer scale2a_branch1
I1206 06:54:19.206629    66 net.cpp:100] Creating Layer scale2a_branch1
I1206 06:54:19.206634    66 net.cpp:434] scale2a_branch1 <- res2a_branch1
I1206 06:54:19.206640    66 net.cpp:395] scale2a_branch1 -> res2a_branch1 (in-place)
I1206 06:54:19.206667    66 layer_factory.hpp:77] Creating layer scale2a_branch1
I1206 06:54:19.206735    66 net.cpp:150] Setting up scale2a_branch1
I1206 06:54:19.206743    66 net.cpp:157] Top shape: 16 256 56 56 (12845056)
I1206 06:54:19.206748    66 net.cpp:165] Memory required for data: 407830592
I1206 06:54:19.206753    66 layer_factory.hpp:77] Creating layer res2a_branch2a
I1206 06:54:19.206760    66 net.cpp:100] Creating Layer res2a_branch2a
I1206 06:54:19.206765    66 net.cpp:434] res2a_branch2a <- pool1_pool1_0_split_1
I1206 06:54:19.206771    66 net.cpp:408] res2a_branch2a -> res2a_branch2a
I1206 06:54:19.207607    66 net.cpp:150] Setting up res2a_branch2a
I1206 06:54:19.207617    66 net.cpp:157] Top shape: 16 64 56 56 (3211264)
I1206 06:54:19.207629    66 net.cpp:165] Memory required for data: 420675648
I1206 06:54:19.207636    66 layer_factory.hpp:77] Creating layer bn2a_branch2a
I1206 06:54:19.207643    66 net.cpp:100] Creating Layer bn2a_branch2a
I1206 06:54:19.207648    66 net.cpp:434] bn2a_branch2a <- res2a_branch2a
I1206 06:54:19.207653    66 net.cpp:395] bn2a_branch2a -> res2a_branch2a (in-place)
I1206 06:54:19.207774    66 net.cpp:150] Setting up bn2a_branch2a
I1206 06:54:19.207780    66 net.cpp:157] Top shape: 16 64 56 56 (3211264)
I1206 06:54:19.207785    66 net.cpp:165] Memory required for data: 433520704
I1206 06:54:19.207794    66 layer_factory.hpp:77] Creating layer scale2a_branch2a
I1206 06:54:19.207801    66 net.cpp:100] Creating Layer scale2a_branch2a
I1206 06:54:19.207805    66 net.cpp:434] scale2a_branch2a <- res2a_branch2a
I1206 06:54:19.207810    66 net.cpp:395] scale2a_branch2a -> res2a_branch2a (in-place)
I1206 06:54:19.207836    66 layer_factory.hpp:77] Creating layer scale2a_branch2a
I1206 06:54:19.207908    66 net.cpp:150] Setting up scale2a_branch2a
I1206 06:54:19.207914    66 net.cpp:157] Top shape: 16 64 56 56 (3211264)
I1206 06:54:19.207919    66 net.cpp:165] Memory required for data: 446365760
I1206 06:54:19.207926    66 layer_factory.hpp:77] Creating layer res2a_branch2a_relu
I1206 06:54:19.207931    66 net.cpp:100] Creating Layer res2a_branch2a_relu
I1206 06:54:19.207936    66 net.cpp:434] res2a_branch2a_relu <- res2a_branch2a
I1206 06:54:19.207940    66 net.cpp:395] res2a_branch2a_relu -> res2a_branch2a (in-place)
I1206 06:54:19.208066    66 net.cpp:150] Setting up res2a_branch2a_relu
I1206 06:54:19.208073    66 net.cpp:157] Top shape: 16 64 56 56 (3211264)
I1206 06:54:19.208078    66 net.cpp:165] Memory required for data: 459210816
I1206 06:54:19.208083    66 layer_factory.hpp:77] Creating layer res2a_branch2b
I1206 06:54:19.208091    66 net.cpp:100] Creating Layer res2a_branch2b
I1206 06:54:19.208096    66 net.cpp:434] res2a_branch2b <- res2a_branch2a
I1206 06:54:19.208101    66 net.cpp:408] res2a_branch2b -> res2a_branch2b
I1206 06:54:19.209697    66 net.cpp:150] Setting up res2a_branch2b
I1206 06:54:19.209707    66 net.cpp:157] Top shape: 16 64 56 56 (3211264)
I1206 06:54:19.209712    66 net.cpp:165] Memory required for data: 472055872
I1206 06:54:19.209719    66 layer_factory.hpp:77] Creating layer bn2a_branch2b
I1206 06:54:19.209727    66 net.cpp:100] Creating Layer bn2a_branch2b
I1206 06:54:19.209731    66 net.cpp:434] bn2a_branch2b <- res2a_branch2b
I1206 06:54:19.209736    66 net.cpp:395] bn2a_branch2b -> res2a_branch2b (in-place)
I1206 06:54:19.209862    66 net.cpp:150] Setting up bn2a_branch2b
I1206 06:54:19.209868    66 net.cpp:157] Top shape: 16 64 56 56 (3211264)
I1206 06:54:19.209873    66 net.cpp:165] Memory required for data: 484900928
I1206 06:54:19.209880    66 layer_factory.hpp:77] Creating layer scale2a_branch2b
I1206 06:54:19.209888    66 net.cpp:100] Creating Layer scale2a_branch2b
I1206 06:54:19.209892    66 net.cpp:434] scale2a_branch2b <- res2a_branch2b
I1206 06:54:19.209898    66 net.cpp:395] scale2a_branch2b -> res2a_branch2b (in-place)
I1206 06:54:19.209924    66 layer_factory.hpp:77] Creating layer scale2a_branch2b
I1206 06:54:19.209996    66 net.cpp:150] Setting up scale2a_branch2b
I1206 06:54:19.210002    66 net.cpp:157] Top shape: 16 64 56 56 (3211264)
I1206 06:54:19.210006    66 net.cpp:165] Memory required for data: 497745984
I1206 06:54:19.210012    66 layer_factory.hpp:77] Creating layer res2a_branch2b_relu
I1206 06:54:19.210018    66 net.cpp:100] Creating Layer res2a_branch2b_relu
I1206 06:54:19.210023    66 net.cpp:434] res2a_branch2b_relu <- res2a_branch2b
I1206 06:54:19.210028    66 net.cpp:395] res2a_branch2b_relu -> res2a_branch2b (in-place)
I1206 06:54:19.210395    66 net.cpp:150] Setting up res2a_branch2b_relu
I1206 06:54:19.210404    66 net.cpp:157] Top shape: 16 64 56 56 (3211264)
I1206 06:54:19.210409    66 net.cpp:165] Memory required for data: 510591040
I1206 06:54:19.210414    66 layer_factory.hpp:77] Creating layer res2a_branch2c
I1206 06:54:19.210423    66 net.cpp:100] Creating Layer res2a_branch2c
I1206 06:54:19.210435    66 net.cpp:434] res2a_branch2c <- res2a_branch2b
I1206 06:54:19.210441    66 net.cpp:408] res2a_branch2c -> res2a_branch2c
I1206 06:54:19.211280    66 net.cpp:150] Setting up res2a_branch2c
I1206 06:54:19.211289    66 net.cpp:157] Top shape: 16 256 56 56 (12845056)
I1206 06:54:19.211295    66 net.cpp:165] Memory required for data: 561971264
I1206 06:54:19.211302    66 layer_factory.hpp:77] Creating layer bn2a_branch2c
I1206 06:54:19.211308    66 net.cpp:100] Creating Layer bn2a_branch2c
I1206 06:54:19.211313    66 net.cpp:434] bn2a_branch2c <- res2a_branch2c
I1206 06:54:19.211318    66 net.cpp:395] bn2a_branch2c -> res2a_branch2c (in-place)
I1206 06:54:19.211436    66 net.cpp:150] Setting up bn2a_branch2c
I1206 06:54:19.211442    66 net.cpp:157] Top shape: 16 256 56 56 (12845056)
I1206 06:54:19.211447    66 net.cpp:165] Memory required for data: 613351488
I1206 06:54:19.211454    66 layer_factory.hpp:77] Creating layer scale2a_branch2c
I1206 06:54:19.211460    66 net.cpp:100] Creating Layer scale2a_branch2c
I1206 06:54:19.211465    66 net.cpp:434] scale2a_branch2c <- res2a_branch2c
I1206 06:54:19.211470    66 net.cpp:395] scale2a_branch2c -> res2a_branch2c (in-place)
I1206 06:54:19.211515    66 layer_factory.hpp:77] Creating layer scale2a_branch2c
I1206 06:54:19.211611    66 net.cpp:150] Setting up scale2a_branch2c
I1206 06:54:19.211617    66 net.cpp:157] Top shape: 16 256 56 56 (12845056)
I1206 06:54:19.211621    66 net.cpp:165] Memory required for data: 664731712
I1206 06:54:19.211628    66 layer_factory.hpp:77] Creating layer res2a
I1206 06:54:19.211634    66 net.cpp:100] Creating Layer res2a
I1206 06:54:19.211639    66 net.cpp:434] res2a <- res2a_branch1
I1206 06:54:19.211644    66 net.cpp:434] res2a <- res2a_branch2c
I1206 06:54:19.211649    66 net.cpp:408] res2a -> res2a
I1206 06:54:19.211669    66 net.cpp:150] Setting up res2a
I1206 06:54:19.211675    66 net.cpp:157] Top shape: 16 256 56 56 (12845056)
I1206 06:54:19.211679    66 net.cpp:165] Memory required for data: 716111936
I1206 06:54:19.211684    66 layer_factory.hpp:77] Creating layer res2a_relu
I1206 06:54:19.211689    66 net.cpp:100] Creating Layer res2a_relu
I1206 06:54:19.211694    66 net.cpp:434] res2a_relu <- res2a
I1206 06:54:19.211699    66 net.cpp:395] res2a_relu -> res2a (in-place)
I1206 06:54:19.211827    66 net.cpp:150] Setting up res2a_relu
I1206 06:54:19.211835    66 net.cpp:157] Top shape: 16 256 56 56 (12845056)
I1206 06:54:19.211839    66 net.cpp:165] Memory required for data: 767492160
I1206 06:54:19.211844    66 layer_factory.hpp:77] Creating layer res2a_res2a_relu_0_split
I1206 06:54:19.211850    66 net.cpp:100] Creating Layer res2a_res2a_relu_0_split
I1206 06:54:19.211854    66 net.cpp:434] res2a_res2a_relu_0_split <- res2a
I1206 06:54:19.211860    66 net.cpp:408] res2a_res2a_relu_0_split -> res2a_res2a_relu_0_split_0
I1206 06:54:19.211866    66 net.cpp:408] res2a_res2a_relu_0_split -> res2a_res2a_relu_0_split_1
I1206 06:54:19.211892    66 net.cpp:150] Setting up res2a_res2a_relu_0_split
I1206 06:54:19.211899    66 net.cpp:157] Top shape: 16 256 56 56 (12845056)
I1206 06:54:19.211904    66 net.cpp:157] Top shape: 16 256 56 56 (12845056)
I1206 06:54:19.211907    66 net.cpp:165] Memory required for data: 870252608
I1206 06:54:19.211912    66 layer_factory.hpp:77] Creating layer res2b_branch2a
I1206 06:54:19.211920    66 net.cpp:100] Creating Layer res2b_branch2a
I1206 06:54:19.211925    66 net.cpp:434] res2b_branch2a <- res2a_res2a_relu_0_split_0
I1206 06:54:19.211930    66 net.cpp:408] res2b_branch2a -> res2b_branch2a
I1206 06:54:19.212766    66 net.cpp:150] Setting up res2b_branch2a
I1206 06:54:19.212776    66 net.cpp:157] Top shape: 16 64 56 56 (3211264)
I1206 06:54:19.212780    66 net.cpp:165] Memory required for data: 883097664
I1206 06:54:19.212786    66 layer_factory.hpp:77] Creating layer bn2b_branch2a
I1206 06:54:19.212793    66 net.cpp:100] Creating Layer bn2b_branch2a
I1206 06:54:19.212798    66 net.cpp:434] bn2b_branch2a <- res2b_branch2a
I1206 06:54:19.212807    66 net.cpp:395] bn2b_branch2a -> res2b_branch2a (in-place)
I1206 06:54:19.212939    66 net.cpp:150] Setting up bn2b_branch2a
I1206 06:54:19.212946    66 net.cpp:157] Top shape: 16 64 56 56 (3211264)
I1206 06:54:19.212950    66 net.cpp:165] Memory required for data: 895942720
I1206 06:54:19.212960    66 layer_factory.hpp:77] Creating layer scale2b_branch2a
I1206 06:54:19.212966    66 net.cpp:100] Creating Layer scale2b_branch2a
I1206 06:54:19.212971    66 net.cpp:434] scale2b_branch2a <- res2b_branch2a
I1206 06:54:19.212976    66 net.cpp:395] scale2b_branch2a -> res2b_branch2a (in-place)
I1206 06:54:19.213002    66 layer_factory.hpp:77] Creating layer scale2b_branch2a
I1206 06:54:19.213074    66 net.cpp:150] Setting up scale2b_branch2a
I1206 06:54:19.213081    66 net.cpp:157] Top shape: 16 64 56 56 (3211264)
I1206 06:54:19.213086    66 net.cpp:165] Memory required for data: 908787776
I1206 06:54:19.213093    66 layer_factory.hpp:77] Creating layer res2b_branch2a_relu
I1206 06:54:19.213098    66 net.cpp:100] Creating Layer res2b_branch2a_relu
I1206 06:54:19.213102    66 net.cpp:434] res2b_branch2a_relu <- res2b_branch2a
I1206 06:54:19.213107    66 net.cpp:395] res2b_branch2a_relu -> res2b_branch2a (in-place)
I1206 06:54:19.213235    66 net.cpp:150] Setting up res2b_branch2a_relu
I1206 06:54:19.213243    66 net.cpp:157] Top shape: 16 64 56 56 (3211264)
I1206 06:54:19.213248    66 net.cpp:165] Memory required for data: 921632832
I1206 06:54:19.213251    66 layer_factory.hpp:77] Creating layer res2b_branch2b
I1206 06:54:19.213258    66 net.cpp:100] Creating Layer res2b_branch2b
I1206 06:54:19.213263    66 net.cpp:434] res2b_branch2b <- res2b_branch2a
I1206 06:54:19.213269    66 net.cpp:408] res2b_branch2b -> res2b_branch2b
I1206 06:54:19.214236    66 net.cpp:150] Setting up res2b_branch2b
I1206 06:54:19.214246    66 net.cpp:157] Top shape: 16 64 56 56 (3211264)
I1206 06:54:19.214251    66 net.cpp:165] Memory required for data: 934477888
I1206 06:54:19.214257    66 layer_factory.hpp:77] Creating layer bn2b_branch2b
I1206 06:54:19.214264    66 net.cpp:100] Creating Layer bn2b_branch2b
I1206 06:54:19.214269    66 net.cpp:434] bn2b_branch2b <- res2b_branch2b
I1206 06:54:19.214274    66 net.cpp:395] bn2b_branch2b -> res2b_branch2b (in-place)
I1206 06:54:19.214403    66 net.cpp:150] Setting up bn2b_branch2b
I1206 06:54:19.214409    66 net.cpp:157] Top shape: 16 64 56 56 (3211264)
I1206 06:54:19.214413    66 net.cpp:165] Memory required for data: 947322944
I1206 06:54:19.214421    66 layer_factory.hpp:77] Creating layer scale2b_branch2b
I1206 06:54:19.214427    66 net.cpp:100] Creating Layer scale2b_branch2b
I1206 06:54:19.214432    66 net.cpp:434] scale2b_branch2b <- res2b_branch2b
I1206 06:54:19.214437    66 net.cpp:395] scale2b_branch2b -> res2b_branch2b (in-place)
I1206 06:54:19.214463    66 layer_factory.hpp:77] Creating layer scale2b_branch2b
I1206 06:54:19.214540    66 net.cpp:150] Setting up scale2b_branch2b
I1206 06:54:19.214546    66 net.cpp:157] Top shape: 16 64 56 56 (3211264)
I1206 06:54:19.214551    66 net.cpp:165] Memory required for data: 960168000
I1206 06:54:19.214557    66 layer_factory.hpp:77] Creating layer res2b_branch2b_relu
I1206 06:54:19.214563    66 net.cpp:100] Creating Layer res2b_branch2b_relu
I1206 06:54:19.214567    66 net.cpp:434] res2b_branch2b_relu <- res2b_branch2b
I1206 06:54:19.214573    66 net.cpp:395] res2b_branch2b_relu -> res2b_branch2b (in-place)
I1206 06:54:19.214936    66 net.cpp:150] Setting up res2b_branch2b_relu
I1206 06:54:19.214946    66 net.cpp:157] Top shape: 16 64 56 56 (3211264)
I1206 06:54:19.214951    66 net.cpp:165] Memory required for data: 973013056
I1206 06:54:19.214956    66 layer_factory.hpp:77] Creating layer res2b_branch2c
I1206 06:54:19.214965    66 net.cpp:100] Creating Layer res2b_branch2c
I1206 06:54:19.214970    66 net.cpp:434] res2b_branch2c <- res2b_branch2b
I1206 06:54:19.214977    66 net.cpp:408] res2b_branch2c -> res2b_branch2c
I1206 06:54:19.215853    66 net.cpp:150] Setting up res2b_branch2c
I1206 06:54:19.215863    66 net.cpp:157] Top shape: 16 256 56 56 (12845056)
I1206 06:54:19.215875    66 net.cpp:165] Memory required for data: 1024393280
I1206 06:54:19.215883    66 layer_factory.hpp:77] Creating layer bn2b_branch2c
I1206 06:54:19.215889    66 net.cpp:100] Creating Layer bn2b_branch2c
I1206 06:54:19.215893    66 net.cpp:434] bn2b_branch2c <- res2b_branch2c
I1206 06:54:19.215899    66 net.cpp:395] bn2b_branch2c -> res2b_branch2c (in-place)
I1206 06:54:19.216023    66 net.cpp:150] Setting up bn2b_branch2c
I1206 06:54:19.216030    66 net.cpp:157] Top shape: 16 256 56 56 (12845056)
I1206 06:54:19.216034    66 net.cpp:165] Memory required for data: 1075773504
I1206 06:54:19.216042    66 layer_factory.hpp:77] Creating layer scale2b_branch2c
I1206 06:54:19.216048    66 net.cpp:100] Creating Layer scale2b_branch2c
I1206 06:54:19.216053    66 net.cpp:434] scale2b_branch2c <- res2b_branch2c
I1206 06:54:19.216058    66 net.cpp:395] scale2b_branch2c -> res2b_branch2c (in-place)
I1206 06:54:19.216084    66 layer_factory.hpp:77] Creating layer scale2b_branch2c
I1206 06:54:19.216152    66 net.cpp:150] Setting up scale2b_branch2c
I1206 06:54:19.216159    66 net.cpp:157] Top shape: 16 256 56 56 (12845056)
I1206 06:54:19.216163    66 net.cpp:165] Memory required for data: 1127153728
I1206 06:54:19.216169    66 layer_factory.hpp:77] Creating layer res2b
I1206 06:54:19.216176    66 net.cpp:100] Creating Layer res2b
I1206 06:54:19.216181    66 net.cpp:434] res2b <- res2a_res2a_relu_0_split_1
I1206 06:54:19.216186    66 net.cpp:434] res2b <- res2b_branch2c
I1206 06:54:19.216192    66 net.cpp:408] res2b -> res2b
I1206 06:54:19.216210    66 net.cpp:150] Setting up res2b
I1206 06:54:19.216217    66 net.cpp:157] Top shape: 16 256 56 56 (12845056)
I1206 06:54:19.216222    66 net.cpp:165] Memory required for data: 1178533952
I1206 06:54:19.216225    66 layer_factory.hpp:77] Creating layer res2b_relu
I1206 06:54:19.216231    66 net.cpp:100] Creating Layer res2b_relu
I1206 06:54:19.216235    66 net.cpp:434] res2b_relu <- res2b
I1206 06:54:19.216241    66 net.cpp:395] res2b_relu -> res2b (in-place)
I1206 06:54:19.216365    66 net.cpp:150] Setting up res2b_relu
I1206 06:54:19.216373    66 net.cpp:157] Top shape: 16 256 56 56 (12845056)
I1206 06:54:19.216377    66 net.cpp:165] Memory required for data: 1229914176
I1206 06:54:19.216382    66 layer_factory.hpp:77] Creating layer res2b_res2b_relu_0_split
I1206 06:54:19.216388    66 net.cpp:100] Creating Layer res2b_res2b_relu_0_split
I1206 06:54:19.216392    66 net.cpp:434] res2b_res2b_relu_0_split <- res2b
I1206 06:54:19.216398    66 net.cpp:408] res2b_res2b_relu_0_split -> res2b_res2b_relu_0_split_0
I1206 06:54:19.216405    66 net.cpp:408] res2b_res2b_relu_0_split -> res2b_res2b_relu_0_split_1
I1206 06:54:19.216430    66 net.cpp:150] Setting up res2b_res2b_relu_0_split
I1206 06:54:19.216436    66 net.cpp:157] Top shape: 16 256 56 56 (12845056)
I1206 06:54:19.216442    66 net.cpp:157] Top shape: 16 256 56 56 (12845056)
I1206 06:54:19.216446    66 net.cpp:165] Memory required for data: 1332674624
I1206 06:54:19.216450    66 layer_factory.hpp:77] Creating layer res2c_branch2a
I1206 06:54:19.216457    66 net.cpp:100] Creating Layer res2c_branch2a
I1206 06:54:19.216462    66 net.cpp:434] res2c_branch2a <- res2b_res2b_relu_0_split_0
I1206 06:54:19.216468    66 net.cpp:408] res2c_branch2a -> res2c_branch2a
I1206 06:54:19.217296    66 net.cpp:150] Setting up res2c_branch2a
I1206 06:54:19.217306    66 net.cpp:157] Top shape: 16 64 56 56 (3211264)
I1206 06:54:19.217311    66 net.cpp:165] Memory required for data: 1345519680
I1206 06:54:19.217317    66 layer_factory.hpp:77] Creating layer bn2c_branch2a
I1206 06:54:19.217324    66 net.cpp:100] Creating Layer bn2c_branch2a
I1206 06:54:19.217329    66 net.cpp:434] bn2c_branch2a <- res2c_branch2a
I1206 06:54:19.217335    66 net.cpp:395] bn2c_branch2a -> res2c_branch2a (in-place)
I1206 06:54:19.217461    66 net.cpp:150] Setting up bn2c_branch2a
I1206 06:54:19.217468    66 net.cpp:157] Top shape: 16 64 56 56 (3211264)
I1206 06:54:19.217473    66 net.cpp:165] Memory required for data: 1358364736
I1206 06:54:19.217483    66 layer_factory.hpp:77] Creating layer scale2c_branch2a
I1206 06:54:19.217494    66 net.cpp:100] Creating Layer scale2c_branch2a
I1206 06:54:19.217499    66 net.cpp:434] scale2c_branch2a <- res2c_branch2a
I1206 06:54:19.217504    66 net.cpp:395] scale2c_branch2a -> res2c_branch2a (in-place)
I1206 06:54:19.217532    66 layer_factory.hpp:77] Creating layer scale2c_branch2a
I1206 06:54:19.217605    66 net.cpp:150] Setting up scale2c_branch2a
I1206 06:54:19.217612    66 net.cpp:157] Top shape: 16 64 56 56 (3211264)
I1206 06:54:19.217617    66 net.cpp:165] Memory required for data: 1371209792
I1206 06:54:19.217622    66 layer_factory.hpp:77] Creating layer res2c_branch2a_relu
I1206 06:54:19.217628    66 net.cpp:100] Creating Layer res2c_branch2a_relu
I1206 06:54:19.217633    66 net.cpp:434] res2c_branch2a_relu <- res2c_branch2a
I1206 06:54:19.217638    66 net.cpp:395] res2c_branch2a_relu -> res2c_branch2a (in-place)
I1206 06:54:19.217764    66 net.cpp:150] Setting up res2c_branch2a_relu
I1206 06:54:19.217772    66 net.cpp:157] Top shape: 16 64 56 56 (3211264)
I1206 06:54:19.217775    66 net.cpp:165] Memory required for data: 1384054848
I1206 06:54:19.217780    66 layer_factory.hpp:77] Creating layer res2c_branch2b
I1206 06:54:19.217788    66 net.cpp:100] Creating Layer res2c_branch2b
I1206 06:54:19.217793    66 net.cpp:434] res2c_branch2b <- res2c_branch2a
I1206 06:54:19.217798    66 net.cpp:408] res2c_branch2b -> res2c_branch2b
I1206 06:54:19.218762    66 net.cpp:150] Setting up res2c_branch2b
I1206 06:54:19.218772    66 net.cpp:157] Top shape: 16 64 56 56 (3211264)
I1206 06:54:19.218776    66 net.cpp:165] Memory required for data: 1396899904
I1206 06:54:19.218782    66 layer_factory.hpp:77] Creating layer bn2c_branch2b
I1206 06:54:19.218789    66 net.cpp:100] Creating Layer bn2c_branch2b
I1206 06:54:19.218794    66 net.cpp:434] bn2c_branch2b <- res2c_branch2b
I1206 06:54:19.218799    66 net.cpp:395] bn2c_branch2b -> res2c_branch2b (in-place)
I1206 06:54:19.218928    66 net.cpp:150] Setting up bn2c_branch2b
I1206 06:54:19.218935    66 net.cpp:157] Top shape: 16 64 56 56 (3211264)
I1206 06:54:19.218940    66 net.cpp:165] Memory required for data: 1409744960
I1206 06:54:19.218945    66 layer_factory.hpp:77] Creating layer scale2c_branch2b
I1206 06:54:19.218951    66 net.cpp:100] Creating Layer scale2c_branch2b
I1206 06:54:19.218956    66 net.cpp:434] scale2c_branch2b <- res2c_branch2b
I1206 06:54:19.218961    66 net.cpp:395] scale2c_branch2b -> res2c_branch2b (in-place)
I1206 06:54:19.218988    66 layer_factory.hpp:77] Creating layer scale2c_branch2b
I1206 06:54:19.219061    66 net.cpp:150] Setting up scale2c_branch2b
I1206 06:54:19.219067    66 net.cpp:157] Top shape: 16 64 56 56 (3211264)
I1206 06:54:19.219072    66 net.cpp:165] Memory required for data: 1422590016
I1206 06:54:19.219079    66 layer_factory.hpp:77] Creating layer res2c_branch2b_relu
I1206 06:54:19.219084    66 net.cpp:100] Creating Layer res2c_branch2b_relu
I1206 06:54:19.219087    66 net.cpp:434] res2c_branch2b_relu <- res2c_branch2b
I1206 06:54:19.219094    66 net.cpp:395] res2c_branch2b_relu -> res2c_branch2b (in-place)
I1206 06:54:19.219215    66 net.cpp:150] Setting up res2c_branch2b_relu
I1206 06:54:19.219223    66 net.cpp:157] Top shape: 16 64 56 56 (3211264)
I1206 06:54:19.219226    66 net.cpp:165] Memory required for data: 1435435072
I1206 06:54:19.219231    66 layer_factory.hpp:77] Creating layer res2c_branch2c
I1206 06:54:19.219239    66 net.cpp:100] Creating Layer res2c_branch2c
I1206 06:54:19.219244    66 net.cpp:434] res2c_branch2c <- res2c_branch2b
I1206 06:54:19.219249    66 net.cpp:408] res2c_branch2c -> res2c_branch2c
I1206 06:54:19.220114    66 net.cpp:150] Setting up res2c_branch2c
I1206 06:54:19.220124    66 net.cpp:157] Top shape: 16 256 56 56 (12845056)
I1206 06:54:19.220129    66 net.cpp:165] Memory required for data: 1486815296
I1206 06:54:19.220134    66 layer_factory.hpp:77] Creating layer bn2c_branch2c
I1206 06:54:19.220141    66 net.cpp:100] Creating Layer bn2c_branch2c
I1206 06:54:19.220146    66 net.cpp:434] bn2c_branch2c <- res2c_branch2c
I1206 06:54:19.220160    66 net.cpp:395] bn2c_branch2c -> res2c_branch2c (in-place)
I1206 06:54:19.220281    66 net.cpp:150] Setting up bn2c_branch2c
I1206 06:54:19.220288    66 net.cpp:157] Top shape: 16 256 56 56 (12845056)
I1206 06:54:19.220293    66 net.cpp:165] Memory required for data: 1538195520
I1206 06:54:19.220302    66 layer_factory.hpp:77] Creating layer scale2c_branch2c
I1206 06:54:19.220309    66 net.cpp:100] Creating Layer scale2c_branch2c
I1206 06:54:19.220314    66 net.cpp:434] scale2c_branch2c <- res2c_branch2c
I1206 06:54:19.220319    66 net.cpp:395] scale2c_branch2c -> res2c_branch2c (in-place)
I1206 06:54:19.220345    66 layer_factory.hpp:77] Creating layer scale2c_branch2c
I1206 06:54:19.220414    66 net.cpp:150] Setting up scale2c_branch2c
I1206 06:54:19.220422    66 net.cpp:157] Top shape: 16 256 56 56 (12845056)
I1206 06:54:19.220425    66 net.cpp:165] Memory required for data: 1589575744
I1206 06:54:19.220432    66 layer_factory.hpp:77] Creating layer res2c
I1206 06:54:19.220438    66 net.cpp:100] Creating Layer res2c
I1206 06:54:19.220443    66 net.cpp:434] res2c <- res2b_res2b_relu_0_split_1
I1206 06:54:19.220448    66 net.cpp:434] res2c <- res2c_branch2c
I1206 06:54:19.220453    66 net.cpp:408] res2c -> res2c
I1206 06:54:19.220469    66 net.cpp:150] Setting up res2c
I1206 06:54:19.220475    66 net.cpp:157] Top shape: 16 256 56 56 (12845056)
I1206 06:54:19.220480    66 net.cpp:165] Memory required for data: 1640955968
I1206 06:54:19.220484    66 layer_factory.hpp:77] Creating layer res2c_relu
I1206 06:54:19.220489    66 net.cpp:100] Creating Layer res2c_relu
I1206 06:54:19.220494    66 net.cpp:434] res2c_relu <- res2c
I1206 06:54:19.220500    66 net.cpp:395] res2c_relu -> res2c (in-place)
I1206 06:54:19.220861    66 net.cpp:150] Setting up res2c_relu
I1206 06:54:19.220870    66 net.cpp:157] Top shape: 16 256 56 56 (12845056)
I1206 06:54:19.220875    66 net.cpp:165] Memory required for data: 1692336192
I1206 06:54:19.220880    66 layer_factory.hpp:77] Creating layer res2c_res2c_relu_0_split
I1206 06:54:19.220886    66 net.cpp:100] Creating Layer res2c_res2c_relu_0_split
I1206 06:54:19.220890    66 net.cpp:434] res2c_res2c_relu_0_split <- res2c
I1206 06:54:19.220897    66 net.cpp:408] res2c_res2c_relu_0_split -> res2c_res2c_relu_0_split_0
I1206 06:54:19.220903    66 net.cpp:408] res2c_res2c_relu_0_split -> res2c_res2c_relu_0_split_1
I1206 06:54:19.220932    66 net.cpp:150] Setting up res2c_res2c_relu_0_split
I1206 06:54:19.220937    66 net.cpp:157] Top shape: 16 256 56 56 (12845056)
I1206 06:54:19.220943    66 net.cpp:157] Top shape: 16 256 56 56 (12845056)
I1206 06:54:19.220947    66 net.cpp:165] Memory required for data: 1795096640
I1206 06:54:19.220952    66 layer_factory.hpp:77] Creating layer res3a_branch1
I1206 06:54:19.220959    66 net.cpp:100] Creating Layer res3a_branch1
I1206 06:54:19.220964    66 net.cpp:434] res3a_branch1 <- res2c_res2c_relu_0_split_0
I1206 06:54:19.220969    66 net.cpp:408] res3a_branch1 -> res3a_branch1
I1206 06:54:19.222745    66 net.cpp:150] Setting up res3a_branch1
I1206 06:54:19.222754    66 net.cpp:157] Top shape: 16 512 28 28 (6422528)
I1206 06:54:19.222759    66 net.cpp:165] Memory required for data: 1820786752
I1206 06:54:19.222765    66 layer_factory.hpp:77] Creating layer bn3a_branch1
I1206 06:54:19.222772    66 net.cpp:100] Creating Layer bn3a_branch1
I1206 06:54:19.222776    66 net.cpp:434] bn3a_branch1 <- res3a_branch1
I1206 06:54:19.222782    66 net.cpp:395] bn3a_branch1 -> res3a_branch1 (in-place)
I1206 06:54:19.223565    66 net.cpp:150] Setting up bn3a_branch1
I1206 06:54:19.223575    66 net.cpp:157] Top shape: 16 512 28 28 (6422528)
I1206 06:54:19.223580    66 net.cpp:165] Memory required for data: 1846476864
I1206 06:54:19.223588    66 layer_factory.hpp:77] Creating layer scale3a_branch1
I1206 06:54:19.223595    66 net.cpp:100] Creating Layer scale3a_branch1
I1206 06:54:19.223599    66 net.cpp:434] scale3a_branch1 <- res3a_branch1
I1206 06:54:19.223605    66 net.cpp:395] scale3a_branch1 -> res3a_branch1 (in-place)
I1206 06:54:19.223634    66 layer_factory.hpp:77] Creating layer scale3a_branch1
I1206 06:54:19.223711    66 net.cpp:150] Setting up scale3a_branch1
I1206 06:54:19.223717    66 net.cpp:157] Top shape: 16 512 28 28 (6422528)
I1206 06:54:19.223721    66 net.cpp:165] Memory required for data: 1872166976
I1206 06:54:19.223728    66 layer_factory.hpp:77] Creating layer res3a_branch2a
I1206 06:54:19.223736    66 net.cpp:100] Creating Layer res3a_branch2a
I1206 06:54:19.223740    66 net.cpp:434] res3a_branch2a <- res2c_res2c_relu_0_split_1
I1206 06:54:19.223747    66 net.cpp:408] res3a_branch2a -> res3a_branch2a
I1206 06:54:19.224936    66 net.cpp:150] Setting up res3a_branch2a
I1206 06:54:19.224946    66 net.cpp:157] Top shape: 16 128 28 28 (1605632)
I1206 06:54:19.224951    66 net.cpp:165] Memory required for data: 1878589504
I1206 06:54:19.224957    66 layer_factory.hpp:77] Creating layer bn3a_branch2a
I1206 06:54:19.224964    66 net.cpp:100] Creating Layer bn3a_branch2a
I1206 06:54:19.224969    66 net.cpp:434] bn3a_branch2a <- res3a_branch2a
I1206 06:54:19.224975    66 net.cpp:395] bn3a_branch2a -> res3a_branch2a (in-place)
I1206 06:54:19.225100    66 net.cpp:150] Setting up bn3a_branch2a
I1206 06:54:19.225106    66 net.cpp:157] Top shape: 16 128 28 28 (1605632)
I1206 06:54:19.225111    66 net.cpp:165] Memory required for data: 1885012032
I1206 06:54:19.225118    66 layer_factory.hpp:77] Creating layer scale3a_branch2a
I1206 06:54:19.225124    66 net.cpp:100] Creating Layer scale3a_branch2a
I1206 06:54:19.225129    66 net.cpp:434] scale3a_branch2a <- res3a_branch2a
I1206 06:54:19.225134    66 net.cpp:395] scale3a_branch2a -> res3a_branch2a (in-place)
I1206 06:54:19.225160    66 layer_factory.hpp:77] Creating layer scale3a_branch2a
I1206 06:54:19.225230    66 net.cpp:150] Setting up scale3a_branch2a
I1206 06:54:19.225237    66 net.cpp:157] Top shape: 16 128 28 28 (1605632)
I1206 06:54:19.225241    66 net.cpp:165] Memory required for data: 1891434560
I1206 06:54:19.225248    66 layer_factory.hpp:77] Creating layer res3a_branch2a_relu
I1206 06:54:19.225253    66 net.cpp:100] Creating Layer res3a_branch2a_relu
I1206 06:54:19.225258    66 net.cpp:434] res3a_branch2a_relu <- res3a_branch2a
I1206 06:54:19.225263    66 net.cpp:395] res3a_branch2a_relu -> res3a_branch2a (in-place)
I1206 06:54:19.225386    66 net.cpp:150] Setting up res3a_branch2a_relu
I1206 06:54:19.225394    66 net.cpp:157] Top shape: 16 128 28 28 (1605632)
I1206 06:54:19.225399    66 net.cpp:165] Memory required for data: 1897857088
I1206 06:54:19.225402    66 layer_factory.hpp:77] Creating layer res3a_branch2b
I1206 06:54:19.225410    66 net.cpp:100] Creating Layer res3a_branch2b
I1206 06:54:19.225415    66 net.cpp:434] res3a_branch2b <- res3a_branch2a
I1206 06:54:19.225421    66 net.cpp:408] res3a_branch2b -> res3a_branch2b
I1206 06:54:19.227318    66 net.cpp:150] Setting up res3a_branch2b
I1206 06:54:19.227326    66 net.cpp:157] Top shape: 16 128 28 28 (1605632)
I1206 06:54:19.227331    66 net.cpp:165] Memory required for data: 1904279616
I1206 06:54:19.227339    66 layer_factory.hpp:77] Creating layer bn3a_branch2b
I1206 06:54:19.227345    66 net.cpp:100] Creating Layer bn3a_branch2b
I1206 06:54:19.227349    66 net.cpp:434] bn3a_branch2b <- res3a_branch2b
I1206 06:54:19.227355    66 net.cpp:395] bn3a_branch2b -> res3a_branch2b (in-place)
I1206 06:54:19.227509    66 net.cpp:150] Setting up bn3a_branch2b
I1206 06:54:19.227515    66 net.cpp:157] Top shape: 16 128 28 28 (1605632)
I1206 06:54:19.227533    66 net.cpp:165] Memory required for data: 1910702144
I1206 06:54:19.227540    66 layer_factory.hpp:77] Creating layer scale3a_branch2b
I1206 06:54:19.227546    66 net.cpp:100] Creating Layer scale3a_branch2b
I1206 06:54:19.227551    66 net.cpp:434] scale3a_branch2b <- res3a_branch2b
I1206 06:54:19.227556    66 net.cpp:395] scale3a_branch2b -> res3a_branch2b (in-place)
I1206 06:54:19.227596    66 layer_factory.hpp:77] Creating layer scale3a_branch2b
I1206 06:54:19.227669    66 net.cpp:150] Setting up scale3a_branch2b
I1206 06:54:19.227674    66 net.cpp:157] Top shape: 16 128 28 28 (1605632)
I1206 06:54:19.227687    66 net.cpp:165] Memory required for data: 1917124672
I1206 06:54:19.227694    66 layer_factory.hpp:77] Creating layer res3a_branch2b_relu
I1206 06:54:19.227700    66 net.cpp:100] Creating Layer res3a_branch2b_relu
I1206 06:54:19.227705    66 net.cpp:434] res3a_branch2b_relu <- res3a_branch2b
I1206 06:54:19.227710    66 net.cpp:395] res3a_branch2b_relu -> res3a_branch2b (in-place)
I1206 06:54:19.227836    66 net.cpp:150] Setting up res3a_branch2b_relu
I1206 06:54:19.227843    66 net.cpp:157] Top shape: 16 128 28 28 (1605632)
I1206 06:54:19.227849    66 net.cpp:165] Memory required for data: 1923547200
I1206 06:54:19.227852    66 layer_factory.hpp:77] Creating layer res3a_branch2c
I1206 06:54:19.227860    66 net.cpp:100] Creating Layer res3a_branch2c
I1206 06:54:19.227865    66 net.cpp:434] res3a_branch2c <- res3a_branch2b
I1206 06:54:19.227870    66 net.cpp:408] res3a_branch2c -> res3a_branch2c
I1206 06:54:19.229010    66 net.cpp:150] Setting up res3a_branch2c
I1206 06:54:19.229019    66 net.cpp:157] Top shape: 16 512 28 28 (6422528)
I1206 06:54:19.229024    66 net.cpp:165] Memory required for data: 1949237312
I1206 06:54:19.229030    66 layer_factory.hpp:77] Creating layer bn3a_branch2c
I1206 06:54:19.229041    66 net.cpp:100] Creating Layer bn3a_branch2c
I1206 06:54:19.229046    66 net.cpp:434] bn3a_branch2c <- res3a_branch2c
I1206 06:54:19.229053    66 net.cpp:395] bn3a_branch2c -> res3a_branch2c (in-place)
I1206 06:54:19.229179    66 net.cpp:150] Setting up bn3a_branch2c
I1206 06:54:19.229185    66 net.cpp:157] Top shape: 16 512 28 28 (6422528)
I1206 06:54:19.229190    66 net.cpp:165] Memory required for data: 1974927424
I1206 06:54:19.229197    66 layer_factory.hpp:77] Creating layer scale3a_branch2c
I1206 06:54:19.229203    66 net.cpp:100] Creating Layer scale3a_branch2c
I1206 06:54:19.229208    66 net.cpp:434] scale3a_branch2c <- res3a_branch2c
I1206 06:54:19.229213    66 net.cpp:395] scale3a_branch2c -> res3a_branch2c (in-place)
I1206 06:54:19.229240    66 layer_factory.hpp:77] Creating layer scale3a_branch2c
I1206 06:54:19.229307    66 net.cpp:150] Setting up scale3a_branch2c
I1206 06:54:19.229313    66 net.cpp:157] Top shape: 16 512 28 28 (6422528)
I1206 06:54:19.229318    66 net.cpp:165] Memory required for data: 2000617536
I1206 06:54:19.229324    66 layer_factory.hpp:77] Creating layer res3a
I1206 06:54:19.229331    66 net.cpp:100] Creating Layer res3a
I1206 06:54:19.229336    66 net.cpp:434] res3a <- res3a_branch1
I1206 06:54:19.229341    66 net.cpp:434] res3a <- res3a_branch2c
I1206 06:54:19.229346    66 net.cpp:408] res3a -> res3a
I1206 06:54:19.229362    66 net.cpp:150] Setting up res3a
I1206 06:54:19.229368    66 net.cpp:157] Top shape: 16 512 28 28 (6422528)
I1206 06:54:19.229373    66 net.cpp:165] Memory required for data: 2026307648
I1206 06:54:19.229377    66 layer_factory.hpp:77] Creating layer res3a_relu
I1206 06:54:19.229383    66 net.cpp:100] Creating Layer res3a_relu
I1206 06:54:19.229388    66 net.cpp:434] res3a_relu <- res3a
I1206 06:54:19.229393    66 net.cpp:395] res3a_relu -> res3a (in-place)
I1206 06:54:19.229755    66 net.cpp:150] Setting up res3a_relu
I1206 06:54:19.229765    66 net.cpp:157] Top shape: 16 512 28 28 (6422528)
I1206 06:54:19.229769    66 net.cpp:165] Memory required for data: 2051997760
I1206 06:54:19.229774    66 layer_factory.hpp:77] Creating layer res3a_res3a_relu_0_split
I1206 06:54:19.229781    66 net.cpp:100] Creating Layer res3a_res3a_relu_0_split
I1206 06:54:19.229785    66 net.cpp:434] res3a_res3a_relu_0_split <- res3a
I1206 06:54:19.229791    66 net.cpp:408] res3a_res3a_relu_0_split -> res3a_res3a_relu_0_split_0
I1206 06:54:19.229799    66 net.cpp:408] res3a_res3a_relu_0_split -> res3a_res3a_relu_0_split_1
I1206 06:54:19.229827    66 net.cpp:150] Setting up res3a_res3a_relu_0_split
I1206 06:54:19.229833    66 net.cpp:157] Top shape: 16 512 28 28 (6422528)
I1206 06:54:19.229838    66 net.cpp:157] Top shape: 16 512 28 28 (6422528)
I1206 06:54:19.229842    66 net.cpp:165] Memory required for data: 2103377984
I1206 06:54:19.229848    66 layer_factory.hpp:77] Creating layer res3b_branch2a
I1206 06:54:19.229862    66 net.cpp:100] Creating Layer res3b_branch2a
I1206 06:54:19.229867    66 net.cpp:434] res3b_branch2a <- res3a_res3a_relu_0_split_0
I1206 06:54:19.229872    66 net.cpp:408] res3b_branch2a -> res3b_branch2a
I1206 06:54:19.231014    66 net.cpp:150] Setting up res3b_branch2a
I1206 06:54:19.231024    66 net.cpp:157] Top shape: 16 128 28 28 (1605632)
I1206 06:54:19.231029    66 net.cpp:165] Memory required for data: 2109800512
I1206 06:54:19.231034    66 layer_factory.hpp:77] Creating layer bn3b_branch2a
I1206 06:54:19.231041    66 net.cpp:100] Creating Layer bn3b_branch2a
I1206 06:54:19.231046    66 net.cpp:434] bn3b_branch2a <- res3b_branch2a
I1206 06:54:19.231052    66 net.cpp:395] bn3b_branch2a -> res3b_branch2a (in-place)
I1206 06:54:19.231210    66 net.cpp:150] Setting up bn3b_branch2a
I1206 06:54:19.231217    66 net.cpp:157] Top shape: 16 128 28 28 (1605632)
I1206 06:54:19.231222    66 net.cpp:165] Memory required for data: 2116223040
I1206 06:54:19.231245    66 layer_factory.hpp:77] Creating layer scale3b_branch2a
I1206 06:54:19.231263    66 net.cpp:100] Creating Layer scale3b_branch2a
I1206 06:54:19.231267    66 net.cpp:434] scale3b_branch2a <- res3b_branch2a
I1206 06:54:19.231288    66 net.cpp:395] scale3b_branch2a -> res3b_branch2a (in-place)
I1206 06:54:19.231328    66 layer_factory.hpp:77] Creating layer scale3b_branch2a
I1206 06:54:19.231416    66 net.cpp:150] Setting up scale3b_branch2a
I1206 06:54:19.231436    66 net.cpp:157] Top shape: 16 128 28 28 (1605632)
I1206 06:54:19.231441    66 net.cpp:165] Memory required for data: 2122645568
I1206 06:54:19.231462    66 layer_factory.hpp:77] Creating layer res3b_branch2a_relu
I1206 06:54:19.231487    66 net.cpp:100] Creating Layer res3b_branch2a_relu
I1206 06:54:19.231492    66 net.cpp:434] res3b_branch2a_relu <- res3b_branch2a
I1206 06:54:19.231513    66 net.cpp:395] res3b_branch2a_relu -> res3b_branch2a (in-place)
I1206 06:54:19.231823    66 net.cpp:150] Setting up res3b_branch2a_relu
I1206 06:54:19.231847    66 net.cpp:157] Top shape: 16 128 28 28 (1605632)
I1206 06:54:19.231850    66 net.cpp:165] Memory required for data: 2129068096
I1206 06:54:19.231869    66 layer_factory.hpp:77] Creating layer res3b_branch2b
I1206 06:54:19.231879    66 net.cpp:100] Creating Layer res3b_branch2b
I1206 06:54:19.231884    66 net.cpp:434] res3b_branch2b <- res3b_branch2a
I1206 06:54:19.231904    66 net.cpp:408] res3b_branch2b -> res3b_branch2b
I1206 06:54:19.234935    66 net.cpp:150] Setting up res3b_branch2b
I1206 06:54:19.234947    66 net.cpp:157] Top shape: 16 128 28 28 (1605632)
I1206 06:54:19.234952    66 net.cpp:165] Memory required for data: 2135490624
I1206 06:54:19.234959    66 layer_factory.hpp:77] Creating layer bn3b_branch2b
I1206 06:54:19.234967    66 net.cpp:100] Creating Layer bn3b_branch2b
I1206 06:54:19.234972    66 net.cpp:434] bn3b_branch2b <- res3b_branch2b
I1206 06:54:19.234978    66 net.cpp:395] bn3b_branch2b -> res3b_branch2b (in-place)
I1206 06:54:19.235149    66 net.cpp:150] Setting up bn3b_branch2b
I1206 06:54:19.235157    66 net.cpp:157] Top shape: 16 128 28 28 (1605632)
I1206 06:54:19.235160    66 net.cpp:165] Memory required for data: 2141913152
I1206 06:54:19.235168    66 layer_factory.hpp:77] Creating layer scale3b_branch2b
I1206 06:54:19.235174    66 net.cpp:100] Creating Layer scale3b_branch2b
I1206 06:54:19.235180    66 net.cpp:434] scale3b_branch2b <- res3b_branch2b
I1206 06:54:19.235185    66 net.cpp:395] scale3b_branch2b -> res3b_branch2b (in-place)
I1206 06:54:19.235214    66 layer_factory.hpp:77] Creating layer scale3b_branch2b
I1206 06:54:19.235292    66 net.cpp:150] Setting up scale3b_branch2b
I1206 06:54:19.235299    66 net.cpp:157] Top shape: 16 128 28 28 (1605632)
I1206 06:54:19.235304    66 net.cpp:165] Memory required for data: 2148335680
I1206 06:54:19.235311    66 layer_factory.hpp:77] Creating layer res3b_branch2b_relu
I1206 06:54:19.235316    66 net.cpp:100] Creating Layer res3b_branch2b_relu
I1206 06:54:19.235321    66 net.cpp:434] res3b_branch2b_relu <- res3b_branch2b
I1206 06:54:19.235337    66 net.cpp:395] res3b_branch2b_relu -> res3b_branch2b (in-place)
I1206 06:54:19.235487    66 net.cpp:150] Setting up res3b_branch2b_relu
I1206 06:54:19.235509    66 net.cpp:157] Top shape: 16 128 28 28 (1605632)
I1206 06:54:19.235528    66 net.cpp:165] Memory required for data: 2154758208
I1206 06:54:19.235533    66 layer_factory.hpp:77] Creating layer res3b_branch2c
I1206 06:54:19.235554    66 net.cpp:100] Creating Layer res3b_branch2c
I1206 06:54:19.235559    66 net.cpp:434] res3b_branch2c <- res3b_branch2b
I1206 06:54:19.235566    66 net.cpp:408] res3b_branch2c -> res3b_branch2c
I1206 06:54:19.236860    66 net.cpp:150] Setting up res3b_branch2c
I1206 06:54:19.236869    66 net.cpp:157] Top shape: 16 512 28 28 (6422528)
I1206 06:54:19.236874    66 net.cpp:165] Memory required for data: 2180448320
I1206 06:54:19.236881    66 layer_factory.hpp:77] Creating layer bn3b_branch2c
I1206 06:54:19.236887    66 net.cpp:100] Creating Layer bn3b_branch2c
I1206 06:54:19.236892    66 net.cpp:434] bn3b_branch2c <- res3b_branch2c
I1206 06:54:19.236898    66 net.cpp:395] bn3b_branch2c -> res3b_branch2c (in-place)
I1206 06:54:19.237030    66 net.cpp:150] Setting up bn3b_branch2c
I1206 06:54:19.237036    66 net.cpp:157] Top shape: 16 512 28 28 (6422528)
I1206 06:54:19.237041    66 net.cpp:165] Memory required for data: 2206138432
I1206 06:54:19.237048    66 layer_factory.hpp:77] Creating layer scale3b_branch2c
I1206 06:54:19.237054    66 net.cpp:100] Creating Layer scale3b_branch2c
I1206 06:54:19.237058    66 net.cpp:434] scale3b_branch2c <- res3b_branch2c
I1206 06:54:19.237064    66 net.cpp:395] scale3b_branch2c -> res3b_branch2c (in-place)
I1206 06:54:19.237092    66 layer_factory.hpp:77] Creating layer scale3b_branch2c
I1206 06:54:19.237162    66 net.cpp:150] Setting up scale3b_branch2c
I1206 06:54:19.237169    66 net.cpp:157] Top shape: 16 512 28 28 (6422528)
I1206 06:54:19.237174    66 net.cpp:165] Memory required for data: 2231828544
I1206 06:54:19.237179    66 layer_factory.hpp:77] Creating layer res3b
I1206 06:54:19.237186    66 net.cpp:100] Creating Layer res3b
I1206 06:54:19.237191    66 net.cpp:434] res3b <- res3a_res3a_relu_0_split_1
I1206 06:54:19.237196    66 net.cpp:434] res3b <- res3b_branch2c
I1206 06:54:19.237201    66 net.cpp:408] res3b -> res3b
I1206 06:54:19.237221    66 net.cpp:150] Setting up res3b
I1206 06:54:19.237226    66 net.cpp:157] Top shape: 16 512 28 28 (6422528)
I1206 06:54:19.237231    66 net.cpp:165] Memory required for data: 2257518656
I1206 06:54:19.237234    66 layer_factory.hpp:77] Creating layer res3b_relu
I1206 06:54:19.237241    66 net.cpp:100] Creating Layer res3b_relu
I1206 06:54:19.237244    66 net.cpp:434] res3b_relu <- res3b
I1206 06:54:19.237251    66 net.cpp:395] res3b_relu -> res3b (in-place)
I1206 06:54:19.237617    66 net.cpp:150] Setting up res3b_relu
I1206 06:54:19.237627    66 net.cpp:157] Top shape: 16 512 28 28 (6422528)
I1206 06:54:19.237630    66 net.cpp:165] Memory required for data: 2283208768
I1206 06:54:19.237637    66 layer_factory.hpp:77] Creating layer res3b_res3b_relu_0_split
I1206 06:54:19.237643    66 net.cpp:100] Creating Layer res3b_res3b_relu_0_split
I1206 06:54:19.237648    66 net.cpp:434] res3b_res3b_relu_0_split <- res3b
I1206 06:54:19.237653    66 net.cpp:408] res3b_res3b_relu_0_split -> res3b_res3b_relu_0_split_0
I1206 06:54:19.237660    66 net.cpp:408] res3b_res3b_relu_0_split -> res3b_res3b_relu_0_split_1
I1206 06:54:19.237689    66 net.cpp:150] Setting up res3b_res3b_relu_0_split
I1206 06:54:19.237695    66 net.cpp:157] Top shape: 16 512 28 28 (6422528)
I1206 06:54:19.237700    66 net.cpp:157] Top shape: 16 512 28 28 (6422528)
I1206 06:54:19.237705    66 net.cpp:165] Memory required for data: 2334588992
I1206 06:54:19.237709    66 layer_factory.hpp:77] Creating layer res3c_branch2a
I1206 06:54:19.237717    66 net.cpp:100] Creating Layer res3c_branch2a
I1206 06:54:19.237721    66 net.cpp:434] res3c_branch2a <- res3b_res3b_relu_0_split_0
I1206 06:54:19.237728    66 net.cpp:408] res3c_branch2a -> res3c_branch2a
I1206 06:54:19.238955    66 net.cpp:150] Setting up res3c_branch2a
I1206 06:54:19.238970    66 net.cpp:157] Top shape: 16 128 28 28 (1605632)
I1206 06:54:19.238976    66 net.cpp:165] Memory required for data: 2341011520
I1206 06:54:19.238982    66 layer_factory.hpp:77] Creating layer bn3c_branch2a
I1206 06:54:19.238988    66 net.cpp:100] Creating Layer bn3c_branch2a
I1206 06:54:19.238993    66 net.cpp:434] bn3c_branch2a <- res3c_branch2a
I1206 06:54:19.238999    66 net.cpp:395] bn3c_branch2a -> res3c_branch2a (in-place)
I1206 06:54:19.239132    66 net.cpp:150] Setting up bn3c_branch2a
I1206 06:54:19.239138    66 net.cpp:157] Top shape: 16 128 28 28 (1605632)
I1206 06:54:19.239143    66 net.cpp:165] Memory required for data: 2347434048
I1206 06:54:19.239151    66 layer_factory.hpp:77] Creating layer scale3c_branch2a
I1206 06:54:19.239156    66 net.cpp:100] Creating Layer scale3c_branch2a
I1206 06:54:19.239161    66 net.cpp:434] scale3c_branch2a <- res3c_branch2a
I1206 06:54:19.239166    66 net.cpp:395] scale3c_branch2a -> res3c_branch2a (in-place)
I1206 06:54:19.239194    66 layer_factory.hpp:77] Creating layer scale3c_branch2a
I1206 06:54:19.239269    66 net.cpp:150] Setting up scale3c_branch2a
I1206 06:54:19.239274    66 net.cpp:157] Top shape: 16 128 28 28 (1605632)
I1206 06:54:19.239279    66 net.cpp:165] Memory required for data: 2353856576
I1206 06:54:19.239285    66 layer_factory.hpp:77] Creating layer res3c_branch2a_relu
I1206 06:54:19.239291    66 net.cpp:100] Creating Layer res3c_branch2a_relu
I1206 06:54:19.239295    66 net.cpp:434] res3c_branch2a_relu <- res3c_branch2a
I1206 06:54:19.239300    66 net.cpp:395] res3c_branch2a_relu -> res3c_branch2a (in-place)
I1206 06:54:19.239430    66 net.cpp:150] Setting up res3c_branch2a_relu
I1206 06:54:19.239437    66 net.cpp:157] Top shape: 16 128 28 28 (1605632)
I1206 06:54:19.239442    66 net.cpp:165] Memory required for data: 2360279104
I1206 06:54:19.239446    66 layer_factory.hpp:77] Creating layer res3c_branch2b
I1206 06:54:19.239454    66 net.cpp:100] Creating Layer res3c_branch2b
I1206 06:54:19.239459    66 net.cpp:434] res3c_branch2b <- res3c_branch2a
I1206 06:54:19.239465    66 net.cpp:408] res3c_branch2b -> res3c_branch2b
I1206 06:54:19.241504    66 net.cpp:150] Setting up res3c_branch2b
I1206 06:54:19.241515    66 net.cpp:157] Top shape: 16 128 28 28 (1605632)
I1206 06:54:19.241520    66 net.cpp:165] Memory required for data: 2366701632
I1206 06:54:19.241526    66 layer_factory.hpp:77] Creating layer bn3c_branch2b
I1206 06:54:19.241533    66 net.cpp:100] Creating Layer bn3c_branch2b
I1206 06:54:19.241538    66 net.cpp:434] bn3c_branch2b <- res3c_branch2b
I1206 06:54:19.241544    66 net.cpp:395] bn3c_branch2b -> res3c_branch2b (in-place)
I1206 06:54:19.241686    66 net.cpp:150] Setting up bn3c_branch2b
I1206 06:54:19.241693    66 net.cpp:157] Top shape: 16 128 28 28 (1605632)
I1206 06:54:19.241698    66 net.cpp:165] Memory required for data: 2373124160
I1206 06:54:19.241704    66 layer_factory.hpp:77] Creating layer scale3c_branch2b
I1206 06:54:19.241711    66 net.cpp:100] Creating Layer scale3c_branch2b
I1206 06:54:19.241716    66 net.cpp:434] scale3c_branch2b <- res3c_branch2b
I1206 06:54:19.241721    66 net.cpp:395] scale3c_branch2b -> res3c_branch2b (in-place)
I1206 06:54:19.241751    66 layer_factory.hpp:77] Creating layer scale3c_branch2b
I1206 06:54:19.241830    66 net.cpp:150] Setting up scale3c_branch2b
I1206 06:54:19.241837    66 net.cpp:157] Top shape: 16 128 28 28 (1605632)
I1206 06:54:19.241842    66 net.cpp:165] Memory required for data: 2379546688
I1206 06:54:19.241847    66 layer_factory.hpp:77] Creating layer res3c_branch2b_relu
I1206 06:54:19.241853    66 net.cpp:100] Creating Layer res3c_branch2b_relu
I1206 06:54:19.241858    66 net.cpp:434] res3c_branch2b_relu <- res3c_branch2b
I1206 06:54:19.241864    66 net.cpp:395] res3c_branch2b_relu -> res3c_branch2b (in-place)
I1206 06:54:19.242004    66 net.cpp:150] Setting up res3c_branch2b_relu
I1206 06:54:19.242012    66 net.cpp:157] Top shape: 16 128 28 28 (1605632)
I1206 06:54:19.242018    66 net.cpp:165] Memory required for data: 2385969216
I1206 06:54:19.242029    66 layer_factory.hpp:77] Creating layer res3c_branch2c
I1206 06:54:19.242038    66 net.cpp:100] Creating Layer res3c_branch2c
I1206 06:54:19.242043    66 net.cpp:434] res3c_branch2c <- res3c_branch2b
I1206 06:54:19.242048    66 net.cpp:408] res3c_branch2c -> res3c_branch2c
I1206 06:54:19.243261    66 net.cpp:150] Setting up res3c_branch2c
I1206 06:54:19.243271    66 net.cpp:157] Top shape: 16 512 28 28 (6422528)
I1206 06:54:19.243276    66 net.cpp:165] Memory required for data: 2411659328
I1206 06:54:19.243283    66 layer_factory.hpp:77] Creating layer bn3c_branch2c
I1206 06:54:19.243289    66 net.cpp:100] Creating Layer bn3c_branch2c
I1206 06:54:19.243294    66 net.cpp:434] bn3c_branch2c <- res3c_branch2c
I1206 06:54:19.243300    66 net.cpp:395] bn3c_branch2c -> res3c_branch2c (in-place)
I1206 06:54:19.243438    66 net.cpp:150] Setting up bn3c_branch2c
I1206 06:54:19.243444    66 net.cpp:157] Top shape: 16 512 28 28 (6422528)
I1206 06:54:19.243449    66 net.cpp:165] Memory required for data: 2437349440
I1206 06:54:19.243456    66 layer_factory.hpp:77] Creating layer scale3c_branch2c
I1206 06:54:19.243463    66 net.cpp:100] Creating Layer scale3c_branch2c
I1206 06:54:19.243466    66 net.cpp:434] scale3c_branch2c <- res3c_branch2c
I1206 06:54:19.243472    66 net.cpp:395] scale3c_branch2c -> res3c_branch2c (in-place)
I1206 06:54:19.243540    66 layer_factory.hpp:77] Creating layer scale3c_branch2c
I1206 06:54:19.243630    66 net.cpp:150] Setting up scale3c_branch2c
I1206 06:54:19.243638    66 net.cpp:157] Top shape: 16 512 28 28 (6422528)
I1206 06:54:19.243641    66 net.cpp:165] Memory required for data: 2463039552
I1206 06:54:19.243649    66 layer_factory.hpp:77] Creating layer res3c
I1206 06:54:19.243654    66 net.cpp:100] Creating Layer res3c
I1206 06:54:19.243659    66 net.cpp:434] res3c <- res3b_res3b_relu_0_split_1
I1206 06:54:19.243664    66 net.cpp:434] res3c <- res3c_branch2c
I1206 06:54:19.243670    66 net.cpp:408] res3c -> res3c
I1206 06:54:19.243690    66 net.cpp:150] Setting up res3c
I1206 06:54:19.243695    66 net.cpp:157] Top shape: 16 512 28 28 (6422528)
I1206 06:54:19.243700    66 net.cpp:165] Memory required for data: 2488729664
I1206 06:54:19.243705    66 layer_factory.hpp:77] Creating layer res3c_relu
I1206 06:54:19.243710    66 net.cpp:100] Creating Layer res3c_relu
I1206 06:54:19.243715    66 net.cpp:434] res3c_relu <- res3c
I1206 06:54:19.243721    66 net.cpp:395] res3c_relu -> res3c (in-place)
I1206 06:54:19.243857    66 net.cpp:150] Setting up res3c_relu
I1206 06:54:19.243865    66 net.cpp:157] Top shape: 16 512 28 28 (6422528)
I1206 06:54:19.243870    66 net.cpp:165] Memory required for data: 2514419776
I1206 06:54:19.243873    66 layer_factory.hpp:77] Creating layer res3c_res3c_relu_0_split
I1206 06:54:19.243880    66 net.cpp:100] Creating Layer res3c_res3c_relu_0_split
I1206 06:54:19.243885    66 net.cpp:434] res3c_res3c_relu_0_split <- res3c
I1206 06:54:19.243891    66 net.cpp:408] res3c_res3c_relu_0_split -> res3c_res3c_relu_0_split_0
I1206 06:54:19.243897    66 net.cpp:408] res3c_res3c_relu_0_split -> res3c_res3c_relu_0_split_1
I1206 06:54:19.243928    66 net.cpp:150] Setting up res3c_res3c_relu_0_split
I1206 06:54:19.243934    66 net.cpp:157] Top shape: 16 512 28 28 (6422528)
I1206 06:54:19.243939    66 net.cpp:157] Top shape: 16 512 28 28 (6422528)
I1206 06:54:19.243943    66 net.cpp:165] Memory required for data: 2565800000
I1206 06:54:19.243948    66 layer_factory.hpp:77] Creating layer res3d_branch2a
I1206 06:54:19.243957    66 net.cpp:100] Creating Layer res3d_branch2a
I1206 06:54:19.243960    66 net.cpp:434] res3d_branch2a <- res3c_res3c_relu_0_split_0
I1206 06:54:19.243970    66 net.cpp:408] res3d_branch2a -> res3d_branch2a
I1206 06:54:19.245784    66 net.cpp:150] Setting up res3d_branch2a
I1206 06:54:19.245795    66 net.cpp:157] Top shape: 16 128 28 28 (1605632)
I1206 06:54:19.245800    66 net.cpp:165] Memory required for data: 2572222528
I1206 06:54:19.245805    66 layer_factory.hpp:77] Creating layer bn3d_branch2a
I1206 06:54:19.245813    66 net.cpp:100] Creating Layer bn3d_branch2a
I1206 06:54:19.245826    66 net.cpp:434] bn3d_branch2a <- res3d_branch2a
I1206 06:54:19.245833    66 net.cpp:395] bn3d_branch2a -> res3d_branch2a (in-place)
I1206 06:54:19.246007    66 net.cpp:150] Setting up bn3d_branch2a
I1206 06:54:19.246016    66 net.cpp:157] Top shape: 16 128 28 28 (1605632)
I1206 06:54:19.246019    66 net.cpp:165] Memory required for data: 2578645056
I1206 06:54:19.246037    66 layer_factory.hpp:77] Creating layer scale3d_branch2a
I1206 06:54:19.246057    66 net.cpp:100] Creating Layer scale3d_branch2a
I1206 06:54:19.246062    66 net.cpp:434] scale3d_branch2a <- res3d_branch2a
I1206 06:54:19.246068    66 net.cpp:395] scale3d_branch2a -> res3d_branch2a (in-place)
I1206 06:54:19.246112    66 layer_factory.hpp:77] Creating layer scale3d_branch2a
I1206 06:54:19.246191    66 net.cpp:150] Setting up scale3d_branch2a
I1206 06:54:19.246197    66 net.cpp:157] Top shape: 16 128 28 28 (1605632)
I1206 06:54:19.246201    66 net.cpp:165] Memory required for data: 2585067584
I1206 06:54:19.246207    66 layer_factory.hpp:77] Creating layer res3d_branch2a_relu
I1206 06:54:19.246214    66 net.cpp:100] Creating Layer res3d_branch2a_relu
I1206 06:54:19.246218    66 net.cpp:434] res3d_branch2a_relu <- res3d_branch2a
I1206 06:54:19.246224    66 net.cpp:395] res3d_branch2a_relu -> res3d_branch2a (in-place)
I1206 06:54:19.246608    66 net.cpp:150] Setting up res3d_branch2a_relu
I1206 06:54:19.246618    66 net.cpp:157] Top shape: 16 128 28 28 (1605632)
I1206 06:54:19.246621    66 net.cpp:165] Memory required for data: 2591490112
I1206 06:54:19.246626    66 layer_factory.hpp:77] Creating layer res3d_branch2b
I1206 06:54:19.246635    66 net.cpp:100] Creating Layer res3d_branch2b
I1206 06:54:19.246639    66 net.cpp:434] res3d_branch2b <- res3d_branch2a
I1206 06:54:19.246646    66 net.cpp:408] res3d_branch2b -> res3d_branch2b
I1206 06:54:19.248672    66 net.cpp:150] Setting up res3d_branch2b
I1206 06:54:19.248680    66 net.cpp:157] Top shape: 16 128 28 28 (1605632)
I1206 06:54:19.248685    66 net.cpp:165] Memory required for data: 2597912640
I1206 06:54:19.248690    66 layer_factory.hpp:77] Creating layer bn3d_branch2b
I1206 06:54:19.248698    66 net.cpp:100] Creating Layer bn3d_branch2b
I1206 06:54:19.248703    66 net.cpp:434] bn3d_branch2b <- res3d_branch2b
I1206 06:54:19.248709    66 net.cpp:395] bn3d_branch2b -> res3d_branch2b (in-place)
I1206 06:54:19.248860    66 net.cpp:150] Setting up bn3d_branch2b
I1206 06:54:19.248867    66 net.cpp:157] Top shape: 16 128 28 28 (1605632)
I1206 06:54:19.248872    66 net.cpp:165] Memory required for data: 2604335168
I1206 06:54:19.248878    66 layer_factory.hpp:77] Creating layer scale3d_branch2b
I1206 06:54:19.248885    66 net.cpp:100] Creating Layer scale3d_branch2b
I1206 06:54:19.248889    66 net.cpp:434] scale3d_branch2b <- res3d_branch2b
I1206 06:54:19.248895    66 net.cpp:395] scale3d_branch2b -> res3d_branch2b (in-place)
I1206 06:54:19.248925    66 layer_factory.hpp:77] Creating layer scale3d_branch2b
I1206 06:54:19.249006    66 net.cpp:150] Setting up scale3d_branch2b
I1206 06:54:19.249012    66 net.cpp:157] Top shape: 16 128 28 28 (1605632)
I1206 06:54:19.249017    66 net.cpp:165] Memory required for data: 2610757696
I1206 06:54:19.249023    66 layer_factory.hpp:77] Creating layer res3d_branch2b_relu
I1206 06:54:19.249028    66 net.cpp:100] Creating Layer res3d_branch2b_relu
I1206 06:54:19.249033    66 net.cpp:434] res3d_branch2b_relu <- res3d_branch2b
I1206 06:54:19.249039    66 net.cpp:395] res3d_branch2b_relu -> res3d_branch2b (in-place)
I1206 06:54:19.249181    66 net.cpp:150] Setting up res3d_branch2b_relu
I1206 06:54:19.249188    66 net.cpp:157] Top shape: 16 128 28 28 (1605632)
I1206 06:54:19.249192    66 net.cpp:165] Memory required for data: 2617180224
I1206 06:54:19.249197    66 layer_factory.hpp:77] Creating layer res3d_branch2c
I1206 06:54:19.249205    66 net.cpp:100] Creating Layer res3d_branch2c
I1206 06:54:19.249210    66 net.cpp:434] res3d_branch2c <- res3d_branch2b
I1206 06:54:19.249218    66 net.cpp:408] res3d_branch2c -> res3d_branch2c
I1206 06:54:19.250457    66 net.cpp:150] Setting up res3d_branch2c
I1206 06:54:19.250466    66 net.cpp:157] Top shape: 16 512 28 28 (6422528)
I1206 06:54:19.250470    66 net.cpp:165] Memory required for data: 2642870336
I1206 06:54:19.250476    66 layer_factory.hpp:77] Creating layer bn3d_branch2c
I1206 06:54:19.250484    66 net.cpp:100] Creating Layer bn3d_branch2c
I1206 06:54:19.250489    66 net.cpp:434] bn3d_branch2c <- res3d_branch2c
I1206 06:54:19.250494    66 net.cpp:395] bn3d_branch2c -> res3d_branch2c (in-place)
I1206 06:54:19.250643    66 net.cpp:150] Setting up bn3d_branch2c
I1206 06:54:19.250649    66 net.cpp:157] Top shape: 16 512 28 28 (6422528)
I1206 06:54:19.250653    66 net.cpp:165] Memory required for data: 2668560448
I1206 06:54:19.250660    66 layer_factory.hpp:77] Creating layer scale3d_branch2c
I1206 06:54:19.250666    66 net.cpp:100] Creating Layer scale3d_branch2c
I1206 06:54:19.250671    66 net.cpp:434] scale3d_branch2c <- res3d_branch2c
I1206 06:54:19.250676    66 net.cpp:395] scale3d_branch2c -> res3d_branch2c (in-place)
I1206 06:54:19.250706    66 layer_factory.hpp:77] Creating layer scale3d_branch2c
I1206 06:54:19.250785    66 net.cpp:150] Setting up scale3d_branch2c
I1206 06:54:19.250792    66 net.cpp:157] Top shape: 16 512 28 28 (6422528)
I1206 06:54:19.250797    66 net.cpp:165] Memory required for data: 2694250560
I1206 06:54:19.250802    66 layer_factory.hpp:77] Creating layer res3d
I1206 06:54:19.250809    66 net.cpp:100] Creating Layer res3d
I1206 06:54:19.250814    66 net.cpp:434] res3d <- res3c_res3c_relu_0_split_1
I1206 06:54:19.250819    66 net.cpp:434] res3d <- res3d_branch2c
I1206 06:54:19.250825    66 net.cpp:408] res3d -> res3d
I1206 06:54:19.250844    66 net.cpp:150] Setting up res3d
I1206 06:54:19.250851    66 net.cpp:157] Top shape: 16 512 28 28 (6422528)
I1206 06:54:19.250855    66 net.cpp:165] Memory required for data: 2719940672
I1206 06:54:19.250859    66 layer_factory.hpp:77] Creating layer res3d_relu
I1206 06:54:19.250865    66 net.cpp:100] Creating Layer res3d_relu
I1206 06:54:19.250870    66 net.cpp:434] res3d_relu <- res3d
I1206 06:54:19.250876    66 net.cpp:395] res3d_relu -> res3d (in-place)
I1206 06:54:19.251014    66 net.cpp:150] Setting up res3d_relu
I1206 06:54:19.251022    66 net.cpp:157] Top shape: 16 512 28 28 (6422528)
I1206 06:54:19.251027    66 net.cpp:165] Memory required for data: 2745630784
I1206 06:54:19.251031    66 layer_factory.hpp:77] Creating layer res3d_res3d_relu_0_split
I1206 06:54:19.251037    66 net.cpp:100] Creating Layer res3d_res3d_relu_0_split
I1206 06:54:19.251042    66 net.cpp:434] res3d_res3d_relu_0_split <- res3d
I1206 06:54:19.251049    66 net.cpp:408] res3d_res3d_relu_0_split -> res3d_res3d_relu_0_split_0
I1206 06:54:19.251055    66 net.cpp:408] res3d_res3d_relu_0_split -> res3d_res3d_relu_0_split_1
I1206 06:54:19.251085    66 net.cpp:150] Setting up res3d_res3d_relu_0_split
I1206 06:54:19.251091    66 net.cpp:157] Top shape: 16 512 28 28 (6422528)
I1206 06:54:19.251097    66 net.cpp:157] Top shape: 16 512 28 28 (6422528)
I1206 06:54:19.251101    66 net.cpp:165] Memory required for data: 2797011008
I1206 06:54:19.251106    66 layer_factory.hpp:77] Creating layer res4a_branch1
I1206 06:54:19.251116    66 net.cpp:100] Creating Layer res4a_branch1
I1206 06:54:19.251121    66 net.cpp:434] res4a_branch1 <- res3d_res3d_relu_0_split_0
I1206 06:54:19.251127    66 net.cpp:408] res4a_branch1 -> res4a_branch1
I1206 06:54:19.255936    66 net.cpp:150] Setting up res4a_branch1
I1206 06:54:19.255947    66 net.cpp:157] Top shape: 16 1024 14 14 (3211264)
I1206 06:54:19.255952    66 net.cpp:165] Memory required for data: 2809856064
I1206 06:54:19.255959    66 layer_factory.hpp:77] Creating layer bn4a_branch1
I1206 06:54:19.255966    66 net.cpp:100] Creating Layer bn4a_branch1
I1206 06:54:19.255971    66 net.cpp:434] bn4a_branch1 <- res4a_branch1
I1206 06:54:19.255978    66 net.cpp:395] bn4a_branch1 -> res4a_branch1 (in-place)
I1206 06:54:19.256132    66 net.cpp:150] Setting up bn4a_branch1
I1206 06:54:19.256144    66 net.cpp:157] Top shape: 16 1024 14 14 (3211264)
I1206 06:54:19.256155    66 net.cpp:165] Memory required for data: 2822701120
I1206 06:54:19.256163    66 layer_factory.hpp:77] Creating layer scale4a_branch1
I1206 06:54:19.256170    66 net.cpp:100] Creating Layer scale4a_branch1
I1206 06:54:19.256173    66 net.cpp:434] scale4a_branch1 <- res4a_branch1
I1206 06:54:19.256180    66 net.cpp:395] scale4a_branch1 -> res4a_branch1 (in-place)
I1206 06:54:19.256208    66 layer_factory.hpp:77] Creating layer scale4a_branch1
I1206 06:54:19.256295    66 net.cpp:150] Setting up scale4a_branch1
I1206 06:54:19.256302    66 net.cpp:157] Top shape: 16 1024 14 14 (3211264)
I1206 06:54:19.256306    66 net.cpp:165] Memory required for data: 2835546176
I1206 06:54:19.256314    66 layer_factory.hpp:77] Creating layer res4a_branch2a
I1206 06:54:19.256321    66 net.cpp:100] Creating Layer res4a_branch2a
I1206 06:54:19.256326    66 net.cpp:434] res4a_branch2a <- res3d_res3d_relu_0_split_1
I1206 06:54:19.256332    66 net.cpp:408] res4a_branch2a -> res4a_branch2a
I1206 06:54:19.258621    66 net.cpp:150] Setting up res4a_branch2a
I1206 06:54:19.258632    66 net.cpp:157] Top shape: 16 256 14 14 (802816)
I1206 06:54:19.258637    66 net.cpp:165] Memory required for data: 2838757440
I1206 06:54:19.258643    66 layer_factory.hpp:77] Creating layer bn4a_branch2a
I1206 06:54:19.258651    66 net.cpp:100] Creating Layer bn4a_branch2a
I1206 06:54:19.258657    66 net.cpp:434] bn4a_branch2a <- res4a_branch2a
I1206 06:54:19.258662    66 net.cpp:395] bn4a_branch2a -> res4a_branch2a (in-place)
I1206 06:54:19.258816    66 net.cpp:150] Setting up bn4a_branch2a
I1206 06:54:19.258821    66 net.cpp:157] Top shape: 16 256 14 14 (802816)
I1206 06:54:19.258826    66 net.cpp:165] Memory required for data: 2841968704
I1206 06:54:19.258833    66 layer_factory.hpp:77] Creating layer scale4a_branch2a
I1206 06:54:19.258839    66 net.cpp:100] Creating Layer scale4a_branch2a
I1206 06:54:19.258844    66 net.cpp:434] scale4a_branch2a <- res4a_branch2a
I1206 06:54:19.258849    66 net.cpp:395] scale4a_branch2a -> res4a_branch2a (in-place)
I1206 06:54:19.258882    66 layer_factory.hpp:77] Creating layer scale4a_branch2a
I1206 06:54:19.258963    66 net.cpp:150] Setting up scale4a_branch2a
I1206 06:54:19.258970    66 net.cpp:157] Top shape: 16 256 14 14 (802816)
I1206 06:54:19.258975    66 net.cpp:165] Memory required for data: 2845179968
I1206 06:54:19.258981    66 layer_factory.hpp:77] Creating layer res4a_branch2a_relu
I1206 06:54:19.258988    66 net.cpp:100] Creating Layer res4a_branch2a_relu
I1206 06:54:19.258993    66 net.cpp:434] res4a_branch2a_relu <- res4a_branch2a
I1206 06:54:19.258998    66 net.cpp:395] res4a_branch2a_relu -> res4a_branch2a (in-place)
I1206 06:54:19.259392    66 net.cpp:150] Setting up res4a_branch2a_relu
I1206 06:54:19.259402    66 net.cpp:157] Top shape: 16 256 14 14 (802816)
I1206 06:54:19.259407    66 net.cpp:165] Memory required for data: 2848391232
I1206 06:54:19.259411    66 layer_factory.hpp:77] Creating layer res4a_branch2b
I1206 06:54:19.259421    66 net.cpp:100] Creating Layer res4a_branch2b
I1206 06:54:19.259426    66 net.cpp:434] res4a_branch2b <- res4a_branch2a
I1206 06:54:19.259433    66 net.cpp:408] res4a_branch2b -> res4a_branch2b
I1206 06:54:19.264978    66 net.cpp:150] Setting up res4a_branch2b
I1206 06:54:19.264989    66 net.cpp:157] Top shape: 16 256 14 14 (802816)
I1206 06:54:19.264994    66 net.cpp:165] Memory required for data: 2851602496
I1206 06:54:19.265000    66 layer_factory.hpp:77] Creating layer bn4a_branch2b
I1206 06:54:19.265008    66 net.cpp:100] Creating Layer bn4a_branch2b
I1206 06:54:19.265013    66 net.cpp:434] bn4a_branch2b <- res4a_branch2b
I1206 06:54:19.265018    66 net.cpp:395] bn4a_branch2b -> res4a_branch2b (in-place)
I1206 06:54:19.265172    66 net.cpp:150] Setting up bn4a_branch2b
I1206 06:54:19.265178    66 net.cpp:157] Top shape: 16 256 14 14 (802816)
I1206 06:54:19.265183    66 net.cpp:165] Memory required for data: 2854813760
I1206 06:54:19.265189    66 layer_factory.hpp:77] Creating layer scale4a_branch2b
I1206 06:54:19.265208    66 net.cpp:100] Creating Layer scale4a_branch2b
I1206 06:54:19.265213    66 net.cpp:434] scale4a_branch2b <- res4a_branch2b
I1206 06:54:19.265219    66 net.cpp:395] scale4a_branch2b -> res4a_branch2b (in-place)
I1206 06:54:19.265254    66 layer_factory.hpp:77] Creating layer scale4a_branch2b
I1206 06:54:19.265337    66 net.cpp:150] Setting up scale4a_branch2b
I1206 06:54:19.265344    66 net.cpp:157] Top shape: 16 256 14 14 (802816)
I1206 06:54:19.265349    66 net.cpp:165] Memory required for data: 2858025024
I1206 06:54:19.265355    66 layer_factory.hpp:77] Creating layer res4a_branch2b_relu
I1206 06:54:19.265360    66 net.cpp:100] Creating Layer res4a_branch2b_relu
I1206 06:54:19.265365    66 net.cpp:434] res4a_branch2b_relu <- res4a_branch2b
I1206 06:54:19.265372    66 net.cpp:395] res4a_branch2b_relu -> res4a_branch2b (in-place)
I1206 06:54:19.265511    66 net.cpp:150] Setting up res4a_branch2b_relu
I1206 06:54:19.265519    66 net.cpp:157] Top shape: 16 256 14 14 (802816)
I1206 06:54:19.265524    66 net.cpp:165] Memory required for data: 2861236288
I1206 06:54:19.265528    66 layer_factory.hpp:77] Creating layer res4a_branch2c
I1206 06:54:19.265537    66 net.cpp:100] Creating Layer res4a_branch2c
I1206 06:54:19.265542    66 net.cpp:434] res4a_branch2c <- res4a_branch2b
I1206 06:54:19.265549    66 net.cpp:408] res4a_branch2c -> res4a_branch2c
I1206 06:54:19.268294    66 net.cpp:150] Setting up res4a_branch2c
I1206 06:54:19.268304    66 net.cpp:157] Top shape: 16 1024 14 14 (3211264)
I1206 06:54:19.268309    66 net.cpp:165] Memory required for data: 2874081344
I1206 06:54:19.268316    66 layer_factory.hpp:77] Creating layer bn4a_branch2c
I1206 06:54:19.268322    66 net.cpp:100] Creating Layer bn4a_branch2c
I1206 06:54:19.268327    66 net.cpp:434] bn4a_branch2c <- res4a_branch2c
I1206 06:54:19.268334    66 net.cpp:395] bn4a_branch2c -> res4a_branch2c (in-place)
I1206 06:54:19.268491    66 net.cpp:150] Setting up bn4a_branch2c
I1206 06:54:19.268496    66 net.cpp:157] Top shape: 16 1024 14 14 (3211264)
I1206 06:54:19.268501    66 net.cpp:165] Memory required for data: 2886926400
I1206 06:54:19.268507    66 layer_factory.hpp:77] Creating layer scale4a_branch2c
I1206 06:54:19.268515    66 net.cpp:100] Creating Layer scale4a_branch2c
I1206 06:54:19.268519    66 net.cpp:434] scale4a_branch2c <- res4a_branch2c
I1206 06:54:19.268525    66 net.cpp:395] scale4a_branch2c -> res4a_branch2c (in-place)
I1206 06:54:19.268553    66 layer_factory.hpp:77] Creating layer scale4a_branch2c
I1206 06:54:19.268642    66 net.cpp:150] Setting up scale4a_branch2c
I1206 06:54:19.268648    66 net.cpp:157] Top shape: 16 1024 14 14 (3211264)
I1206 06:54:19.268652    66 net.cpp:165] Memory required for data: 2899771456
I1206 06:54:19.268659    66 layer_factory.hpp:77] Creating layer res4a
I1206 06:54:19.268666    66 net.cpp:100] Creating Layer res4a
I1206 06:54:19.268671    66 net.cpp:434] res4a <- res4a_branch1
I1206 06:54:19.268676    66 net.cpp:434] res4a <- res4a_branch2c
I1206 06:54:19.268682    66 net.cpp:408] res4a -> res4a
I1206 06:54:19.268702    66 net.cpp:150] Setting up res4a
I1206 06:54:19.268708    66 net.cpp:157] Top shape: 16 1024 14 14 (3211264)
I1206 06:54:19.268712    66 net.cpp:165] Memory required for data: 2912616512
I1206 06:54:19.268718    66 layer_factory.hpp:77] Creating layer res4a_relu
I1206 06:54:19.268723    66 net.cpp:100] Creating Layer res4a_relu
I1206 06:54:19.268728    66 net.cpp:434] res4a_relu <- res4a
I1206 06:54:19.268733    66 net.cpp:395] res4a_relu -> res4a (in-place)
I1206 06:54:19.268873    66 net.cpp:150] Setting up res4a_relu
I1206 06:54:19.268880    66 net.cpp:157] Top shape: 16 1024 14 14 (3211264)
I1206 06:54:19.268885    66 net.cpp:165] Memory required for data: 2925461568
I1206 06:54:19.268890    66 layer_factory.hpp:77] Creating layer res4a_res4a_relu_0_split
I1206 06:54:19.268896    66 net.cpp:100] Creating Layer res4a_res4a_relu_0_split
I1206 06:54:19.268901    66 net.cpp:434] res4a_res4a_relu_0_split <- res4a
I1206 06:54:19.268908    66 net.cpp:408] res4a_res4a_relu_0_split -> res4a_res4a_relu_0_split_0
I1206 06:54:19.268924    66 net.cpp:408] res4a_res4a_relu_0_split -> res4a_res4a_relu_0_split_1
I1206 06:54:19.268956    66 net.cpp:150] Setting up res4a_res4a_relu_0_split
I1206 06:54:19.268962    66 net.cpp:157] Top shape: 16 1024 14 14 (3211264)
I1206 06:54:19.268967    66 net.cpp:157] Top shape: 16 1024 14 14 (3211264)
I1206 06:54:19.268972    66 net.cpp:165] Memory required for data: 2951151680
I1206 06:54:19.268976    66 layer_factory.hpp:77] Creating layer res4b_branch2a
I1206 06:54:19.268997    66 net.cpp:100] Creating Layer res4b_branch2a
I1206 06:54:19.269002    66 net.cpp:434] res4b_branch2a <- res4a_res4a_relu_0_split_0
I1206 06:54:19.269008    66 net.cpp:408] res4b_branch2a -> res4b_branch2a
I1206 06:54:19.272171    66 net.cpp:150] Setting up res4b_branch2a
I1206 06:54:19.272181    66 net.cpp:157] Top shape: 16 256 14 14 (802816)
I1206 06:54:19.272186    66 net.cpp:165] Memory required for data: 2954362944
I1206 06:54:19.272193    66 layer_factory.hpp:77] Creating layer bn4b_branch2a
I1206 06:54:19.272202    66 net.cpp:100] Creating Layer bn4b_branch2a
I1206 06:54:19.272207    66 net.cpp:434] bn4b_branch2a <- res4b_branch2a
I1206 06:54:19.272212    66 net.cpp:395] bn4b_branch2a -> res4b_branch2a (in-place)
I1206 06:54:19.272362    66 net.cpp:150] Setting up bn4b_branch2a
I1206 06:54:19.272369    66 net.cpp:157] Top shape: 16 256 14 14 (802816)
I1206 06:54:19.272373    66 net.cpp:165] Memory required for data: 2957574208
I1206 06:54:19.272380    66 layer_factory.hpp:77] Creating layer scale4b_branch2a
I1206 06:54:19.272387    66 net.cpp:100] Creating Layer scale4b_branch2a
I1206 06:54:19.272392    66 net.cpp:434] scale4b_branch2a <- res4b_branch2a
I1206 06:54:19.272397    66 net.cpp:395] scale4b_branch2a -> res4b_branch2a (in-place)
I1206 06:54:19.272430    66 layer_factory.hpp:77] Creating layer scale4b_branch2a
I1206 06:54:19.272517    66 net.cpp:150] Setting up scale4b_branch2a
I1206 06:54:19.272523    66 net.cpp:157] Top shape: 16 256 14 14 (802816)
I1206 06:54:19.272527    66 net.cpp:165] Memory required for data: 2960785472
I1206 06:54:19.272534    66 layer_factory.hpp:77] Creating layer res4b_branch2a_relu
I1206 06:54:19.272541    66 net.cpp:100] Creating Layer res4b_branch2a_relu
I1206 06:54:19.272544    66 net.cpp:434] res4b_branch2a_relu <- res4b_branch2a
I1206 06:54:19.272550    66 net.cpp:395] res4b_branch2a_relu -> res4b_branch2a (in-place)
I1206 06:54:19.272944    66 net.cpp:150] Setting up res4b_branch2a_relu
I1206 06:54:19.272954    66 net.cpp:157] Top shape: 16 256 14 14 (802816)
I1206 06:54:19.272958    66 net.cpp:165] Memory required for data: 2963996736
I1206 06:54:19.272964    66 layer_factory.hpp:77] Creating layer res4b_branch2b
I1206 06:54:19.272972    66 net.cpp:100] Creating Layer res4b_branch2b
I1206 06:54:19.272977    66 net.cpp:434] res4b_branch2b <- res4b_branch2a
I1206 06:54:19.272984    66 net.cpp:408] res4b_branch2b -> res4b_branch2b
I1206 06:54:19.278496    66 net.cpp:150] Setting up res4b_branch2b
I1206 06:54:19.278506    66 net.cpp:157] Top shape: 16 256 14 14 (802816)
I1206 06:54:19.278512    66 net.cpp:165] Memory required for data: 2967208000
I1206 06:54:19.278517    66 layer_factory.hpp:77] Creating layer bn4b_branch2b
I1206 06:54:19.278525    66 net.cpp:100] Creating Layer bn4b_branch2b
I1206 06:54:19.278530    66 net.cpp:434] bn4b_branch2b <- res4b_branch2b
I1206 06:54:19.278537    66 net.cpp:395] bn4b_branch2b -> res4b_branch2b (in-place)
I1206 06:54:19.278695    66 net.cpp:150] Setting up bn4b_branch2b
I1206 06:54:19.278702    66 net.cpp:157] Top shape: 16 256 14 14 (802816)
I1206 06:54:19.278705    66 net.cpp:165] Memory required for data: 2970419264
I1206 06:54:19.278713    66 layer_factory.hpp:77] Creating layer scale4b_branch2b
I1206 06:54:19.278719    66 net.cpp:100] Creating Layer scale4b_branch2b
I1206 06:54:19.278724    66 net.cpp:434] scale4b_branch2b <- res4b_branch2b
I1206 06:54:19.278729    66 net.cpp:395] scale4b_branch2b -> res4b_branch2b (in-place)
I1206 06:54:19.278762    66 layer_factory.hpp:77] Creating layer scale4b_branch2b
I1206 06:54:19.278857    66 net.cpp:150] Setting up scale4b_branch2b
I1206 06:54:19.278864    66 net.cpp:157] Top shape: 16 256 14 14 (802816)
I1206 06:54:19.278868    66 net.cpp:165] Memory required for data: 2973630528
I1206 06:54:19.278875    66 layer_factory.hpp:77] Creating layer res4b_branch2b_relu
I1206 06:54:19.278882    66 net.cpp:100] Creating Layer res4b_branch2b_relu
I1206 06:54:19.278887    66 net.cpp:434] res4b_branch2b_relu <- res4b_branch2b
I1206 06:54:19.278892    66 net.cpp:395] res4b_branch2b_relu -> res4b_branch2b (in-place)
I1206 06:54:19.279040    66 net.cpp:150] Setting up res4b_branch2b_relu
I1206 06:54:19.279052    66 net.cpp:157] Top shape: 16 256 14 14 (802816)
I1206 06:54:19.279055    66 net.cpp:165] Memory required for data: 2976841792
I1206 06:54:19.279060    66 layer_factory.hpp:77] Creating layer res4b_branch2c
I1206 06:54:19.279068    66 net.cpp:100] Creating Layer res4b_branch2c
I1206 06:54:19.279073    66 net.cpp:434] res4b_branch2c <- res4b_branch2b
I1206 06:54:19.279079    66 net.cpp:408] res4b_branch2c -> res4b_branch2c
I1206 06:54:19.281603    66 net.cpp:150] Setting up res4b_branch2c
I1206 06:54:19.281613    66 net.cpp:157] Top shape: 16 1024 14 14 (3211264)
I1206 06:54:19.281618    66 net.cpp:165] Memory required for data: 2989686848
I1206 06:54:19.281623    66 layer_factory.hpp:77] Creating layer bn4b_branch2c
I1206 06:54:19.281631    66 net.cpp:100] Creating Layer bn4b_branch2c
I1206 06:54:19.281636    66 net.cpp:434] bn4b_branch2c <- res4b_branch2c
I1206 06:54:19.281643    66 net.cpp:395] bn4b_branch2c -> res4b_branch2c (in-place)
I1206 06:54:19.281805    66 net.cpp:150] Setting up bn4b_branch2c
I1206 06:54:19.281811    66 net.cpp:157] Top shape: 16 1024 14 14 (3211264)
I1206 06:54:19.281816    66 net.cpp:165] Memory required for data: 3002531904
I1206 06:54:19.281822    66 layer_factory.hpp:77] Creating layer scale4b_branch2c
I1206 06:54:19.281829    66 net.cpp:100] Creating Layer scale4b_branch2c
I1206 06:54:19.281833    66 net.cpp:434] scale4b_branch2c <- res4b_branch2c
I1206 06:54:19.281839    66 net.cpp:395] scale4b_branch2c -> res4b_branch2c (in-place)
I1206 06:54:19.281867    66 layer_factory.hpp:77] Creating layer scale4b_branch2c
I1206 06:54:19.281955    66 net.cpp:150] Setting up scale4b_branch2c
I1206 06:54:19.281961    66 net.cpp:157] Top shape: 16 1024 14 14 (3211264)
I1206 06:54:19.281966    66 net.cpp:165] Memory required for data: 3015376960
I1206 06:54:19.281971    66 layer_factory.hpp:77] Creating layer res4b
I1206 06:54:19.281980    66 net.cpp:100] Creating Layer res4b
I1206 06:54:19.281985    66 net.cpp:434] res4b <- res4a_res4a_relu_0_split_1
I1206 06:54:19.281989    66 net.cpp:434] res4b <- res4b_branch2c
I1206 06:54:19.281996    66 net.cpp:408] res4b -> res4b
I1206 06:54:19.282016    66 net.cpp:150] Setting up res4b
I1206 06:54:19.282021    66 net.cpp:157] Top shape: 16 1024 14 14 (3211264)
I1206 06:54:19.282027    66 net.cpp:165] Memory required for data: 3028222016
I1206 06:54:19.282030    66 layer_factory.hpp:77] Creating layer res4b_relu
I1206 06:54:19.282037    66 net.cpp:100] Creating Layer res4b_relu
I1206 06:54:19.282040    66 net.cpp:434] res4b_relu <- res4b
I1206 06:54:19.282047    66 net.cpp:395] res4b_relu -> res4b (in-place)
I1206 06:54:19.282187    66 net.cpp:150] Setting up res4b_relu
I1206 06:54:19.282196    66 net.cpp:157] Top shape: 16 1024 14 14 (3211264)
I1206 06:54:19.282199    66 net.cpp:165] Memory required for data: 3041067072
I1206 06:54:19.282204    66 layer_factory.hpp:77] Creating layer res4b_res4b_relu_0_split
I1206 06:54:19.282210    66 net.cpp:100] Creating Layer res4b_res4b_relu_0_split
I1206 06:54:19.282215    66 net.cpp:434] res4b_res4b_relu_0_split <- res4b
I1206 06:54:19.282222    66 net.cpp:408] res4b_res4b_relu_0_split -> res4b_res4b_relu_0_split_0
I1206 06:54:19.282229    66 net.cpp:408] res4b_res4b_relu_0_split -> res4b_res4b_relu_0_split_1
I1206 06:54:19.282260    66 net.cpp:150] Setting up res4b_res4b_relu_0_split
I1206 06:54:19.282266    66 net.cpp:157] Top shape: 16 1024 14 14 (3211264)
I1206 06:54:19.282274    66 net.cpp:157] Top shape: 16 1024 14 14 (3211264)
I1206 06:54:19.282285    66 net.cpp:165] Memory required for data: 3066757184
I1206 06:54:19.282290    66 layer_factory.hpp:77] Creating layer res4c_branch2a
I1206 06:54:19.282299    66 net.cpp:100] Creating Layer res4c_branch2a
I1206 06:54:19.282304    66 net.cpp:434] res4c_branch2a <- res4b_res4b_relu_0_split_0
I1206 06:54:19.282311    66 net.cpp:408] res4c_branch2a -> res4c_branch2a
I1206 06:54:19.285526    66 net.cpp:150] Setting up res4c_branch2a
I1206 06:54:19.285537    66 net.cpp:157] Top shape: 16 256 14 14 (802816)
I1206 06:54:19.285540    66 net.cpp:165] Memory required for data: 3069968448
I1206 06:54:19.285547    66 layer_factory.hpp:77] Creating layer bn4c_branch2a
I1206 06:54:19.285554    66 net.cpp:100] Creating Layer bn4c_branch2a
I1206 06:54:19.285559    66 net.cpp:434] bn4c_branch2a <- res4c_branch2a
I1206 06:54:19.285565    66 net.cpp:395] bn4c_branch2a -> res4c_branch2a (in-place)
I1206 06:54:19.285724    66 net.cpp:150] Setting up bn4c_branch2a
I1206 06:54:19.285730    66 net.cpp:157] Top shape: 16 256 14 14 (802816)
I1206 06:54:19.285734    66 net.cpp:165] Memory required for data: 3073179712
I1206 06:54:19.285742    66 layer_factory.hpp:77] Creating layer scale4c_branch2a
I1206 06:54:19.285748    66 net.cpp:100] Creating Layer scale4c_branch2a
I1206 06:54:19.285753    66 net.cpp:434] scale4c_branch2a <- res4c_branch2a
I1206 06:54:19.285758    66 net.cpp:395] scale4c_branch2a -> res4c_branch2a (in-place)
I1206 06:54:19.285790    66 layer_factory.hpp:77] Creating layer scale4c_branch2a
I1206 06:54:19.285876    66 net.cpp:150] Setting up scale4c_branch2a
I1206 06:54:19.285882    66 net.cpp:157] Top shape: 16 256 14 14 (802816)
I1206 06:54:19.285887    66 net.cpp:165] Memory required for data: 3076390976
I1206 06:54:19.285892    66 layer_factory.hpp:77] Creating layer res4c_branch2a_relu
I1206 06:54:19.285898    66 net.cpp:100] Creating Layer res4c_branch2a_relu
I1206 06:54:19.285903    66 net.cpp:434] res4c_branch2a_relu <- res4c_branch2a
I1206 06:54:19.285909    66 net.cpp:395] res4c_branch2a_relu -> res4c_branch2a (in-place)
I1206 06:54:19.286048    66 net.cpp:150] Setting up res4c_branch2a_relu
I1206 06:54:19.286056    66 net.cpp:157] Top shape: 16 256 14 14 (802816)
I1206 06:54:19.286061    66 net.cpp:165] Memory required for data: 3079602240
I1206 06:54:19.286064    66 layer_factory.hpp:77] Creating layer res4c_branch2b
I1206 06:54:19.286072    66 net.cpp:100] Creating Layer res4c_branch2b
I1206 06:54:19.286078    66 net.cpp:434] res4c_branch2b <- res4c_branch2a
I1206 06:54:19.286084    66 net.cpp:408] res4c_branch2b -> res4c_branch2b
I1206 06:54:19.291625    66 net.cpp:150] Setting up res4c_branch2b
I1206 06:54:19.291636    66 net.cpp:157] Top shape: 16 256 14 14 (802816)
I1206 06:54:19.291641    66 net.cpp:165] Memory required for data: 3082813504
I1206 06:54:19.291648    66 layer_factory.hpp:77] Creating layer bn4c_branch2b
I1206 06:54:19.291656    66 net.cpp:100] Creating Layer bn4c_branch2b
I1206 06:54:19.291661    66 net.cpp:434] bn4c_branch2b <- res4c_branch2b
I1206 06:54:19.291668    66 net.cpp:395] bn4c_branch2b -> res4c_branch2b (in-place)
I1206 06:54:19.291829    66 net.cpp:150] Setting up bn4c_branch2b
I1206 06:54:19.291836    66 net.cpp:157] Top shape: 16 256 14 14 (802816)
I1206 06:54:19.291841    66 net.cpp:165] Memory required for data: 3086024768
I1206 06:54:19.291847    66 layer_factory.hpp:77] Creating layer scale4c_branch2b
I1206 06:54:19.291853    66 net.cpp:100] Creating Layer scale4c_branch2b
I1206 06:54:19.291858    66 net.cpp:434] scale4c_branch2b <- res4c_branch2b
I1206 06:54:19.291863    66 net.cpp:395] scale4c_branch2b -> res4c_branch2b (in-place)
I1206 06:54:19.291898    66 layer_factory.hpp:77] Creating layer scale4c_branch2b
I1206 06:54:19.291985    66 net.cpp:150] Setting up scale4c_branch2b
I1206 06:54:19.291992    66 net.cpp:157] Top shape: 16 256 14 14 (802816)
I1206 06:54:19.291996    66 net.cpp:165] Memory required for data: 3089236032
I1206 06:54:19.292003    66 layer_factory.hpp:77] Creating layer res4c_branch2b_relu
I1206 06:54:19.292019    66 net.cpp:100] Creating Layer res4c_branch2b_relu
I1206 06:54:19.292024    66 net.cpp:434] res4c_branch2b_relu <- res4c_branch2b
I1206 06:54:19.292030    66 net.cpp:395] res4c_branch2b_relu -> res4c_branch2b (in-place)
I1206 06:54:19.292428    66 net.cpp:150] Setting up res4c_branch2b_relu
I1206 06:54:19.292436    66 net.cpp:157] Top shape: 16 256 14 14 (802816)
I1206 06:54:19.292440    66 net.cpp:165] Memory required for data: 3092447296
I1206 06:54:19.292445    66 layer_factory.hpp:77] Creating layer res4c_branch2c
I1206 06:54:19.292454    66 net.cpp:100] Creating Layer res4c_branch2c
I1206 06:54:19.292459    66 net.cpp:434] res4c_branch2c <- res4c_branch2b
I1206 06:54:19.292466    66 net.cpp:408] res4c_branch2c -> res4c_branch2c
I1206 06:54:19.294958    66 net.cpp:150] Setting up res4c_branch2c
I1206 06:54:19.294970    66 net.cpp:157] Top shape: 16 1024 14 14 (3211264)
I1206 06:54:19.294973    66 net.cpp:165] Memory required for data: 3105292352
I1206 06:54:19.294980    66 layer_factory.hpp:77] Creating layer bn4c_branch2c
I1206 06:54:19.294987    66 net.cpp:100] Creating Layer bn4c_branch2c
I1206 06:54:19.294992    66 net.cpp:434] bn4c_branch2c <- res4c_branch2c
I1206 06:54:19.294998    66 net.cpp:395] bn4c_branch2c -> res4c_branch2c (in-place)
I1206 06:54:19.295153    66 net.cpp:150] Setting up bn4c_branch2c
I1206 06:54:19.295159    66 net.cpp:157] Top shape: 16 1024 14 14 (3211264)
I1206 06:54:19.295164    66 net.cpp:165] Memory required for data: 3118137408
I1206 06:54:19.295171    66 layer_factory.hpp:77] Creating layer scale4c_branch2c
I1206 06:54:19.295178    66 net.cpp:100] Creating Layer scale4c_branch2c
I1206 06:54:19.295182    66 net.cpp:434] scale4c_branch2c <- res4c_branch2c
I1206 06:54:19.295188    66 net.cpp:395] scale4c_branch2c -> res4c_branch2c (in-place)
I1206 06:54:19.295217    66 layer_factory.hpp:77] Creating layer scale4c_branch2c
I1206 06:54:19.295310    66 net.cpp:150] Setting up scale4c_branch2c
I1206 06:54:19.295317    66 net.cpp:157] Top shape: 16 1024 14 14 (3211264)
I1206 06:54:19.295322    66 net.cpp:165] Memory required for data: 3130982464
I1206 06:54:19.295328    66 layer_factory.hpp:77] Creating layer res4c
I1206 06:54:19.295334    66 net.cpp:100] Creating Layer res4c
I1206 06:54:19.295339    66 net.cpp:434] res4c <- res4b_res4b_relu_0_split_1
I1206 06:54:19.295344    66 net.cpp:434] res4c <- res4c_branch2c
I1206 06:54:19.295351    66 net.cpp:408] res4c -> res4c
I1206 06:54:19.295372    66 net.cpp:150] Setting up res4c
I1206 06:54:19.295377    66 net.cpp:157] Top shape: 16 1024 14 14 (3211264)
I1206 06:54:19.295382    66 net.cpp:165] Memory required for data: 3143827520
I1206 06:54:19.295387    66 layer_factory.hpp:77] Creating layer res4c_relu
I1206 06:54:19.295393    66 net.cpp:100] Creating Layer res4c_relu
I1206 06:54:19.295397    66 net.cpp:434] res4c_relu <- res4c
I1206 06:54:19.295403    66 net.cpp:395] res4c_relu -> res4c (in-place)
I1206 06:54:19.295575    66 net.cpp:150] Setting up res4c_relu
I1206 06:54:19.295583    66 net.cpp:157] Top shape: 16 1024 14 14 (3211264)
I1206 06:54:19.295588    66 net.cpp:165] Memory required for data: 3156672576
I1206 06:54:19.295593    66 layer_factory.hpp:77] Creating layer res4c_res4c_relu_0_split
I1206 06:54:19.295598    66 net.cpp:100] Creating Layer res4c_res4c_relu_0_split
I1206 06:54:19.295603    66 net.cpp:434] res4c_res4c_relu_0_split <- res4c
I1206 06:54:19.295609    66 net.cpp:408] res4c_res4c_relu_0_split -> res4c_res4c_relu_0_split_0
I1206 06:54:19.295616    66 net.cpp:408] res4c_res4c_relu_0_split -> res4c_res4c_relu_0_split_1
I1206 06:54:19.295650    66 net.cpp:150] Setting up res4c_res4c_relu_0_split
I1206 06:54:19.295656    66 net.cpp:157] Top shape: 16 1024 14 14 (3211264)
I1206 06:54:19.295661    66 net.cpp:157] Top shape: 16 1024 14 14 (3211264)
I1206 06:54:19.295665    66 net.cpp:165] Memory required for data: 3182362688
I1206 06:54:19.295670    66 layer_factory.hpp:77] Creating layer res4d_branch2a
I1206 06:54:19.295678    66 net.cpp:100] Creating Layer res4d_branch2a
I1206 06:54:19.295691    66 net.cpp:434] res4d_branch2a <- res4c_res4c_relu_0_split_0
I1206 06:54:19.295698    66 net.cpp:408] res4d_branch2a -> res4d_branch2a
I1206 06:54:19.298835    66 net.cpp:150] Setting up res4d_branch2a
I1206 06:54:19.298846    66 net.cpp:157] Top shape: 16 256 14 14 (802816)
I1206 06:54:19.298851    66 net.cpp:165] Memory required for data: 3185573952
I1206 06:54:19.298856    66 layer_factory.hpp:77] Creating layer bn4d_branch2a
I1206 06:54:19.298864    66 net.cpp:100] Creating Layer bn4d_branch2a
I1206 06:54:19.298869    66 net.cpp:434] bn4d_branch2a <- res4d_branch2a
I1206 06:54:19.298876    66 net.cpp:395] bn4d_branch2a -> res4d_branch2a (in-place)
I1206 06:54:19.299039    66 net.cpp:150] Setting up bn4d_branch2a
I1206 06:54:19.299046    66 net.cpp:157] Top shape: 16 256 14 14 (802816)
I1206 06:54:19.299052    66 net.cpp:165] Memory required for data: 3188785216
I1206 06:54:19.299058    66 layer_factory.hpp:77] Creating layer scale4d_branch2a
I1206 06:54:19.299064    66 net.cpp:100] Creating Layer scale4d_branch2a
I1206 06:54:19.299069    66 net.cpp:434] scale4d_branch2a <- res4d_branch2a
I1206 06:54:19.299074    66 net.cpp:395] scale4d_branch2a -> res4d_branch2a (in-place)
I1206 06:54:19.299106    66 layer_factory.hpp:77] Creating layer scale4d_branch2a
I1206 06:54:19.299191    66 net.cpp:150] Setting up scale4d_branch2a
I1206 06:54:19.299198    66 net.cpp:157] Top shape: 16 256 14 14 (802816)
I1206 06:54:19.299202    66 net.cpp:165] Memory required for data: 3191996480
I1206 06:54:19.299208    66 layer_factory.hpp:77] Creating layer res4d_branch2a_relu
I1206 06:54:19.299216    66 net.cpp:100] Creating Layer res4d_branch2a_relu
I1206 06:54:19.299221    66 net.cpp:434] res4d_branch2a_relu <- res4d_branch2a
I1206 06:54:19.299226    66 net.cpp:395] res4d_branch2a_relu -> res4d_branch2a (in-place)
I1206 06:54:19.299369    66 net.cpp:150] Setting up res4d_branch2a_relu
I1206 06:54:19.299377    66 net.cpp:157] Top shape: 16 256 14 14 (802816)
I1206 06:54:19.299381    66 net.cpp:165] Memory required for data: 3195207744
I1206 06:54:19.299386    66 layer_factory.hpp:77] Creating layer res4d_branch2b
I1206 06:54:19.299396    66 net.cpp:100] Creating Layer res4d_branch2b
I1206 06:54:19.299401    66 net.cpp:434] res4d_branch2b <- res4d_branch2a
I1206 06:54:19.299407    66 net.cpp:408] res4d_branch2b -> res4d_branch2b
I1206 06:54:19.304949    66 net.cpp:150] Setting up res4d_branch2b
I1206 06:54:19.304960    66 net.cpp:157] Top shape: 16 256 14 14 (802816)
I1206 06:54:19.304965    66 net.cpp:165] Memory required for data: 3198419008
I1206 06:54:19.304971    66 layer_factory.hpp:77] Creating layer bn4d_branch2b
I1206 06:54:19.304978    66 net.cpp:100] Creating Layer bn4d_branch2b
I1206 06:54:19.304983    66 net.cpp:434] bn4d_branch2b <- res4d_branch2b
I1206 06:54:19.304989    66 net.cpp:395] bn4d_branch2b -> res4d_branch2b (in-place)
I1206 06:54:19.305157    66 net.cpp:150] Setting up bn4d_branch2b
I1206 06:54:19.305163    66 net.cpp:157] Top shape: 16 256 14 14 (802816)
I1206 06:54:19.305168    66 net.cpp:165] Memory required for data: 3201630272
I1206 06:54:19.305174    66 layer_factory.hpp:77] Creating layer scale4d_branch2b
I1206 06:54:19.305181    66 net.cpp:100] Creating Layer scale4d_branch2b
I1206 06:54:19.305186    66 net.cpp:434] scale4d_branch2b <- res4d_branch2b
I1206 06:54:19.305192    66 net.cpp:395] scale4d_branch2b -> res4d_branch2b (in-place)
I1206 06:54:19.305225    66 layer_factory.hpp:77] Creating layer scale4d_branch2b
I1206 06:54:19.305315    66 net.cpp:150] Setting up scale4d_branch2b
I1206 06:54:19.305320    66 net.cpp:157] Top shape: 16 256 14 14 (802816)
I1206 06:54:19.305325    66 net.cpp:165] Memory required for data: 3204841536
I1206 06:54:19.305331    66 layer_factory.hpp:77] Creating layer res4d_branch2b_relu
I1206 06:54:19.305336    66 net.cpp:100] Creating Layer res4d_branch2b_relu
I1206 06:54:19.305341    66 net.cpp:434] res4d_branch2b_relu <- res4d_branch2b
I1206 06:54:19.305347    66 net.cpp:395] res4d_branch2b_relu -> res4d_branch2b (in-place)
I1206 06:54:19.305764    66 net.cpp:150] Setting up res4d_branch2b_relu
I1206 06:54:19.305783    66 net.cpp:157] Top shape: 16 256 14 14 (802816)
I1206 06:54:19.305789    66 net.cpp:165] Memory required for data: 3208052800
I1206 06:54:19.305794    66 layer_factory.hpp:77] Creating layer res4d_branch2c
I1206 06:54:19.305802    66 net.cpp:100] Creating Layer res4d_branch2c
I1206 06:54:19.305807    66 net.cpp:434] res4d_branch2c <- res4d_branch2b
I1206 06:54:19.305814    66 net.cpp:408] res4d_branch2c -> res4d_branch2c
I1206 06:54:19.308372    66 net.cpp:150] Setting up res4d_branch2c
I1206 06:54:19.308382    66 net.cpp:157] Top shape: 16 1024 14 14 (3211264)
I1206 06:54:19.308387    66 net.cpp:165] Memory required for data: 3220897856
I1206 06:54:19.308393    66 layer_factory.hpp:77] Creating layer bn4d_branch2c
I1206 06:54:19.308399    66 net.cpp:100] Creating Layer bn4d_branch2c
I1206 06:54:19.308404    66 net.cpp:434] bn4d_branch2c <- res4d_branch2c
I1206 06:54:19.308410    66 net.cpp:395] bn4d_branch2c -> res4d_branch2c (in-place)
I1206 06:54:19.308625    66 net.cpp:150] Setting up bn4d_branch2c
I1206 06:54:19.308647    66 net.cpp:157] Top shape: 16 1024 14 14 (3211264)
I1206 06:54:19.308653    66 net.cpp:165] Memory required for data: 3233742912
I1206 06:54:19.308673    66 layer_factory.hpp:77] Creating layer scale4d_branch2c
I1206 06:54:19.308681    66 net.cpp:100] Creating Layer scale4d_branch2c
I1206 06:54:19.308686    66 net.cpp:434] scale4d_branch2c <- res4d_branch2c
I1206 06:54:19.308692    66 net.cpp:395] scale4d_branch2c -> res4d_branch2c (in-place)
I1206 06:54:19.308768    66 layer_factory.hpp:77] Creating layer scale4d_branch2c
I1206 06:54:19.309010    66 net.cpp:150] Setting up scale4d_branch2c
I1206 06:54:19.309036    66 net.cpp:157] Top shape: 16 1024 14 14 (3211264)
I1206 06:54:19.309053    66 net.cpp:165] Memory required for data: 3246587968
I1206 06:54:19.309062    66 layer_factory.hpp:77] Creating layer res4d
I1206 06:54:19.309069    66 net.cpp:100] Creating Layer res4d
I1206 06:54:19.309074    66 net.cpp:434] res4d <- res4c_res4c_relu_0_split_1
I1206 06:54:19.309094    66 net.cpp:434] res4d <- res4d_branch2c
I1206 06:54:19.309101    66 net.cpp:408] res4d -> res4d
I1206 06:54:19.309152    66 net.cpp:150] Setting up res4d
I1206 06:54:19.309175    66 net.cpp:157] Top shape: 16 1024 14 14 (3211264)
I1206 06:54:19.309195    66 net.cpp:165] Memory required for data: 3259433024
I1206 06:54:19.309201    66 layer_factory.hpp:77] Creating layer res4d_relu
I1206 06:54:19.309221    66 net.cpp:100] Creating Layer res4d_relu
I1206 06:54:19.309226    66 net.cpp:434] res4d_relu <- res4d
I1206 06:54:19.309244    66 net.cpp:395] res4d_relu -> res4d (in-place)
I1206 06:54:19.309394    66 net.cpp:150] Setting up res4d_relu
I1206 06:54:19.309403    66 net.cpp:157] Top shape: 16 1024 14 14 (3211264)
I1206 06:54:19.309407    66 net.cpp:165] Memory required for data: 3272278080
I1206 06:54:19.309412    66 layer_factory.hpp:77] Creating layer res4d_res4d_relu_0_split
I1206 06:54:19.309418    66 net.cpp:100] Creating Layer res4d_res4d_relu_0_split
I1206 06:54:19.309423    66 net.cpp:434] res4d_res4d_relu_0_split <- res4d
I1206 06:54:19.309430    66 net.cpp:408] res4d_res4d_relu_0_split -> res4d_res4d_relu_0_split_0
I1206 06:54:19.309437    66 net.cpp:408] res4d_res4d_relu_0_split -> res4d_res4d_relu_0_split_1
I1206 06:54:19.309473    66 net.cpp:150] Setting up res4d_res4d_relu_0_split
I1206 06:54:19.309479    66 net.cpp:157] Top shape: 16 1024 14 14 (3211264)
I1206 06:54:19.309484    66 net.cpp:157] Top shape: 16 1024 14 14 (3211264)
I1206 06:54:19.309489    66 net.cpp:165] Memory required for data: 3297968192
I1206 06:54:19.309492    66 layer_factory.hpp:77] Creating layer res4e_branch2a
I1206 06:54:19.309501    66 net.cpp:100] Creating Layer res4e_branch2a
I1206 06:54:19.309506    66 net.cpp:434] res4e_branch2a <- res4d_res4d_relu_0_split_0
I1206 06:54:19.309512    66 net.cpp:408] res4e_branch2a -> res4e_branch2a
I1206 06:54:19.312835    66 net.cpp:150] Setting up res4e_branch2a
I1206 06:54:19.312846    66 net.cpp:157] Top shape: 16 256 14 14 (802816)
I1206 06:54:19.312863    66 net.cpp:165] Memory required for data: 3301179456
I1206 06:54:19.312870    66 layer_factory.hpp:77] Creating layer bn4e_branch2a
I1206 06:54:19.312878    66 net.cpp:100] Creating Layer bn4e_branch2a
I1206 06:54:19.312883    66 net.cpp:434] bn4e_branch2a <- res4e_branch2a
I1206 06:54:19.312889    66 net.cpp:395] bn4e_branch2a -> res4e_branch2a (in-place)
I1206 06:54:19.313056    66 net.cpp:150] Setting up bn4e_branch2a
I1206 06:54:19.313063    66 net.cpp:157] Top shape: 16 256 14 14 (802816)
I1206 06:54:19.313067    66 net.cpp:165] Memory required for data: 3304390720
I1206 06:54:19.313074    66 layer_factory.hpp:77] Creating layer scale4e_branch2a
I1206 06:54:19.313081    66 net.cpp:100] Creating Layer scale4e_branch2a
I1206 06:54:19.313086    66 net.cpp:434] scale4e_branch2a <- res4e_branch2a
I1206 06:54:19.313091    66 net.cpp:395] scale4e_branch2a -> res4e_branch2a (in-place)
I1206 06:54:19.313127    66 layer_factory.hpp:77] Creating layer scale4e_branch2a
I1206 06:54:19.313220    66 net.cpp:150] Setting up scale4e_branch2a
I1206 06:54:19.313227    66 net.cpp:157] Top shape: 16 256 14 14 (802816)
I1206 06:54:19.313232    66 net.cpp:165] Memory required for data: 3307601984
I1206 06:54:19.313238    66 layer_factory.hpp:77] Creating layer res4e_branch2a_relu
I1206 06:54:19.313246    66 net.cpp:100] Creating Layer res4e_branch2a_relu
I1206 06:54:19.313249    66 net.cpp:434] res4e_branch2a_relu <- res4e_branch2a
I1206 06:54:19.313256    66 net.cpp:395] res4e_branch2a_relu -> res4e_branch2a (in-place)
I1206 06:54:19.313401    66 net.cpp:150] Setting up res4e_branch2a_relu
I1206 06:54:19.313410    66 net.cpp:157] Top shape: 16 256 14 14 (802816)
I1206 06:54:19.313414    66 net.cpp:165] Memory required for data: 3310813248
I1206 06:54:19.313421    66 layer_factory.hpp:77] Creating layer res4e_branch2b
I1206 06:54:19.313427    66 net.cpp:100] Creating Layer res4e_branch2b
I1206 06:54:19.313432    66 net.cpp:434] res4e_branch2b <- res4e_branch2a
I1206 06:54:19.313439    66 net.cpp:408] res4e_branch2b -> res4e_branch2b
I1206 06:54:19.319133    66 net.cpp:150] Setting up res4e_branch2b
I1206 06:54:19.319144    66 net.cpp:157] Top shape: 16 256 14 14 (802816)
I1206 06:54:19.319149    66 net.cpp:165] Memory required for data: 3314024512
I1206 06:54:19.319156    66 layer_factory.hpp:77] Creating layer bn4e_branch2b
I1206 06:54:19.319164    66 net.cpp:100] Creating Layer bn4e_branch2b
I1206 06:54:19.319169    66 net.cpp:434] bn4e_branch2b <- res4e_branch2b
I1206 06:54:19.319175    66 net.cpp:395] bn4e_branch2b -> res4e_branch2b (in-place)
I1206 06:54:19.319342    66 net.cpp:150] Setting up bn4e_branch2b
I1206 06:54:19.319350    66 net.cpp:157] Top shape: 16 256 14 14 (802816)
I1206 06:54:19.319355    66 net.cpp:165] Memory required for data: 3317235776
I1206 06:54:19.319361    66 layer_factory.hpp:77] Creating layer scale4e_branch2b
I1206 06:54:19.319368    66 net.cpp:100] Creating Layer scale4e_branch2b
I1206 06:54:19.319373    66 net.cpp:434] scale4e_branch2b <- res4e_branch2b
I1206 06:54:19.319378    66 net.cpp:395] scale4e_branch2b -> res4e_branch2b (in-place)
I1206 06:54:19.319419    66 layer_factory.hpp:77] Creating layer scale4e_branch2b
I1206 06:54:19.319546    66 net.cpp:150] Setting up scale4e_branch2b
I1206 06:54:19.319555    66 net.cpp:157] Top shape: 16 256 14 14 (802816)
I1206 06:54:19.319559    66 net.cpp:165] Memory required for data: 3320447040
I1206 06:54:19.319566    66 layer_factory.hpp:77] Creating layer res4e_branch2b_relu
I1206 06:54:19.319571    66 net.cpp:100] Creating Layer res4e_branch2b_relu
I1206 06:54:19.319576    66 net.cpp:434] res4e_branch2b_relu <- res4e_branch2b
I1206 06:54:19.319583    66 net.cpp:395] res4e_branch2b_relu -> res4e_branch2b (in-place)
I1206 06:54:19.320014    66 net.cpp:150] Setting up res4e_branch2b_relu
I1206 06:54:19.320024    66 net.cpp:157] Top shape: 16 256 14 14 (802816)
I1206 06:54:19.320029    66 net.cpp:165] Memory required for data: 3323658304
I1206 06:54:19.320034    66 layer_factory.hpp:77] Creating layer res4e_branch2c
I1206 06:54:19.320044    66 net.cpp:100] Creating Layer res4e_branch2c
I1206 06:54:19.320057    66 net.cpp:434] res4e_branch2c <- res4e_branch2b
I1206 06:54:19.320065    66 net.cpp:408] res4e_branch2c -> res4e_branch2c
I1206 06:54:19.322649    66 net.cpp:150] Setting up res4e_branch2c
I1206 06:54:19.322659    66 net.cpp:157] Top shape: 16 1024 14 14 (3211264)
I1206 06:54:19.322664    66 net.cpp:165] Memory required for data: 3336503360
I1206 06:54:19.322670    66 layer_factory.hpp:77] Creating layer bn4e_branch2c
I1206 06:54:19.322677    66 net.cpp:100] Creating Layer bn4e_branch2c
I1206 06:54:19.322682    66 net.cpp:434] bn4e_branch2c <- res4e_branch2c
I1206 06:54:19.322690    66 net.cpp:395] bn4e_branch2c -> res4e_branch2c (in-place)
I1206 06:54:19.322855    66 net.cpp:150] Setting up bn4e_branch2c
I1206 06:54:19.322861    66 net.cpp:157] Top shape: 16 1024 14 14 (3211264)
I1206 06:54:19.322866    66 net.cpp:165] Memory required for data: 3349348416
I1206 06:54:19.322873    66 layer_factory.hpp:77] Creating layer scale4e_branch2c
I1206 06:54:19.322880    66 net.cpp:100] Creating Layer scale4e_branch2c
I1206 06:54:19.322885    66 net.cpp:434] scale4e_branch2c <- res4e_branch2c
I1206 06:54:19.322890    66 net.cpp:395] scale4e_branch2c -> res4e_branch2c (in-place)
I1206 06:54:19.322921    66 layer_factory.hpp:77] Creating layer scale4e_branch2c
I1206 06:54:19.323017    66 net.cpp:150] Setting up scale4e_branch2c
I1206 06:54:19.323024    66 net.cpp:157] Top shape: 16 1024 14 14 (3211264)
I1206 06:54:19.323029    66 net.cpp:165] Memory required for data: 3362193472
I1206 06:54:19.323035    66 layer_factory.hpp:77] Creating layer res4e
I1206 06:54:19.323042    66 net.cpp:100] Creating Layer res4e
I1206 06:54:19.323047    66 net.cpp:434] res4e <- res4d_res4d_relu_0_split_1
I1206 06:54:19.323052    66 net.cpp:434] res4e <- res4e_branch2c
I1206 06:54:19.323060    66 net.cpp:408] res4e -> res4e
I1206 06:54:19.323081    66 net.cpp:150] Setting up res4e
I1206 06:54:19.323086    66 net.cpp:157] Top shape: 16 1024 14 14 (3211264)
I1206 06:54:19.323091    66 net.cpp:165] Memory required for data: 3375038528
I1206 06:54:19.323096    66 layer_factory.hpp:77] Creating layer res4e_relu
I1206 06:54:19.323102    66 net.cpp:100] Creating Layer res4e_relu
I1206 06:54:19.323107    66 net.cpp:434] res4e_relu <- res4e
I1206 06:54:19.323112    66 net.cpp:395] res4e_relu -> res4e (in-place)
I1206 06:54:19.323261    66 net.cpp:150] Setting up res4e_relu
I1206 06:54:19.323268    66 net.cpp:157] Top shape: 16 1024 14 14 (3211264)
I1206 06:54:19.323272    66 net.cpp:165] Memory required for data: 3387883584
I1206 06:54:19.323277    66 layer_factory.hpp:77] Creating layer res4e_res4e_relu_0_split
I1206 06:54:19.323284    66 net.cpp:100] Creating Layer res4e_res4e_relu_0_split
I1206 06:54:19.323289    66 net.cpp:434] res4e_res4e_relu_0_split <- res4e
I1206 06:54:19.323297    66 net.cpp:408] res4e_res4e_relu_0_split -> res4e_res4e_relu_0_split_0
I1206 06:54:19.323303    66 net.cpp:408] res4e_res4e_relu_0_split -> res4e_res4e_relu_0_split_1
I1206 06:54:19.323338    66 net.cpp:150] Setting up res4e_res4e_relu_0_split
I1206 06:54:19.323344    66 net.cpp:157] Top shape: 16 1024 14 14 (3211264)
I1206 06:54:19.323349    66 net.cpp:157] Top shape: 16 1024 14 14 (3211264)
I1206 06:54:19.323354    66 net.cpp:165] Memory required for data: 3413573696
I1206 06:54:19.323359    66 layer_factory.hpp:77] Creating layer res4f_branch2a
I1206 06:54:19.323366    66 net.cpp:100] Creating Layer res4f_branch2a
I1206 06:54:19.323371    66 net.cpp:434] res4f_branch2a <- res4e_res4e_relu_0_split_0
I1206 06:54:19.323379    66 net.cpp:408] res4f_branch2a -> res4f_branch2a
I1206 06:54:19.326663    66 net.cpp:150] Setting up res4f_branch2a
I1206 06:54:19.326674    66 net.cpp:157] Top shape: 16 256 14 14 (802816)
I1206 06:54:19.326679    66 net.cpp:165] Memory required for data: 3416784960
I1206 06:54:19.326686    66 layer_factory.hpp:77] Creating layer bn4f_branch2a
I1206 06:54:19.326694    66 net.cpp:100] Creating Layer bn4f_branch2a
I1206 06:54:19.326699    66 net.cpp:434] bn4f_branch2a <- res4f_branch2a
I1206 06:54:19.326719    66 net.cpp:395] bn4f_branch2a -> res4f_branch2a (in-place)
I1206 06:54:19.326884    66 net.cpp:150] Setting up bn4f_branch2a
I1206 06:54:19.326891    66 net.cpp:157] Top shape: 16 256 14 14 (802816)
I1206 06:54:19.326896    66 net.cpp:165] Memory required for data: 3419996224
I1206 06:54:19.326903    66 layer_factory.hpp:77] Creating layer scale4f_branch2a
I1206 06:54:19.326910    66 net.cpp:100] Creating Layer scale4f_branch2a
I1206 06:54:19.326915    66 net.cpp:434] scale4f_branch2a <- res4f_branch2a
I1206 06:54:19.326921    66 net.cpp:395] scale4f_branch2a -> res4f_branch2a (in-place)
I1206 06:54:19.326956    66 layer_factory.hpp:77] Creating layer scale4f_branch2a
I1206 06:54:19.327049    66 net.cpp:150] Setting up scale4f_branch2a
I1206 06:54:19.327054    66 net.cpp:157] Top shape: 16 256 14 14 (802816)
I1206 06:54:19.327059    66 net.cpp:165] Memory required for data: 3423207488
I1206 06:54:19.327065    66 layer_factory.hpp:77] Creating layer res4f_branch2a_relu
I1206 06:54:19.327071    66 net.cpp:100] Creating Layer res4f_branch2a_relu
I1206 06:54:19.327076    66 net.cpp:434] res4f_branch2a_relu <- res4f_branch2a
I1206 06:54:19.327082    66 net.cpp:395] res4f_branch2a_relu -> res4f_branch2a (in-place)
I1206 06:54:19.327229    66 net.cpp:150] Setting up res4f_branch2a_relu
I1206 06:54:19.327236    66 net.cpp:157] Top shape: 16 256 14 14 (802816)
I1206 06:54:19.327240    66 net.cpp:165] Memory required for data: 3426418752
I1206 06:54:19.327245    66 layer_factory.hpp:77] Creating layer res4f_branch2b
I1206 06:54:19.327253    66 net.cpp:100] Creating Layer res4f_branch2b
I1206 06:54:19.327258    66 net.cpp:434] res4f_branch2b <- res4f_branch2a
I1206 06:54:19.327265    66 net.cpp:408] res4f_branch2b -> res4f_branch2b
I1206 06:54:19.332999    66 net.cpp:150] Setting up res4f_branch2b
I1206 06:54:19.333011    66 net.cpp:157] Top shape: 16 256 14 14 (802816)
I1206 06:54:19.333015    66 net.cpp:165] Memory required for data: 3429630016
I1206 06:54:19.333022    66 layer_factory.hpp:77] Creating layer bn4f_branch2b
I1206 06:54:19.333029    66 net.cpp:100] Creating Layer bn4f_branch2b
I1206 06:54:19.333034    66 net.cpp:434] bn4f_branch2b <- res4f_branch2b
I1206 06:54:19.333041    66 net.cpp:395] bn4f_branch2b -> res4f_branch2b (in-place)
I1206 06:54:19.333214    66 net.cpp:150] Setting up bn4f_branch2b
I1206 06:54:19.333220    66 net.cpp:157] Top shape: 16 256 14 14 (802816)
I1206 06:54:19.333225    66 net.cpp:165] Memory required for data: 3432841280
I1206 06:54:19.333233    66 layer_factory.hpp:77] Creating layer scale4f_branch2b
I1206 06:54:19.333240    66 net.cpp:100] Creating Layer scale4f_branch2b
I1206 06:54:19.333243    66 net.cpp:434] scale4f_branch2b <- res4f_branch2b
I1206 06:54:19.333250    66 net.cpp:395] scale4f_branch2b -> res4f_branch2b (in-place)
I1206 06:54:19.333284    66 layer_factory.hpp:77] Creating layer scale4f_branch2b
I1206 06:54:19.333379    66 net.cpp:150] Setting up scale4f_branch2b
I1206 06:54:19.333386    66 net.cpp:157] Top shape: 16 256 14 14 (802816)
I1206 06:54:19.333391    66 net.cpp:165] Memory required for data: 3436052544
I1206 06:54:19.333397    66 layer_factory.hpp:77] Creating layer res4f_branch2b_relu
I1206 06:54:19.333403    66 net.cpp:100] Creating Layer res4f_branch2b_relu
I1206 06:54:19.333408    66 net.cpp:434] res4f_branch2b_relu <- res4f_branch2b
I1206 06:54:19.333415    66 net.cpp:395] res4f_branch2b_relu -> res4f_branch2b (in-place)
I1206 06:54:19.333568    66 net.cpp:150] Setting up res4f_branch2b_relu
I1206 06:54:19.333576    66 net.cpp:157] Top shape: 16 256 14 14 (802816)
I1206 06:54:19.333580    66 net.cpp:165] Memory required for data: 3439263808
I1206 06:54:19.333585    66 layer_factory.hpp:77] Creating layer res4f_branch2c
I1206 06:54:19.333595    66 net.cpp:100] Creating Layer res4f_branch2c
I1206 06:54:19.333600    66 net.cpp:434] res4f_branch2c <- res4f_branch2b
I1206 06:54:19.333606    66 net.cpp:408] res4f_branch2c -> res4f_branch2c
I1206 06:54:19.336223    66 net.cpp:150] Setting up res4f_branch2c
I1206 06:54:19.336236    66 net.cpp:157] Top shape: 16 1024 14 14 (3211264)
I1206 06:54:19.336249    66 net.cpp:165] Memory required for data: 3452108864
I1206 06:54:19.336256    66 layer_factory.hpp:77] Creating layer bn4f_branch2c
I1206 06:54:19.336263    66 net.cpp:100] Creating Layer bn4f_branch2c
I1206 06:54:19.336269    66 net.cpp:434] bn4f_branch2c <- res4f_branch2c
I1206 06:54:19.336275    66 net.cpp:395] bn4f_branch2c -> res4f_branch2c (in-place)
I1206 06:54:19.336447    66 net.cpp:150] Setting up bn4f_branch2c
I1206 06:54:19.336453    66 net.cpp:157] Top shape: 16 1024 14 14 (3211264)
I1206 06:54:19.336458    66 net.cpp:165] Memory required for data: 3464953920
I1206 06:54:19.336491    66 layer_factory.hpp:77] Creating layer scale4f_branch2c
I1206 06:54:19.336499    66 net.cpp:100] Creating Layer scale4f_branch2c
I1206 06:54:19.336504    66 net.cpp:434] scale4f_branch2c <- res4f_branch2c
I1206 06:54:19.336510    66 net.cpp:395] scale4f_branch2c -> res4f_branch2c (in-place)
I1206 06:54:19.336544    66 layer_factory.hpp:77] Creating layer scale4f_branch2c
I1206 06:54:19.336639    66 net.cpp:150] Setting up scale4f_branch2c
I1206 06:54:19.336647    66 net.cpp:157] Top shape: 16 1024 14 14 (3211264)
I1206 06:54:19.336652    66 net.cpp:165] Memory required for data: 3477798976
I1206 06:54:19.336658    66 layer_factory.hpp:77] Creating layer res4f
I1206 06:54:19.336664    66 net.cpp:100] Creating Layer res4f
I1206 06:54:19.336669    66 net.cpp:434] res4f <- res4e_res4e_relu_0_split_1
I1206 06:54:19.336675    66 net.cpp:434] res4f <- res4f_branch2c
I1206 06:54:19.336681    66 net.cpp:408] res4f -> res4f
I1206 06:54:19.336704    66 net.cpp:150] Setting up res4f
I1206 06:54:19.336709    66 net.cpp:157] Top shape: 16 1024 14 14 (3211264)
I1206 06:54:19.336714    66 net.cpp:165] Memory required for data: 3490644032
I1206 06:54:19.336719    66 layer_factory.hpp:77] Creating layer res4f_relu
I1206 06:54:19.336724    66 net.cpp:100] Creating Layer res4f_relu
I1206 06:54:19.336728    66 net.cpp:434] res4f_relu <- res4f
I1206 06:54:19.336735    66 net.cpp:395] res4f_relu -> res4f (in-place)
I1206 06:54:19.337167    66 net.cpp:150] Setting up res4f_relu
I1206 06:54:19.337177    66 net.cpp:157] Top shape: 16 1024 14 14 (3211264)
I1206 06:54:19.337182    66 net.cpp:165] Memory required for data: 3503489088
I1206 06:54:19.337188    66 layer_factory.hpp:77] Creating layer res4f_res4f_relu_0_split
I1206 06:54:19.337194    66 net.cpp:100] Creating Layer res4f_res4f_relu_0_split
I1206 06:54:19.337199    66 net.cpp:434] res4f_res4f_relu_0_split <- res4f
I1206 06:54:19.337206    66 net.cpp:408] res4f_res4f_relu_0_split -> res4f_res4f_relu_0_split_0
I1206 06:54:19.337214    66 net.cpp:408] res4f_res4f_relu_0_split -> res4f_res4f_relu_0_split_1
I1206 06:54:19.337251    66 net.cpp:150] Setting up res4f_res4f_relu_0_split
I1206 06:54:19.337257    66 net.cpp:157] Top shape: 16 1024 14 14 (3211264)
I1206 06:54:19.337262    66 net.cpp:157] Top shape: 16 1024 14 14 (3211264)
I1206 06:54:19.337267    66 net.cpp:165] Memory required for data: 3529179200
I1206 06:54:19.337272    66 layer_factory.hpp:77] Creating layer res5a_branch1
I1206 06:54:19.337281    66 net.cpp:100] Creating Layer res5a_branch1
I1206 06:54:19.337286    66 net.cpp:434] res5a_branch1 <- res4f_res4f_relu_0_split_0
I1206 06:54:19.337292    66 net.cpp:408] res5a_branch1 -> res5a_branch1
I1206 06:54:19.353977    66 net.cpp:150] Setting up res5a_branch1
I1206 06:54:19.353997    66 net.cpp:157] Top shape: 16 2048 7 7 (1605632)
I1206 06:54:19.354002    66 net.cpp:165] Memory required for data: 3535601728
I1206 06:54:19.354012    66 layer_factory.hpp:77] Creating layer bn5a_branch1
I1206 06:54:19.354020    66 net.cpp:100] Creating Layer bn5a_branch1
I1206 06:54:19.354027    66 net.cpp:434] bn5a_branch1 <- res5a_branch1
I1206 06:54:19.354033    66 net.cpp:395] bn5a_branch1 -> res5a_branch1 (in-place)
I1206 06:54:19.354226    66 net.cpp:150] Setting up bn5a_branch1
I1206 06:54:19.354233    66 net.cpp:157] Top shape: 16 2048 7 7 (1605632)
I1206 06:54:19.354238    66 net.cpp:165] Memory required for data: 3542024256
I1206 06:54:19.354259    66 layer_factory.hpp:77] Creating layer scale5a_branch1
I1206 06:54:19.354265    66 net.cpp:100] Creating Layer scale5a_branch1
I1206 06:54:19.354271    66 net.cpp:434] scale5a_branch1 <- res5a_branch1
I1206 06:54:19.354277    66 net.cpp:395] scale5a_branch1 -> res5a_branch1 (in-place)
I1206 06:54:19.354313    66 layer_factory.hpp:77] Creating layer scale5a_branch1
I1206 06:54:19.354414    66 net.cpp:150] Setting up scale5a_branch1
I1206 06:54:19.354421    66 net.cpp:157] Top shape: 16 2048 7 7 (1605632)
I1206 06:54:19.354426    66 net.cpp:165] Memory required for data: 3548446784
I1206 06:54:19.354432    66 layer_factory.hpp:77] Creating layer res5a_branch2a
I1206 06:54:19.354441    66 net.cpp:100] Creating Layer res5a_branch2a
I1206 06:54:19.354447    66 net.cpp:434] res5a_branch2a <- res4f_res4f_relu_0_split_1
I1206 06:54:19.354454    66 net.cpp:408] res5a_branch2a -> res5a_branch2a
I1206 06:54:19.359441    66 net.cpp:150] Setting up res5a_branch2a
I1206 06:54:19.359452    66 net.cpp:157] Top shape: 16 512 7 7 (401408)
I1206 06:54:19.359457    66 net.cpp:165] Memory required for data: 3550052416
I1206 06:54:19.359462    66 layer_factory.hpp:77] Creating layer bn5a_branch2a
I1206 06:54:19.359472    66 net.cpp:100] Creating Layer bn5a_branch2a
I1206 06:54:19.359481    66 net.cpp:434] bn5a_branch2a <- res5a_branch2a
I1206 06:54:19.359488    66 net.cpp:395] bn5a_branch2a -> res5a_branch2a (in-place)
I1206 06:54:19.359696    66 net.cpp:150] Setting up bn5a_branch2a
I1206 06:54:19.359702    66 net.cpp:157] Top shape: 16 512 7 7 (401408)
I1206 06:54:19.359707    66 net.cpp:165] Memory required for data: 3551658048
I1206 06:54:19.359714    66 layer_factory.hpp:77] Creating layer scale5a_branch2a
I1206 06:54:19.359722    66 net.cpp:100] Creating Layer scale5a_branch2a
I1206 06:54:19.359726    66 net.cpp:434] scale5a_branch2a <- res5a_branch2a
I1206 06:54:19.359732    66 net.cpp:395] scale5a_branch2a -> res5a_branch2a (in-place)
I1206 06:54:19.359766    66 layer_factory.hpp:77] Creating layer scale5a_branch2a
I1206 06:54:19.359864    66 net.cpp:150] Setting up scale5a_branch2a
I1206 06:54:19.359871    66 net.cpp:157] Top shape: 16 512 7 7 (401408)
I1206 06:54:19.359875    66 net.cpp:165] Memory required for data: 3553263680
I1206 06:54:19.359882    66 layer_factory.hpp:77] Creating layer res5a_branch2a_relu
I1206 06:54:19.359889    66 net.cpp:100] Creating Layer res5a_branch2a_relu
I1206 06:54:19.359892    66 net.cpp:434] res5a_branch2a_relu <- res5a_branch2a
I1206 06:54:19.359899    66 net.cpp:395] res5a_branch2a_relu -> res5a_branch2a (in-place)
I1206 06:54:19.360049    66 net.cpp:150] Setting up res5a_branch2a_relu
I1206 06:54:19.360057    66 net.cpp:157] Top shape: 16 512 7 7 (401408)
I1206 06:54:19.360061    66 net.cpp:165] Memory required for data: 3554869312
I1206 06:54:19.360066    66 layer_factory.hpp:77] Creating layer res5a_branch2b
I1206 06:54:19.360075    66 net.cpp:100] Creating Layer res5a_branch2b
I1206 06:54:19.360081    66 net.cpp:434] res5a_branch2b <- res5a_branch2a
I1206 06:54:19.360087    66 net.cpp:408] res5a_branch2b -> res5a_branch2b
I1206 06:54:19.378371    66 net.cpp:150] Setting up res5a_branch2b
I1206 06:54:19.378392    66 net.cpp:157] Top shape: 16 512 7 7 (401408)
I1206 06:54:19.378397    66 net.cpp:165] Memory required for data: 3556474944
I1206 06:54:19.378407    66 layer_factory.hpp:77] Creating layer bn5a_branch2b
I1206 06:54:19.378417    66 net.cpp:100] Creating Layer bn5a_branch2b
I1206 06:54:19.378423    66 net.cpp:434] bn5a_branch2b <- res5a_branch2b
I1206 06:54:19.378430    66 net.cpp:395] bn5a_branch2b -> res5a_branch2b (in-place)
I1206 06:54:19.378619    66 net.cpp:150] Setting up bn5a_branch2b
I1206 06:54:19.378626    66 net.cpp:157] Top shape: 16 512 7 7 (401408)
I1206 06:54:19.378630    66 net.cpp:165] Memory required for data: 3558080576
I1206 06:54:19.378638    66 layer_factory.hpp:77] Creating layer scale5a_branch2b
I1206 06:54:19.378648    66 net.cpp:100] Creating Layer scale5a_branch2b
I1206 06:54:19.378652    66 net.cpp:434] scale5a_branch2b <- res5a_branch2b
I1206 06:54:19.378674    66 net.cpp:395] scale5a_branch2b -> res5a_branch2b (in-place)
I1206 06:54:19.378710    66 layer_factory.hpp:77] Creating layer scale5a_branch2b
I1206 06:54:19.378814    66 net.cpp:150] Setting up scale5a_branch2b
I1206 06:54:19.378821    66 net.cpp:157] Top shape: 16 512 7 7 (401408)
I1206 06:54:19.378825    66 net.cpp:165] Memory required for data: 3559686208
I1206 06:54:19.378831    66 layer_factory.hpp:77] Creating layer res5a_branch2b_relu
I1206 06:54:19.378839    66 net.cpp:100] Creating Layer res5a_branch2b_relu
I1206 06:54:19.378842    66 net.cpp:434] res5a_branch2b_relu <- res5a_branch2b
I1206 06:54:19.378849    66 net.cpp:395] res5a_branch2b_relu -> res5a_branch2b (in-place)
I1206 06:54:19.378996    66 net.cpp:150] Setting up res5a_branch2b_relu
I1206 06:54:19.379004    66 net.cpp:157] Top shape: 16 512 7 7 (401408)
I1206 06:54:19.379009    66 net.cpp:165] Memory required for data: 3561291840
I1206 06:54:19.379014    66 layer_factory.hpp:77] Creating layer res5a_branch2c
I1206 06:54:19.379022    66 net.cpp:100] Creating Layer res5a_branch2c
I1206 06:54:19.379027    66 net.cpp:434] res5a_branch2c <- res5a_branch2b
I1206 06:54:19.379034    66 net.cpp:408] res5a_branch2c -> res5a_branch2c
I1206 06:54:19.387852    66 net.cpp:150] Setting up res5a_branch2c
I1206 06:54:19.387866    66 net.cpp:157] Top shape: 16 2048 7 7 (1605632)
I1206 06:54:19.387871    66 net.cpp:165] Memory required for data: 3567714368
I1206 06:54:19.387878    66 layer_factory.hpp:77] Creating layer bn5a_branch2c
I1206 06:54:19.387887    66 net.cpp:100] Creating Layer bn5a_branch2c
I1206 06:54:19.387892    66 net.cpp:434] bn5a_branch2c <- res5a_branch2c
I1206 06:54:19.387898    66 net.cpp:395] bn5a_branch2c -> res5a_branch2c (in-place)
I1206 06:54:19.388085    66 net.cpp:150] Setting up bn5a_branch2c
I1206 06:54:19.388093    66 net.cpp:157] Top shape: 16 2048 7 7 (1605632)
I1206 06:54:19.388098    66 net.cpp:165] Memory required for data: 3574136896
I1206 06:54:19.388104    66 layer_factory.hpp:77] Creating layer scale5a_branch2c
I1206 06:54:19.388110    66 net.cpp:100] Creating Layer scale5a_branch2c
I1206 06:54:19.388115    66 net.cpp:434] scale5a_branch2c <- res5a_branch2c
I1206 06:54:19.388121    66 net.cpp:395] scale5a_branch2c -> res5a_branch2c (in-place)
I1206 06:54:19.388159    66 layer_factory.hpp:77] Creating layer scale5a_branch2c
I1206 06:54:19.388259    66 net.cpp:150] Setting up scale5a_branch2c
I1206 06:54:19.388267    66 net.cpp:157] Top shape: 16 2048 7 7 (1605632)
I1206 06:54:19.388272    66 net.cpp:165] Memory required for data: 3580559424
I1206 06:54:19.388278    66 layer_factory.hpp:77] Creating layer res5a
I1206 06:54:19.388284    66 net.cpp:100] Creating Layer res5a
I1206 06:54:19.388290    66 net.cpp:434] res5a <- res5a_branch1
I1206 06:54:19.388295    66 net.cpp:434] res5a <- res5a_branch2c
I1206 06:54:19.388300    66 net.cpp:408] res5a -> res5a
I1206 06:54:19.388322    66 net.cpp:150] Setting up res5a
I1206 06:54:19.388329    66 net.cpp:157] Top shape: 16 2048 7 7 (1605632)
I1206 06:54:19.388334    66 net.cpp:165] Memory required for data: 3586981952
I1206 06:54:19.388339    66 layer_factory.hpp:77] Creating layer res5a_relu
I1206 06:54:19.388343    66 net.cpp:100] Creating Layer res5a_relu
I1206 06:54:19.388348    66 net.cpp:434] res5a_relu <- res5a
I1206 06:54:19.388355    66 net.cpp:395] res5a_relu -> res5a (in-place)
I1206 06:54:19.388826    66 net.cpp:150] Setting up res5a_relu
I1206 06:54:19.388836    66 net.cpp:157] Top shape: 16 2048 7 7 (1605632)
I1206 06:54:19.388841    66 net.cpp:165] Memory required for data: 3593404480
I1206 06:54:19.388846    66 layer_factory.hpp:77] Creating layer res5a_res5a_relu_0_split
I1206 06:54:19.388854    66 net.cpp:100] Creating Layer res5a_res5a_relu_0_split
I1206 06:54:19.388857    66 net.cpp:434] res5a_res5a_relu_0_split <- res5a
I1206 06:54:19.388864    66 net.cpp:408] res5a_res5a_relu_0_split -> res5a_res5a_relu_0_split_0
I1206 06:54:19.388871    66 net.cpp:408] res5a_res5a_relu_0_split -> res5a_res5a_relu_0_split_1
I1206 06:54:19.388911    66 net.cpp:150] Setting up res5a_res5a_relu_0_split
I1206 06:54:19.388927    66 net.cpp:157] Top shape: 16 2048 7 7 (1605632)
I1206 06:54:19.388933    66 net.cpp:157] Top shape: 16 2048 7 7 (1605632)
I1206 06:54:19.388937    66 net.cpp:165] Memory required for data: 3606249536
I1206 06:54:19.388942    66 layer_factory.hpp:77] Creating layer res5b_branch2a
I1206 06:54:19.388950    66 net.cpp:100] Creating Layer res5b_branch2a
I1206 06:54:19.388957    66 net.cpp:434] res5b_branch2a <- res5a_res5a_relu_0_split_0
I1206 06:54:19.388962    66 net.cpp:408] res5b_branch2a -> res5b_branch2a
I1206 06:54:19.397876    66 net.cpp:150] Setting up res5b_branch2a
I1206 06:54:19.397892    66 net.cpp:157] Top shape: 16 512 7 7 (401408)
I1206 06:54:19.397898    66 net.cpp:165] Memory required for data: 3607855168
I1206 06:54:19.397905    66 layer_factory.hpp:77] Creating layer bn5b_branch2a
I1206 06:54:19.397914    66 net.cpp:100] Creating Layer bn5b_branch2a
I1206 06:54:19.397919    66 net.cpp:434] bn5b_branch2a <- res5b_branch2a
I1206 06:54:19.397927    66 net.cpp:395] bn5b_branch2a -> res5b_branch2a (in-place)
I1206 06:54:19.398115    66 net.cpp:150] Setting up bn5b_branch2a
I1206 06:54:19.398123    66 net.cpp:157] Top shape: 16 512 7 7 (401408)
I1206 06:54:19.398126    66 net.cpp:165] Memory required for data: 3609460800
I1206 06:54:19.398134    66 layer_factory.hpp:77] Creating layer scale5b_branch2a
I1206 06:54:19.398141    66 net.cpp:100] Creating Layer scale5b_branch2a
I1206 06:54:19.398145    66 net.cpp:434] scale5b_branch2a <- res5b_branch2a
I1206 06:54:19.398151    66 net.cpp:395] scale5b_branch2a -> res5b_branch2a (in-place)
I1206 06:54:19.398187    66 layer_factory.hpp:77] Creating layer scale5b_branch2a
I1206 06:54:19.398289    66 net.cpp:150] Setting up scale5b_branch2a
I1206 06:54:19.398296    66 net.cpp:157] Top shape: 16 512 7 7 (401408)
I1206 06:54:19.398301    66 net.cpp:165] Memory required for data: 3611066432
I1206 06:54:19.398308    66 layer_factory.hpp:77] Creating layer res5b_branch2a_relu
I1206 06:54:19.398314    66 net.cpp:100] Creating Layer res5b_branch2a_relu
I1206 06:54:19.398319    66 net.cpp:434] res5b_branch2a_relu <- res5b_branch2a
I1206 06:54:19.398324    66 net.cpp:395] res5b_branch2a_relu -> res5b_branch2a (in-place)
I1206 06:54:19.398473    66 net.cpp:150] Setting up res5b_branch2a_relu
I1206 06:54:19.398480    66 net.cpp:157] Top shape: 16 512 7 7 (401408)
I1206 06:54:19.398484    66 net.cpp:165] Memory required for data: 3612672064
I1206 06:54:19.398489    66 layer_factory.hpp:77] Creating layer res5b_branch2b
I1206 06:54:19.398499    66 net.cpp:100] Creating Layer res5b_branch2b
I1206 06:54:19.398504    66 net.cpp:434] res5b_branch2b <- res5b_branch2a
I1206 06:54:19.398509    66 net.cpp:408] res5b_branch2b -> res5b_branch2b
I1206 06:54:19.417129    66 net.cpp:150] Setting up res5b_branch2b
I1206 06:54:19.417150    66 net.cpp:157] Top shape: 16 512 7 7 (401408)
I1206 06:54:19.417155    66 net.cpp:165] Memory required for data: 3614277696
I1206 06:54:19.417162    66 layer_factory.hpp:77] Creating layer bn5b_branch2b
I1206 06:54:19.417174    66 net.cpp:100] Creating Layer bn5b_branch2b
I1206 06:54:19.417181    66 net.cpp:434] bn5b_branch2b <- res5b_branch2b
I1206 06:54:19.417187    66 net.cpp:395] bn5b_branch2b -> res5b_branch2b (in-place)
I1206 06:54:19.417377    66 net.cpp:150] Setting up bn5b_branch2b
I1206 06:54:19.417384    66 net.cpp:157] Top shape: 16 512 7 7 (401408)
I1206 06:54:19.417389    66 net.cpp:165] Memory required for data: 3615883328
I1206 06:54:19.417397    66 layer_factory.hpp:77] Creating layer scale5b_branch2b
I1206 06:54:19.417403    66 net.cpp:100] Creating Layer scale5b_branch2b
I1206 06:54:19.417408    66 net.cpp:434] scale5b_branch2b <- res5b_branch2b
I1206 06:54:19.417415    66 net.cpp:395] scale5b_branch2b -> res5b_branch2b (in-place)
I1206 06:54:19.417450    66 layer_factory.hpp:77] Creating layer scale5b_branch2b
I1206 06:54:19.417554    66 net.cpp:150] Setting up scale5b_branch2b
I1206 06:54:19.417560    66 net.cpp:157] Top shape: 16 512 7 7 (401408)
I1206 06:54:19.417568    66 net.cpp:165] Memory required for data: 3617488960
I1206 06:54:19.417588    66 layer_factory.hpp:77] Creating layer res5b_branch2b_relu
I1206 06:54:19.417594    66 net.cpp:100] Creating Layer res5b_branch2b_relu
I1206 06:54:19.417599    66 net.cpp:434] res5b_branch2b_relu <- res5b_branch2b
I1206 06:54:19.417608    66 net.cpp:395] res5b_branch2b_relu -> res5b_branch2b (in-place)
I1206 06:54:19.417757    66 net.cpp:150] Setting up res5b_branch2b_relu
I1206 06:54:19.417765    66 net.cpp:157] Top shape: 16 512 7 7 (401408)
I1206 06:54:19.417770    66 net.cpp:165] Memory required for data: 3619094592
I1206 06:54:19.417775    66 layer_factory.hpp:77] Creating layer res5b_branch2c
I1206 06:54:19.417784    66 net.cpp:100] Creating Layer res5b_branch2c
I1206 06:54:19.417789    66 net.cpp:434] res5b_branch2c <- res5b_branch2b
I1206 06:54:19.417796    66 net.cpp:408] res5b_branch2c -> res5b_branch2c
I1206 06:54:19.426669    66 net.cpp:150] Setting up res5b_branch2c
I1206 06:54:19.426683    66 net.cpp:157] Top shape: 16 2048 7 7 (1605632)
I1206 06:54:19.426688    66 net.cpp:165] Memory required for data: 3625517120
I1206 06:54:19.426694    66 layer_factory.hpp:77] Creating layer bn5b_branch2c
I1206 06:54:19.426704    66 net.cpp:100] Creating Layer bn5b_branch2c
I1206 06:54:19.426709    66 net.cpp:434] bn5b_branch2c <- res5b_branch2c
I1206 06:54:19.426717    66 net.cpp:395] bn5b_branch2c -> res5b_branch2c (in-place)
I1206 06:54:19.426905    66 net.cpp:150] Setting up bn5b_branch2c
I1206 06:54:19.426913    66 net.cpp:157] Top shape: 16 2048 7 7 (1605632)
I1206 06:54:19.426918    66 net.cpp:165] Memory required for data: 3631939648
I1206 06:54:19.426924    66 layer_factory.hpp:77] Creating layer scale5b_branch2c
I1206 06:54:19.426931    66 net.cpp:100] Creating Layer scale5b_branch2c
I1206 06:54:19.426936    66 net.cpp:434] scale5b_branch2c <- res5b_branch2c
I1206 06:54:19.426942    66 net.cpp:395] scale5b_branch2c -> res5b_branch2c (in-place)
I1206 06:54:19.426977    66 layer_factory.hpp:77] Creating layer scale5b_branch2c
I1206 06:54:19.427083    66 net.cpp:150] Setting up scale5b_branch2c
I1206 06:54:19.427089    66 net.cpp:157] Top shape: 16 2048 7 7 (1605632)
I1206 06:54:19.427094    66 net.cpp:165] Memory required for data: 3638362176
I1206 06:54:19.427100    66 layer_factory.hpp:77] Creating layer res5b
I1206 06:54:19.427109    66 net.cpp:100] Creating Layer res5b
I1206 06:54:19.427114    66 net.cpp:434] res5b <- res5a_res5a_relu_0_split_1
I1206 06:54:19.427119    66 net.cpp:434] res5b <- res5b_branch2c
I1206 06:54:19.427124    66 net.cpp:408] res5b -> res5b
I1206 06:54:19.427147    66 net.cpp:150] Setting up res5b
I1206 06:54:19.427153    66 net.cpp:157] Top shape: 16 2048 7 7 (1605632)
I1206 06:54:19.427158    66 net.cpp:165] Memory required for data: 3644784704
I1206 06:54:19.427163    66 layer_factory.hpp:77] Creating layer res5b_relu
I1206 06:54:19.427168    66 net.cpp:100] Creating Layer res5b_relu
I1206 06:54:19.427173    66 net.cpp:434] res5b_relu <- res5b
I1206 06:54:19.427181    66 net.cpp:395] res5b_relu -> res5b (in-place)
I1206 06:54:19.427671    66 net.cpp:150] Setting up res5b_relu
I1206 06:54:19.427681    66 net.cpp:157] Top shape: 16 2048 7 7 (1605632)
I1206 06:54:19.427685    66 net.cpp:165] Memory required for data: 3651207232
I1206 06:54:19.427691    66 layer_factory.hpp:77] Creating layer res5b_res5b_relu_0_split
I1206 06:54:19.427698    66 net.cpp:100] Creating Layer res5b_res5b_relu_0_split
I1206 06:54:19.427703    66 net.cpp:434] res5b_res5b_relu_0_split <- res5b
I1206 06:54:19.427711    66 net.cpp:408] res5b_res5b_relu_0_split -> res5b_res5b_relu_0_split_0
I1206 06:54:19.427718    66 net.cpp:408] res5b_res5b_relu_0_split -> res5b_res5b_relu_0_split_1
I1206 06:54:19.427757    66 net.cpp:150] Setting up res5b_res5b_relu_0_split
I1206 06:54:19.427762    66 net.cpp:157] Top shape: 16 2048 7 7 (1605632)
I1206 06:54:19.427767    66 net.cpp:157] Top shape: 16 2048 7 7 (1605632)
I1206 06:54:19.427772    66 net.cpp:165] Memory required for data: 3664052288
I1206 06:54:19.427778    66 layer_factory.hpp:77] Creating layer res5c_branch2a
I1206 06:54:19.427798    66 net.cpp:100] Creating Layer res5c_branch2a
I1206 06:54:19.427804    66 net.cpp:434] res5c_branch2a <- res5b_res5b_relu_0_split_0
I1206 06:54:19.427811    66 net.cpp:408] res5c_branch2a -> res5c_branch2a
I1206 06:54:19.436552    66 net.cpp:150] Setting up res5c_branch2a
I1206 06:54:19.436566    66 net.cpp:157] Top shape: 16 512 7 7 (401408)
I1206 06:54:19.436571    66 net.cpp:165] Memory required for data: 3665657920
I1206 06:54:19.436579    66 layer_factory.hpp:77] Creating layer bn5c_branch2a
I1206 06:54:19.436589    66 net.cpp:100] Creating Layer bn5c_branch2a
I1206 06:54:19.436594    66 net.cpp:434] bn5c_branch2a <- res5c_branch2a
I1206 06:54:19.436600    66 net.cpp:395] bn5c_branch2a -> res5c_branch2a (in-place)
I1206 06:54:19.436782    66 net.cpp:150] Setting up bn5c_branch2a
I1206 06:54:19.436789    66 net.cpp:157] Top shape: 16 512 7 7 (401408)
I1206 06:54:19.436794    66 net.cpp:165] Memory required for data: 3667263552
I1206 06:54:19.436800    66 layer_factory.hpp:77] Creating layer scale5c_branch2a
I1206 06:54:19.436810    66 net.cpp:100] Creating Layer scale5c_branch2a
I1206 06:54:19.436815    66 net.cpp:434] scale5c_branch2a <- res5c_branch2a
I1206 06:54:19.436820    66 net.cpp:395] scale5c_branch2a -> res5c_branch2a (in-place)
I1206 06:54:19.436856    66 layer_factory.hpp:77] Creating layer scale5c_branch2a
I1206 06:54:19.436957    66 net.cpp:150] Setting up scale5c_branch2a
I1206 06:54:19.436964    66 net.cpp:157] Top shape: 16 512 7 7 (401408)
I1206 06:54:19.436969    66 net.cpp:165] Memory required for data: 3668869184
I1206 06:54:19.436975    66 layer_factory.hpp:77] Creating layer res5c_branch2a_relu
I1206 06:54:19.436982    66 net.cpp:100] Creating Layer res5c_branch2a_relu
I1206 06:54:19.436986    66 net.cpp:434] res5c_branch2a_relu <- res5c_branch2a
I1206 06:54:19.436992    66 net.cpp:395] res5c_branch2a_relu -> res5c_branch2a (in-place)
I1206 06:54:19.437137    66 net.cpp:150] Setting up res5c_branch2a_relu
I1206 06:54:19.437144    66 net.cpp:157] Top shape: 16 512 7 7 (401408)
I1206 06:54:19.437150    66 net.cpp:165] Memory required for data: 3670474816
I1206 06:54:19.437153    66 layer_factory.hpp:77] Creating layer res5c_branch2b
I1206 06:54:19.437162    66 net.cpp:100] Creating Layer res5c_branch2b
I1206 06:54:19.437167    66 net.cpp:434] res5c_branch2b <- res5c_branch2a
I1206 06:54:19.437173    66 net.cpp:408] res5c_branch2b -> res5c_branch2b
I1206 06:54:19.455178    66 net.cpp:150] Setting up res5c_branch2b
I1206 06:54:19.455199    66 net.cpp:157] Top shape: 16 512 7 7 (401408)
I1206 06:54:19.455204    66 net.cpp:165] Memory required for data: 3672080448
I1206 06:54:19.455211    66 layer_factory.hpp:77] Creating layer bn5c_branch2b
I1206 06:54:19.455222    66 net.cpp:100] Creating Layer bn5c_branch2b
I1206 06:54:19.455229    66 net.cpp:434] bn5c_branch2b <- res5c_branch2b
I1206 06:54:19.455235    66 net.cpp:395] bn5c_branch2b -> res5c_branch2b (in-place)
I1206 06:54:19.455425    66 net.cpp:150] Setting up bn5c_branch2b
I1206 06:54:19.455432    66 net.cpp:157] Top shape: 16 512 7 7 (401408)
I1206 06:54:19.455436    66 net.cpp:165] Memory required for data: 3673686080
I1206 06:54:19.455446    66 layer_factory.hpp:77] Creating layer scale5c_branch2b
I1206 06:54:19.455452    66 net.cpp:100] Creating Layer scale5c_branch2b
I1206 06:54:19.455456    66 net.cpp:434] scale5c_branch2b <- res5c_branch2b
I1206 06:54:19.455461    66 net.cpp:395] scale5c_branch2b -> res5c_branch2b (in-place)
I1206 06:54:19.455533    66 layer_factory.hpp:77] Creating layer scale5c_branch2b
I1206 06:54:19.455649    66 net.cpp:150] Setting up scale5c_branch2b
I1206 06:54:19.455657    66 net.cpp:157] Top shape: 16 512 7 7 (401408)
I1206 06:54:19.455660    66 net.cpp:165] Memory required for data: 3675291712
I1206 06:54:19.455667    66 layer_factory.hpp:77] Creating layer res5c_branch2b_relu
I1206 06:54:19.455674    66 net.cpp:100] Creating Layer res5c_branch2b_relu
I1206 06:54:19.455679    66 net.cpp:434] res5c_branch2b_relu <- res5c_branch2b
I1206 06:54:19.455687    66 net.cpp:395] res5c_branch2b_relu -> res5c_branch2b (in-place)
I1206 06:54:19.455845    66 net.cpp:150] Setting up res5c_branch2b_relu
I1206 06:54:19.455854    66 net.cpp:157] Top shape: 16 512 7 7 (401408)
I1206 06:54:19.455859    66 net.cpp:165] Memory required for data: 3676897344
I1206 06:54:19.455863    66 layer_factory.hpp:77] Creating layer res5c_branch2c
I1206 06:54:19.455873    66 net.cpp:100] Creating Layer res5c_branch2c
I1206 06:54:19.455878    66 net.cpp:434] res5c_branch2c <- res5c_branch2b
I1206 06:54:19.455883    66 net.cpp:408] res5c_branch2c -> res5c_branch2c
I1206 06:54:19.464509    66 net.cpp:150] Setting up res5c_branch2c
I1206 06:54:19.464522    66 net.cpp:157] Top shape: 16 2048 7 7 (1605632)
I1206 06:54:19.464526    66 net.cpp:165] Memory required for data: 3683319872
I1206 06:54:19.464534    66 layer_factory.hpp:77] Creating layer bn5c_branch2c
I1206 06:54:19.464540    66 net.cpp:100] Creating Layer bn5c_branch2c
I1206 06:54:19.464546    66 net.cpp:434] bn5c_branch2c <- res5c_branch2c
I1206 06:54:19.464553    66 net.cpp:395] bn5c_branch2c -> res5c_branch2c (in-place)
I1206 06:54:19.464740    66 net.cpp:150] Setting up bn5c_branch2c
I1206 06:54:19.464746    66 net.cpp:157] Top shape: 16 2048 7 7 (1605632)
I1206 06:54:19.464751    66 net.cpp:165] Memory required for data: 3689742400
I1206 06:54:19.464758    66 layer_factory.hpp:77] Creating layer scale5c_branch2c
I1206 06:54:19.464764    66 net.cpp:100] Creating Layer scale5c_branch2c
I1206 06:54:19.464768    66 net.cpp:434] scale5c_branch2c <- res5c_branch2c
I1206 06:54:19.464776    66 net.cpp:395] scale5c_branch2c -> res5c_branch2c (in-place)
I1206 06:54:19.464809    66 layer_factory.hpp:77] Creating layer scale5c_branch2c
I1206 06:54:19.464911    66 net.cpp:150] Setting up scale5c_branch2c
I1206 06:54:19.464917    66 net.cpp:157] Top shape: 16 2048 7 7 (1605632)
I1206 06:54:19.464922    66 net.cpp:165] Memory required for data: 3696164928
I1206 06:54:19.464928    66 layer_factory.hpp:77] Creating layer res5c
I1206 06:54:19.464934    66 net.cpp:100] Creating Layer res5c
I1206 06:54:19.464939    66 net.cpp:434] res5c <- res5b_res5b_relu_0_split_1
I1206 06:54:19.464946    66 net.cpp:434] res5c <- res5c_branch2c
I1206 06:54:19.464951    66 net.cpp:408] res5c -> res5c
I1206 06:54:19.464972    66 net.cpp:150] Setting up res5c
I1206 06:54:19.464979    66 net.cpp:157] Top shape: 16 2048 7 7 (1605632)
I1206 06:54:19.464984    66 net.cpp:165] Memory required for data: 3702587456
I1206 06:54:19.464989    66 layer_factory.hpp:77] Creating layer res5c_relu
I1206 06:54:19.464994    66 net.cpp:100] Creating Layer res5c_relu
I1206 06:54:19.464999    66 net.cpp:434] res5c_relu <- res5c
I1206 06:54:19.465004    66 net.cpp:395] res5c_relu -> res5c (in-place)
I1206 06:54:19.465153    66 net.cpp:150] Setting up res5c_relu
I1206 06:54:19.465162    66 net.cpp:157] Top shape: 16 2048 7 7 (1605632)
I1206 06:54:19.465165    66 net.cpp:165] Memory required for data: 3709009984
I1206 06:54:19.465170    66 layer_factory.hpp:77] Creating layer pool5
I1206 06:54:19.465176    66 net.cpp:100] Creating Layer pool5
I1206 06:54:19.465181    66 net.cpp:434] pool5 <- res5c
I1206 06:54:19.465188    66 net.cpp:408] pool5 -> pool5
I1206 06:54:19.465668    66 net.cpp:150] Setting up pool5
I1206 06:54:19.465677    66 net.cpp:157] Top shape: 16 2048 1 1 (32768)
I1206 06:54:19.465682    66 net.cpp:165] Memory required for data: 3709141056
I1206 06:54:19.465687    66 layer_factory.hpp:77] Creating layer fc3
I1206 06:54:19.465696    66 net.cpp:100] Creating Layer fc3
I1206 06:54:19.465701    66 net.cpp:434] fc3 <- pool5
I1206 06:54:19.465708    66 net.cpp:408] fc3 -> fc3
I1206 06:54:19.465847    66 net.cpp:150] Setting up fc3
I1206 06:54:19.465854    66 net.cpp:157] Top shape: 16 3 (48)
I1206 06:54:19.465859    66 net.cpp:165] Memory required for data: 3709141248
I1206 06:54:19.465865    66 layer_factory.hpp:77] Creating layer loss
I1206 06:54:19.465873    66 net.cpp:100] Creating Layer loss
I1206 06:54:19.465878    66 net.cpp:434] loss <- fc3
I1206 06:54:19.465884    66 net.cpp:434] loss <- label
I1206 06:54:19.465900    66 net.cpp:408] loss -> loss
I1206 06:54:19.465909    66 layer_factory.hpp:77] Creating layer loss
…
